model_epoch_700.pth (torch, 141254 bytes, 15 tensors)

target_net.fc1.weight f4 [64, 36]
0.10006237 0.056178987 0.011433085 0.0013369905 0.045734897 0.02238299 -0.028217098 0.1123031
0.052450042 0.035901457 -0.06701036 -0.1159875 -0.11775788 0.08770486 -0.050435066 0.08402997
0.074205786 -0.094394684 -0.036820292 -0.06826173 -0.16322935 0.037391245 0.09883414 -0.043270975
0.031032085 -0.02889949 -0.079926535 0.00940309 0.12265003 -0.16903408 0.14970069 -0.0603899
0.03417369 0.010010481 -0.05248646 0.059434734 0.14505208 0.094138786 -0.046133243 -0.034650173
-0.070389085 0.07185371 0.13168596 0.15580879 0.04053406 0.037960064 -0.039640192 -0.016504042
0.10437189 -0.12697536 0.12662324 0.10347355 0.018332904 0.11054545 -0.053855836 0.04160794
0.160469 -0.16348778 0.06913756 -0.010622265 -0.05967909 -0.03343588 0.14050263 0.09719676
0.017586768 -0.05382536 -0.019071102 0.056176703 -0.012155971 0.15610556 -0.12270926 -0.12251631
0.13611636 0.04471928 0.03644705 0.109449066 -0.066469915 0.0045108874 0.02916497 0.1601359
-0.04627387 0.06252999 0.08059267 -0.07051374 0.0071855388 -0.08693999 -0.108819865 0.065635875
0.10529027 0.12418951 0.03685991 -0.08244865 0.15609112 0.012060444 0.022738278 -0.0013374882
0.12197622 -0.07632675 0.07902199 -0.055893205 -0.12578452 0.006811606 -0.14750056 -0.08732921
0.013603926 0.041086793 -0.13571005 -0.09686824 0.07230598 -0.09572234 -0.15408379 -0.07433253
0.057982348 -0.14286537 0.1408073 -0.045285344 0.035534244 0.10972834 -0.08808792 0.18894155
-0.021600028 -0.16436458 0.13472623 0.059295394 0.12530647 0.05869263 0.1133831 0.010280689
-0.0043200455 0.0027264357 0.12644297 -0.06005673 0.04274901 0.092518374 0.15323137 0.14658599
-0.08869319 -0.032534838 -0.030572396 -0.14859095 -0.06426935 -0.017357927 -0.08238809 -0.06790878
-0.05243256 -0.023561835 -0.05125644 -0.05094061 0.13266543 0.10687663 -0.0203592 -0.012608906
-0.038468003 -0.04588752 0.16721825 -0.046078846 -0.13267979 -0.05043509 0.14701842 -0.16475779
0.06452092 -0.116180606 0.14998661 0.063732386 -0.07591759 -0.04891193 -0.041570723 0.17165354
0.017066121 0.018825054 -0.07390871 0.10448371 -0.00020873547 0.14209308 0.15458894 0.13188194
0.03387493 -0.041094482 0.12372005 -0.116455294 -0.023642521 -0.1043916 0.01347222 -0.06390974
-0.04907222 -0.008685772 -0.0036100547 0.1266203 -0.11439799 0.068189636 0.08857486 0.079184376
0.14204237 0.15141016 -0.11147561 -0.0675503 0.16861174 -0.05543706 -0.15200011 -0.11891638
0.054467104 0.002424717 -0.040455244 0.006090297 -0.08740147 0.10527015 -0.02593567 0.06561385
-0.14654544 -0.09936338 0.036948245 0.010525405 -0.07364051 0.10446721 0.016473472 -0.1941502
-0.01163896 0.12776957 -0.08930131 -0.049793974 -0.16054899 0.17734519 -0.12330824 0.103919886
-0.107628904 0.09546201 0.078359134 0.048307844 -0.15679672 -0.09563023 0.044021748 0.07960839
-0.17840253 0.041496363 -0.026325684 -0.005109509 0.039710402 0.072713815 -0.078417145 0.015619081
-0.11411359 -0.09269069 -0.006921053 -0.14761326 -0.055898845 -0.10643971 0.09877517 -0.049010694
0.13805297 0.058511697 -0.010933161 -0.13451295 0.11807603 0.108934484 -0.1408934 0.08687018
00000000: 80ed cc3d f01b 663d d651 3b3c f53d af3a
00000010: 8454 3b3d 885c b73c 8b27 e7bc 2bff e53d
00000020: dbd5 563d 680d 133d ba3c 89bd db8a edbd
00000030: 0b2b f1bd 9b9e b33d 0095 4ebd e817 ac3d
00000040: 34f9 973d 0052 c1bd e0d0 16bd cecc 8bbd
00000050: 9825 27be 9027 193d 8e69 ca3d e83c 31bd
00000060: 0037 fe3c a0be ecbc 86b0 a3bd 6b0f 1a3c
00000070: f02f fb3d 4517 2dbe 234b 193e 665b 77bd
00000080: b6f9 0b3d 0003 243c 0bfc 56bd d671 733d
00000090: 8888 143e d6cb c03d 36f6 3cbd 57ed 0dbd
000000a0: 2728 90bd 0a28 933d afd8 063e 578c 1f3e
000000b0: 0b07 263d 037c 1b3d c15d 22bd 7c33 87bc
000000c0: eec0 d53d d405 02be 86a9 013e f1e9 d33d
000000d0: e32e 963c a765 e23d f097 5cbd 166d 2a3d
000000e0: fc51 243e 5769 27be fe97 8d3d 0209 2ebc
000000f0: 1072 74bd 10f4 08bd ecdf 0f3e 180f c73d
00000100: 2012 903c fb77 5cbd 003b 9cbc 8b19 663d
00000110: d629 47bc 23da 1f3e fe4e fbbd d5e9 fabd
00000120: 1662 0b3e 902b 373d 8049 153d d526 e03d
00000130: 6121 88bd 11d0 933b 60eb ee3c aafa 233e
00000140: ab89 3dbd b90f 803d c50d a53d 8269 90bd
00000150: ab74 eb3b 980d b2bd f3dc debd 1a6c 863d
00000160: 6da2 d73d 1257 fe3d 6bfa 163d d6da a8bd
00000170: 5ad6 1f3e 2b99 453c a045 ba3c a84e afba
00000180: abce f93d 3351 9cbd 48d6 a13d 46f0 64bd
00000190: a8cd 00be e533 df3b 630a 17be a8d9 b2bd
000001a0: 00e3 5e3c a04a 283d 93f7 0abe db62 c6bd
000001b0: 2815 943d 130a c4bd 24c8 1dbe a73b 98bd
000001c0: e67e 6d3d 4d4b 12be ca2f 103e 207d 39bd
000001d0: 5b8c 113d 40b9 e03d 7067 b4bd e579 413e
000001e0: 8bf2 b0bc 304f 28be acf5 093e badf 723d
000001f0: 5750 003e af67 703d 6635 e83d 5670 283c
00000200: 2b8f 8dbb 00ae 323b 447a 013e 0cfe 75bd
00000210: 9619 2f3d 467a bd3d afe8 1c3e a31a 163e
00000220: c6a4 b5bd 4043 05bd f672 fabc 3a28 18be
00000230: a69f 83bd 3632 8ebc 16bb a8bd c213 8bbd
00000240: 86c3 56bd c004 c1bc 46f2 51bd 1aa7 50bd
00000250: 72d9 073e 22e2 da3d 56c8 a6bc 9695 4ebc
00000260: a090 1dbd 8df4 3bbd 433b 2b3e 2cbd 3cbd
00000270: 36dd 07be 0695 4ebd ff8b 163e 44b6 28be
00000280: 8b23 843d 19f0 edbd 1796 193e 2086 823d
00000290: ae7a 9bbd e057 48bd 1046 2abd f2c5 2f3e
000002a0: 40ce 8b3c 0037 9a3c 735d 97bd 8efb d53d
000002b0: 00e0 5ab9 d980 113e 904c 1e3e 0f0c 073e
000002c0: 70c0 0a3d b052 28bd f060 fd3d 1d80 eebd
000002d0: f6ad c1bc 43cb d5bd 96ba 5c3c 1ce3 82bd
000002e0: f4ff 48bd c54e 0ebc ab96 6cbb c0a8 013e
000002f0: 7e49 eabd 02a7 8b3d bc66 b53d 6b2b a23d
00000300: 8e73 113e 440b 1b3e 534d e4bd d057 8abd
00000310: 8ea8 2c3e f811 63bd eba5 1bbe 6e8a f3bd
00000320: e618 5f3d 00e8 1e3b 66b4 25bd 1d91 c73b
00000330: 8bff b2bd e097 d73d 0b77 d4bc 8e60 863d
00000340: 0210 16be 077f cbbd 0b57 173d c072 2c3c
00000350: d6d0 96bd e8f2 d53d 60f3 863c 4fcf 46be
00000360: 56b1 3ebc 07d6 023e 9be3 b6bd c4f4 4bbd
00000370: f466 24be fa99 353e 0889 fcbd f3d3 d43d
00000380: 8b6c dcbd 9681 c33d c17a a03d 72de 453d
00000390: 528f 20be c8d9 c3bd 2650 343d b909 a33d
000003a0: 27af 36be 17f8 293d f6a8 d7bc ab6d a7bb
000003b0: 60a7 223d fbea 943d 2b99 a0bd 2de7 7f3c
000003c0: 63b4 e9bd 9ed4 bdbd 00ca e2bb ee27 17be
000003d0: 30f6 64bd 10fd d9bd a34a ca3d 70bf 48bd
000003e0: c25d 0d3e f6a9 6f3d 0021 33bc c3bd 09be
000003f0: d8d1 f13d 0b19 df3d 5c46 10be fee8 b13d

target_net.fc1.bias f4 [64]
0.041310802 0.10466152 -0.11090839 -0.027435772 0.00624732 -0.17781687 -0.04432869 0.008570142
-0.14351213 0.15491161 0.049259357 0.12813081 0.084853694 -0.055420537 0.116458945 -0.07795646
-0.13876987 -0.17118531 0.11874927 -0.09896915 -0.14721146 -0.16589385 0.11344165 -0.09937959
-0.03517592 -0.056084193 0.14794658 0.013116792 -0.12062955 0.21027502 0.08275508 -0.12018283
-0.06327457 0.058992878 0.020892562 -0.029907169 0.1344202 0.054516252 -0.1596638 0.024300124
-0.15626073 -0.0021081327 -0.1095183 -0.09907192 0.09135124 0.041340653 -0.045770884 -0.12826402
0.062341034 -0.1254573 -0.14996576 -0.039825805 0.035942998 -0.028814252 0.094135635 0.08414081
-0.16694741 0.017994283 0.04824748 -0.035135098 -0.13067158 -0.045241054 0.1368817 -0.08497487
00000000: 8435 293d c758 d63d f023 e3bd fcc0 e0bc
00000010: 52b6 cc3b a015 36be 0092 35bd c869 0c3c
00000020: d8f4 12be 26a1 1e3e 2ec4 493d b934 033e
00000030: c6c7 ad3d a500 63bd 0782 ee3d a3a7 9fbd
00000040: b019 0ebe 344b 2fbe d132 f33d 56b0 cabd
00000050: 9abe 16be 14e0 29be 1954 e83d 8787 cbbd
00000060: a014 10bd 8ab8 65bd 4f7f 173e d0e7 563c
00000070: a00c f7bd 5652 573e 7f7b a93d 6a22 f6bd
00000080: 1996 81bd 84a2 713d e126 ab3c e1ff f4bc
00000090: 73a5 093e 6f4c 5f3d e87e 23be 0e11 c73c
000000a0: d002 20be 9928 0abb 214b e0bd 38e6 cabd
000000b0: 5c16 bb3d d154 293d 407a 3bbd a557 03be
000000c0: 5059 7f3d e177 00be a090 19be 6220 23bd
000000d0: f738 133d de0b ecbc 2fca c03d 0452 ac3d
000000e0: 43f4 2abe bf68 933c 269f 453d d2e9 0fbd
000000f0: c5ce 05be af4e 39bd b72a 0c3e 4e07 aebd

target_net.fc2.weight f4 [3, 64]
-0.057788655 -0.014612579 -0.04291533 -0.099310085 -0.022829378 -0.09901664 0.06946862 0.0729218
-0.096582055 0.14702682 -0.01612251 0.0320886 -0.04264717 0.07242925 -0.090239406 0.070802815
0.11809569 0.01803358 -0.044333633 0.013753086 -0.042805154 0.10394599 -0.10038217 -0.04251433
-0.0618819 -0.042690594 0.0819116 0.049568217 0.08297652 -0.009654917 -0.09508387 0.07525946
-0.029750116 0.10734794 0.05560811 0.004205305 -0.05597969 -0.036887705 0.11091054 -0.039288748
0.061420415 -0.075559914 0.038674366 0.048524946 0.019497475 0.072053276 0.05224985 0.03865763
0.07362215 -0.062495776 -0.027504742 -0.08007394 -0.1387353 -0.09162693 0.015214584 0.08146255
0.027918924 0.047022007 0.094429314 -0.120294854 -0.04266441 0.031833116 -0.122662865 0.048075914
-0.059019547 -0.11680621 0.10079995 -0.03840204 0.117219836 -0.058800757 0.050216332 0.036052685
-0.011795118 -0.09154051 0.056399398 0.12499774 0.0066521196 0.061571483 0.019533439 -0.024117064
-0.049517483 0.093929656 0.06624387 0.02305045 0.06438362 0.026137145 -0.11113815 0.060450964
0.019848205 -0.11570933 0.03371832 0.13073024 -0.042115055 -0.021272361 -0.017189901 0.006748991
0.11795206 -0.05574785 -0.011468959 0.0091056805 -0.01693836 -0.021514114 -0.11183622 0.01680146
0.026553387 0.08396363 -0.07086761 0.091151215 0.07424645 0.098788776 0.10246554 -0.045704577
0.018805921 0.06659728 -0.11779943 -0.011302207 -0.020954885 -0.07574845 -0.095091246 -0.030217329
-0.06873293 -0.068167455 -0.057245303 -0.023450648 -0.0109977 -0.070199236 -0.0693137 0.016012698
-0.06492516 -0.039453287 -0.06490952 0.053810984 -0.060025588 0.07499705 -0.084340096 0.007240197
0.06380029 0.07741323 0.15042676 -0.03254596 -0.01902237 0.060696695 -0.017668588 -0.04158834
-0.058718853 -0.004720375 0.038991123 0.007257258 -0.12703674 -0.061525173 0.12750673 -0.09113896
-0.0002698756 0.076926276 0.105844155 -0.0028280786 -0.060639247 0.17968346 0.11349722 0.1161059
-0.089621946 0.032293335 0.10314844 -0.053199556 -0.009166915 0.04025443 0.08266398 -0.08736355
-0.026608724 -0.09725617 -0.03470823 0.12090216 0.11473903 -0.074736394 -0.076621674 0.099458516
0.003388739 0.051257424 0.08839182 -0.0064980513 -0.09852826 -0.03373291 0.06757109 0.11417751
-0.12746462 -0.11076796 0.117865026 0.09662774 -0.10659461 -0.099181555 0.10357442 0.008185938
00000000: ccb3 6cbd 9969 6fbc fcc7 2fbd 1663 cbbd
00000010: ad04 bbbc 3cc9 cabd 9045 8e3d 0658 953d
00000020: d0cc c5bd 338e 163e 5b13 84bc 566f 033d
00000030: cdae 2ebd c955 943d 70cf b8bd 1101 913d
00000040: 27dc f13d 29bb 933c 2f97 35bd a054 613c
00000050: 7554 2fbd a3e1 d43d 2b95 cdbd 8223 2ebd
00000060: e077 7dbd 55dc 2ebd 45c1 a73d 0b08 4b3d
00000070: 98ef a93d a82f 1ebc 55bb c2bd a221 9a3d
00000080: 84b6 f3bc 3dd9 db3d 54c5 633d a8cc 893b
00000090: f64a 65bd 9017 17bd 1125 e33d 3ded 20bd
000000a0: f993 7b3d 28bf 9abd 0369 1e3d 18c2 463d
000000b0: 2bb9 9f3c ab90 933d f003 563d 7757 1e3d
000000c0: 36c7 963d 92fb 7fbd a051 e1bc cefd a3bd
000000d0: a010 0ebe e6a6 bbbd 9746 793c d6d5 a63d
000000e0: 3ab6 e43c 269a 403d 2864 c13d 265d f6bd
000000f0: e0c0 2ebd 7163 023d ab36 fbbd 40eb 443d
00000100: 7bbe 71bd 1838 efbd 3470 ce3d 754b 1dbd
00000110: f410 f03d 10d9 70bd a4af 4d3d fbab 133d
00000120: 5040 41bc 9779 bbbd 0e03 673d d1fe ff3d
00000130: 06fa d93b 6132 7c3d 9704 a03c 2691 c5bc
00000140: d8d2 4abd 315e c03d deaa 873d 4cd4 bc3c
00000150: 8fdb 833d 911d d63c 669c e3bd 6e9b 773d
00000160: b498 a23c 03f9 ecbd 391c 0a3d 26de 053e
00000170: d680 2cbd 6043 aebc d6d1 8cbc a426 dd3b
00000180: da90 f13d dc57 64bd 4de8 3bbc fe2f 153c
00000190: 51c2 8abc 5e3e b0bc 630a e5bd 37a3 893c
000001a0: 7d86 d93c 20f5 ab3d 0a23 91bd 7dad ba3d
000001b0: 860e 983d c551 ca3d 74d9 d13d b934 3bbd
000001c0: e00e 9a3c 2864 883d d440 f1bd e42c 39bc
000001d0: 94a9 abbc 0122 9bbd 33bf c2bd 558a f7bc
000001e0: dac3 8cbd 619b 8bbd 0d7a 6abd 931b c0bc
000001f0: b22f 34bc 9ec4 8fbd 57f4 8dbd 102d 833c
00000200: 7bf7 84bd c599 21bd 48ef 84bd e868 5c3d
00000210: 64dd 75bd 0e98 993d 80ba acbd 2d3f ed3b
00000220: baa9 823d d48a 9e3d 7909 1a3e ea4e 05bd
00000230: cdd4 9bbc 199d 783d b7bd 90bc 8958 2abd
00000240: 2e83 70bd 60ad 9abb 28b5 1f3d 4bce ed3b
00000250: eb15 02be d201 7cbd 2091 023e 10a7 babd
00000260: 177e 8db9 868b 9d3d d2c4 d83d 4957 39bb
00000270: dc60 78bd f1fe 373e 3b71 e83d eec8 ed3d
00000280: b68b b7bd 0446 043d 7d3f d33d c7e7 59bd
00000290: d430 16bc d4e1 243d bc4b a93d a9eb b2bd
000002a0: 8afa d9bc 3e2e c7bd 382a 0ebd 8d9b f73d
000002b0: 4cfc ea3d 650f 99bd d3eb 9cbd e8b0 cb3d
000002c0: 9b15 5e3b 4ef3 513d c506 b53d 9bed d4bb
000002d0: 2fc9 c9bd 852b 0abd b662 8a3d e6d5 e93d
000002e0: 1686 02be 50da e2bd 3863 f13d c4e4 c53d
000002f0: 464e dabd b31f cbbd d31e d43d 501e 063c

target_net.fc2.bias f4 [3]
0.0060198936 -0.0014562402 0.049517356
00000000: 8742 c53b 50df beba b6d2 4a3d

tatic_net.fc1.weight f4 [64, 42]
0.14276306 -0.038523432 0.00734753 -0.14349924 0.028989501 -0.09869872 -0.043636393 -0.1052479
0.09197763 0.12880899 -0.076660424 -0.0008426371 -0.12502445 0.12490058 0.090758964 -0.12555915
-0.14319113 0.112510756 0.013895659 -0.10872714 0.15355667 -0.09411723 -0.047947895 0.14070167
-0.14694048 0.09200311 -0.07133638 -0.09893559 0.076542474 -0.05514216 0.032794572 0.12288213
-0.013307185 -0.14992556 0.102707066 0.094792224 -0.10252838 0.03471571 0.036931545 0.06818408
0.08521764 -0.041168418 -0.12344099 0.14629403 -0.05520601 0.12738477 -0.003196751 0.053236015
0.13877587 -0.037424553 -0.009873945 -0.017927822 0.07016849 0.11067521 -0.08464855 -0.017580865
-0.082900554 -0.11182313 0.06424758 0.09748674 0.086168334 0.07161975 -0.03718276 0.033399235
0.15361205 -0.016955476 -0.0884824 0.11791259 0.08559491 0.009146741 -0.12984544 0.0064672544
-0.09466194 0.04098852 -0.14761978 -0.119433805 -0.038289182 0.15926883 -0.13709004 -0.05507725
-0.10453913 0.101102926 -0.020729065 0.065173656 0.06397478 0.08703646 -0.12199925 -0.13095063
-0.12398633 0.16386564 0.048049927 0.08475616 0.06551939 0.048466157 -0.044995826 0.09677157
-0.14991151 -0.13429545 0.07463628 -0.081837244 0.1395916 -0.09327133 0.073554434 -0.12033051
-0.08935073 -0.044566084 -0.12479303 -0.05067243 0.052266914 0.024746254 -0.061235838 0.100495026
-0.01747758 0.10776849 -0.13978359 0.0050900048 0.03985576 0.048469596 -0.13489807 0.047459736
0.041851904 -0.14323166 -0.10938143 0.09651603 -0.1448379 -0.0034170898 -0.14164926 -0.108337775
0.07042586 0.1648016 0.05931654 0.15398829 -0.14058527 -0.12242683 -0.12278455 0.14627361
-0.04904692 0.06723684 0.073937446 -0.14445597 0.091262296 -0.1589895 -0.018441454 0.12426078
0.07599103 0.15315768 0.013078156 0.07360465 -0.09392398 0.1591058 -0.06595017 -0.11136711
0.102948084 -0.07442682 0.14156245 -0.09586807 0.02351337 -0.034062464 0.078697026 -0.022156341
0.121487744 0.026393924 -0.14604264 -0.07833213 -0.14494702 0.099904455 -0.07277961 0.15422888
0.0513194 -0.1279188 -0.13547552 -0.12478588 0.043164674 -0.04671108 -0.10243244 -0.14856708
-0.036118202 -0.08226335 -0.08293351 0.12725174 -0.029758707 -0.07935573 -0.03631673 -0.13199374
0.008844963 0.1532301 -0.073246166 0.024711194 -0.10485875 0.045340266 -0.1043014 -0.16350126
0.10870723 0.10655381 0.09177182 0.049343236 -0.14184652 0.01376665 0.04788136 0.10127225
-0.011567499 -0.11585389 -0.009787473 0.07802142 -0.043186404 -0.010890928 -0.00772036 -0.0071150432
0.031659234 0.15254293 0.07672785 -0.12091036 0.14610611 -0.006307494 -0.032330755 0.035290524
0.021130908 0.035879422 -0.0024340933 0.08193815 -0.075093694 0.09408695 0.061861247 0.08896386
0.043940675 0.012847469 -0.0666081 -0.12947017 0.10241548 -0.08708717 0.058720514 0.013090444
-0.1241163 -0.032572746 0.026957076 0.056574367 -0.006804822 0.037384786 -0.12415307 -0.0559972
0.15405107 0.13077119 -0.076598264 0.13668585 0.1375108 -0.00400018 -0.09691925 0.112156376
-0.13829187 0.11688951 0.019788835 -0.13003097 0.096680544 0.12402311 0.08604662 0.007829889
00000000: 7b30 123e bfca 1dbd 8dc3 f03b 77f1 12be
00000010: 647b ed3c 8e22 cabd 13bc 32bd 368c d7bd
00000020: c55e bc3d 81e6 033e 2400 9dbd 6be4 5cba
00000030: 6906 00be e0cb ff3d d6df b93d 9492 00be
00000040: b2a0 12be 0a6c e63d 9eaa 633c 56ac debd
00000050: f63d 1d3e 89c0 c0bd 0365 44bd 1914 103e
00000060: 9177 16be 206c bc3d cf18 92bd be9e cabd
00000070: 4dc2 9c3d bfdc 61bd 9a53 063d a0a9 fb3d
00000080: 6106 5abc 1686 19be 1558 d23d 6d22 c23d
00000090: 66fa d1bd 0f32 0e3d 8845 173d 18a4 8b3d
000000a0: 9686 ae3d 37a0 28bd a1ce fcbd 1ace 153e
000000b0: b21f 62bd 2771 023e 9580 51bb 020e 5a3d
000000c0: 431b 0e3e 7d4a 19bd 54c6 21bc 5edd 92bc
000000d0: 7fb4 8f3d afa9 e23d 385c adbd bf05 90bc
000000e0: c4c7 a9bd 8603 e5bd 3c94 833d 21a7 c73d
000000f0: 0679 b03d 60ad 923d f34c 18bd a3cd 083d
00000100: 7a4c 1d3e 36e6 8abc 4336 b5bd 287c f13d
00000110: 624c af3d 36dc 153c 34f6 04be 43eb d33b
00000120: 1fde c1bd 94e3 273d a429 17be b699 f4bd
00000130: 1ed5 1cbd 5e17 233e 5561 0cbe af98 61bd
00000140: 9d18 d6bd 0d0f cf3d 00d0 a9bc c479 853d
00000150: 3605 833d 2c40 b23d beda f9bd ec17 06be
00000160: 8cec fdbd 65cc 273e 00d0 443d a394 ad3d
00000170: 082f 863d 7384 463d 8b4d 38bd 2c30 c63d
00000180: 6782 19be bf84 09be e8da 983d 499a a7bd
00000190: 1af1 0e3e 0a05 bfbd b5a3 963d d86f f6bd
000001a0: 84fd b6bd ed8a 36bd 7d93 ffbd e58d 4fbd
000001b0: d515 563d a8b8 ca3c 6ed2 7abd 56d0 cd3d
000001c0: 242d 8fbc bab5 dc3d 6e23 0fbe 0eca a63b
000001d0: cb3f 233d 0e88 463d b822 0abe 2465 423d
000001e0: e76c 2b3d 52ab 12be 5f03 e0bd 32aa c53d
000001f0: 6350 14be 41f1 5fbb 810c 11be 32e0 ddbd
00000200: 6f3b 903d c0c1 283e e6f5 723d 1baf 1d3e
00000210: 96f5 0fbe ebba fabd 7776 fbbd c0c8 153e
00000220: 6ce5 48bd 78b3 893d 846c 973d 44ec 13be
00000230: bae7 ba3d 25ce 22be 8812 97bc 707c fe3d
00000240: 2fa1 9b3d 5ed5 1c3e c345 563c 09be 963d
00000250: 375b c0bd a1ec 223e e210 87bd 7014 e4bd
00000260: 72d6 d23d 176d 98bd bff5 103e 7b56 c4bd
00000270: 1c9f c03c 1585 0bbd e82b a13d 3781 b5bc
00000280: 91ce f83d 1238 d83c 348c 15be 996c a0bd
00000290: fe6c 14be b59a cc3d 7a0d 95bd 2dee 1d3e
000002a0: 4b34 523d 25fd 02be 18ba 0abe bd8f ffbd
000002b0: 71cd 303d 1e54 3fbd 19c8 d1bd f821 18be
000002c0: aef0 13bd b079 a8bd 0bd9 a9bd 484e 023e
000002d0: 88c8 f3bc 4285 a2bd dac0 14bd 5e29 07be
000002e0: 77ea 103c 5ae8 1c3e 1602 96bd 216f ca3c
000002f0: 2fc0 d6bd b7b6 393d f99b d5bd e06c 27be
00000300: e5a1 de3d e238 da3d ddf2 bb3d 221c 4a3d
00000310: 3740 11be 848d 613c 3f1f 443d d367 cf3d
00000320: 9b85 3dbc ce44 edbd a35b 20bc b2c9 9f3d
00000330: 3ae4 30bd dd6f 32bc 13fb fcbb 4f25 e9bb
00000340: 1dad 013d 3734 1c3e 7e23 9d3d da9f f7bd
00000350: d79c 153e 18af cebb 416d 04bd cc8c 103d
00000360: ba1a ad3c 4df6 123d 4f85 1fbb 30cf a73d
00000370: b9ca 99bd a9b0 c03d 3862 7d3d af32 b63d
00000380: 23fb 333d 317e 523c d469 88bd d493 04be
00000390: 35bf d13d c25a b2bd ec84 703d 4d79 563c
000003a0: b030 febd 006b 05bd 16d5 dc3c 86ba 673d
000003b0: fcfa debb ca20 193d f743 febd 525d 65bd
000003c0: 90bf 1d3e e2e8 053e 8ddf 9cbd 60f7 0b3e
000003d0: a2cf 0c3e f113 83bb 9a7d c6bd 3eb2 e53d
000003e0: 629c 0dbe c463 ef3d 321c a23c d726 05be
000003f0: 7300 c63d d4ff fd3d 3639 b03d ef48 003c

tatic_net.fc1.bias f4 [64]
0.0939713 -0.055573735 0.060940523 0.1052998 0.013823754 0.071804844 -0.038232785 -0.08868526
-0.07808212 0.0017555668 0.0641315 0.09808574 -0.08306929 0.029424518 0.047194153 0.10683851
-0.08734099 0.091502786 0.13279776 0.09566061 0.054851353 0.12062286 -0.095826514 0.13595241
-0.0719572 -0.04829357 -0.040864717 0.018953323 -0.14934827 0.13667478 -0.092025764 -0.056753855
0.120732576 -0.08170985 0.10187882 -0.019830924 0.015297786 -0.038187426 0.03638142 0.084087364
-0.07062617 -0.09797892 0.05178708 0.12419407 0.05827671 0.17121139 -0.12614255 0.11352446
0.036151115 -0.13683434 -0.13459675 -0.038666505 -0.034297716 0.0013433192 -0.026481744 0.018092288
0.14444709 0.04266117 0.07535373 0.087341435 0.0047768755 -0.10068492 -0.13297231 -0.08269791
00000000: 0674 c03d 49a1 63bd c59c 793d 6ca7 d73d
00000010: 077d 623c 6b0e 933d fb99 1cbd 9ea0 b5bd
00000020: 85e9 9fbd 0c1b e63a 6057 833d 2de1 c83d
00000030: 3b20 aabd b00b f13c a84e 413d 26ce da3d
00000040: d5df b2bd d065 bb3d 23fc 073e b6e9 c33d
00000050: d0ab 603d 1e09 f73d b140 c4bd 1c37 0b3e
00000060: 4c5e 93bd 7acf 45bd c361 27bd 0044 9b3c
00000070: c1ee 18be 79f4 0b3e 0178 bcbd bb76 68bd
00000080: a442 f73d 7e57 a7bd d8a5 d03d 7674 a2bc
00000090: 91a3 7a3c 6b6a 1cbd af04 153d ff35 ac3d
000000a0: 74a4 90bd 2ca9 c8bd b01e 543d 7659 fe3d
000000b0: 8fb3 6e3d 0a52 2f3e 832b 01be 837f e83d
000000c0: 3113 143d 4d1e 0cbe bbd3 09be c560 1ebd
000000d0: c37b 0cbd 5012 b03a 3ef0 d8bc 4736 943c
000000e0: f0e9 133e 7bbd 2e3d 0e53 9a3d 11e0 b23d
000000f0: 5687 9c3b e533 cebd e529 08be 865d a9bd

tatic_net.fc2.weight f4 [6, 64]
0.03327158 0.06379394 -0.060331732 0.070555836 -0.03693074 0.014486164 0.0007377714 0.096286744
0.08066735 -0.091799915 0.10596891 0.09436633 -0.081199035 0.026719213 -0.042753413 0.07638253
-0.11846371 -0.09943552 -0.0087329745 0.032337204 0.11515762 -0.10819121 0.07726784 -0.007641956
-0.012271345 -0.120940104 0.11206341 0.08709952 0.054344997 0.019704685 -0.033255264 -0.0949391
-0.10137758 0.043736026 -0.018960804 0.021045312 0.1176528 0.007873535 0.008558363 -0.1099616
-0.088159636 -0.100393355 -0.010185942 -0.11275542 -0.12141621 -0.050515592 0.012510881 0.059317872
0.04251325 0.062042177 -0.08137803 -0.09879908 -0.0878654 -0.08318259 0.008644283 -0.09719963
-0.015127808 -0.069511205 0.106656015 0.018717855 0.006589979 0.097510636 -0.06446552 0.09349193
-0.046456967 0.1182829 -0.057518095 0.04951984 -0.13040012 0.007971219 -0.07645332 -0.13387544
-0.050806988 0.10476845 -0.12552434 0.100898564 0.047721874 -0.073930554 0.08680892 -0.030571043
0.042260673 -0.007326222 -0.031108832 -0.09318093 0.044290647 0.022057332 -0.10983821 -0.027752854
0.06714092 -0.028971445 -0.055317815 -0.054543916 0.009039727 0.046579126 -0.048314147 -0.09300636
0.050250594 0.008444669 0.12534615 0.06559652 0.0621362 0.051482975 -0.012295063 0.042854488
-0.03984489 0.061057664 0.09105425 0.009995922 -0.023356201 -0.09367175 0.015691051 -0.016312242
-0.10203538 0.0033399044 0.09596554 -0.1112948 0.0581724 0.067904375 -0.031483635 -0.13169986
-0.021576019 -0.06724417 0.14348368 -0.001212583 0.1028039 -0.04289504 0.036762316 -0.014865168
-0.053170703 -0.048405375 -0.0015044911 0.070505 0.08088389 -0.03761799 0.05179348 0.036138754
-0.009978357 -0.11116648 -0.012380813 -0.0031213423 0.08246871 -0.030899286 -0.040473968 -0.023715721
-0.11563891 -0.06203707 -0.04692366 -0.08460881 0.08430831 0.11512034 0.042748995 -0.006412354
0.016463742 0.030721381 -0.041311886 0.01213124 0.11572273 0.018835917 -0.032278154 0.02227118
0.014759484 0.085575074 -0.0038263693 0.09126084 -0.014272701 0.08496018 -0.06465152 -0.13433866
0.1034301 0.14406344 -0.06449486 0.11380466 -0.017684821 0.021693224 0.08984527 0.11933226
-0.06462173 -0.09021913 0.021566408 0.08935283 -0.07082174 0.12270659 -0.0783917 -0.015752848
-0.12967472 -0.024461424 0.13544393 0.15875277 -0.054394692 0.059782766 0.03958835 0.09458185
-0.02015086 0.09557348 0.012345872 0.10040605 0.01488899 0.009143001 0.029022837 -0.021098206
-0.024693083 -0.014742406 -0.096422985 -0.08209245 0.022167254 -0.08010509 -0.059228532 0.0078048613
0.08550716 -0.10281457 0.027242009 -0.05509999 -0.043762643 -0.081004 0.02629252 -0.015875425
0.028018232 -0.05977489 -0.031465907 0.030087061 -0.11474999 0.12596613 -0.047187474 -0.038204964
-0.13342288 0.07482913 0.106486686 -0.01791628 0.05336936 -0.053550523 -0.0041739983 0.03930585
0.10197768 0.02172151 -0.05152548 -0.060507506 -0.04099989 0.10072973 0.094196446 -0.03156064
-0.085950054 0.14080502 0.053678464 -0.08502446 -0.02295253 0.043399807 -0.08344713 -0.05501391
-0.11840947 0.101348154 0.12952904 -0.004147263 -0.08888254 -0.06630915 0.015627628 -0.042775426
00000000: c847 083d 66a6 823d 681e 77bd 947f 903d
00000010: b044 17bd 6057 6d3c 0067 413a fc31 c53d
00000020: ec34 a53d 9801 bcbd 3a06 d93d 2243 c13d
00000030: ae4b a6bd 40e2 da3c 341e 2fbd 726e 9c3d
00000040: 1a9d f2bd daa4 cbbd c014 0fbc 0474 043d
00000050: c2d7 eb3d 5a93 ddbd 9a3e 9e3d 6069 fabb
00000060: c00d 49bc 72af f7bd 8081 e53d 3c61 b23d
00000070: dc98 5e3d b86b a13c ac36 08bd 6e6f c2bd
00000080: 0c9f cfbd 8c24 333d b053 9bbc 3867 ac3c
00000090: f4f3 f03d 0000 013c 6038 0c3c 8c33 e1bd
000000a0: 0a8d b4bd 089b cdbd f0e2 26bc 50ec e6bd
000000b0: 10a9 f8bd 70e9 4ebd 70fa 4c3c 4cf7 723d
000000c0: 6022 2e3d f01f 7e3d 86a9 a6bd 2c57 cabd
000000d0: c6f2 b3bd a25b aabd c0a0 0d3c 9a10 c7bd
000000e0: a0da 77bc e45b 8ebd 786e da3d 3056 993c
000000f0: c0f0 d73b a8b3 c73d 8006 84bd b278 bf3d
00000100: a949 3ebd 4e3e f23d 1898 6bbd 51d5 4a3d
00000110: 9c87 05be b799 023c 8f93 9cbd a516 09be
00000120: fd1a 50bd d790 d63d 7489 00be e8a3 ce3d
00000130: 0378 433d e768 97bd e0c8 b13d 2070 fabc
00000140: 8719 2d3d ce10 f0bb f3d7 febc a5d5 bebd
00000150: 1c6a 353d 94b1 b43c dbf2 e0bd f459 e3bc
00000160: 2e81 893d 8655 edbc ef94 62bd 7169 5fbd
00000170: 5d1b 143c c1c9 3e3d 0ee5 45bd 1e7a bebd
00000180: 91d3 4d3d 825b 0a3c be5a 003e 7857 863d
00000190: 8782 7e3d d0df 523d 3b71 49bc 3088 2f3d
000001a0: 6534 23bd 9a17 7a3d a77a ba3d f0c5 233c
000001b0: 8155 bfbc f9d6 bfbd 858a 803c 40a1 85bc
000001c0: edf7 d0bd 4ce2 5a3b 9589 c43d 87ee e3bd
000001d0: 2f46 6e3d 7311 8b3d fcf4 00bd 54dc 06be
000001e0: 31c0 b0bc 50b7 89bd 63ed 123e 89ef 9eba
000001f0: da8a d23d b6b2 2fbd 1594 163d 098d 73bc
00000200: 86c9 59bd b744 46bd 5832 c5ba ed64 903d
00000210: 74a6 a53d 5215 1abd 6625 543d 3b06 143d
00000220: 437c 23bc 40ab e3bd e5d8 4abc 6f8f 4cbb
00000230: 5be5 a83d 8020 fdbc 08c8 25bd 7947 c2bc
00000240: 18d4 ecbd 951a 7ebd 0633 40bd 6247 adbd
00000250: d6a9 ac3d 36c4 eb3d 9219 2f3d b91e d2bb
00000260: f8de 863c 68ab fb3c a736 29bd 1cc2 463c
00000270: 0a00 ed3d c84d 9a3c 1936 04bd 0d72 b63c
00000280: c3d1 713c fc41 af3d d3c3 7abb f7e6 ba3d
00000290: 0cd8 69bc 9aff ad3d 0468 84bd 1390 09be
000002a0: 29d3 d33d 5e85 133e e215 84bd 6b12 e93d
000002b0: c2df 90bc fdb5 b13c cc00 b83d 7964 f43d
000002c0: 6658 84bd cfc4 b8bd 09ac b03c 9efe b63d
000002d0: fd0a 91bd 984d fb3d d48b a0bd 1e0c 81bc
000002e0: 73c9 04be 5363 c8bc d0b1 0a3e 1690 223e
000002f0: f8cc 5ebd c6de 743d 6527 223d 21b4 c13d
00000300: 6b13 a5bc 07bc c33d 5746 4a3c b0a1 cd3d
00000310: f3f0 733c 87cc 153c 4dc1 ed3c 25d6 acbc
00000320: 2649 cabc 228a 71bc 6a79 c5bd 1620 a8bd
00000330: 1a98 b53c 230e a4bd 9e99 72bd ecbf ff3b
00000340: 611e af3d 7290 d2bd a22a df3c 87b0 61bd
00000350: 7540 33bd 6de5 a5bd 6963 d73c 2e0d 82bc
00000360: 7e86 e53c 84d6 74bd 65e2 00bd 2479 f63c
00000370: 0b02 ebbd 44fd 003e a747 41bd cf7c 1cbd
00000380: 02a0 08be 0440 993d b115 da3d 2ac5 92bc
00000390: d499 5a3d cb57 5bbd 09c6 88bb 2cff 203d
000003a0: add9 d03d 4ff1 b13c 620c 53bd b8d6 77bd
000003b0: 80ef 27bd 644b ce3d 11ea c03d bb45 01bd
000003c0: 9506 b0bd 312f 103e f3dd 5b3d 4e21 aebd
000003d0: f206 bcbc ffc3 313d 54e6 aabd 4456 61bd
000003e0: aa80 f2bd 9f8f cf3d 43a3 043e c3e5 87bb
000003f0: 0d08 b6bd 17cd 87bd 8305 803c 4935 2fbd

tatic_net.fc2.bias f4 [6]
0.056085363 -0.09472382 0.03426556 0.027105348 0.03386128 -0.072973736
00000000: c4b9 653d 90fe c1bd 0b5a 0c3d 090c de3c
00000010: 20b2 0a3d 4173 95bd

tatic_net.fc3.weight f4 [6, 3]
-0.35377002 0.3725044 -0.41826627 0.12161358 0.3865561 -0.04722869 0.26942578 -0.14323016
-0.2466329 0.3408198 -0.19937938 -0.5800008 -0.24778892 -0.51990813 0.5630061 0.5950317
0.473275 -0.024382707
00000000: 5821 b5be e6b8 be3e ff26 d6be 8a10 f93d
00000010: aeea c53e df72 41bd 2df2 893e edaa 12be
00000020: 568d 7cbe ef7f ae3e 1c2a 4cbe ef7a 14bf
00000030: 61bc 7dbe b318 05bf 2b21 103f ff53 183f
00000040: 1a51 f23e 3ebe c7bc

tatic_net.fc3.bias f4 [6]
0.35867542 0.46279854 0.1045456 0.3269437 -0.09128452 -0.052762717
00000000: 4ea4 b73e eef3 ec3e 011c d63d 2a65 a73e
00000010: 61f3 babd b81d 58bd

tatic_net.fc4.weight f4 [3, 9]
0.26073807 0.3433802 0.046922226 0.23164198 0.40821543 0.33580858 -0.14700387 0.33001152
-0.16320774 -0.005947215 -0.03183505 -0.16423705 0.19404088 -0.24763672 0.21189766 0.20523322
0.1510589 0.39667583 0.08609052 -0.039820917 0.29589638 -0.22550951 0.030236501 0.10709576
-0.08202115 0.11036121 0.07031425
00000000: 767f 853e 88cf af3e 8531 403d 8e33 6d3e
00000010: 9d01 d13e 1aef ab3e 2f88 16be 45f7 a83e
00000020: ee1f 27be dbe0 c2bb 7865 02bd c22d 28be
00000030: a7b2 463e 7b94 7dbe b3fb 583e a828 523e
00000040: 2faf 1a3e 1819 cb3e 3a50 b03d 421b 23bd
00000050: bb7f 973e f7eb 66be 8ab2 f73c 0655 db3d
00000060: b4fa a7bd 0f05 e23d eb00 903d

tatic_net.fc4.bias f4 [3]
-0.21311548 -0.22959276 -0.056285888
00000000: f23a 5abe 5d1a 6bbe 088c 66bd

fc1.weight f4 [256, 108]
-0.00042612173 -0.01984344 0.07989095 0.07550603 -0.050256476 0.051901095 0.022610558 -0.036613613
0.07365626 0.02057299 -0.059284456 0.05563956 -0.040421683 -0.08867647 0.022289947 0.066474944
0.028586317 -0.08553514 -0.018666511 0.0076345736 -0.024029156 -0.083913274 0.06032764 0.06740382
0.056885216 0.08067247 -0.05639079 0.02611629 -0.03471761 0.059684627 -0.07923031 0.08814726
-0.0029472003 -0.08801551 0.015194861 0.08502066 -0.061632674 0.071926944 -0.08263041 -0.024994167
-0.083362706 -0.022819214 -0.02113127 -0.059526548 0.0040416177 0.07792165 -0.09268343 0.0674876
0.07134972 0.06724305 -0.003980558 -0.0029987032 -0.052298743 0.036902577 0.049536053 0.085349895
-0.07812788 0.012293568 0.045684073 -0.0133487275 -0.057143245 -0.036339127 0.050631743 0.06074805
0.050564237 -0.092349276 0.066310525 0.028116027 0.027005916 0.047767628 -0.003941614 -0.04047642
-0.094832785 -0.08239806 -0.06920416 -0.06328108 -0.07767414 0.003238812 -0.06363883 0.004543895
0.06691748 0.07724689 -0.059643723 -0.08750111 -0.018347312 -0.092620134 -0.039060764 -0.0768453
0.021289647 -0.049292445 -0.03925749 0.07645635 -0.039736606 0.09496803 0.062647246 -0.10628574
-0.02816978 -0.031411413 0.044199448 -0.093118034 -0.0031019545 0.060021546 0.05084124 0.028461244
-0.08383974 -0.0061199074 0.059629407 -0.0540789 -0.042392813 -0.046675906 -0.052631848 0.80196536
0.66890264 0.6473238 -0.0025123034 0.068354465 -0.0044646193 0.83252585 0.7571978 0.7744759
-0.04313078 -0.028361022 -0.07008427 0.7159908 0.79325867 0.65861386 0.0026656121 0.015274172
-0.047808003 -0.0610425 -0.049019117 0.49945867 -0.06960181 0.06199894 0.06647843 0.035610117
-0.004584261 0.7395876 0.06756273 -0.064389296 0.05157876 0.07199719 0.0028519917 0.77098083
-0.01614322 0.060192008 -0.05441828 0.7812624 0.77750844 0.59868914 0.0015772858 0.021445766
0.07773557 0.79488707 0.70494825 0.6240187 -0.0055269874 -0.014355339 0.03396781 0.7213409
0.7790146 0.61213976 -0.05871414 -0.060501024 -0.01770199 0.04424032 0.072930954 0.48805895
0.043342296 -0.09100493 -0.008046907 -0.06362606 -0.036676876 0.6616546 -0.03142275 0.00087913126
0.09355853 -0.02837396 -0.09571153 0.72034293 0.0514245 -0.041746 -0.05204861 0.707131
0.74413884 0.53169423 0.008407427 -0.016303595 0.061090298 0.85723233 0.7570123 0.62203497
-0.039795086 0.06502094 0.01960848 0.79909813 0.77906287 0.7590524 -0.058208685 -0.07189971
0.057267178 -7.9516416e-05 0.0427807 0.5806554 0.019218057 -0.017171174 0.004989896 0.086701244
-0.06603382 0.6999008 -0.011855368 0.031666137 0.035927698 0.029492857 0.071559094 0.66633433
0.063563265 0.018646656 -0.075109035 -0.035947584 -0.016096808 -0.03866457 0.06990374 -0.08302858
0.09367324 0.069755845 0.013194658 0.071265854 0.057192694 0.03257117 -0.036473166 0.05386621
0.06916889 0.030310942 -0.013161343 -0.07497658 -0.059882052 0.047985666 0.08734724 0.05254572
0.092453085 -0.036411542 0.050786622 0.040335387 0.010925133 -0.1057807 0.07150884 -0.003189661
-0.06139546 -0.05447557 -0.092409335 -0.08074751 0.06826465 0.016944876 0.07146597 -0.045292407
00000000: 1769 dfb9 b68e a2bc de9d a33d e8a2 9a3d
00000010: bcd9 4dbd 3e96 543d c739 b93c 28f8 15bd
00000020: 18d9 963d b088 a83c 42d4 72bd 4fe6 633d
00000030: 3591 25bd 029c b5bd 6899 b63c 0424 883d
00000040: da2d ea3c 0c2d afbd 83ea 98bc 722b fa3b
00000050: cbd8 c4bc b9da abbd 1e1a 773d 040b 8a3d
00000060: 7900 693d 9c37 a53d 07fa 66bd d4f1 d53c
00000070: 0d34 0ebd de77 743d 8043 a2bd 8d86 b43d
00000080: d125 41bb 7a41 b4bd def3 783c 501f ae3d
00000090: 8b72 7cbd 6f4e 933d 223a a9bd 91c0 ccbc
000000a0: 11ba aabd 5cef babc 7c1b adbc 1cd2 73bd
000000b0: 8c6f 843b 6395 9f3d cfd0 bdbd f036 8a3d
000000c0: cd1f 923d b9b6 893d 576f 82bb e485 44bb
000000d0: 3537 56bd 2827 173d 51e6 4a3d edcb ae3d
000000e0: 8301 a0bd f66a 493c 391f 3b3d 9fb4 5abc
000000f0: 090f 6abd 56d8 14bd 3b63 4f3d f3d2 783d
00000100: 721c 4f3d 9e21 bdbd d0cd 873d 9553 e63c
00000110: 833b dd3c fda7 433d a828 81bb 9aca 25bd
00000120: b137 c2bd 50c0 a8bd e9ba 8dbd 8399 81bd
00000130: 9f13 9fbd 4042 543b 1355 82bd f4e4 943b
00000140: 080c 893d 9e33 9e3d fa4c 74bd c833 b3bd
00000150: 1a4d 96bc a0af bdbd 2efe 1fbd 1261 9dbd
00000160: a067 ae3c e0e6 49bd 76cc 20bd 2695 9c3d
00000170: dac2 22bd 997e c23d 334d 803d 57ac d9bd
00000180: 4fc4 e6bc 41a9 00bd 7b0a 353d abb4 bebd
00000190: 294a 4bbb 27d9 753d e73e 503d 8e27 e93c
000001a0: 2bb4 abbd 8189 c8bb f73d 743d d681 5dbd
000001b0: 16a4 2dbd 3c2f 3fbd 7e94 57bd 9a4d 4d3f
000001c0: 343d 2b3f 03b7 253f 75a5 24bb 6dfd 8b3d
000001d0: f14b 92bb 6a20 553f b7d7 413f 0d44 463f
000001e0: e7a9 30bd 6055 e8bc 5788 8fbd 2c4b 373f
000001f0: 0013 4b3f eb9a 283f 8db1 2e3b 8540 7a3c
00000200: 53d2 43bd b307 7abd 45c8 48bd 0cb9 ff3e
00000210: 658b 8ebd 9af2 7d3d d825 883d eadb 113d
00000220: 9237 96bb 9d55 3d3f 545e 8a3d 89de 83bd
00000230: 4044 533d 4373 933d 7be8 3a3b 005f 453f
00000240: c93e 84bc e58b 763d b4e5 5ebd d000 483f
00000250: cb0a 473f b143 193f eebc ce3a 08af af3c
00000260: d433 9f3d b87d 4b3f 7d77 343f b1bf 1f3f
00000270: bb1b b5bb a832 6bbc d521 0b3d cca9 383f
00000280: 806d 473f 31b5 1c3f 3d7e 70bd eccf 77bd
00000290: c403 91bc 5635 353d d35c 953d dde2 f93e
000002a0: b187 313d cb60 babd 2dd7 03bc 614e 82bd
000002b0: 7e3a 16bd 3262 293f 24b5 00bd 8075 663a
000002c0: 9d9b bf3d 8270 e8bc 6804 c4bd 6568 383f
000002d0: 7fa2 523d dbfd 2abd ec30 55bd 8a06 353f
000002e0: e27f 3e3f 1d1d 083f 4ebf 093c 1e8f 85bc
000002f0: d239 7a3d 9473 5b3f 8fcb 413f af3d 1f3f
00000300: 2c00 23bd b329 853d f7a1 a03c b291 4c3f
00000310: aa70 473f 4251 423f 3b6c 6ebd 2840 93bd
00000320: fd90 6a3d 0dc2 a6b8 d13a 2f3d d5a5 143f
00000330: 306f 9d3c 90aa 8cbc 4882 a33b 6c90 b13d
00000340: bd3c 87bd b32c 333f 043d 42bc 5ab4 013d
00000350: ec28 133d 019b f13c 938d 923d e394 2a3f
00000360: 752d 823d dfc0 983c c4d2 99bd c63d 13bd
00000370: 74dd 83bc bd5e 1ebd b129 8f3d e30a aabd
00000380: c1d7 bf3d 27dc 8e3d 682e 583c d5f3 913d
00000390: e342 6a3d 5969 053d e364 15bd d1a2 5c3d
000003a0: 6ba8 8d3d a74e f83c aca2 57bc 528d 99bd
000003b0: e246 75bd 9e8c 443d 1ce3 b23d 2e3a 573d
000003c0: 0b58 bd3d 4524 15bd a205 503d b836 253d
000003d0: 54ff 323c 8da3 d8bd 3a73 923d a209 51bb
000003e0: ce79 7bbd c621 5fbd 1b41 bdbd f35e a5bd
000003f0: 56ce 8b3d fbcf 8a3c c05c 923d 8884 39bd

fc1.bias f4 [256]
-0.10712076 0.77013785 -0.006738685 0.59715337 0.081740744 0.79144996 0.50310624 0.7748391
0.6525859 0.36631542 0.42325038 0.51261425 -0.015303809 0.82493716 0.3934812 0.5829613
0.41037983 0.8409261 0.60743546 -0.0063761035 0.47111648 -0.059141368 0.46940336 0.37774178
0.26070702 0.5266794 0.39686534 0.6953322 0.23675312 0.41951212 -0.0004123721 0.5986059
-0.0088629145 0.4786161 -0.08485503 0.7633591 0.46789765 0.7204243 -0.018371062 0.38582805
0.7319617 0.42833102 -0.09240323 0.41737986 0.31589323 0.45866576 0.01699648 0.57605845
-0.117316164 0.36841246 0.367488 -0.00025723537 0.4113218 0.70543045 0.4694144 0.420067
0.16393182 0.50346273 0.49171895 -0.0032002816 0.50472856 0.48907372 0.5887899 0.42519155
0.70922154 0.48961106 -0.017549986 0.4788962 0.4697772 -0.05719874 0.41970682 0.5539061
0.47785848 0.4465684 -0.014414293 0.48814896 0.4533713 0.34665015 -0.00561969 0.48186833
0.48755544 -0.087805755 0.5724102 0.3850705 0.43118435 0.5295527 0.4442885 0.30100706
0.47081771 0.50336796 0.087372504 0.32733548 0.6234674 0.4518188 0.4364954 -0.00064596464
0.44512945 0.47977585 0.385667 -0.091405176 0.58772254 -0.0029534062 0.5027793 0.58844376
-0.062925935 -0.00059380796 -0.003289917 0.08625226 0.4846913 0.2472827 -0.031162284 -0.032985788
0.477545 0.5163746 0.49320525 0.32117558 -0.08537103 0.4042975 0.51694465 0.38641247
0.52658296 -0.05744539 0.5906534 0.41053012 0.47277567 -0.02811564 0.54283553 0.419559
0.55627835 -0.096836165 0.41697353 0.5112711 0.4958007 -0.009433038 -0.0740974 -0.00011839476
-0.08843682 0.60595554 0.5131984 -0.09515549 0.34316468 -0.10182956 0.44987902 0.11485808
0.46276262 0.278615 0.724989 0.20159912 0.6495883 0.4393572 -0.00991383 0.4728379
0.5692823 -0.091757305 0.3146227 0.48689944 0.4499893 0.49004713 -0.02513384 0.708739
0.43355438 0.108487755 0.42370307 0.74748474 0.5119833 -0.00043911455 0.78387105 0.7476273
0.45076215 0.5804795 0.5126473 0.40947568 0.581625 0.5033104 0.48459837 0.38608998
-0.058566425 -0.09423609 0.7337081 -0.06979802 0.43256813 0.448763 0.5260808 -0.09229901
0.4259224 -0.06264338 0.4047765 0.5419094 0.46807107 -0.093536 0.67268044 0.15729941
-0.078366876 0.4168486 -0.08907489 0.21080711 0.50916404 0.06957415 0.49526632 0.39235333
-0.021018796 0.45852205 0.5064841 -0.08963589 0.054374043 0.71747977 0.4234133 0.3680531
0.43031338 0.45689029 -0.0052065533 0.5959876 0.3489519 0.3981309 0.591226 0.5145317
0.41153407 0.65035003 0.44425523 0.4645748 0.39499962 0.4457536 -0.075411014 0.35631508
0.4401551 0.36808625 0.5432473 -0.0094567835 0.27049696 0.77441734 0.5694305 -0.0202004
-0.061455574 0.7700942 0.53367734 0.22597048 -0.05451793 -0.05612772 -0.00015594873 0.42249903
0.45527577 0.06923121 0.4166293 0.80496156 0.45901155 0.6023732 0.5211482 0.55360067
0.473825 0.45859548 0.18508117 0.33350137 -0.03025082 0.8491078 0.76711893 0.49371782
00000000: 2162 dbbd c127 453f 30d0 dcbb 0bdf 183f
00000010: b167 a73d 779c 4a3f 92cb 003f db5b 463f
00000020: df0f 273f b28d bb3e 46b4 d83e b03a 033f
00000030: d4bc 7abc 152f 533f 5e76 c93e f43c 153f
00000040: 4e1d d23e ef46 573f e480 1b3f a2ee d0bb
00000050: 2e36 f13e 383e 72bd a355 f03e 5f67 c13e
00000060: 647b 853e 76d4 063f ef31 cb3e 4b01 323f
00000070: 696f 723e 4bca d63e a533 d8b9 3c3e 193f
00000080: c235 11bc 2b0d f53e 79c8 adbd 816b 433f
00000090: 4890 ef3e ba6d 383f e97e 96bc 418b c53e
000000a0: d861 3b3f 344e db3e e83d bdbd d0b2 d53e
000000b0: c2bc a13e 3dd6 ea3e 343c 8b3c 9178 133f
000000c0: 7543 f0bd 8fa0 bc3e 6327 bc3e 8cdd 86b9
000000d0: c598 d23e 1797 343f 1657 f03e 0613 d73e
000000e0: bedd 273e efe2 003f 96c2 fb3e d1bb 51bb
000000f0: e435 013f df67 fa3e efba 163f b5b2 d93e
00000100: 8b8f 353f 4dae fa3e fdc4 8fbc e231 f53e
00000110: a386 f03e 3a49 6abd d0e3 d63e cacc 0d3f
00000120: dea9 f43e 9da4 e43e ed29 6cbc a9ee f93e
00000130: 4820 e83e 217c b13e 6025 b8bb 72b7 f63e
00000140: dea0 f93e 81d3 b3bd 7a89 123f f627 c53e
00000150: 32c4 dc3e c490 073f c879 e33e 991d 9a3e
00000160: 050f f13e b9dc 003f 5bf0 b23d 8498 a73e
00000170: 8f9b 1f3f cb54 e73e 537c df3e f455 29ba
00000180: 02e8 e33e 2ea5 f53e 2576 c53e a332 bbbd
00000190: fc74 163f ef8d 41bb 25b6 003f 40a4 163f
000001a0: 50df 80bd c7a9 1bba a69b 57bb 06a5 b03d
000001b0: 7529 f83e ad37 7d3e 0c48 ffbc 1b1c 07bd
000001c0: c780 f43e 2031 043f 6685 fc3e 2071 a43e
000001d0: 02d7 aebd 1500 cf3e 7c56 043f dbd7 c53e
000001e0: 24ce 063f db4b 6bbd 1035 173f 0131 d23e
000001f0: a70f f23e c552 e6bc 45f7 0a3f 70d0 d63e
00000200: 4268 0e3f 0a52 c6bd 8e7d d53e aae2 023f
00000210: 97d9 fd3e 078d 1abc 61c0 97bd b44a f8b8
00000220: 5d1e b5bd e71f 1b3f f860 033f e2e0 c2bd
00000230: 48b3 af3e 048c d0bd 8b56 e63e b73a eb3d
00000240: 39ef ec3e a0a6 8e3e e198 393f 0070 4e3e
00000250: 6b4b 263f 6df3 e03e 9e6d 22bc cf17 f23e
00000260: 7cbc 113f 41eb bbbd 3a16 a13e e24a f93e
00000270: ff64 e63e 75e7 fa3e 7ce5 cdbc eb6f 353f
00000280: d7fa dd3e d42e de3d 9cef d83e 295b 3f3f
00000290: 5611 033f f538 e6b9 c6ab 483f 8164 3f3f
000002a0: 4cca e63e 4e9a 143f da3c 033f cca6 d13e
000002b0: 60e5 143f f3d8 003f 471d f83e 96ad c53e
000002c0: 59e3 6fbd dafe c0bd 4bd4 3b3f 44f2 8ebd
000002d0: 9279 dd3e 44c4 e53e 3bad 063f 4307 bdbd
000002e0: 8012 da3e 2c4b 80bd de3e cf3e 93ba 0a3f
000002f0: 03a7 ef3e cd8f bfbd c934 2c3f 1913 213e
00000300: d07e a0bd 2e6d d53e e56c b6bd d2dd 573e
00000310: 9358 023f e47c 8e3d 8c93 fd3e 89e2 c83e
00000320: 9c2f acbc 67c3 ea3e f1a8 013f 0693 b7bd
00000330: 51b7 5e3d c1ac 373f a1c9 d83e 7571 bc3e
00000340: 0952 dc3e 86ed e93e bc9b aabb a592 183f
00000350: d3a9 b23e d0d7 cb3e 965a 173f 59b8 033f
00000360: 98b4 d23e 577d 263f 6c75 e33e c0dc ed3e
00000370: 643d ca3e d139 e43e 1771 9abd ee6e b63e
00000380: 025c e13e cd75 bc3e 4112 0b3f a0f0 1abc
00000390: 947e 8a3e 3740 463f 32c6 113f 4f7b a5bc
000003a0: d7b8 7bbd e524 453f 149f 083f ce64 673e
000003b0: 314e 5fbd 2ee6 65bd 2b86 23b9 cb51 d83e
000003c0: e819 e93e 18c9 8d3d 7050 d53e f611 4e3f
000003d0: 9003 eb3e 2135 1a3f f869 053f c6b8 0d3f
000003e0: 3199 f23e 07cd ea3e eb85 3d3e b1c0 aa3e
000003f0: 91d0 f7bc 215f 593f e861 443f 95c8 fc3e

fc2.weight f4 [1, 256]
-0.0036479896 -0.84079415 -0.048761606 -0.6934638 0.29734156 -0.77637446 -0.5656516 -0.8076237
-0.75973386 0.56004137 0.5391186 0.46952894 -0.04603731 -0.84188306 0.538055 0.47467616
0.57856303 -0.7958267 0.48018873 -0.032093775 0.5748892 -0.0413407 0.47333863 0.5866872
0.30841017 0.5859772 0.57972467 -0.72985554 0.30872813 0.49740487 -0.011043663 0.4894967
-0.035236895 0.568861 -0.05334013 -0.78947204 0.5816991 -0.7965945 -0.04625152 0.554578
-0.7652851 0.516821 -0.003024075 0.44823033 0.55320024 0.52239084 0.16493951 0.48075178
-0.046333417 0.51979935 -0.49950054 0.006370552 0.49841595 -0.866642 0.5902378 0.5229205
0.22213206 0.5549337 0.49588478 -0.0390421 0.54953533 0.49714962 0.52217036 0.5009732
-0.69800824 0.5384797 -0.018038893 0.5398221 0.50813335 -0.055539608 -0.578307 -0.5279527
0.55151904 0.60439914 -0.047217723 0.5579526 0.55912304 0.55036426 0.047252093 0.5716419
0.54315937 0.037141673 0.49284413 0.5079448 0.41776353 0.506232 0.5370959 0.33493796
0.5577992 0.5902951 -0.058524482 0.53925425 -0.73239183 0.57523304 0.53159505 -0.04682232
0.4909097 0.5837867 0.5522263 -0.019767417 0.542695 0.04412234 0.5490381 -0.6683333
-0.051316097 -0.0033691323 -0.04317356 -0.11460503 0.55026436 0.24136427 -0.013318475 0.0017973408
0.52335924 0.49536246 0.50795573 0.57148445 -0.016974106 0.5213041 0.5089092 0.5194762
0.5666423 0.04906428 0.5273606 0.527477 0.5076131 -0.015319116 0.5593853 0.5189516
0.47439238 -0.045669638 0.6054044 0.499256 0.57000875 -0.02131157 0.048635818 0.0015586297
-0.04710758 0.47547534 0.5986116 -0.055640556 0.56642896 -0.04854974 0.48674828 -0.08780211
0.53382355 0.3995615 -0.7466674 0.36478415 -0.687735 0.5620246 -0.021521598 0.5195443
0.49123973 0.042358987 0.28892395 0.54945034 0.58046716 0.5000922 -0.023796426 -0.82245713
0.54399407 0.14030378 0.48862606 -0.7388164 0.49583095 -0.008554815 -0.8231365 -0.7716422
0.49657977 0.50522584 0.5016007 0.5188711 0.4885973 0.47815427 0.52730834 0.5527841
-0.007566928 -0.038751453 -0.81247026 0.035051182 0.5401693 0.5946751 -0.59122986 -0.03810595
0.52191424 0.022019364 0.59339404 0.52088875 0.4660793 0.0075770244 -0.76455086 -0.2549599
-0.0115794875 0.56791633 -0.053608507 0.36145425 0.57174283 -0.04936535 0.5349944 0.5031941
-0.031345055 0.56552565 0.5535733 -0.0010519387 -0.17562386 -0.7007595 0.42814693 0.5798681
0.5111898 0.48896292 -0.031873982 -0.6132795 0.5249069 0.5430274 0.49815714 0.52306366
0.42886198 -0.7567496 0.5246705 0.48690045 0.56504405 0.4961871 -0.030025257 0.5318134
0.5482051 0.5250338 0.5334735 -0.022875628 0.24816032 -0.8896202 0.53159183 -0.04684032
0.043033145 -0.8024296 0.50940186 0.38725412 -0.0389395 -0.01836099 -0.03238494 0.55005765
0.54447633 0.11348109 0.55890036 -0.76633966 0.5541626 0.4738209 0.47290063 0.54476833
0.5811519 0.550442 0.2605241 -0.44709066 -0.029547067 -0.86162454 -0.79183036 0.5717182
00000000: 1c13 6fbb 493e 57bf 40ba 47bd d886 31bf
00000010: 273d 983e 7ac0 46bf 8bce 10bf 6dc0 4ebf
00000020: eb7d 42bf df5e 0f3f ad03 0a3f 1966 f03e
00000030: 9e91 3cbd a685 57bf f9bd 093f c108 f33e
00000040: b51c 143f 4cbb 4bbf 4cdb f53e c374 03bd
00000050: f02b 133f de54 29bd 7159 f23e 2231 163f
00000060: f0e7 9d3e 9a02 163f d668 143f d0d7 3abf
00000070: 9d11 9e3e daab fe3e 7bf0 34bc 509f fa3e
00000080: 9054 10bd e0a0 113f 2e7b 5abd d71a 4abf
00000090: 3bea 143f 9eed 4bbf 3c72 3dbd d3f8 0d3f
000000a0: b9e9 43bf 624e 043f 8f2f 46bb 727e e53e
000000b0: 889e 0d3f 68bb 053f e7e5 283e 1925 f63e
000000c0: 1cc8 3dbd 9211 053f 89be ffbe 10c0 d03b
000000d0: 6030 ff3e 40dc 5dbf d319 173f 1ede 053f
000000e0: 9676 633e 2310 0e3f 9ce4 fd3e 9cea 1fbd
000000f0: 59ae 0c3f 658a fe3e f5ac 053f c83f 003f
00000100: abb0 32bf ced9 093f 4dc6 93bc c831 0a3f
00000110: 0715 023f 807d 63bd ed0b 14bf e827 07bf
00000120: 5a30 0d3f e7b9 1a3f 5f67 41bd fbd5 0e3f
00000130: b022 0f3f ace4 0c3f 698b 413d 2057 123f
00000140: 7e0c 0b3f de21 183d 1156 fc3e ac08 023f
00000150: 1ae5 d53e 6c98 013f 1e7f 093f fd7c ab3e
00000160: eecb 0e3f 941d 173f 5eb7 6fbd 910c 0a3f
00000170: 087e 3bbf 7942 133f 9d16 083f c3c8 3fbd
00000180: 8458 fb3e 0c73 153f b45e 0d3f 47ef a1bc
00000190: 0fee 0a3f a0b9 343d c38d 0c3f e417 2bbf
000001a0: d430 52bd a9cc 5cbb c2d6 30bd 0bb6 eabd
000001b0: 20de 0c3f 3228 773e bc35 5abc c094 eb3a
000001c0: dffa 053f 26a0 fd3e 6309 023f ce4c 123f
000001d0: 480d 8bbc 2f74 053f e047 023f 64fc 043f
000001e0: 780f 113f a0f7 483d 1b01 073f bc08 073f
000001f0: eff2 013f 08fd 7abc e033 0f3f 03da 043f
00000200: 8fe3 f23e 1610 3bbd c8fb 1a3f 7c9e ff3e
00000210: 18ec 113f 9a95 aebc 5a36 473d ef4a cc3a
00000220: e1f3 40bd 8171 f33e 9c3e 193f 5ae7 63bd
00000230: 7d01 113f 18dc 46bd 1237 f93e 98d1 b3bd
00000240: a9a8 083f 5393 cc3e 9825 3fbf fdc4 ba3e
00000250: 670f 30bf d8e0 0f3f 104e b0bc db00 053f
00000260: c683 fb3e 9e80 2d3d d7ed 933e c7a8 0c3f
00000270: 7f99 143f 0b06 003f b9f0 c2bc 8d8c 52bf
00000280: 3243 0b3f cbab 0f3e 322d fa3e 1223 3dbf
00000290: 8edd fd3e 7f29 0cbc 13b9 52bf 588a 45bf
000002a0: b43f fe3e 7b56 013f e768 003f bdd4 043f
000002b0: 6d29 fa3e a3d0 f43e aefd 063f 4283 0d3f
000002c0: fef3 f7bb d8b9 1ebd 0dfe 4fbf d491 0f3d
000002d0: 8948 0a3f a13c 183f d75a 17bf fc14 1cbd
000002e0: 2c9c 053f f461 b43c ace8 173f f758 053f
000002f0: f2a1 ee3e b048 f83b 9bb9 43bf 1b8a 82be
00000300: e4b7 3dbc f762 113f 9894 5bbd 8810 b93e
00000310: bd5d 123f 5233 4abd 65f5 083f 54d1 003f
00000320: ac63 00bd 4ac6 103f fbb6 0d3f 35e1 89ba
00000330: bed6 33be f964 33bf 1336 db3e 3c72 143f
00000340: 56dd 023f 5959 fa3e 4b8e 02bd e3ff 1cbf
00000350: 4c60 063f d803 0b3f 740e ff3e 80e7 053f
00000360: cc93 db3e 57ba 41bf ce50 063f 044b f93e
00000370: baa6 103f 3c0c fe3e 87f7 f5bc ec24 083f
00000380: 2b57 0c3f 9d68 063f b891 083f ab65 bbbc
00000390: bd1d 7e3e 26be 63bf 6716 083f a3db 3fbd
000003a0: 8643 303d 076c 4dbf 2968 023f 2c46 c63e
000003b0: 067f 1fbd c969 96bc 12a6 04bd 94d0 0c3f
000003c0: cd62 0b3f c668 e83d 1814 0f3f d62e 44bf
000003d0: 9add 0d3f a798 f23e 0820 f23e f075 0b3f
000003e0: 5fc6 143f c4e9 0c3f 6a63 853e 11e9 e4be
000003f0: b10c f2bc 6d93 5cbf 65b5 4abf 205c 123f
