model_epoch_1700.pth (torch, 141274 bytes, 15 tensors)

target_net.fc1.weight f4 [64, 36]
0	0x3dcced80	0.10006237
1	0x3d661bf0	0.056178987
2	0x3c3b51d6	0.011433085
3	0xbd42c8b4	-0.047554687
4	0x3cdaebda	0.02672379
5	0xbb238c0c	-0.00249553
6	0xbce7278b	-0.028217098
7	0x3de5ff2b	0.1123031
8	0x3d56d5db	0.052450042
9	0xbc2912e8	-0.010319449
10	0xbde8e3fc	-0.113716096
11	0xbdf4b6df	-0.119489424
12	0xbdf12b0b	-0.11775788
13	0x3db39e9b	0.08770486
14	0xbd4e9500	-0.050435066
15	0x3d551488	0.052021533
16	0xbb781cfa	-0.0037859068
17	0xbe34e9a1	-0.17667247
18	0xbd16d0e0	-0.036820292
19	0xbd8bccce	-0.06826173
20	0xbe272598	-0.16322935
21	0x3d192790	0.037391245
22	0x3dca698e	0.09883414
23	0xbd3725a7	-0.044713642
24	0x3cfe3700	0.031032085
25	0xbcecbea0	-0.02889949
26	0xbda3b086	-0.079926535
27	0x3c1a0f6b	0.00940309
28	0x3dfb2ff0	0.12265003
29	0xbe100bca	-0.14066997
30	0x3e194b23	0.14970069
31	0xbd775b66	-0.0603899
32	0x3d0bf9b6	0.03417369
33	0x3c240300	0.010010481
34	0xbd56fc0b	-0.05248646
35	0xbcc90cf7	-0.024542315
36	0x3e148888	0.14505208
37	0x3dc0cbd6	0.094138786
38	0xbd3cf636	-0.046133243
39	0xbd3323cc	-0.04373531
40	0xbcc1617a	-0.02360605
41	0x3e275211	0.163399
42	0x3e06d8af	0.13168596
43	0x3e1f8c57	0.15580879
44	0x3d26070b	0.04053406
45	0x3bdb7ef2	0.0066984827
46	0xbc4ce2a8	-0.012505211
47	0xbc473232	-0.012157964
48	0x3dd5c0ee	0.10437189
49	0xbe0205d4	-0.12697536
50	0x3e01a986	0.12662324
51	0x3da6bd71	0.08141602
52	0x3d4c7016	0.04991158
53	0x3e14b8b1	0.14523579
54	0xbd5c97f0	-0.053855836
55	0x3d2a6d16	0.04160794
56	0x3e2451fc	0.160469
57	0xbe276957	-0.16348778
58	0x3d8d97fe	0.06913756
59	0x3db43359	0.08798856
60	0xbd747210	-0.05967909
61	0xbd08f410	-0.03343588
62	0x3e0fdfec	0.14050263
63	0x3dc70f18	0.09719676
64	0x3c901220	0.017586768
65	0xbd819b19	-0.06328411
66	0xbc9c3b00	-0.019071102
67	0x3d66198b	0.056176703
68	0xbc4729d6	-0.012155971
69	0x3e1fda23	0.15610556
70	0xbdfb4efe	-0.12270926
71	0xbe07d4cd	-0.13264771
72	0x3e0b6216	0.13611636
73	0x3d372b90	0.04471928
74	0x3d154980	0.03644705
75	0x3dc8a2ff	0.09796714
76	0xbda4f5ae	-0.08054672
77	0x3cc0596d	0.023480142
78	0x3ceeeb60	0.02916497
79	0x3e23faaa	0.1601359
80	0xbd3d89ab	-0.04627387
81	0x3d7984e0	0.060917735
82	0x3d8ce51a	0.06879635
83	0xbddfbc11	-0.10924543
84	0x3beb74ab	0.0071855388
85	0xbdb20d98	-0.08693999
86	0xbddedcf3	-0.108819865
87	0x3daf0ca6	0.085473344
88	0x3d9d328c	0.07675657
89	0x3dfed55d	0.124430396
90	0x3d16fa6b	0.03685991
91	0xbda8dad6	-0.08244865
92	0x3e1fd65a	0.15609112
93	0x3c45992b	0.012060444
94	0x3cba45a0	0.022738278
95	0x3c4c4957	0.012468657
96	0x3df9ceab	0.12197622
97	0xbd9c5133	-0.07632675
98	0x3da1d648	0.07902199
99	0xbd64f046	-0.055893205
100	0xbe00cda8	-0.12578452
101	0xbc7c555f	-0.015401213
102	0xbe170a63	-0.14750056
103	0xbdb2d9a8	-0.08732921
104	0x3c5ee300	0.013603926
105	0x3d284aa0	0.041086793
106	0xbe0af793	-0.13571005
107	0xbd9c5614	-0.076336056
108	0x3d941528	0.07230598
109	0xbdc40a13	-0.09572234
110	0xbe1dc824	-0.15408379
111	0xbda42322	-0.080145136
112	0x3d1894ba	0.03725121
113	0xbddb1be7	-0.10698681
114	0x3e102fca	0.1408073
115	0xbd397d20	-0.045285344
116	0x3d118c5b	0.035534244
117	0x3d87bab0	0.06627405
118	0xbde4b048	-0.111664355
119	0x3e52fa88	0.20603383
120	0xbcb0f28b	-0.021600028
121	0xbe284f30	-0.16436458
122	0x3e09f5ac	0.13472623
123	0x3d1654b3	0.03670187
124	0x3de34b46	0.11098342
125	0x3d1683da	0.036746837
126	0x3de83566	0.1133831
127	0x3c287056	0.010280689
128	0xbb8d8f2b	-0.0043200455
129	0x3b32ae00	0.0027264357
130	0x3e017a44	0.12644297
131	0xbda6bf39	-0.081419416
132	0x3d2f1996	0.04274901
133	0x3dbd7a46	0.092518374
134	0x3e1ce8af	0.15323137
135	0x3e161aa3	0.14658599
136	0xbdb5a4c6	-0.08869319
137	0xbc31b8fc	-0.010847326
138	0xbcfa72f6	-0.030572396
139	0xbe18283a	-0.14859095
140	0xbd839fa6	-0.06426935
141	0xbc8e3236	-0.017357927
142	0xbda8bb16	-0.08238809
143	0xbdc3013b	-0.09521719
144	0xbd56c386	-0.05243256
145	0xbcc104c0	-0.023561835
146	0xbd51f246	-0.05125644
147	0xbd4cf1c3	-0.05003525
148	0x3e0c6381	0.13709833
149	0x3e21f0eb	0.15814559
150	0xbca6c856	-0.0203592
151	0xbc4e9596	-0.012608906
152	0xbd1d90a0	-0.038468003
153	0xbd313fe2	-0.043273814
154	0x3e31efdb	0.17376654
155	0xbdb058e8	-0.086107075
156	0xbe07dd36	-0.13267979
157	0xbd4e9506	-0.05043509
158	0x3e168bff	0.14701842
159	0xbe2e7a9b	-0.17038958
160	0x3d98b088	0.07455546
161	0xbd38163c	-0.04494308
162	0x3e199617	0.14998661
163	0x3d828620	0.063732386
164	0xbd9b7aae	-0.07591759
165	0xbd4857e0	-0.04891193
166	0xbd2a4610	-0.041570723
167	0x3e4ce1a6	0.20007953
168	0x3c8bce40	0.017066121
169	0x3c9a3700	0.018825054
170	0xbd975d73	-0.07390871
171	0x3dd5fb8e	0.10448371
172	0xb95ae000	-0.00020873547
173	0x3e4c6a0e	0.19962332
174	0x3e1e4c90	0.15458894
175	0x3e070c0f	0.13188194
176	0x3d0ac070	0.03387493
177	0xbd2852b0	-0.041094482
178	0x3dfd60f0	0.12372005
179	0xbdc0429e	-0.09387706
180	0xbcc1adf6	-0.023642521
181	0xbdd5cb43	-0.1043916
182	0x3c5cba96	0.01347222
183	0xbd814d09	-0.063135214
184	0xbd938c84	-0.072045356
185	0x3c8772d1	0.01653424
186	0xbb6c96ab	-0.0036100547
187	0x3e01a8c0	0.1266203
188	0xbdea497e	-0.11439799
189	0x3d312411	0.043247286
190	0x3db282fa	0.08716388
191	0x3c5c5a11	0.013449208
192	0x3e11738e	0.14204237
193	0x3e1b0b44	0.15141016
194	0xbde44d53	-0.11147561
195	0xbd7e954f	-0.06215411
196	0x3e3c8c57	0.1841291
197	0xbdc6e7d2	-0.09712185
198	0xbe1ba5eb	-0.15200011
199	0xbdf38a6e	-0.11891638
200	0x3d5f18e6	0.054467104
201	0x3b1ee800	0.002424717
202	0xbd25b466	-0.040455244
203	0x3bae7f0c	0.0053252038
204	0xbdb2ff8b	-0.08740147
205	0x3dd797e0	0.10527015
206	0xbcd4770b	-0.02593567
207	0x3d86608e	0.06561385
208	0xbe161002	-0.14654544
209	0xbdc98674	-0.09840098
210	0x3d17570b	0.036948245
211	0x3c2c72c0	0.010525405
212	0xbd96d0d6	-0.07364051
213	0x3dd5f2e8	0.10446721
214	0x3c86f360	0.016473472
215	0xbe57beaf	-0.21068834
216	0xbc3eb156	-0.01163896
217	0x3e02d607	0.12776957
218	0xbdb6e39b	-0.08930131
219	0x3b10cd20	0.002209492
220	0xbe0a8d41	-0.13530447
221	0x3e6bf5ee	0.23043033
222	0xbdfc8908	-0.12330824
223	0x3dd4d3f3	0.103919886
224	0xbddc6c8b	-0.107628904
225	0x3deed77d	0.11662195
226	0x3dcd1894	0.100144535
227	0x3d3d9669	0.04628602
228	0xbe208f52	-0.15679672
229	0xbdc3d9c8	-0.09563023
230	0x3d345026	0.044021748
231	0x3deef978	0.11668676
232	0xbe00711a	-0.12543145
233	0x3d80e03e	0.06292771
234	0xbcd7a8f6	-0.026325684
235	0xbba76dab	-0.005109509
236	0x3d22a760	0.039710402
237	0x3d94eafb	0.072713815
238	0xbda0992b	-0.078417145
239	0x3e04ceeb	0.12969558
240	0xbde9b463	-0.11411359
241	0xbdbdd49e	-0.09269069
242	0xbbe2ca00	-0.006921053
243	0xbe1727ee	-0.14761326
244	0xbd64f630	-0.055898845
245	0xbe110079	-0.14160337
246	0x3dca4aa3	0.09877517
247	0xbd48bf70	-0.049010694
248	0x3e0d5dc2	0.13805297
249	0x3d6fa9f6	0.058511697
250	0xbc332100	-0.010933161
251	0xbd6ffa07	-0.058588054
252	0x3df1d1d8	0.11807603
253	0x3ddf190b	0.108934484
254	0xbe10465c	-0.1408934
255	0x3da1ce00	0.079006195

target_net.fc1.bias f4 [64]
0	0xbc19d5eb	-0.009389381
1	0x3d630853	0.05542786
2	0xbe0d87b5	-0.138213
3	0xbd2d004c	-0.04223661
4	0xbc7cb022	-0.015422853
5	0xbe3a08ba	-0.18167391
6	0xbc7bb4f6	-0.015362969
7	0x3d2bdb8e	0.04195743
8	0xbe12f4d8	-0.14351213
9	0x3e0c5178	0.13702953
10	0x3d7b7f2c	0.061400577
11	0x3e12465c	0.14284652
12	0x3df0dfba	0.117614225
13	0xbd8f94e8	-0.070108235
14	0x3e1ada21	0.15122272
15	0xbdcbbf01	-0.099485405
16	0xbe362426	-0.17787227
17	0xbe0eb085	-0.13934524
18	0x3deca1ed	0.115543224
19	0xbddb9458	-0.10721654
20	0xbe24397b	-0.16037552
21	0xbe29e014	-0.16589385
22	0x3ddfe59a	0.10932465
23	0xbdf89067	-0.121369176
24	0xbd8acdae	-0.067775115
25	0xbd65b88a	-0.056084193
26	0x3e35df9f	0.17761086
27	0x3c817c73	0.015806412
28	0xbe18c33b	-0.14918225
29	0x3e6d05e4	0.23146778
30	0x3dc22d2a	0.094812706
31	0xbdf7f5a3	-0.12107398
32	0xbd819619	-0.06327457
33	0xbce0299b	-0.027363589
34	0x3bdd308e	0.006750173
35	0xbdbcc63a	-0.09217496
36	0x3de60947	0.11232238
37	0x3dee9a46	0.11650519
38	0xbe4f4ec6	-0.20244893
39	0x3c977ebe	0.018493053
40	0xbe29bf6f	-0.16576932
41	0xbb0a2899	-0.0021081327
42	0xbdf6b2e0	-0.120458364
43	0xbe079f37	-0.1324433
44	0x3e26b6c9	0.16280665
45	0xbbf898b9	-0.0075865653
46	0xbd92964a	-0.071575716
47	0xbe149801	-0.1451111
48	0x3ce1a580	0.027544737
49	0xbe1c904a	-0.15289417
50	0xbe1990a0	-0.14996576
51	0xbd8e212f	-0.06939923
52	0x3c92db13	0.017926728
53	0xbd4a86f5	-0.04944511
54	0x3d6b7b96	0.057490908
55	0x3d1ba08d	0.03799491
56	0xbe2af443	-0.16694741
57	0xbbd6fe88	-0.006561104
58	0xbb2c7a53	-0.0026318028
59	0x3c30b80c	0.010786068
60	0xbe05cec5	-0.13067158
61	0xbd1bc45b	-0.038029056
62	0x3e4cc368	0.19996417
63	0xbdae074e	-0.08497487

target_net.fc2.weight f4 [3, 64]
0	0xbd1e2896	-0.038612925
1	0xbd41ca86	-0.047312282
2	0xbd0c376d	-0.034232546
3	0x3b1c3ec1	0.0023841115
4	0x3c368830	0.011140868
5	0xbd84b64a	-0.064800814
6	0x3d5cf404	0.05394365
7	0xbc0fac74	-0.008769143
8	0xbdc5ccd0	-0.096582055
9	0x3e0c67e6	0.13711509
10	0xbdb7f07f	-0.08981418
11	0x3bfa6d53	0.007642427
12	0xbdca9671	-0.09891976
13	0x3cb609c5	0.022221455
14	0xbda5b652	-0.080914155
15	0x3d5cffda	0.053954937
16	0x3d8099b8	0.062793195
17	0xbc8dec6c	-0.017324649
18	0xbc02427b	-0.0079504205
19	0x3c783819	0.0151500935
20	0xbd7af88d	-0.061272193
21	0x3dd4e1a3	0.10394599
22	0xbd800cd7	-0.06252449
23	0xbc34c9cb	-0.011034439
24	0xbd2aaa78	-0.041666478
25	0xbd2edc55	-0.042690594
26	0xbd06d9c1	-0.03292251
27	0x3d9b64b2	0.075875655
28	0x3d7e6174	0.062104657
29	0xbdfaee16	-0.122524425
30	0xbd3d6843	-0.04624201
31	0x3d28595c	0.041100845
32	0xbcf3b684	-0.029750116
33	0x3daf47e1	0.08558632
34	0x3d2d2258	0.04226908
35	0x3b76c68d	0.0037654967
36	0xbdb54074	-0.08850184
37	0xbe18980c	-0.14901751
38	0x3dfb1807	0.12260442
39	0x3d714d43	0.058911573
40	0x3d6f3116	0.05839642
41	0xbd9abf28	-0.075559914
42	0x3d05fb40	0.032710314
43	0x3ddf2215	0.108951725
44	0xbd8c7c2d	-0.06859622
45	0x3d893a0d	0.067005254
46	0x3d114ddb	0.03547464
47	0x3cc38ad8	0.023869917
48	0x3ced07d9	0.028934406
49	0xbd3ce4ad	-0.04611652
50	0xbce151a0	-0.027504742
51	0xbd7d88e7	-0.06189814
52	0xbdf47907	-0.11937147
53	0xbd5f7772	-0.05455727
54	0xbdc0fb98	-0.09422988
55	0x3d8f5272	0.06998147
56	0x3ce4b63a	0.027918924
57	0x3cb8c9ae	0.022557106
58	0x3da423d6	0.08014648
59	0xbe052264	-0.130014
60	0xbd2ec0e0	-0.04266441
61	0x3d163828	0.03667465
62	0xbe729bcb	-0.23692243
63	0x3d44eb40	0.048075914
64	0xbd863956	-0.06553905
65	0xbd026dd5	-0.031843025
66	0x3dbd9af3	0.0925807
67	0xbda76141	-0.081728466
68	0x3e0b2b56	0.1359075
69	0xbdc32643	-0.09528782
70	0x3dbd1517	0.09232538
71	0x3e01fd63	0.12694316
72	0xbc414050	-0.011795118
73	0xbdbb67f1	-0.091506846
74	0x3e0f1aa0	0.13975
75	0x3e1b82b4	0.15186578
76	0x3d87bdf1	0.06628025
77	0x3d258968	0.040414244
78	0x3d446244	0.047945276
79	0xbbba58ef	-0.0056868712
80	0xbca67f00	-0.02032423
81	0x3e15f2d9	0.1464342
82	0x3c898dbc	0.016791217
83	0x3cbcd44c	0.02305045
84	0x3d9fef4e	0.078093156
85	0x3cd61d91	0.026137145
86	0xbdbcffbb	-0.09228464
87	0x3cb48a77	0.022038681
88	0x3d113d82	0.03545905
89	0xbdecf903	-0.11570933
90	0x3df3ea1b	0.119098864
91	0x3e25d785	0.16195495
92	0xbca42156	-0.020035427
93	0x3d822eae	0.0635656
94	0xbd43dff5	-0.047821004
95	0x3c6d865c	0.014497366
96	0x3df190da	0.11795206
97	0xbc37d7eb	-0.011220912
98	0xbbc0332d	-0.0058654756
99	0x3d095278	0.033525914
100	0x3d301f9c	0.042998895
101	0x3d985f29	0.07440025
102	0xbd858a87	-0.065205626
103	0xbdab2bdb	-0.08357974
104	0x3cd9867d	0.026553387
105	0x3dabf520	0.08396363
106	0xbd2dd3c4	-0.042438284
107	0x3bde772c	0.0067891087
108	0x3e1ecf39	0.15508737
109	0x3d97637c	0.07392022
110	0x3de19b67	0.11015969
111	0xbc667304	-0.014065508
112	0x3d66eaa7	0.056376126
113	0x3dbecd1d	0.09316466
114	0xbdf140d4	-0.11779943
115	0x3c9e08c2	0.019291285
116	0xbd4e55bc	-0.05037473
117	0xbdbd1a52	-0.09233536
118	0xbc13be05	-0.009017472
119	0x3bdfc785	0.0068292045
120	0xbd8cc3da	-0.06873293
121	0xbd370274	-0.044680074
122	0xbcb0606c	-0.021530353
123	0x3d4bb610	0.049734175
124	0xbc342fb2	-0.0109977
125	0xbd99964b	-0.07499369
126	0x3c855b1e	0.0162788
127	0x3c832d10	0.016012698
128	0xbda34d99	-0.07973785
129	0xbdb3dbf1	-0.08782185
130	0xbd8096e8	-0.06278783
131	0xbce86937	-0.028370483
132	0xbdcfa012	-0.10137953
133	0x3d99f15a	0.07516737
134	0xbdd7bd1e	-0.10534118
135	0xbcef8e2c	-0.029242598
136	0x3d82a9ba	0.06380029
137	0x3d95871b	0.0730116
138	0x3e1491be	0.14508721
139	0xbd43cc25	-0.04780211
140	0xbc7916b5	-0.015203168
141	0x3de6a97f	0.112627976
142	0xbd4cca6a	-0.049997725
143	0xbd4da920	-0.05021012
144	0xbcd1b018	-0.025596663
145	0x3be040af	0.0068436484
146	0x3d35f6f9	0.044424985
147	0x3bbe6b68	0.0058111437
148	0xbddefd11	-0.10888112
149	0xbd7c01d2	-0.061525173
150	0x3d943aee	0.072378024
151	0xbdb97af7	-0.09056657
152	0xbcb68430	-0.022279829
153	0x3d9d8b86	0.076926276
154	0x3da4dc22	0.080497995
155	0xbd971c10	-0.07378399
156	0xbd610747	-0.05493858
157	0x3e1c147c	0.15242189
158	0x3da537dd	0.08067296
159	0x3e0a3082	0.13495067
160	0xbdb78bb6	-0.089621946
161	0x3d10df4d	0.035369206
162	0x3de3baf1	0.111196406
163	0xbd8752c4	-0.06607583
164	0xbd018d76	-0.03162905
165	0x3d1c1005	0.038101215
166	0x3d29dc3d	0.0414698
167	0xbdd282c9	-0.102788515
168	0xbcc0c2c5	-0.023530373
169	0xbdc72e3e	-0.09725617
170	0xbd31de10	-0.043424666
171	0x3e07081f	0.13186692
172	0x3db15d77	0.08660405
173	0xbcd48cee	-0.025946107
174	0xbd54b1b0	-0.05192727
175	0x3dd74ae0	0.10512328
176	0x3caca1dc	0.021073274
177	0x3c752f43	0.014964881
178	0x3db506c5	0.08839182
179	0xbd409a74	-0.047022298
180	0xbdb79206	-0.08963399
181	0xbd43c050	-0.047790825
182	0x3d2798fb	0.040917378
183	0x3dc23979	0.09483618
184	0xbe028616	-0.12746462
185	0xbdc765d3	-0.09736218
186	0x3daa811d	0.08325408
187	0x3dbaffaf	0.09130799
188	0xbdda4e46	-0.10659461
189	0xbdd03c1b	-0.10167714
190	0x3d9bb821	0.07603479
191	0x3c061e50	0.008185938

target_net.fc2.bias f4 [3]
0	0xbc2e199c	-0.010626223
1	0x3c90085b	0.01758211
2	0x3d4d5f22	0.050139554

tatic_net.fc1.weight f4 [64, 42]
0	0x3e12307b	0.14276306
1	0xbd1dcabf	-0.038523432
2	0x3bf0c38d	0.00734753
3	0xbe0e4699	-0.13894118
4	0x3d38ee4d	0.045149136
5	0xbe223191	-0.1583922
6	0xbd32bc13	-0.043636393
7	0xbdd78c36	-0.1052479
8	0x3dbc5ec5	0.09197763
9	0x3e0241d2	0.12720421
10	0xbdc8caaf	-0.09804284
11	0x3cd59f53	0.026076948
12	0xbe000669	-0.12502445
13	0x3dffcbe0	0.12490058
14	0x3db9dfd6	0.090758964
15	0xbdec5978	-0.11540502
16	0xbe219783	-0.15780453
17	0x3dc5e664	0.09663084
18	0x3c63aa9e	0.013895659
19	0xbddeac56	-0.10872714
20	0x3e1d3df6	0.15355667
21	0xbdc0c089	-0.09411723
22	0xbd446503	-0.047947895
23	0x3e2df051	0.16986205
24	0xbe167791	-0.14694048
25	0x3dbc6c20	0.09200311
26	0xbd9218cf	-0.07133638
27	0xbdca9ebe	-0.09893559
28	0x3d9cc24d	0.076542474
29	0xbd38cd05	-0.045117397
30	0x3d06539a	0.032794572
31	0x3dfba9a0	0.12288213
32	0xbc5a0661	-0.013307185
33	0xbe198616	-0.14992556
34	0x3dd25815	0.102707066
35	0x3deaf1dc	0.11471912
36	0xbddde119	-0.108339496
37	0x3cb6b88e	0.0223048
38	0x3d41149b	0.04713879
39	0x3d8ba418	0.06818408
40	0x3dae8696	0.08521764
41	0xbd28a037	-0.041168418
42	0xbdfccea1	-0.12344099
43	0x3e15ce1a	0.14629403
44	0xbd621fb2	-0.05520601
45	0x3e00dcf4	0.12584287
46	0xbc32d0e1	-0.010914058
47	0x3dd7a877	0.10530179
48	0x3e0e1b43	0.13877587
49	0xbd194a7d	-0.037424553
50	0xbc21c654	-0.009873945
51	0xbc758af5	-0.014986743
52	0x3dad1f21	0.08453203
53	0x3db42b44	0.08797315
54	0xbdad5c38	-0.08464855
55	0xbc9005bf	-0.017580865
56	0xbda9c7c4	-0.082900554
57	0xbdf7ade9	-0.120937176
58	0x3d96b232	0.07358207
59	0x3dce596d	0.1007565
60	0x3db07906	0.086168334
61	0x3d92ad60	0.07161975
62	0xbd184cf3	-0.03718276
63	0x3d08cda3	0.033399235
64	0x3e1d4c7a	0.15361205
65	0xbd307e82	-0.043089397
66	0xbdb53643	-0.0884824
67	0x3df17c28	0.11791259
68	0x3daf4c62	0.08559491
69	0x3c15dc36	0.009146741
70	0xbe04f634	-0.12984544
71	0x3a902d7d	0.0010999885
72	0xbdc1de1f	-0.09466194
73	0x3d27e394	0.04098852
74	0xbe1729a4	-0.14761978
75	0xbdf499b6	-0.119433805
76	0xbd1cd51e	-0.038289182
77	0x3e080c3c	0.13285917
78	0xbe06adb9	-0.13152207
79	0xbd5ba251	-0.053621594
80	0xbe14a7dc	-0.14517158
81	0x3dcf0f0d	0.101102926
82	0xbca9d000	-0.020729065
83	0x3d8579c4	0.065173656
84	0x3d830536	0.06397478
85	0x3db2402c	0.08703646
86	0xbdf9dabe	-0.12199925
87	0xbe04461b	-0.12917368
88	0xbe120a38	-0.1426171
89	0x3e63bd1c	0.22240108
90	0x3d44d000	0.048049927
91	0x3dad94a3	0.08475616
92	0x3d862f08	0.06551939
93	0x3d4d8fa4	0.050185814
94	0xbd326a57	-0.043558445
95	0x3d973b0a	0.07384308
96	0xbe198267	-0.14991151
97	0xbe0984bf	-0.13429545
98	0x3d98dae8	0.07463628
99	0xbda3e0b9	-0.08001847
100	0x3e1c5d34	0.15269929
101	0xbdb95e29	-0.09051163
102	0x3d96a3b5	0.073554434
103	0xbdf66fd8	-0.12033051
104	0xbdb6fd84	-0.08935073
105	0xbd368aed	-0.044566084
106	0xbdff937d	-0.12479303
107	0xbd24b73c	-0.04021381
108	0x3d5615d5	0.052266914
109	0x3ccab8a8	0.024746254
110	0xbd7ad26e	-0.061235838
111	0x3dcdd056	0.100495026
112	0xbc8f2d24	-0.01747758
113	0x3db7de83	0.089779876
114	0xbe0f236e	-0.13978359
115	0x3ba6ca0e	0.0050900048
116	0x3d233fcb	0.03985576
117	0x3d46880e	0.048469596
118	0xbe0a22b8	-0.13489807
119	0x3cbcbe84	0.023040064
120	0x3d474cc4	0.048657194
121	0xbe144fb5	-0.14483531
122	0xbe182f74	-0.14861852
123	0x3dc5aa32	0.09651603
124	0xbe145063	-0.1448379
125	0xbb5ff141	-0.0034170898
126	0xbe110c81	-0.14164926
127	0xbddde032	-0.108337775
128	0x3d903b6f	0.07042586
129	0x3e286a07	0.16446696
130	0x3d58b02d	0.05290239
131	0x3e531ced	0.20616503
132	0xbe0ff596	-0.14058527
133	0xbdfabaeb	-0.12242683
134	0xbdfb7677	-0.12278455
135	0x3e1b6dfa	0.15178671
136	0xbd0324bd	-0.03201746
137	0x3d377365	0.044787783
138	0x3d976c84	0.073937446
139	0xbe13ec44	-0.14445597
140	0x3dbae7ba	0.091262296
141	0xbe2added	-0.1668622
142	0xbbd4c77d	-0.0064935074
143	0x3e053ee8	0.13012278
144	0x3d9ba12f	0.07599103
145	0x3e1cd55e	0.15315768
146	0x3c5645c3	0.013078156
147	0x3d96be09	0.07360465
148	0xbdc05b37	-0.09392398
149	0x3e08252d	0.13295431
150	0xbd8710e2	-0.06595017
151	0xbde41470	-0.11136711
152	0x3dd2d672	0.102948084
153	0xbd986d17	-0.07442682
154	0x3e10f5bf	0.14156245
155	0xbdceb84a	-0.10093744
156	0x3cc09f1c	0.02351337
157	0xbd0b8515	-0.034062464
158	0x3da12be8	0.078697026
159	0xbcb58137	-0.022156341
160	0x3df8ce91	0.121487744
161	0x3b38341b	0.002810723
162	0xbe0fe61d	-0.14052625
163	0xbda13265	-0.0787094
164	0xbe393261	-0.18085624
165	0x3dcc9ab5	0.099904455
166	0xbd950d7a	-0.07277961
167	0x3e1dee2d	0.15422888
168	0x3d52344b	0.0513194
169	0xbe02fd25	-0.1279188
170	0xbe0aba18	-0.13547552
171	0xbe000c83	-0.12504773
172	0x3d7e4a17	0.062082376
173	0xbdde0916	-0.10841577
174	0xbdd1c819	-0.10243244
175	0xbe1821f8	-0.14856708
176	0xbd13f0ae	-0.036118202
177	0xbdb755f8	-0.08951944
178	0xbddb8ec4	-0.1072059
179	0x3e1b4426	0.15162715
180	0xbcf3c888	-0.029758707
181	0xbda28542	-0.07935573
182	0xbd14c0da	-0.03631673
183	0xbe08f01e	-0.13372847
184	0xbbb338f0	-0.005469434
185	0x3e1606c0	0.14651012
186	0xbd960216	-0.073246166
187	0x3cca6f21	0.024711194
188	0xbdd6c02f	-0.10485875
189	0x3d39b6b7	0.045340266
190	0xbdd59bf9	-0.1043014
191	0xbe28adb9	-0.1647252
192	0x3ddea1e5	0.10870723
193	0x3dda38e2	0.10655381
194	0x3dbbf2dd	0.09177182
195	0x3d4a1c22	0.049343236
196	0xbe114037	-0.14184652
197	0x3cfdb25c	0.030968837
198	0x3d441f3f	0.04788136
199	0x3dcf67d3	0.10127225
200	0xbc3d859b	-0.011567499
201	0xbded44ce	-0.11585389
202	0xbc205ba3	-0.009787473
203	0x3da73f86	0.08166413
204	0xbd387704	-0.045035377
205	0xbc01911a	-0.00790813
206	0x3c3b1149	0.011417695
207	0xbbe9254f	-0.0071150432
208	0x3d01ad1d	0.031659234
209	0x3e1c3437	0.15254293
210	0x3d9d237e	0.07672785
211	0xbdf79fda	-0.12091036
212	0x3e159cd7	0.14610611
213	0xbb935a33	-0.0044968366
214	0xbd47acc0	-0.04874873
215	0x3d01dfdc	0.03170763
216	0x3cad1aba	0.021130908
217	0x3d12f64d	0.035879422
218	0xbb1f854f	-0.0024340933
219	0x3d98ce2f	0.074612014
220	0xbde19618	-0.11014956
221	0x3ddea38e	0.10871039
222	0x3d7d6238	0.061861247
223	0x3db632af	0.08896386
224	0x3d33fb23	0.043940675
225	0x3cabf0a2	0.020988766
226	0xbdb820f1	-0.08990658
227	0xbe33b6dd	-0.17550226
228	0x3dd1bf35	0.10241548
229	0xbdb25ac2	-0.08708717
230	0x3d7084ec	0.058720514
231	0x3c56794d	0.013090444
232	0xbdfe30b0	-0.1241163
233	0xbb9f46fc	-0.004860757
234	0x3cdcd516	0.026957076
235	0x3d67ba86	0.056574367
236	0xbbdefafc	-0.006804822
237	0x3d1920ca	0.037384786
238	0xbdfe43f7	-0.12415307
239	0xbd62290f	-0.055214938
240	0x3e1dbf90	0.15405107
241	0x3e05e8e2	0.13077119
242	0xbd9cdf8d	-0.076598264
243	0x3e0bf760	0.13668585
244	0x3e0ccfa2	0.1375108
245	0x3affac01	0.0019506217
246	0xbdc4f414	-0.09616867
247	0x3ddaf12b	0.106905304
248	0xbe00f27d	-0.12592502
249	0x3def63c4	0.11688951
250	0x3ca21c32	0.019788835
251	0xbe0526d7	-0.13003097
252	0x3dc60073	0.096680544
253	0x3dfdffd4	0.12402311
254	0x3db03936	0.08604662
255	0xba8d7542	-0.0010792392

tatic_net.fc1.bias f4 [64]
0	0x3dd3dd2a	0.10344918
1	0xbd8f4c4f	-0.069969766
2	0x3d3e75cd	0.046499062
3	0x3dbf1073	0.09329309
4	0x3c970882	0.018436674
5	0x3d9f968b	0.07792386
6	0xbd2c2be0	-0.04203403
7	0xbd9bd150	-0.076082826
8	0xbdaae983	-0.0834532
9	0x3ae64e27	0.0017570899
10	0x3d731c07	0.0593529
11	0x3dcde255	0.10052935
12	0xbda18fd8	-0.07888764
13	0x3d087017	0.033310022
14	0x3d3fa47e	0.04678773
15	0x3ddea715	0.10871712
16	0xbda161cb	-0.07879981
17	0x3dcd4f7b	0.10024925
18	0x3e08d2d1	0.1336167
19	0x3dd495a9	0.10380108
20	0x3d3cf282	0.04612971
21	0x3df902d0	0.121587396
22	0xbdc738b3	-0.097276114
23	0x3e0b371c	0.13595241
24	0xbd89f1a5	-0.06735543
25	0xbd5d0772	-0.05396218
26	0xbd7b87bf	-0.061408754
27	0xbc2e44bd	-0.010636506
28	0xbe14872f	-0.14504693
29	0x3dfd472c	0.123670906
30	0xbdbc7814	-0.092025906
31	0xbd616685	-0.05502941
32	0x3e054dcb	0.13017957
33	0xbdb161b9	-0.08661217
34	0x3dbc147c	0.091835946
35	0xbd2c0dcd	-0.04200535
36	0x3c7a5a52	0.015280323
37	0xbd3c74d1	-0.046009842
38	0x3d4506b8	0.04810211
39	0x3d858360	0.065191984
40	0xbda2e920	-0.07954621
41	0xbdc99390	-0.098425984
42	0x3d7d1218	0.061784834
43	0x3e08092a	0.13284746
44	0x3d8d5ca4	0.069024354
45	0x3e2112c6	0.15729818
46	0xbe041979	-0.12900342
47	0x3dc51cd8	0.09624642
48	0x3d29a284	0.041414753
49	0xbdde873a	-0.10865636
50	0xbe0576c0	-0.13033581
51	0xbd6430b9	-0.055710528
52	0xbd0f34f2	-0.034962602
53	0x3c657dac	0.014007013
54	0xbcd8f03e	-0.026481744
55	0x3c943647	0.018092288
56	0x3e177174	0.14789373
57	0x3d4e28b5	0.05033179
58	0x3d81f522	0.063455835
59	0x3da834e9	0.08213217
60	0x3c35d5a0	0.011098295
61	0xbdce33e5	-0.10068492
62	0xbdebfe78	-0.115231454
63	0xbda95d2c	-0.08269724

tatic_net.fc2.weight f4 [6, 64]
0	0x3d0847c8	0.03327158
1	0x3d82a666	0.06379394
2	0xbd771e68	-0.060331732
3	0x3d907f94	0.070555836
4	0xbd1744b0	-0.03693074
5	0x3c6d5760	0.014486164
6	0x3a416700	0.0007377714
7	0x3dc531fc	0.096286744
8	0x3da534ec	0.08066735
9	0xbdbc0198	-0.091799915
10	0x3dd9063a	0.10596891
11	0x3dc14322	0.09436633
12	0xbda64bae	-0.081199035
13	0x3cdae240	0.026719213
14	0xbd2f1e34	-0.042753413
15	0x3d9c6e72	0.07638253
16	0xbdf29d1a	-0.11846371
17	0xbdcba4da	-0.09943552
18	0xbc0f14c0	-0.0087329745
19	0x3d047404	0.032337204
20	0x3debd7c2	0.11515762
21	0xbddd935a	-0.10819121
22	0x3d9e3e9a	0.07726784
23	0xbbfa6960	-0.007641956
24	0xbc490dc0	-0.012271345
25	0xbdf7af72	-0.120940104
26	0x3de58180	0.11206341
27	0x3db2613c	0.08709952
28	0x3d5e98dc	0.054344997
29	0x3ca16bb8	0.019704685
30	0xbd0836ac	-0.033255264
31	0xbdc26f6e	-0.0949391
32	0xbdcf9f0c	-0.10137758
33	0x3d33248c	0.043736026
34	0xbc9b53b0	-0.018960804
35	0x3cac6738	0.021045312
36	0x3df0f3f4	0.1176528
37	0x3c010000	0.007873535
38	0x3c0c3860	0.008558363
39	0xbde1338c	-0.1099616
40	0xbdb48d0a	-0.088159636
41	0xbdcd9b08	-0.100393355
42	0xbc26e2f0	-0.010185942
43	0xbde6ec50	-0.11275542
44	0xbdf8a910	-0.12141621
45	0xbd4ee970	-0.050515592
46	0x3c4cfa70	0.012510881
47	0x3d72f74c	0.059317872
48	0x3d2e2260	0.04251325
49	0x3d7e1ff0	0.062042177
50	0xbda6a986	-0.08137803
51	0xbdca572c	-0.09879908
52	0xbdb3f2c6	-0.0878654
53	0xbdaa5ba2	-0.08318259
54	0x3c0da0c0	0.008644283
55	0xbdc7109a	-0.09719963
56	0xbc77daa0	-0.015127808
57	0xbd8e5be4	-0.069511205
58	0x3dda6e78	0.106656015
59	0x3c995630	0.018717855
60	0x3bd7f0c0	0.006589979
61	0x3dc7b3a8	0.097510636
62	0xbd840680	-0.06446552
63	0x3dbf78b2	0.09349193
64	0xbd782ce8	-0.0605897
65	0x3dee9f0b	0.11651429
66	0xbd404ecb	-0.046950143
67	0x3d424007	0.047424342
68	0xbe11a0d2	-0.14221504
69	0x3baed768	0.005335737
70	0xbd98aed9	-0.074552245
71	0xbe10bc80	-0.14134407
72	0xbd48757b	-0.048940163
73	0x3dd68c28	0.104759514
74	0xbe045267	-0.12922059
75	0x3dccd636	0.10001795
76	0x3d402979	0.04691455
77	0xbd8d7240	-0.06906557
78	0x3da5f441	0.08103228
79	0xbcde559f	-0.027140437
80	0x3d0e9840	0.034813166
81	0xbb7ae4b7	-0.0038283297
82	0xbd28c2dd	-0.04120146
83	0xbdc54792	-0.096327916
84	0x3caf1f7f	0.021377323
85	0x3cf3abb1	0.029744955
86	0xbdb5ce76	-0.0887727
87	0xbce359f4	-0.027752854
88	0x3db6a7e5	0.08918742
89	0xbcb41345	-0.021981845
90	0xbd52118b	-0.05128626
91	0xbd8f46fa	-0.069959596
92	0x3c74f04d	0.01494987
93	0x3d61c1bd	0.055116404
94	0xbd45e518	-0.048314184
95	0xbdeb3745	-0.11485151
96	0x3d72beba	0.059263922
97	0x3d22672f	0.039649185
98	0x3e18e615	0.1493152
99	0x3d717d19	0.058957193
100	0x3d6f0150	0.05835086
101	0x3d655091	0.055985037
102	0xbc82d07c	-0.015968554
103	0x3d287bef	0.041133817
104	0xbd054406	-0.032535575
105	0x3dbc3f00	0.09191704
106	0x3da45c3f	0.08025407
107	0x3b585472	0.0033009318
108	0xbd096c3f	-0.033550497
109	0xbdd6d498	-0.10489768
110	0x3c808a2d	0.015690887
111	0xbc71ea29	-0.014765301
112	0xbdeb4596	-0.11487882
113	0x3d2fece5	0.04295053
114	0x3dcb1df6	0.09917824
115	0xbdeac3c2	-0.11463119
116	0x3d580fd2	0.052749462
117	0x3d94e5de	0.07270406
118	0xbd00f4fc	-0.031483635
119	0xbe06dc54	-0.13169986
120	0xbd067572	-0.03282685
121	0xbdb29e0a	-0.0872155
122	0x3e1d8bd0	0.15385365
123	0x3d0ea22d	0.03482263
124	0x3dc87670	0.09788215
125	0xbd2fb2b6	-0.04289504
126	0x3cdece00	0.027197838
127	0xbc738d49	-0.014865228
128	0xbd837f21	-0.06420732
129	0xbd3c4736	-0.04596635
130	0x3c905ab5	0.017621377
131	0x3d950d12	0.072778836
132	0x3da0a8cd	0.07844696
133	0xbd247192	-0.04014737
134	0x3d5771e6	0.052598856
135	0x3d0f5667	0.03499451
136	0xbc15364e	-0.0091071855
137	0xbde3b400	-0.11118317
138	0xbc6e910a	-0.014560947
139	0xbba3fea5	-0.005004721
140	0x3da54fce	0.08071862
141	0xbcc09d43	-0.023512488
142	0xbd2d9cb7	-0.042385783
143	0xbcabadb2	-0.020956848
144	0xbdf24f3d	-0.1183152
145	0xbd70396b	-0.058648508
146	0xbd4eec1d	-0.050518144
147	0xbda70a12	-0.08156218
148	0x3d83955c	0.064249724
149	0x3e0639c0	0.13107967
150	0x3d857798	0.06516951
151	0xbbd21eb9	-0.006412354
152	0x3d1abb65	0.03777637
153	0x3d2ec55a	0.042668678
154	0xbd05ad51	-0.03263599
155	0xbb8c0ac3	-0.004273744
156	0x3dfb9c3b	0.12285658
157	0x3cd917b8	0.026500568
158	0xbd04362e	-0.032278232
159	0x3ac5fa20	0.001510445
160	0x3ccc6959	0.024952577
161	0x3dfa27b4	0.12214604
162	0x3ca3a0c0	0.019974113
163	0x3daab2ee	0.083349094
164	0xbc8e4c4f	-0.017370371
165	0x3db7b8c9	0.08970792
166	0xbd8aad31	-0.06771315
167	0xbe08de97	-0.13366161
168	0x3dd9e694	0.106396824
169	0x3e327585	0.17427643
170	0xbd9b9a82	-0.075978294
171	0x3de16d6a	0.11007197
172	0xbcd78df4	-0.026312806
173	0x3c705d64	0.014670704
174	0x3db5f692	0.0888492
175	0x3df5e742	0.120069996
176	0xbd9388c3	-0.072038196
177	0xbd45abf7	-0.0482597
178	0x3cc0a935	0.023518184
179	0x3dbb016c	0.091311306
180	0xbd98ee4b	-0.07467326
181	0x3e018442	0.12648109
182	0xbda08bd4	-0.0783917
183	0xbc810c1e	-0.015752848
184	0xbe0d4933	-0.13797455
185	0xbd390f75	-0.045180757
186	0x3e1ad5cc	0.1512062
187	0x3e4e75c0	0.20162106
188	0xbd61a1c9	-0.05508593
189	0x3d74dec6	0.059782766
190	0x3ce431c8	0.027855769
191	0x3dc1b415	0.09458176
192	0xbd018c48	-0.031627923
193	0x3dc6fdab	0.09716352
194	0x3cf1503e	0.029457208
195	0x3dd093d7	0.10184448
196	0x3c2baacb	0.010477732
197	0x3bd8fa93	0.0066216676
198	0x3cf7ee46	0.030264985
199	0xbcc06f1f	-0.023490487
200	0xbcbf6aa0	-0.023366272
201	0xbc71dede	-0.014762608
202	0xbdca380d	-0.09873972
203	0xbdab063c	-0.083507985
204	0x3caafc34	0.020872213
205	0xbd95c918	-0.07313746
206	0xbd7e4694	-0.062079027
207	0x3c335000	0.010944366
208	0x3da7caf0	0.08193004
209	0xbdcb63d1	-0.09931148
210	0x3cb7cab3	0.022435522
211	0xbd5a5a76	-0.053308927
212	0xbd838f11	-0.06423772
213	0xbd88a4f1	-0.06672085
214	0x3d46313c	0.048386797
215	0xbc820d2e	-0.015875425
216	0x3d4b6bdc	0.04966341
217	0xbd48286e	-0.04886668
218	0xbcc24b65	-0.023717592
219	0x3c689b5b	0.014197196
220	0xbddcd654	-0.10783067
221	0x3e097074	0.13421804
222	0xbd4147c2	-0.047187574
223	0xbd71cead	-0.059034992
224	0xbdfc81b0	-0.123294234
225	0x3de22052	0.11041321
226	0x3e05a934	0.13052827
227	0xbccfac59	-0.025350736
228	0x3d4e89fa	0.050424553
229	0xbd4808d5	-0.048836548
230	0xbbee276d	-0.0072678835
231	0x3d22db67	0.03976002
232	0x3dd9230f	0.1060239
233	0x3d568357	0.05237135
234	0xbd804dfe	-0.06264876
235	0xbd847137	-0.064669065
236	0xbd4b8985	-0.049691696
237	0x3dbe86d8	0.09303063
238	0x3dbfd0da	0.09366007
239	0xbcf8fc29	-0.030393677
240	0xbdc14282	-0.094365135
241	0x3e3ab6fb	0.18233864
242	0x3d65e499	0.05612621
243	0xbdac3a55	-0.084095635
244	0xbcdcef16	-0.026969474
245	0x3d431e34	0.047636226
246	0xbdaae654	-0.08344713
247	0xbd615644	-0.05501391
248	0xbe022df1	-0.12712838
249	0x3da61242	0.08108951
250	0x3e1396fc	0.14413065
251	0x3d18a9e6	0.037271403
252	0xbdb91631	-0.09037436
253	0xbd87cd17	-0.06630915
254	0x3b9bd97f	0.004756152
255	0xbd2f3569	-0.042775545

tatic_net.fc2.bias f4 [6]
0	0x3d65b9c4	0.056085363
1	0xbddfcde1	-0.1092794
2	0x3cba631a	0.022752333
3	0x3c769721	0.01505068
4	0x3d0ab220	0.03386128
5	0xbdafa0a6	-0.08575563

tatic_net.fc3.weight f4 [6, 3]
0	0xbeb52158	-0.35377002
1	0x3ebeb8e6	0.3725044
2	0xbed626ff	-0.41826627
3	0x3de5b86b	0.112168156
4	0x3ed28e64	0.4112426
5	0xbd90aaee	-0.07063852
6	0x3e8b2190	0.27174044
7	0xbe0423bb	-0.12904255
8	0xbe817124	-0.25281632
9	0x3ea40e17	0.32042
10	0xbe52381c	-0.20529217
11	0xbf1b3f5f	-0.6064357
12	0xbe7dbc61	-0.24778892
13	0xbf0518b3	-0.51990813
14	0x3f10212b	0.5630061
15	0x3f1cc7a8	0.6124215
16	0x3ef0f7b0	0.4706397
17	0x3bd48dc7	0.0064866277

tatic_net.fc3.bias f4 [6]
0	0x3eb7a44e	0.35867542
1	0x3f060f60	0.5236721
2	0x3e0b1f5d	0.13586183
3	0x3eae88cb	0.3408874
4	0xbdbaf361	-0.09128452
5	0xbdb07e45	-0.08617834

tatic_net.fc4.weight f4 [3, 9]
0	0x3e917c41	0.2841511
1	0x3ec03613	0.37541255
2	0x3da1b211	0.078952916
3	0x3e885a6b	0.26631483
4	0x3ee16801	0.4402466
5	0x3ebc5523	0.36783704
6	0xbddfac27	-0.10921507
7	0x3eb95da9	0.3620427
8	0xbe0653f7	-0.13117968
9	0x3d39095e	0.04517495
10	0x3c2aad40	0.010417283
11	0xbdf9d368	-0.12198526
12	0x3e64aca2	0.22331479
13	0xbe52534b	-0.20539586
14	0x3e821b70	0.25411558
15	0x3e7072d1	0.23481299
16	0x3e45f060	0.19329977
17	0x3ee0b6a6	0.4388935
18	0x3db0503a	0.08609052
19	0xbd231b42	-0.039820917
20	0x3e977fbb	0.29589638
21	0xbe66ebf7	-0.22550951
22	0x3cf7b28a	0.030236501
23	0x3ddb5506	0.10709576
24	0xbda7fab4	-0.08202115
25	0x3de2050f	0.11036121
26	0x3d9000eb	0.07031425

tatic_net.fc4.bias f4 [3]
0	0xbe396de6	-0.18108329
1	0xbe3fd4b0	-0.18733478
2	0xbd668c08	-0.056285888

fc1.weight f4 [256, 108]
0	0xb9df6917	-0.00042612173
1	0xbca28eb6	-0.01984344
2	0x3da39dde	0.07989095
3	0x3d92458c	0.07142171
4	0xbd5889bf	-0.05286574
5	0x3d54963e	0.051901095
6	0x3cb939c7	0.022610558
7	0xbd15f828	-0.036613613
8	0x3d96d918	0.07365626
9	0x3c8d5c85	0.01725603
10	0xbd7d8445	-0.06189372
11	0x3d7b416b	0.061341684
12	0xbd259135	-0.040421683
13	0xbdb59c02	-0.08867647
14	0x3cb69968	0.022289947
15	0x3d7d39b2	0.0618226
16	0x3cdfcaa7	0.027318312
17	0xbdb89679	-0.090130754
18	0xbc98ea83	-0.018666511
19	0x3bfa2b72	0.0076345736
20	0xbcc4d8cb	-0.024029156
21	0xbdabdab9	-0.083913274
22	0x3d771a1e	0.06032764
23	0x3d80a197	0.06280821
24	0x3d690079	0.056885216
25	0x3da5379c	0.08067247
26	0xbd66fa07	-0.05639079
27	0x3cd5f1d4	0.02611629
28	0xbd0e340d	-0.03471761
29	0x3d7a63bf	0.06113028
30	0xbda24380	-0.07923031
31	0x3db4868d	0.08814726
32	0xbb4125d1	-0.0029472003
33	0xbdb4417a	-0.08801551
34	0x3c78f3de	0.015194861
35	0x3dae1f50	0.08502066
36	0xbd7c728b	-0.061632674
37	0x3d934e6f	0.071926944
38	0xbda93a22	-0.08263041
39	0xbcee3604	-0.029078491
40	0xbdb01211	-0.08597196
41	0xbcbaef5c	-0.022819214
42	0xbcad1b7c	-0.02113127
43	0xbd73d21c	-0.059526548
44	0x3b846f8c	0.0040416177
45	0x3d98ca60	0.07460475
46	0xbdc328cf	-0.09529268
47	0x3d95e47f	0.07318973
48	0x3d921fcd	0.07134972
49	0x3d89b6b9	0.06724305
50	0xbb826f57	-0.003980558
51	0xbbfab5e5	-0.007651078
52	0xbd5b68c4	-0.05356671
53	0x3d04544b	0.03230695
54	0x3d4ae651	0.049536053
55	0x3daecbed	0.085349895
56	0xbda00183	-0.07812788
57	0x3c496af6	0.012293568
58	0x3d3b1f39	0.045684073
59	0xbc93000e	-0.017944362
60	0xbd6a0f09	-0.057143245
61	0xbd14d856	-0.036339127
62	0x3d4f633b	0.050631743
63	0x3d78d2f3	0.06074805
64	0x3d4f1c72	0.050564237
65	0xbdba2bad	-0.09090362
66	0x3d87cdd0	0.066310525
67	0x3ce65395	0.028116027
68	0x3cdd3b83	0.027005916
69	0x3d43a7fd	0.047767628
70	0xbb8128a8	-0.003941614
71	0xbd25ca9a	-0.04047642
72	0xbdc237b1	-0.094832785
73	0xbda8c050	-0.08239806
74	0xbd8dbae9	-0.06920416
75	0xbd89f6e0	-0.06736541
76	0xbda46b9f	-0.080283396
77	0x3b544240	0.003238812
78	0xbd825513	-0.06363883
79	0x3b94e4f4	0.004543895
80	0x3d890c08	0.06691748
81	0x3d97689b	0.07392999
82	0xbd7efcfd	-0.062252987
83	0xbda78639	-0.08179898
84	0xbc964d1a	-0.018347312
85	0xbdbdafa0	-0.092620134
86	0xbd1ffe2e	-0.039060764
87	0xbda6e83d	-0.08149765
88	0x3ca40470	0.020021647
89	0xbd5cb9bd	-0.05388807
90	0xbd20cc76	-0.03925749
91	0x3d9c9526	0.07645635
92	0xbd22c2da	-0.039736606
93	0x3dc27e99	0.09496803
94	0x3d804d33	0.062647246
95	0xbde315c4	-0.11088136
96	0xbce6c44f	-0.02816978
97	0xbd00a941	-0.031411413
98	0x3d350a7b	0.044199448
99	0xbdbeb4ab	-0.093118034
100	0xbb4b4a29	-0.0031019545
101	0x3d7bc508	0.0614672
102	0x3d503ee7	0.05084124
103	0x3ce9278e	0.028461244
104	0xbdabb42b	-0.08383974
105	0xbbc88981	-0.0061199074
106	0x3d743df7	0.059629407
107	0xbd5d81d6	-0.0540789
108	0xbd2da416	-0.042392813
109	0xbd3f2f3c	-0.046675906
110	0xbd57947e	-0.052631848
111	0x3f3517e0	0.70739555
112	0x3f12daa2	0.5736486
113	0x3ee33943	0.44379625
114	0xbb24a575	-0.0025123034
115	0x3d8bfd6d	0.068354465
116	0xbb924bf1	-0.0044646193
117	0x3f3f0859	0.7462211
118	0x3f18d67f	0.59702295
119	0x3f040add	0.51579076
120	0xbd30a9e7	-0.04313078
121	0xbce85560	-0.028361022
122	0xbd8f8857	-0.07008427
123	0x3f1edaea	0.62052786
124	0x3f1704bd	0.58991605
125	0x3ed6e41d	0.41970912
126	0x3b2eb18d	0.0026656121
127	0x3c7a4085	0.015274172
128	0xbd43d253	-0.047808003
129	0xbd7a07b3	-0.0610425
130	0xbd48c845	-0.049019117
131	0x3e5c2c35	0.21501239
132	0xbd8e8b65	-0.06960181
133	0x3d7df29a	0.06199894
134	0x3d8825d8	0.06647843
135	0x3d11dbea	0.035610117
136	0xbb963792	-0.004584261
137	0x3eecec02	0.4627381
138	0x3d8a5e54	0.06756273
139	0xbd83de89	-0.064389296
140	0x3d534440	0.05157876
141	0x3d937343	0.07199719
142	0x3b3ae87b	0.0028519917
143	0x3ef6b6a4	0.4818622
144	0xbc843ec9	-0.01614322
145	0x3d768be5	0.060192008
146	0xbd5ee5b4	-0.05441828
147	0x3f2fcb10	0.68669224
148	0x3f2ea830	0.68225384
149	0x3eca526d	0.3951601
150	0x3acebcee	0.0015772858
151	0x3cafaf08	0.021445766
152	0x3d9f33d4	0.07773557
153	0x3f356597	0.7085814
154	0x3f0b7650	0.54477406
155	0x3ebb0cf4	0.3653332
156	0xbbb51bbb	-0.0055269874
157	0xbc6b32a8	-0.014355339
158	0x3d0b21d5	0.03396781
159	0x3f20398c	0.6258781
160	0x3f135f39	0.57567173
161	0x3ebf18d1	0.3732362
162	0xbd707e3d	-0.05871414
163	0xbd77cfec	-0.060501024
164	0xbc9103c4	-0.01770199
165	0x3d353556	0.04424032
166	0x3d955cd3	0.072930954
167	0x3e507fd5	0.20361264
168	0x3d3187b1	0.043342296
169	0xbdba60cb	-0.09100493
170	0xbc03d72d	-0.008046907
171	0xbd824e61	-0.06362606
172	0xbd163a7e	-0.036676876
173	0x3ec50556	0.38480633
174	0xbd00b524	-0.03142275
175	0x3a667580	0.00087913126
176	0x3dbf9b9d	0.09355853
177	0xbce87082	-0.02837396
178	0xbdc40468	-0.09571153
179	0x3edcc956	0.43122357
180	0x3d52a27f	0.0514245
181	0xbd2afddb	-0.041746
182	0xbd5530ec	-0.05204861
183	0x3f1cd0c7	0.6125607
184	0x3f261d42	0.64888394
185	0x3ea8053d	0.32816496
186	0x3c09bf4e	0.008407427
187	0xbc858f1e	-0.016303595
188	0x3d7a39d2	0.061090298
189	0x3f455b72	0.7709266
190	0x3f18ca55	0.59683734
191	0x3eba08eb	0.3633493
192	0xbd23002c	-0.039795086
193	0x3d8529b3	0.06502094
194	0x3ca0a1f7	0.01960848
195	0x3f34214f	0.70363325
196	0x3f136265	0.57572013
197	0x3f052876	0.52014863
198	0xbd6e6c3b	-0.058208685
199	0xbd934028	-0.07189971
200	0x3d6a90fd	0.057267178
201	0xb8a6c20d	-7.9516416e-05
202	0x3d2f3ad1	0.0427807
203	0x3e97a8c5	0.29620948
204	0x3c9d6f30	0.019218057
205	0xbc8caa90	-0.017171174
206	0x3ba38248	0.004989896
207	0x3db1906c	0.086701244
208	0xbd873cbd	-0.06603382
209	0x3ed89a40	0.42305183
210	0xbc423d04	-0.011855368
211	0x3d01b45a	0.031666137
212	0x3d1328ec	0.035927698
213	0x3cf19b01	0.029492857
214	0x3d928d93	0.071559094
215	0x3ec1222a	0.37721378
216	0x3d822d75	0.063563265
217	0x3c98c0df	0.018646656
218	0xbd99d2c4	-0.075109035
219	0xbd133dc6	-0.035947584
220	0xbc83dd74	-0.016096808
221	0xbd1e5ebd	-0.03866457
222	0x3d8f29b1	0.06990374
223	0xbdaa0ae3	-0.08302858
224	0x3dbfd7c1	0.09367324
225	0x3d8edc27	0.069755845
226	0x3c582e68	0.013194658
227	0x3d91f3d5	0.071265854
228	0x3d6a42e3	0.057192694
229	0x3d056959	0.03257117
230	0xbd1564e3	-0.036473166
231	0x3d5ca2d1	0.05386621
232	0x3d8da86b	0.06916889
233	0x3cf84ea7	0.030310942
234	0xbc57a2ac	-0.013161343
235	0xbd998d52	-0.07497658
236	0xbd7546e2	-0.059882052
237	0x3d448c9e	0.047985666
238	0x3db2e31c	0.08734724
239	0x3d573a2e	0.05254572
240	0x3dbd580b	0.092453085
241	0xbd152445	-0.036411542
242	0x3d5005a2	0.050786622
243	0x3d2536b8	0.040335387
244	0x3c32ff54	0.010925133
245	0xbdd8a38d	-0.1057807
246	0x3d92733a	0.07150884
247	0xbb5109a2	-0.003189661
248	0xbd7b79ce	-0.06139546
249	0xbd5f21c6	-0.05447557
250	0xbdbd411b	-0.092409335
251	0xbda55ef3	-0.08074751
252	0x3d8bce56	0.06826465
253	0x3c8acffb	0.016944876
254	0x3d925cc0	0.07146597
255	0xbd398488	-0.045292407

fc1.bias f4 [256]
0	0xbde0ba21	-0.10973001
1	0x3f20c959	0.6280723
2	0xbbdcd030	-0.006738685
3	0x3ef04ace	0.4693207
4	0x3e9e9881	0.30975726
5	0x3f27986e	0.65466964
6	0x3ecbacdb	0.39780316
7	0x3f22a33b	0.6353032
8	0x3f045e4d	0.5170639
9	0x3f14593b	0.57948655
10	0x3f232169	0.63722855
11	0x3f3ac960	0.72963524
12	0xbc7abcd4	-0.015303809
13	0x3f2ecbe8	0.68279886
14	0x3f1b85f7	0.6075129
15	0x3f4cbb49	0.79973274
16	0x3f1f7591	0.6228877
17	0x3f33daef	0.7025594
18	0x3f52ee57	0.8239493
19	0xbbd0eea2	-0.0063761035
20	0x3f2f0a08	0.6837468
21	0xbd81b570	-0.063334346
22	0x3f2fad91	0.68624216
23	0x3f17076b	0.58995694
24	0x3ef09493	0.46988353
25	0x3f3d28bb	0.73890275
26	0x3f1bfcbc	0.6093252
27	0x3f103b34	0.56340337
28	0x3f01ad1a	0.5065476
29	0x3f229efa	0.6352383
30	0xb9d833a5	-0.0004123721
31	0x3f508f02	0.8146821
32	0xbc1135c2	-0.0088629145
33	0x3f31035c	0.6914575
34	0xbdadc879	-0.08485503
35	0x3f201249	0.625279
36	0x3f2e2759	0.6802879
37	0x3f14e9eb	0.5816943
38	0xbc967ee9	-0.018371062
39	0x3f196561	0.59920317
40	0x3f18a7b0	0.5963087
41	0x3f24a993	0.6432125
42	0xbdbfba85	-0.09361748
43	0x3f22ade6	0.635466
44	0x3f0781f6	0.5293268
45	0x3f2c5e85	0.67331725
46	0x3e84c78c	0.25933492
47	0x3f4ae41c	0.7925432
48	0xbe003b9f	-0.12522744
49	0x3f154a38	0.58316374
50	0x3e9f1ca6	0.31076545
51	0xb986dd8c	-0.00025723537
52	0x3f208400	0.62701416
53	0x3f0fbe60	0.56149864
54	0x3f2e762f	0.68149084
55	0x3f227b81	0.634697
56	0x3ecc44ef	0.39896342
57	0x3f3781c6	0.71682394
58	0x3f351e90	0.7074976
59	0xbb51bbd1	-0.0032002816
60	0x3f37e224	0.7182944
61	0x3f346f22	0.70482075
62	0x3f4dafb6	0.8034624
63	0x3f240952	0.6407672
64	0x3f14ca9f	0.58121675
65	0x3f34202b	0.70361584
66	0xbca13cb8	-0.019682273
67	0x3f315e81	0.69284827
68	0x3f2f5f1a	0.6850449
69	0xbd6a493a	-0.05719874
70	0x3e9f6f12	0.31139427
71	0x3ef5ae9e	0.47984785
72	0x3f30fbc9	0.69134194
73	0x3f287e5c	0.6581781
74	0xbc8ca524	-0.017168589
75	0x3f338f43	0.70140475
76	0x3f2aa497	0.66657394
77	0x3f0f6827	0.560183
78	0xbbb82560	-0.00561969
79	0x3f31d2d4	0.69462323
80	0x3f338d1a	0.7013718
81	0xbdb3d381	-0.087805755
82	0x3f49d076	0.7883371
83	0x3f19af93	0.6003353
84	0x3f26a068	0.6508851
85	0x3f3eb0b8	0.744884
86	0x3f288903	0.65834063
87	0x3f0697af	0.525752
88	0x3f2f1e19	0.684053
89	0x3f3727d7	0.71545166
90	0x3e1c6276	0.15271935
91	0x3f0a92cf	0.5413026
92	0x3efb5ab3	0.49092636
93	0x3f2a17b1	0.664424
94	0x3f26991d	0.6507738
95	0xba2955f4	-0.00064596464
96	0x3f2940af	0.66114324
97	0x3f312c9c	0.69208694
98	0x3f1960c5	0.59913284
99	0xbdc2d67a	-0.095135644
100	0x3f4d32b6	0.80155504
101	0xbb418def	-0.0029534062
102	0x3f3763c4	0.71636605
103	0x3eecffdc	0.46288955
104	0xbd80df50	-0.062925935
105	0xba1ba9c7	-0.00059380796
106	0xbb579ba6	-0.003289917
107	0xbb8ac656	-0.0042350693
108	0x3f32bf21	0.6982289
109	0x3efc8bea	0.49325496
110	0xbcff480c	-0.031162284
111	0xbd071c1b	-0.032985788
112	0x3f3130e2	0.69215214
113	0x3f3b7182	0.73220074
114	0x3f355e1d	0.7084673
115	0x3f08b042	0.5339395
116	0xbdaed702	-0.08537103
117	0x3f1e75b5	0.61898357
118	0x3f3b6f86	0.73217046
119	0x3f19e7f2	0.60119545
120	0x3f3d5062	0.7395078
121	0xbd6b4bdb	-0.05744539
122	0x3f4e1b18	0.8051009
123	0x3f1ffe39	0.6249729
124	0x3f30243f	0.6880531
125	0xbce652c5	-0.02811564
126	0x3f418aba	0.75602305
127	0x3f226576	0.6343607
128	0x3f45e6da	0.77305377
129	0xbdcbe6eb	-0.099561535
130	0x3f20e858	0.6285453
131	0x3f3a170f	0.72691435
132	0x3f3566b8	0.7085986
133	0xbc1a8d07	-0.009433038
134	0xbd97c061	-0.0740974
135	0xb8f84ab4	-0.00011839476
136	0xbdb51e5d	-0.08843682
137	0x3f529b97	0.8226866
138	0x3f399a0d	0.7250069
139	0xbdc2e0e2	-0.09515549
140	0x3f0e5c67	0.55609745
141	0xbdd08c04	-0.10182956
142	0x3f2a84c3	0.6660883
143	0x3e35467a	0.17702666
144	0x3f2d4d21	0.67695814
145	0x3efb63bb	0.49099526
146	0x3f174b3c	0.59099174
147	0x3eaa9fa6	0.33324927
148	0x3f0573a0	0.52129555
149	0x3f270809	0.65246636
150	0xbc226d9e	-0.00991383
151	0x3f3006db	0.6876046
152	0x3f490741	0.78526694
153	0xbdbbeb41	-0.091757305
154	0x3f0b2307	0.5435032
155	0x3f3352b1	0.7004805
156	0x3f299467	0.6624207
157	0x3f34a4e1	0.70564085
158	0xbccde57c	-0.02513384
159	0x3f1165a2	0.56795704
160	0x3f25b8fd	0.64735395
161	0x3eb5d6cb	0.35515437
162	0x3f23ca9b	0.63981026
163	0x3f1d56fa	0.6146084
164	0x3f3a4fb2	0.72777855
165	0xb9e638f5	-0.00043911455
166	0x3f24a987	0.6432118
167	0x3f1c893f	0.6114692
168	0x3f2aa157	0.66652435
169	0x3f4bbdb4	0.7958634
170	0x3f3a6a03	0.7281801
171	0x3f1fd05d	0.6242731
172	0x3f4c3968	0.79775095
173	0x3f384d4d	0.7199295
174	0x3f32f46a	0.69904196
175	0x3f197b5b	0.5995385
176	0xbd6fe359	-0.058566425
177	0xbdc0feda	-0.09423609
178	0x3f181500	0.59407043
179	0xbd8ef244	-0.06979802
180	0x3f25810f	0.6465005
181	0x3f2923aa	0.66070044
182	0x3ed2de77	0.41185352
183	0xbdbd0743	-0.09229901
184	0x3f23fe24	0.6405966
185	0xbd804b2c	-0.06264338
186	0x3f1de3de	0.6167582
187	0x3f41b254	0.7566273
188	0x3f2f6c22	0.6852437
189	0xbdbf8fcd	-0.093536
190	0x3f098a99	0.5372711
191	0xbdabe2f5	-0.08392898
192	0xbda07ed0	-0.078366876
193	0x3f213688	0.62973833
194	0xbdb66ce5	-0.08907489
195	0x3edd1ab6	0.4318444
196	0x3f38cdd2	0.72189057
197	0x3e012f48	0.12615693
198	0x3f359a9a	0.7093903
199	0x3f1b9a4b	0.6078231
200	0x3ec83a71	0.39107087
201	0x3f2be69a	0.67148745
202	0x3f384a9a	0.7198883
203	0xbdb79306	-0.08963589
204	0xbdbc9703	-0.09208491
205	0x3f16b2cc	0.5886657
206	0x3f247e16	0.6425489
207	0x3f149c19	0.58050686
208	0x3f253af9	0.6454311
209	0x3f2c4987	0.67299694
210	0x3e2c2fd7	0.16815124
211	0x3ef529ab	0.47883353
212	0x3f104167	0.56349796
213	0x3f1ca92a	0.61195624
214	0x3f4e9178	0.8069072
215	0x3f3aaa37	0.7291598
216	0x3f21709c	0.63062453
217	0x3f03ff7b	0.5156171
218	0x3f28a88d	0.6588219
219	0x3f2e4623	0.6807577
220	0x3f1ba531	0.6079894
221	0x3f295945	0.6615184
222	0xbda889d1	-0.082294114
223	0x3f12118c	0.57058024
224	0x3f275d8b	0.6537711
225	0x3f152686	0.5826191
226	0x3f41e838	0.7574496
227	0xbc1af0a0	-0.0094567835
228	0x3f00e2ef	0.50346273
229	0x3f2101a6	0.6289314
230	0x3f48a095	0.7837003
231	0xbca57b4f	-0.0202004
232	0xbd7bb8d7	-0.061455574
233	0x3f21711e	0.6306323
234	0x3f3fb6ba	0.74888194
235	0x3ee51a24	0.44746506
236	0xbd5f4e31	-0.05451793
237	0xbd65e62e	-0.05612772
238	0xbb89cdf0	-0.004205458
239	0x3f22d44e	0.636052
240	0x3f2b45f1	0.669036
241	0x3ea32e00	0.31871033
242	0x3f213d59	0.62984234
243	0x3f2b63fe	0.6694945
244	0x3f2c22b1	0.67240435
245	0x3f51b523	0.8191702
246	0x3f3ced49	0.7379957
247	0x3f4471e4	0.76736283
248	0x3f2fac5f	0.6862239
249	0x3f2c10cd	0.67213136
250	0x3ef0fbb7	0.47067043
251	0x3e97e2d0	0.29665232
252	0xbcf7d091	-0.03025082
253	0x3f34a09e	0.7055758
254	0x3f20d93c	0.62831473
255	0x3f34daf0	0.7064657
