model_epoch_1800.pth (torch, 141274 bytes, 15 tensors)

target_net.fc1.weight f4 [64, 36]
0	0x3dcced80	0.10006237
1	0x3d661bf0	0.056178987
2	0x3c3b51d6	0.011433085
3	0xbd42c8b4	-0.047554687
4	0x3cdaebda	0.02672379
5	0xbb238c0c	-0.00249553
6	0xbce7278b	-0.028217098
7	0x3de5ff2b	0.1123031
8	0x3d56d5db	0.052450042
9	0xbc2912e8	-0.010319449
10	0xbde8e3fc	-0.113716096
11	0xbdf4b6df	-0.119489424
12	0xbdf12b0b	-0.11775788
13	0x3db39e9b	0.08770486
14	0xbd4e9500	-0.050435066
15	0x3d551488	0.052021533
16	0xbb781cfa	-0.0037859068
17	0xbe34e9a1	-0.17667247
18	0xbd16d0e0	-0.036820292
19	0xbd8bccce	-0.06826173
20	0xbe272598	-0.16322935
21	0x3d192790	0.037391245
22	0x3dca698e	0.09883414
23	0xbd3725a7	-0.044713642
24	0x3cfe3700	0.031032085
25	0xbcecbea0	-0.02889949
26	0xbda3b086	-0.079926535
27	0x3c1a0f6b	0.00940309
28	0x3dfb2ff0	0.12265003
29	0xbe100bca	-0.14066997
30	0x3e194b23	0.14970069
31	0xbd775b66	-0.0603899
32	0x3d0bf9b6	0.03417369
33	0x3c240300	0.010010481
34	0xbd56fc0b	-0.05248646
35	0xbcc90cf7	-0.024542315
36	0x3e148888	0.14505208
37	0x3dc0cbd6	0.094138786
38	0xbd3cf636	-0.046133243
39	0xbd9c2f51	-0.076262124
40	0xbd26210f	-0.04055887
41	0x3e33ad5d	0.17546602
42	0x3e06d8af	0.13168596
43	0x3e1f8c57	0.15580879
44	0x3d26070b	0.04053406
45	0xbcc789ae	-0.024357643
46	0xbd17d933	-0.03707237
47	0xbcca49a9	-0.024693327
48	0x3dd5c0ee	0.10437189
49	0xbe0205d4	-0.12697536
50	0x3e01a986	0.12662324
51	0x3d3f3d65	0.04668941
52	0x3ccb0b33	0.024785614
53	0x3e0336ec	0.1281392
54	0xbd5c97f0	-0.053855836
55	0x3d2a6d16	0.04160794
56	0x3e2451fc	0.160469
57	0xbe276957	-0.16348778
58	0x3d8d97fe	0.06913756
59	0x3dbdc9bf	0.09266996
60	0xbd747210	-0.05967909
61	0xbd08f410	-0.03343588
62	0x3e0fdfec	0.14050263
63	0x3dc70f18	0.09719676
64	0x3c901220	0.017586768
65	0xbda97065	-0.08273391
66	0xbc9c3b00	-0.019071102
67	0x3d66198b	0.056176703
68	0xbc4729d6	-0.012155971
69	0x3e1fda23	0.15610556
70	0xbdfb4efe	-0.12270926
71	0xbdff9134	-0.12478867
72	0x3e0b6216	0.13611636
73	0x3d372b90	0.04471928
74	0x3d154980	0.03644705
75	0x3d8c5246	0.0685163
76	0xbdc81872	-0.097702876
77	0x3cf8fa40	0.030392766
78	0x3ceeeb60	0.02916497
79	0x3e23faaa	0.1601359
80	0xbd3d89ab	-0.04627387
81	0x3cf4ff32	0.029906843
82	0x3d691856	0.056907974
83	0xbdddda7d	-0.10832689
84	0x3beb74ab	0.0071855388
85	0xbdb20d98	-0.08693999
86	0xbddedcf3	-0.108819865
87	0x3d6e3511	0.058156077
88	0x3d8660c2	0.06561424
89	0x3dfe7213	0.12424102
90	0x3d16fa6b	0.03685991
91	0xbda8dad6	-0.08244865
92	0x3e1fd65a	0.15609112
93	0x3c45992b	0.012060444
94	0x3cba45a0	0.022738278
95	0x3d027a6a	0.031855024
96	0x3df9ceab	0.12197622
97	0xbd9c5133	-0.07632675
98	0x3da1d648	0.07902199
99	0xbd64f046	-0.055893205
100	0xbe00cda8	-0.12578452
101	0xbcdf9bcf	-0.027295975
102	0xbe170a63	-0.14750056
103	0xbdb2d9a8	-0.08732921
104	0x3c5ee300	0.013603926
105	0x3d284aa0	0.041086793
106	0xbe0af793	-0.13571005
107	0xbda6364c	-0.08115825
108	0x3d941528	0.07230598
109	0xbdc40a13	-0.09572234
110	0xbe1dc824	-0.15408379
111	0xbdb3cd0b	-0.08779343
112	0x3d0d3134	0.034470752
113	0xbdbf2e5e	-0.09335016
114	0x3e102fca	0.1408073
115	0xbd397d20	-0.045285344
116	0x3d118c5b	0.035534244
117	0x3d6960b7	0.056977
118	0xbdf9847e	-0.12183474
119	0x3e4b0ac8	0.19828331
120	0xbcb0f28b	-0.021600028
121	0xbe284f30	-0.16436458
122	0x3e09f5ac	0.13472623
123	0x3c66ea76	0.014093986
124	0x3ddc59ab	0.1075929
125	0x3d02a07a	0.031891324
126	0x3de83566	0.1133831
127	0x3c287056	0.010280689
128	0xbb8d8f2b	-0.0043200455
129	0x3b32ae00	0.0027264357
130	0x3e017a44	0.12644297
131	0xbdb04b7b	-0.08608147
132	0x3d2f1996	0.04274901
133	0x3dbd7a46	0.092518374
134	0x3e1ce8af	0.15323137
135	0x3e161aa3	0.14658599
136	0xbdb5a4c6	-0.08869319
137	0xbc73e61e	-0.014886407
138	0xbcfa72f6	-0.030572396
139	0xbe18283a	-0.14859095
140	0xbd839fa6	-0.06426935
141	0xbc8e3236	-0.017357927
142	0xbda8bb16	-0.08238809
143	0xbdbbe0d5	-0.09173743
144	0xbd56c386	-0.05243256
145	0xbcc104c0	-0.023561835
146	0xbd51f246	-0.05125644
147	0xbd3636ad	-0.044485737
148	0x3e08a726	0.13345012
149	0x3e2b7464	0.16743618
150	0xbca6c856	-0.0203592
151	0xbc4e9596	-0.012608906
152	0xbd1d90a0	-0.038468003
153	0xbd361c43	-0.044460546
154	0x3e321c66	0.17393646
155	0xbdb35fbe	-0.08758496
156	0xbe07dd36	-0.13267979
157	0xbd4e9506	-0.05043509
158	0x3e168bff	0.14701842
159	0xbe2f0a58	-0.1709379
160	0x3d9d479b	0.07679673
161	0xbd5da013	-0.054107737
162	0x3e199617	0.14998661
163	0x3d828620	0.063732386
164	0xbd9b7aae	-0.07591759
165	0xbd4857e0	-0.04891193
166	0xbd2a4610	-0.041570723
167	0x3e638625	0.22219141
168	0x3c8bce40	0.017066121
169	0x3c9a3700	0.018825054
170	0xbd975d73	-0.07390871
171	0x3dd5fb8e	0.10448371
172	0xb95ae000	-0.00020873547
173	0x3e436276	0.19080529
174	0x3e1e4c90	0.15458894
175	0x3e070c0f	0.13188194
176	0x3d0ac070	0.03387493
177	0xbd2852b0	-0.041094482
178	0x3dfd60f0	0.12372005
179	0xbdef15a1	-0.11674047
180	0xbcc1adf6	-0.023642521
181	0xbdd5cb43	-0.1043916
182	0x3c5cba96	0.01347222
183	0xbdade26b	-0.084904514
184	0xbdaa3e4e	-0.08312665
185	0xba90b389	-0.0011039834
186	0xbb6c96ab	-0.0036100547
187	0x3e01a8c0	0.1266203
188	0xbdea497e	-0.11439799
189	0x3d0f1980	0.034936428
190	0x3da558e2	0.08073594
191	0x3c57f818	0.013181709
192	0x3e11738e	0.14204237
193	0x3e1b0b44	0.15141016
194	0xbde44d53	-0.11147561
195	0xbd813920	-0.06309724
196	0x3e331750	0.17489362
197	0xbdc325f1	-0.09528721
198	0xbe1ba5eb	-0.15200011
199	0xbdf38a6e	-0.11891638
200	0x3d5f18e6	0.054467104
201	0x3b1ee800	0.002424717
202	0xbd25b466	-0.040455244
203	0xbc7df6b2	-0.015500711
204	0xbdb2ff8b	-0.08740147
205	0x3dd797e0	0.10527015
206	0xbcd4770b	-0.02593567
207	0x3d86608e	0.06561385
208	0xbe161002	-0.14654544
209	0xbdc86482	-0.09784795
210	0x3d17570b	0.036948245
211	0x3c2c72c0	0.010525405
212	0xbd96d0d6	-0.07364051
213	0x3dd5f2e8	0.10446721
214	0x3c86f360	0.016473472
215	0xbe5e9f0c	-0.21740359
216	0xbc3eb156	-0.01163896
217	0x3e02d607	0.12776957
218	0xbdb6e39b	-0.08930131
219	0xbd126d32	-0.035748668
220	0xbe2abc2a	-0.16673341
221	0x3e667e39	0.22509088
222	0xbdfc8908	-0.12330824
223	0x3dd4d3f3	0.103919886
224	0xbddc6c8b	-0.107628904
225	0x3d9f7624	0.077862054
226	0x3d8a0055	0.067383446
227	0x3cfa78d1	0.030575188
228	0xbe208f52	-0.15679672
229	0xbdc3d9c8	-0.09563023
230	0x3d345026	0.044021748
231	0x3da91110	0.082552075
232	0xbe21d555	-0.15804036
233	0x3d32d9a5	0.043664593
234	0xbcd7a8f6	-0.026325684
235	0xbba76dab	-0.005109509
236	0x3d22a760	0.039710402
237	0x3d94eafb	0.072713815
238	0xbda0992b	-0.078417145
239	0x3e0511f4	0.1299513
240	0xbde9b463	-0.11411359
241	0xbdbdd49e	-0.09269069
242	0xbbe2ca00	-0.006921053
243	0xbe1727ee	-0.14761326
244	0xbd64f630	-0.055898845
245	0xbe2bf965	-0.16794355
246	0x3dca4aa3	0.09877517
247	0xbd48bf70	-0.049010694
248	0x3e0d5dc2	0.13805297
249	0x3d6fa9f6	0.058511697
250	0xbc332100	-0.010933161
251	0xbd68231f	-0.05667412
252	0x3df1d1d8	0.11807603
253	0x3ddf190b	0.108934484
254	0xbe10465c	-0.1408934
255	0x3d9d6bac	0.076865524

target_net.fc1.bias f4 [64]
0	0xbc19d5eb	-0.009389381
1	0x3cf306ab	0.029666265
2	0xbe29ac65	-0.1656967
3	0xbd566841	-0.052345518
4	0xbc971c75	-0.018446187
5	0xbe417019	-0.18890418
6	0xbd649895	-0.055809576
7	0x3d951e0c	0.072811216
8	0xbe12f4d8	-0.14351213
9	0x3e0370d6	0.12836012
10	0x3d99557c	0.07487008
11	0x3e1f3f07	0.15551387
12	0x3e18350f	0.1486399
13	0xbd5b2d76	-0.05351015
14	0x3e0c4b85	0.13700683
15	0xbdb8b81c	-0.09019491
16	0xbe32d8ad	-0.17465468
17	0xbe32e139	-0.17468728
18	0x3dbee582	0.09321119
19	0xbddb9458	-0.10721654
20	0xbe0cd9a0	-0.13754892
21	0xbe29e014	-0.16589385
22	0x3df7b31a	0.12094708
23	0xbdf89067	-0.121369176
24	0xbdbecdcf	-0.093165986
25	0xbd65b88a	-0.056084193
26	0x3e501124	0.20319039
27	0xbca967aa	-0.020679314
28	0xbe1627a2	-0.14663556
29	0x3e726844	0.23672587
30	0x3dc79a4f	0.09746229
31	0xbe096ae4	-0.13419682
32	0xbd819619	-0.06327457
33	0xbce0299b	-0.027363589
34	0xbb2c8a0f	-0.0026327407
35	0xbdd2972b	-0.10282739
36	0x3e0f6910	0.14004922
37	0x3de15ce2	0.11004044
38	0xbe4f4ec6	-0.20244893
39	0xbc155bbc	-0.009116109
40	0xbe29bf6f	-0.16576932
41	0xbb0a2899	-0.0021081327
42	0xbdf03db7	-0.11730521
43	0xbdd21c1c	-0.10259268
44	0x3e1a674b	0.15078466
45	0xbcf93bee	-0.030424085
46	0xbd92964a	-0.071575716
47	0xbe149801	-0.1451111
48	0x3d81067e	0.063000664
49	0xbe1d7a4a	-0.15378681
50	0xbe1990a0	-0.14996576
51	0xbdc70ca0	-0.09719205
52	0x3c7ece51	0.015552119
53	0xbd123ee2	-0.0357045
54	0x3d847940	0.06468439
55	0x3d4ee453	0.050510716
56	0xbe2af443	-0.16694741
57	0xbbd6fe88	-0.006561104
58	0xbb2c7a53	-0.0026318028
59	0x3b323c2a	0.0027196505
60	0xbe05cec5	-0.13067158
61	0xbc82f757	-0.015987081
62	0x3e55e326	0.20887432
63	0xbdae074e	-0.08497487

target_net.fc2.weight f4 [3, 64]
0	0xbd1e2896	-0.038612925
1	0xbd595bce	-0.053066067
2	0xbd0bfd10	-0.034176886
3	0xbb8bab8e	-0.0042623943
4	0x3c550174	0.013000835
5	0xbd8d5e5b	-0.069027625
6	0x3d47b945	0.04876067
7	0xbc6df274	-0.014523137
8	0xbdc5ccd0	-0.096582055
9	0x3e0a3db5	0.13500102
10	0xbdd3ed18	-0.103479564
11	0x3c49f7d3	0.012327152
12	0xbde77678	-0.11301893
13	0xbbc3ddd0	-0.00597737
14	0xbdb6b079	-0.08920378
15	0x3d397e8a	0.045286693
16	0x3d452dec	0.048139498
17	0xbc5c1517	-0.013432763
18	0xbc20953c	-0.009801205
19	0x3c783819	0.0151500935
20	0xbdac738d	-0.08420477
21	0x3dd4e1a3	0.10394599
22	0xbd32be32	-0.043638416
23	0xbc34c9cb	-0.011034439
24	0xbced335b	-0.028955152
25	0xbd2edc55	-0.042690594
26	0xbd3e9566	-0.046529196
27	0x3d60a82f	0.054847892
28	0x3d935e11	0.07195676
29	0xbe0b6025	-0.13610895
30	0xbd6ed6f6	-0.05831047
31	0x3d2dc5f6	0.04242512
32	0xbcf3b684	-0.029750116
33	0x3daf47e1	0.08558632
34	0x3d138b3e	0.036021464
35	0xbbc42738	-0.0059861206
36	0xbdd831ab	-0.105563484
37	0xbe0b4e17	-0.13604008
38	0x3dfb1807	0.12260442
39	0x3d0a74d9	0.03380284
40	0x3d6f3116	0.05839642
41	0xbd9abf28	-0.075559914
42	0x3cc9222c	0.024552427
43	0x3e0a4a35	0.1350487
44	0xbd49f152	-0.049302407
45	0x3d850c48	0.06496483
46	0x3d114ddb	0.03547464
47	0x3cc38ad8	0.023869917
48	0x3c8de9dc	0.017323427
49	0xbd43f13f	-0.047837492
50	0xbce151a0	-0.027504742
51	0xbd6b7815	-0.057487566
52	0xbdf5b7bf	-0.119979374
53	0xbd3425b6	-0.043981276
54	0xbddd8e8f	-0.108182065
55	0x3da113f7	0.07865136
56	0x3ce4b63a	0.027918924
57	0x3cb8c9ae	0.022557106
58	0x3da423d6	0.08014648
59	0xbdf37624	-0.11887768
60	0xbd2ec0e0	-0.04266441
61	0x3d63c268	0.055605322
62	0xbe8042e5	-0.25051036
63	0x3d44eb40	0.048075914
64	0xbd863956	-0.06553905
65	0xbd35bc84	-0.044369236
66	0x3d8f7cba	0.070062116
67	0xbd9030a5	-0.07040528
68	0x3e0d9d7e	0.1382961
69	0xbda37fd5	-0.079833664
70	0x3d9f6fa0	0.07784963
71	0x3e220a71	0.15824296
72	0xbc414050	-0.011795118
73	0xbdad3339	-0.084570356
74	0x3e326577	0.17421518
75	0x3e2a4a2f	0.16629861
76	0x3dcd9a21	0.100391634
77	0x3d08dce9	0.0334138
78	0x3d3a5e6a	0.045500197
79	0xbc04da00	-0.008108616
80	0xbc45a0a7	-0.012062228
81	0x3dedc908	0.11610609
82	0x3cb92d42	0.022604588
83	0x3cbcd44c	0.02305045
84	0x3e007d49	0.12547792
85	0x3cd61d91	0.026137145
86	0xbdee1910	-0.11625874
87	0x3cb48a77	0.022038681
88	0x3ada2920	0.0016644336
89	0xbdecf903	-0.11570933
90	0x3e1c32f7	0.15253817
91	0x3e24cecc	0.16094512
92	0xbd282e91	-0.041060034
93	0x3dc509db	0.096210204
94	0xbd43b33f	-0.047778364
95	0x3c41dc76	0.011832347
96	0x3df190da	0.11795206
97	0xbc37d7eb	-0.011220912
98	0xbc0bcef4	-0.008533228
99	0x3d095278	0.033525914
100	0x3d9c2b58	0.07625455
101	0x3d8e2dfe	0.06942366
102	0xbd858a87	-0.065205626
103	0xbd9034d7	-0.070413284
104	0x3cd9867d	0.026553387
105	0x3dabf520	0.08396363
106	0xbd85f176	-0.06540196
107	0xbc0caf44	-0.008586708
108	0x3e172e98	0.14763868
109	0x3d87e68c	0.0663577
110	0x3de19b67	0.11015969
111	0xbc667304	-0.014065508
112	0x3dc40784	0.09571746
113	0x3d82ab84	0.0638037
114	0xbdf140d4	-0.11779943
115	0xbc23e0c8	-0.0100023225
116	0xbd5a6ed8	-0.053328365
117	0xbde8ade0	-0.11361289
118	0x3cca3152	0.02468172
119	0xbc5ac7d8	-0.0133533105
120	0xbd8cc3da	-0.06873293
121	0xbd370274	-0.044680074
122	0xbcb0606c	-0.021530353
123	0x3d2929fa	0.041299798
124	0xbc342fb2	-0.0109977
125	0xbda0b165	-0.07846335
126	0x3d48f999	0.04906616
127	0x3c832d10	0.016012698
128	0xbda34d99	-0.07973785
129	0xbd8fb8d5	-0.07017676
130	0xbd26a126	-0.040681027
131	0xbce3e342	-0.027818326
132	0xbdd8c647	-0.105846934
133	0x3d897e8b	0.06713589
134	0xbdaebc03	-0.08531954
135	0xbd4f1dc2	-0.05056549
136	0x3d82a9ba	0.06380029
137	0x3d92ab12	0.07161535
138	0x3e066037	0.1312264
139	0xbd9573eb	-0.072975
140	0xbcf5b202	-0.029992107
141	0x3e0f29e9	0.13980831
142	0xbd220e81	-0.039564613
143	0xbd0a1807	-0.03371432
144	0xbc813ac2	-0.015775088
145	0x3cfe4e54	0.03104321
146	0x3d264d04	0.04060079
147	0x3bbe6b68	0.0058111437
148	0xbdda2016	-0.10650651
149	0xbd7c01d2	-0.061525173
150	0x3d9b22b6	0.0757498
151	0xbdb97af7	-0.09056657
152	0xbb262dd4	-0.0025356906
153	0x3d9d8b86	0.076926276
154	0x3d879e44	0.06621984
155	0xbd41cfbb	-0.047317248
156	0xbd317798	-0.043326944
157	0x3e0e0493	0.13868932
158	0x3dc7a738	0.09748691
159	0x3e08f9ea	0.13376585
160	0xbdb78bb6	-0.089621946
161	0x3d10df4d	0.035369206
162	0x3df7ef98	0.12106246
163	0xbd66e8c1	-0.056374315
164	0xbd2ad25a	-0.041704513
165	0x3cd68794	0.026187696
166	0x3d29dc3d	0.0414698
167	0xbdb070e2	-0.08615281
168	0xbcc0c2c5	-0.023530373
169	0xbdc72e3e	-0.09725617
170	0xbc77baf7	-0.0151202595
171	0x3df24760	0.1183002
172	0x3d8de227	0.06927901
173	0xbc62d0d1	-0.013843731
174	0xbd54b1b0	-0.05192727
175	0x3dd74ae0	0.10512328
176	0xb8887f53	-6.508701e-05
177	0x3d320a1d	0.043466676
178	0x3db506c5	0.08839182
179	0xbcc24eac	-0.023719154
180	0xbdaccb8f	-0.08437263
181	0xbd224e1e	-0.03962528
182	0x3ce160d7	0.027511997
183	0x3dd9117c	0.10599038
184	0xbe028616	-0.12746462
185	0xbdc765d3	-0.09736218
186	0x3daa811d	0.08325408
187	0x3daeedab	0.08541425
188	0xbdda4e46	-0.10659461
189	0xbdeec832	-0.11659278
190	0x3d7efb9c	0.062251672
191	0x3c061e50	0.008185938

target_net.fc2.bias f4 [3]
0	0xbb5c7822	-0.003364094
1	0x3a1762cf	0.00057749165
2	0x3d7aca56	0.06122812

tatic_net.fc1.weight f4 [64, 42]
0	0x3e12307b	0.14276306
1	0xbd1dcabf	-0.038523432
2	0x3bf0c38d	0.00734753
3	0xbe15cd33	-0.14629059
4	0x3d1bd34e	0.038043313
5	0xbe28410e	-0.16431066
6	0xbd32bc13	-0.043636393
7	0xbdd78c36	-0.1052479
8	0x3dbc5ec5	0.09197763
9	0x3df57fb6	0.119872496
10	0xbde039b0	-0.10948503
11	0x3c2f1735	0.010686685
12	0xbe000669	-0.12502445
13	0x3dffcbe0	0.12490058
14	0x3db9dfd6	0.090758964
15	0xbdffe0cd	-0.12494049
16	0xbe2b70e2	-0.1674228
17	0x3dc03efe	0.09387015
18	0x3c63aa9e	0.013895659
19	0xbddeac56	-0.10872714
20	0x3e1d3df6	0.15355667
21	0xbdc0c089	-0.09411723
22	0xbd446503	-0.047947895
23	0x3e2355fe	0.15950772
24	0xbe167791	-0.14694048
25	0x3dbc6c20	0.09200311
26	0xbd9218cf	-0.07133638
27	0xbdca9ebe	-0.09893559
28	0x3d9cc24d	0.076542474
29	0xbd2e586b	-0.04256479
30	0x3d06539a	0.032794572
31	0x3dfba9a0	0.12288213
32	0xbc5a0661	-0.013307185
33	0xbe198616	-0.14992556
34	0x3dd25815	0.102707066
35	0x3df131b6	0.1177706
36	0xbdd70fd6	-0.10501067
37	0x3cc142cd	0.023591423
38	0x3d44750e	0.047963195
39	0x3d8ba418	0.06818408
40	0x3dae8696	0.08521764
41	0xbd28a037	-0.041168418
42	0xbdfccea1	-0.12344099
43	0x3e15ce1a	0.14629403
44	0xbd621fb2	-0.05520601
45	0x3e0329e8	0.12808955
46	0xbc3fe0aa	-0.011711279
47	0x3dccae8e	0.09994231
48	0x3e0e1b43	0.13877587
49	0xbd194a7d	-0.037424553
50	0xbc21c654	-0.009873945
51	0xbc131f46	-0.008979624
52	0x3db8105d	0.08987496
53	0x3dc8b514	0.09800163
54	0xbdad5c38	-0.08464855
55	0xbc9005bf	-0.017580865
56	0xbda9c7c4	-0.082900554
57	0xbde991f6	-0.11404793
58	0x3d9d606d	0.076844074
59	0x3dd7cd6a	0.105372265
60	0x3db07906	0.086168334
61	0x3d92ad60	0.07161975
62	0xbd184cf3	-0.03718276
63	0x3d08cda3	0.033399235
64	0x3e1d4c7a	0.15361205
65	0xbd0ab733	-0.03386612
66	0xbdb53643	-0.0884824
67	0x3df17c28	0.11791259
68	0x3daf4c62	0.08559491
69	0x3c15dc36	0.009146741
70	0xbe04f634	-0.12984544
71	0xbabf96ca	-0.0014617082
72	0xbdc1de1f	-0.09466194
73	0x3d27e394	0.04098852
74	0xbe1729a4	-0.14761978
75	0xbdf499b6	-0.119433805
76	0xbd1cd51e	-0.038289182
77	0x3e03932e	0.12849113
78	0xbe0705da	-0.13185826
79	0xbd609fc0	-0.05483985
80	0xbe1137e2	-0.14181474
81	0x3dcf0f0d	0.101102926
82	0xbca9d000	-0.020729065
83	0x3d8579c4	0.065173656
84	0x3d830536	0.06397478
85	0x3db2402c	0.08703646
86	0xbdf9dabe	-0.12199925
87	0xbe050d8e	-0.12993452
88	0xbe147fad	-0.1450183
89	0x3e624065	0.22094877
90	0x3d44d000	0.048049927
91	0x3dad94a3	0.08475616
92	0x3d862f08	0.06551939
93	0x3d4dc81e	0.050239675
94	0xbd400b2a	-0.046885647
95	0x3d93dba1	0.07219625
96	0xbe198267	-0.14991151
97	0xbe0984bf	-0.13429545
98	0x3d98dae8	0.07463628
99	0xbd9efc69	-0.07762987
100	0x3e19a3c3	0.15003876
101	0xbdbfb3a9	-0.09360439
102	0x3d96a3b5	0.073554434
103	0xbdf66fd8	-0.12033051
104	0xbdb6fd84	-0.08935073
105	0xbd368aed	-0.044566084
106	0xbdff937d	-0.12479303
107	0xbcf52912	-0.02992681
108	0x3d5615d5	0.052266914
109	0x3ccab8a8	0.024746254
110	0xbd7ad26e	-0.061235838
111	0x3dcdd056	0.100495026
112	0xbc8f2d24	-0.01747758
113	0x3da6ff49	0.081541605
114	0xbe0f236e	-0.13978359
115	0x3ba6ca0e	0.0050900048
116	0x3d233fcb	0.03985576
117	0x3d46880e	0.048469596
118	0xbe0a22b8	-0.13489807
119	0x3c868976	0.016422968
120	0x3d61966c	0.055075094
121	0xbe10dad7	-0.14145981
122	0xbe1a95f2	-0.15096262
123	0x3dc5aa32	0.09651603
124	0xbe145063	-0.1448379
125	0xbb5ff141	-0.0034170898
126	0xbe110c81	-0.14164926
127	0xbddde032	-0.108337775
128	0x3d903b6f	0.07042586
129	0x3e2abff6	0.1667479
130	0x3d5594b1	0.052143756
131	0x3e4da549	0.20082583
132	0xbe0ff596	-0.14058527
133	0xbdfabaeb	-0.12242683
134	0xbdfb7677	-0.12278455
135	0x3e219c56	0.15782294
136	0xbcda8335	-0.026673893
137	0x3d60660a	0.054784812
138	0x3d976c84	0.073937446
139	0xbe13ec44	-0.14445597
140	0x3dbae7ba	0.091262296
141	0xbe23c515	-0.1599315
142	0xbb53fda0	-0.0032347217
143	0x3e09ee41	0.13469793
144	0x3d9ba12f	0.07599103
145	0x3e1cd55e	0.15315768
146	0x3c5645c3	0.013078156
147	0x3d96be09	0.07360465
148	0xbdc05b37	-0.09392398
149	0x3e119ab2	0.14219168
150	0xbd8710e2	-0.06595017
151	0xbde41470	-0.11136711
152	0x3dd2d672	0.102948084
153	0xbd986d17	-0.07442682
154	0x3e10f5bf	0.14156245
155	0xbdd3f34f	-0.10349142
156	0x3cc09f1c	0.02351337
157	0xbd0b8515	-0.034062464
158	0x3da12be8	0.078697026
159	0xbcb58137	-0.022156341
160	0x3df8ce91	0.121487744
161	0xbac5ceb0	-0.0015091505
162	0xbe104330	-0.1408813
163	0xbda3d0e5	-0.07998828
164	0xbe35c2b3	-0.17750053
165	0x3dcc9ab5	0.099904455
166	0xbd950d7a	-0.07277961
167	0x3e1dee2d	0.15422888
168	0x3d52344b	0.0513194
169	0xbe02fd25	-0.1279188
170	0xbe0aba18	-0.13547552
171	0xbdf5327a	-0.11972518
172	0x3d889d95	0.066706814
173	0xbdd7e865	-0.105423726
174	0xbdd1c819	-0.10243244
175	0xbe1821f8	-0.14856708
176	0xbd13f0ae	-0.036118202
177	0xbdab6edc	-0.08370754
178	0xbdcca764	-0.09992865
179	0x3e1e12ce	0.15436861
180	0xbcf3c888	-0.029758707
181	0xbda28542	-0.07935573
182	0xbd14c0da	-0.03631673
183	0xbe067eb6	-0.13134274
184	0x382aa71c	4.068679e-05
185	0x3e1bee92	0.15227726
186	0xbd960216	-0.073246166
187	0x3cca6f21	0.024711194
188	0xbdd6c02f	-0.10485875
189	0x3d39b6b7	0.045340266
190	0xbdd59bf9	-0.1043014
191	0xbe2ee4eb	-0.17079513
192	0x3ddea1e5	0.10870723
193	0x3dda38e2	0.10655381
194	0x3dbbf2dd	0.09177182
195	0x3d4a1c22	0.049343236
196	0xbe114037	-0.14184652
197	0x3d178f43	0.03700186
198	0x3d441f3f	0.04788136
199	0x3dcf67d3	0.10127225
200	0xbc3d859b	-0.011567499
201	0xbded44ce	-0.11585389
202	0xbc205ba3	-0.009787473
203	0x3dbad44f	0.09122526
204	0xbd55b4a3	-0.05217422
205	0xbc884f1f	-0.01663929
206	0x3c785e24	0.015159164
207	0xbbe9254f	-0.0071150432
208	0x3d01ad1d	0.031659234
209	0x3e1c3437	0.15254293
210	0x3d9d237e	0.07672785
211	0xbdf79fda	-0.12091036
212	0x3e159cd7	0.14610611
213	0xbc132db1	-0.008983062
214	0xbd59ca04	-0.053171173
215	0x3cdd63f6	0.027025204
216	0x3cad1aba	0.021130908
217	0x3d12f64d	0.035879422
218	0xbb1f854f	-0.0024340933
219	0x3d8f42ef	0.069951884
220	0xbdea4561	-0.11439014
221	0x3dde9f03	0.10870173
222	0x3d7d6238	0.061861247
223	0x3db632af	0.08896386
224	0x3d33fb23	0.043940675
225	0x3c8ee55b	0.01744335
226	0xbdbd0d91	-0.09231103
227	0xbe33b7e7	-0.17550622
228	0x3dd1bf35	0.10241548
229	0xbdb25ac2	-0.08708717
230	0x3d7084ec	0.058720514
231	0x3c56794d	0.013090444
232	0xbdfe30b0	-0.1241163
233	0xbb9f46fc	-0.004860757
234	0x3cdcd516	0.026957076
235	0x3d67ba86	0.056574367
236	0xbbdefafc	-0.006804822
237	0x3d1920ca	0.037384786
238	0xbdfe43f7	-0.12415307
239	0xbd622832	-0.055214114
240	0x3e1dbf90	0.15405107
241	0x3e05e8e2	0.13077119
242	0xbd9cdf8d	-0.076598264
243	0x3e0bf760	0.13668585
244	0x3e0ccfa2	0.1375108
245	0x3b005994	0.0019584643
246	0xbdbc55ff	-0.0919609
247	0x3de33b6e	0.1109532
248	0xbe05928d	-0.13044186
249	0x3def63c4	0.11688951
250	0x3ca21c32	0.019788835
251	0xbe0526d7	-0.13003097
252	0x3dc60073	0.096680544
253	0x3dfdffd4	0.12402311
254	0x3db03936	0.08604662
255	0xbbb8ed7d	-0.005643545

tatic_net.fc1.bias f4 [64]
0	0x3dcd6e29	0.10030777
1	0xbd914672	-0.070935145
2	0x3d2a8876	0.041634046
3	0x3dbd24f1	0.09235562
4	0x3cd323c1	0.025773885
5	0x3d9775d3	0.0739552
6	0xbd35439b	-0.044253927
7	0xbd996bb6	-0.07491247
8	0xbdb1b960	-0.086779356
9	0x3ae64e27	0.0017570899
10	0x3d691801	0.056907658
11	0x3dc6f32a	0.097143486
12	0xbda7d906	-0.08195691
13	0x3d0f2cd2	0.034954853
14	0x3d2f6f43	0.042830717
15	0x3dd7db0a	0.10539825
16	0xbd9f1be3	-0.07768991
17	0x3dcf6f9a	0.10128708
18	0x3e065db5	0.13121684
19	0x3dd1e1d9	0.10248155
20	0x3d0afb3d	0.033931006
21	0x3e01eb0b	0.12687318
22	0xbdc731d8	-0.09726304
23	0x3e0b371c	0.13595241
24	0xbd90bab4	-0.07066861
25	0xbd5cd214	-0.053911284
26	0xbd805a06	-0.062671706
27	0xbc19a83c	-0.009378489
28	0xbe13c196	-0.14429316
29	0x3df704ee	0.12061487
30	0xbdbc7814	-0.092025906
31	0xbd8d019c	-0.068850726
32	0x3e072c5f	0.1320052
33	0xbdbe0f4f	-0.09280264
34	0x3db5bff4	0.08874503
35	0xbd4537cf	-0.048148926
36	0x3c40651f	0.011742859
37	0xbd3c74d1	-0.046009842
38	0x3d497e40	0.049192667
39	0x3d837dfb	0.06420513
40	0xbdae94a9	-0.085244484
41	0xbdc61ac1	-0.09673072
42	0x3d66700f	0.05625921
43	0x3e093aec	0.13401383
44	0x3d90d3fb	0.07071682
45	0x3e210e0a	0.15728012
46	0xbe06e651	-0.13173796
47	0x3dbf7a93	0.09349551
48	0x3d2d1cf0	0.042263925
49	0xbddb7c99	-0.107171245
50	0xbe08368b	-0.13302056
51	0xbd666c2c	-0.056255504
52	0xbd0370e1	-0.03209007
53	0x3c3be593	0.011468309
54	0xbcd8f03e	-0.026481744
55	0x3c943647	0.018092288
56	0x3e135aa4	0.14390045
57	0x3d3975c5	0.04527833
58	0x3d892467	0.06696396
59	0x3da74e05	0.08169178
60	0x3c43ce5b	0.011951054
61	0xbdce33e5	-0.10068492
62	0xbdecf253	-0.11569657
63	0xbda95d2c	-0.08269724

tatic_net.fc2.weight f4 [6, 64]
0	0x3d0847c8	0.03327158
1	0x3d82a666	0.06379394
2	0xbd771e68	-0.060331732
3	0x3d907f94	0.070555836
4	0xbd1744b0	-0.03693074
5	0x3c6d5760	0.014486164
6	0x3a416700	0.0007377714
7	0x3dc531fc	0.096286744
8	0x3da534ec	0.08066735
9	0xbdbc0198	-0.091799915
10	0x3dd9063a	0.10596891
11	0x3dc14322	0.09436633
12	0xbda64bae	-0.081199035
13	0x3cdae240	0.026719213
14	0xbd2f1e34	-0.042753413
15	0x3d9c6e72	0.07638253
16	0xbdf29d1a	-0.11846371
17	0xbdcba4da	-0.09943552
18	0xbc0f14c0	-0.0087329745
19	0x3d047404	0.032337204
20	0x3debd7c2	0.11515762
21	0xbddd935a	-0.10819121
22	0x3d9e3e9a	0.07726784
23	0xbbfa6960	-0.007641956
24	0xbc490dc0	-0.012271345
25	0xbdf7af72	-0.120940104
26	0x3de58180	0.11206341
27	0x3db2613c	0.08709952
28	0x3d5e98dc	0.054344997
29	0x3ca16bb8	0.019704685
30	0xbd0836ac	-0.033255264
31	0xbdc26f6e	-0.0949391
32	0xbdcf9f0c	-0.10137758
33	0x3d33248c	0.043736026
34	0xbc9b53b0	-0.018960804
35	0x3cac6738	0.021045312
36	0x3df0f3f4	0.1176528
37	0x3c010000	0.007873535
38	0x3c0c3860	0.008558363
39	0xbde1338c	-0.1099616
40	0xbdb48d0a	-0.088159636
41	0xbdcd9b08	-0.100393355
42	0xbc26e2f0	-0.010185942
43	0xbde6ec50	-0.11275542
44	0xbdf8a910	-0.12141621
45	0xbd4ee970	-0.050515592
46	0x3c4cfa70	0.012510881
47	0x3d72f74c	0.059317872
48	0x3d2e2260	0.04251325
49	0x3d7e1ff0	0.062042177
50	0xbda6a986	-0.08137803
51	0xbdca572c	-0.09879908
52	0xbdb3f2c6	-0.0878654
53	0xbdaa5ba2	-0.08318259
54	0x3c0da0c0	0.008644283
55	0xbdc7109a	-0.09719963
56	0xbc77daa0	-0.015127808
57	0xbd8e5be4	-0.069511205
58	0x3dda6e78	0.106656015
59	0x3c995630	0.018717855
60	0x3bd7f0c0	0.006589979
61	0x3dc7b3a8	0.097510636
62	0xbd840680	-0.06446552
63	0x3dbf78b2	0.09349193
64	0xbd827785	-0.06370453
65	0x3ded5f67	0.11590462
66	0xbd51f692	-0.05126054
67	0x3d409449	0.047016416
68	0xbe1b14fe	-0.15144727
69	0x3c12a925	0.00895146
70	0xbd9d920c	-0.07693872
71	0xbe126a30	-0.1429832
72	0xbd5206e6	-0.05127611
73	0x3dd68c28	0.104759514
74	0xbe0435b6	-0.12911114
75	0x3dc79d95	0.09746853
76	0x3d35874d	0.044318486
77	0xbd8fba83	-0.07017996
78	0x3da83658	0.0821349
79	0xbcecf1fa	-0.028923977
80	0x3d090984	0.03345634
81	0xbb909fa2	-0.004413561
82	0xbd2ed8f9	-0.04268739
83	0xbdc78465	-0.09742049
84	0x3c7b8810	0.015352264
85	0x3ced0f74	0.028938033
86	0xbdb5ca4d	-0.088764764
87	0xbce359f4	-0.027752854
88	0x3db54edf	0.08852934
89	0xbcc72002	-0.024307255
90	0xbd4d4f89	-0.05012468
91	0xbd93ee30	-0.07223165
92	0x3c72356c	0.014783245
93	0x3d5c8895	0.053841192
94	0xbd45e518	-0.048314184
95	0xbde55f52	-0.111998215
96	0x3d6964e3	0.05698098
97	0x3cf82f63	0.030296033
98	0x3e1d1482	0.15339854
99	0x3d74e3cb	0.059787553
100	0x3d7e000f	0.062011775
101	0x3d655091	0.055985037
102	0xbc95daff	-0.018292902
103	0x3d3d180f	0.046165522
104	0xbd1f5b10	-0.038905203
105	0x3dbc44bb	0.09192797
106	0x3d9aaddf	0.075526945
107	0x3af59fee	0.0018739679
108	0xbd130e55	-0.03590234
109	0xbdd622a2	-0.104558244
110	0x3c578616	0.013154527
111	0xbc89df7d	-0.0168302
112	0xbdf07b76	-0.11742298
113	0x3d4b32bf	0.049608942
114	0x3dc95a65	0.098316945
115	0xbdeb22e3	-0.114812635
116	0x3d4a0296	0.049318872
117	0x3d91375b	0.07090636
118	0xbd00f4fc	-0.031483635
119	0xbe06dc54	-0.13169986
120	0xbd13eb2f	-0.03611296
121	0xbdb81149	-0.08987672
122	0x3e1f9097	0.155825
123	0x3d0e2b3f	0.03470921
124	0x3dc7968c	0.097455114
125	0xbd2fb2b6	-0.04289504
126	0x3cd13030	0.025535673
127	0xbc738d49	-0.014865228
128	0xbd894862	-0.06703259
129	0xbd3d455c	-0.046208724
130	0x3c6c9d73	0.014441836
131	0x3d94de77	0.07268994
132	0x3d8f650e	0.070016965
133	0xbd15a897	-0.036537733
134	0x3d4ed5ba	0.050496794
135	0x3d0ba6a1	0.034094457
136	0xbc366e42	-0.011134686
137	0xbde3b400	-0.11118317
138	0xbc6c9da1	-0.014441879
139	0xbbedca4e	-0.0072567826
140	0x3da09d26	0.07842474
141	0xbcc888c3	-0.024479276
142	0xbd28d63c	-0.041219935
143	0xbcb791bc	-0.022408359
144	0xbdf3fcfc	-0.11913487
145	0xbd723418	-0.05913171
146	0xbd529054	-0.051407173
147	0xbda7cdfa	-0.08193584
148	0x3d71977f	0.05898237
149	0x3e060e3e	0.1309137
150	0x3d857b72	0.06517686
151	0xbbd21eb9	-0.006412354
152	0x3d1967a6	0.037452362
153	0x3d278974	0.04090257
154	0xbcfeacce	-0.03108826
155	0xbbcd5a9f	-0.0062669064
156	0x3dfbdcfe	0.1229801
157	0x3cc942b4	0.02456794
158	0xbd04362e	-0.032278232
159	0x3b94ffe8	0.004547108
160	0x3cb5f905	0.022213468
161	0x3de7aa8d	0.11311827
162	0x3cc14fb5	0.023597578
163	0x3dac7471	0.08420647
164	0xbc5c845d	-0.013459292
165	0x3db7b8c9	0.08970792
166	0xbd8eb42d	-0.069679596
167	0xbe03a0cf	-0.12854312
168	0x3dcd276c	0.10017285
169	0x3e31aa08	0.17350018
170	0xbda42d18	-0.080164135
171	0x3ddf7dc4	0.1091266
172	0xbce5f9da	-0.02807324
173	0x3c7ec516	0.015549919
174	0x3db16401	0.08661652
175	0x3df25640	0.11832857
176	0xbd973c2b	-0.07384523
177	0xbd29de81	-0.041471962
178	0x3cbc29b7	0.02296911
179	0x3dbb3de7	0.09142666
180	0xbd9dd4cc	-0.077066034
181	0x3dfffeae	0.12499748
182	0xbda08bd4	-0.0783917
183	0xbc810c1e	-0.015752848
184	0xbe102ea5	-0.14080293
185	0xbd42efc0	-0.047591925
186	0x3e1cca9a	0.15311661
187	0x3e4f7c09	0.2026216
188	0xbd61ac60	-0.05509603
189	0x3d74dec6	0.059782766
190	0x3cd79e10	0.026320487
191	0x3dc1b415	0.09458176
192	0xbd0d1798	-0.03444633
193	0x3dc64aef	0.09682261
194	0x3cd513ac	0.026010357
195	0x3dd03b3e	0.101675496
196	0x3af1a81d	0.0018436942
197	0x3c281238	0.01025825
198	0x3ce77bf0	0.02825734
199	0xbcc8a996	-0.024494927
200	0xbccf43ae	-0.025300827
201	0xbc71dede	-0.014762608
202	0xbdc9ffd8	-0.098632514
203	0xbdaf7299	-0.0856678
204	0x3c98f54e	0.018671658
205	0xbd980496	-0.0742275
206	0xbd797bc7	-0.06090906
207	0x3c1d0c7c	0.009585496
208	0x3da63369	0.081152745
209	0xbdcc2e31	-0.09969748
210	0x3cb0bb76	0.021573763
211	0xbd5bef50	-0.053695023
212	0xbd8ec3db	-0.0697095
213	0xbd893d0e	-0.067010984
214	0x3d463829	0.048393402
215	0xbc820d2e	-0.015875425
216	0x3d4a7c5b	0.049435
217	0xbd50205c	-0.05081211
218	0xbcb6245c	-0.022234134
219	0x3c497bbd	0.012297568
220	0xbddc7c2c	-0.107658714
221	0x3e07cd26	0.13261852
222	0xbd4147c2	-0.047187574
223	0xbd64839a	-0.055789568
224	0xbe010325	-0.12598856
225	0x3dcf543c	0.10123488
226	0x3e098cf2	0.13432673
227	0xbcc78549	-0.024355548
228	0x3d5efdff	0.05444145
229	0xbd4808d5	-0.048836548
230	0xbc162806	-0.009164816
231	0x3d38444c	0.044987008
232	0x3dccbea3	0.099972986
233	0x3d5488c6	0.05188825
234	0xbd88c975	-0.0667905
235	0xbd86525a	-0.06558676
236	0xbd52867d	-0.05139779
237	0x3dc06552	0.09394325
238	0x3dbb6f0e	0.091520414
239	0xbd033e52	-0.032041855
240	0xbdc4fb0a	-0.096181944
241	0x3e41960f	0.18904899
242	0x3d640399	0.055667493
243	0xbdac0ed5	-0.084012665
244	0xbcf1156b	-0.029429158
245	0x3d3d6ada	0.04624448
246	0xbdaae654	-0.08344713
247	0xbd615644	-0.05501391
248	0xbe0503b4	-0.12989694
249	0x3da15b4b	0.07878741
250	0x3e158c6d	0.1460435
251	0x3d1c0bf1	0.038097326
252	0xbdb93576	-0.090434
253	0xbd87cd17	-0.06630915
254	0x3b5b264a	0.003343957
255	0xbd2f3569	-0.042775545

tatic_net.fc2.bias f4 [6]
0	0x3d65b9c4	0.056085363
1	0xbde2384c	-0.11045894
2	0x3cb1e054	0.021713413
3	0x3c664139	0.014053636
4	0x3d0ab220	0.03386128
5	0xbdb21a25	-0.08696393

tatic_net.fc3.weight f4 [6, 3]
0	0xbeb52158	-0.35377002
1	0x3ebeb8e6	0.3725044
2	0xbed626ff	-0.41826627
3	0x3deb4142	0.11487056
4	0x3ed681be	0.4189586
5	0xbd81f565	-0.063456334
6	0x3e88dfea	0.26733333
7	0xbe098bac	-0.13432187
8	0xbe839814	-0.25701964
9	0x3ea4aca6	0.3216297
10	0xbe4d5279	-0.20050992
11	0xbf1a2bac	-0.6022289
12	0xbe7dbc61	-0.24778892
13	0xbf0518b3	-0.51990813
14	0x3f10212b	0.5630061
15	0x3f1c83fc	0.6113889
16	0x3eee679d	0.46563426
17	0x39ecf126	0.00045193097

tatic_net.fc3.bias f4 [6]
0	0x3eb7a44e	0.35867542
1	0x3f086876	0.53284395
2	0x3e04ddec	0.12975281
3	0x3eb1836a	0.34670573
4	0xbdbaf361	-0.09128452
5	0xbdba5fa2	-0.09100272

tatic_net.fc4.weight f4 [3, 9]
0	0x3e908922	0.28229624
1	0x3ebf6a05	0.37385574
2	0x3d9e81b8	0.07739586
3	0x3e8735f5	0.26408353
4	0x3ee09bf0	0.4386897
5	0x3ebb88fd	0.3662795
6	0xbde310dd	-0.11087201
7	0x3eb89198	0.3604858
8	0xbe07ec31	-0.13273694
9	0x3d5935e5	0.053029913
10	0x3c914abc	0.017735831
11	0xbdead662	-0.114666715
12	0x3e6c3ce5	0.23070104
13	0xbe4ad597	-0.1980804
14	0x3e85d989	0.2614253
15	0x3e771c61	0.2413192
16	0x3e4d6e14	0.20061523
17	0x3ee474bf	0.4462032
18	0x3db0503a	0.08609052
19	0xbd231b42	-0.039820917
20	0x3e977fbb	0.29589638
21	0xbe66ebf7	-0.22550951
22	0x3cf7b28a	0.030236501
23	0x3ddb5506	0.10709576
24	0xbda7fab4	-0.08202115
25	0x3de2050f	0.11036121
26	0x3d9000eb	0.07031425

tatic_net.fc4.bias f4 [3]
0	0xbe3b05d6	-0.18263945
1	0xbe3855d6	-0.18001494
2	0xbd668c08	-0.056285888

fc1.weight f4 [256, 108]
0	0xb9df6917	-0.00042612173
1	0xbca28eb6	-0.01984344
2	0x3da39dde	0.07989095
3	0x3d92458c	0.07142171
4	0xbd5889bf	-0.05286574
5	0x3d54963e	0.051901095
6	0x3cb939c7	0.022610558
7	0xbd15f828	-0.036613613
8	0x3d96d918	0.07365626
9	0x3c8d5c85	0.01725603
10	0xbd7d8445	-0.06189372
11	0x3d7b416b	0.061341684
12	0xbd259135	-0.040421683
13	0xbdb59c02	-0.08867647
14	0x3cb69968	0.022289947
15	0x3d7d39b2	0.0618226
16	0x3cdfcaa7	0.027318312
17	0xbdb89679	-0.090130754
18	0xbc98ea83	-0.018666511
19	0x3bfa2b72	0.0076345736
20	0xbcc4d8cb	-0.024029156
21	0xbdabdab9	-0.083913274
22	0x3d771a1e	0.06032764
23	0x3d80a197	0.06280821
24	0x3d690079	0.056885216
25	0x3da5379c	0.08067247
26	0xbd66fa07	-0.05639079
27	0x3cd5f1d4	0.02611629
28	0xbd0e340d	-0.03471761
29	0x3d7a63bf	0.06113028
30	0xbda24380	-0.07923031
31	0x3db4868d	0.08814726
32	0xbb4125d1	-0.0029472003
33	0xbdb4417a	-0.08801551
34	0x3c78f3de	0.015194861
35	0x3dae1f50	0.08502066
36	0xbd7c728b	-0.061632674
37	0x3d934e6f	0.071926944
38	0xbda93a22	-0.08263041
39	0xbcee3604	-0.029078491
40	0xbdb01211	-0.08597196
41	0xbcbaef5c	-0.022819214
42	0xbcad1b7c	-0.02113127
43	0xbd73d21c	-0.059526548
44	0x3b846f8c	0.0040416177
45	0x3d98ca60	0.07460475
46	0xbdc328cf	-0.09529268
47	0x3d95e47f	0.07318973
48	0x3d921fcd	0.07134972
49	0x3d89b6b9	0.06724305
50	0xbb826f57	-0.003980558
51	0xbbfab5e5	-0.007651078
52	0xbd5b68c4	-0.05356671
53	0x3d04544b	0.03230695
54	0x3d4ae651	0.049536053
55	0x3daecbed	0.085349895
56	0xbda00183	-0.07812788
57	0x3c496af6	0.012293568
58	0x3d3b1f39	0.045684073
59	0xbc93000e	-0.017944362
60	0xbd6a0f09	-0.057143245
61	0xbd14d856	-0.036339127
62	0x3d4f633b	0.050631743
63	0x3d78d2f3	0.06074805
64	0x3d4f1c72	0.050564237
65	0xbdba2bad	-0.09090362
66	0x3d87cdd0	0.066310525
67	0x3ce65395	0.028116027
68	0x3cdd3b83	0.027005916
69	0x3d43a7fd	0.047767628
70	0xbb8128a8	-0.003941614
71	0xbd25ca9a	-0.04047642
72	0xbdc237b1	-0.094832785
73	0xbda8c050	-0.08239806
74	0xbd8dbae9	-0.06920416
75	0xbd89f6e0	-0.06736541
76	0xbda46b9f	-0.080283396
77	0x3b544240	0.003238812
78	0xbd825513	-0.06363883
79	0x3b94e4f4	0.004543895
80	0x3d890c08	0.06691748
81	0x3d97689b	0.07392999
82	0xbd7efcfd	-0.062252987
83	0xbda78639	-0.08179898
84	0xbc964d1a	-0.018347312
85	0xbdbdafa0	-0.092620134
86	0xbd1ffe2e	-0.039060764
87	0xbda6e83d	-0.08149765
88	0x3ca40470	0.020021647
89	0xbd5cb9bd	-0.05388807
90	0xbd20cc76	-0.03925749
91	0x3d9c9526	0.07645635
92	0xbd22c2da	-0.039736606
93	0x3dc27e99	0.09496803
94	0x3d804d33	0.062647246
95	0xbde315c4	-0.11088136
96	0xbce6c44f	-0.02816978
97	0xbd00a941	-0.031411413
98	0x3d350a7b	0.044199448
99	0xbdbeb4ab	-0.093118034
100	0xbb4b4a29	-0.0031019545
101	0x3d7bc508	0.0614672
102	0x3d503ee7	0.05084124
103	0x3ce9278e	0.028461244
104	0xbdabb42b	-0.08383974
105	0xbbc88981	-0.0061199074
106	0x3d743df7	0.059629407
107	0xbd5d81d6	-0.0540789
108	0xbd2da416	-0.042392813
109	0xbd3f2f3c	-0.046675906
110	0xbd57947e	-0.052631848
111	0x3f5605ec	0.83602786
112	0x3f33e9ac	0.7027843
113	0x3f07cd60	0.5304775
114	0xbb24a575	-0.0025123034
115	0x3d8bfd6d	0.068354465
116	0xbb924bf1	-0.0044646193
117	0x3f602f8f	0.8757257
118	0x3f3811c1	0.7190209
119	0x3f1e298b	0.6178214
120	0xbd30a9e7	-0.04313078
121	0xbce85560	-0.028361022
122	0xbd8f8857	-0.07008427
123	0x3f3fd2a7	0.74930805
124	0x3f349909	0.70546013
125	0x3f06a7ac	0.52599597
126	0x3b2eb18d	0.0026656121
127	0x3c7a4085	0.015274172
128	0xbd43d253	-0.047808003
129	0xbd7a07b3	-0.0610425
130	0xbd48c845	-0.049019117
131	0x3e95f506	0.292885
132	0xbd8e8b65	-0.06960181
133	0x3d7df29a	0.06199894
134	0x3d8825d8	0.06647843
135	0x3d11dbea	0.035610117
136	0xbb963792	-0.004584261
137	0x3f110aa1	0.56656843
138	0x3d8a5e54	0.06756273
139	0xbd83de89	-0.064389296
140	0x3d534440	0.05157876
141	0x3d937343	0.07199719
142	0x3b3ae87b	0.0028519917
143	0x3f15fa70	0.5858526
144	0xbc843ec9	-0.01614322
145	0x3d768be5	0.060192008
146	0xbd5ee5b4	-0.05441828
147	0x3f50b91c	0.81532454
148	0x3f4fb73a	0.81138957
149	0x3ef6b400	0.48184204
150	0x3acebcee	0.0015772858
151	0x3cafaf08	0.021445766
152	0x3d9f33d4	0.07773557
153	0x3f568ccd	0.83808595
154	0x3f2ab192	0.666772
155	0x3eef4a17	0.46736214
156	0xbbb51bbb	-0.0055269874
157	0xbc6b32a8	-0.014355339
158	0x3d0b21d5	0.03396781
159	0x3f413149	0.7546583
160	0x3f30f385	0.6912158
161	0x3ef583ed	0.47952214
162	0xbd707e3d	-0.05871414
163	0xbd77cfec	-0.060501024
164	0xbc9103c4	-0.01770199
165	0x3d353556	0.04424032
166	0x3d955cd3	0.072930954
167	0x3e901eca	0.2814849
168	0x3d3187b1	0.043342296
169	0xbdba60cb	-0.09100493
170	0xbc03d72d	-0.008046907
171	0xbd824e61	-0.06362606
172	0xbd163a7e	-0.036676876
173	0x3efa2e5d	0.48863497
174	0xbd00b524	-0.03142275
175	0x3a667580	0.00087913126
176	0x3dbf9b9d	0.09355853
177	0xbce87082	-0.02837396
178	0xbdc40468	-0.09571153
179	0x3f0903b8	0.535213
180	0x3d52a27f	0.0514245
181	0xbd2afddb	-0.041746
182	0xbd5530ec	-0.05204861
183	0x3f3dbed3	0.741193
184	0x3f472c4c	0.77801967
185	0x3ed466d0	0.4148469
186	0x3c09bf4e	0.008407427
187	0xbc858f1e	-0.016303595
188	0x3d7a39d2	0.061090298
189	0x3f6682a7	0.9004311
190	0x3f380597	0.7188353
191	0x3eee460e	0.46537822
192	0xbd23002c	-0.039795086
193	0x3d8529b3	0.06502094
194	0x3ca0a1f7	0.01960848
195	0x3f55190d	0.8324135
196	0x3f30f6b1	0.6912642
197	0x3f205e17	0.6264357
198	0xbd6e6c3b	-0.058208685
199	0xbd934028	-0.07189971
200	0x3d6a90fd	0.057267178
201	0xb8a6c20d	-7.9516416e-05
202	0x3d2f3ad1	0.0427807
203	0x3ebf87aa	0.3740819
204	0x3c9d6f30	0.019218057
205	0xbc8caa90	-0.017171174
206	0x3ba38248	0.004989896
207	0x3db1906c	0.086701244
208	0xbd873cbd	-0.06603382
209	0x3f06e1bc	0.52688193
210	0xbc423d04	-0.011855368
211	0x3d01b45a	0.031666137
212	0x3d1328ec	0.035927698
213	0x3cf19b01	0.029492857
214	0x3d928d93	0.071559094
215	0x3ef66037	0.4812028
216	0x3d822d75	0.063563265
217	0x3c98c0df	0.018646656
218	0xbd99d2c4	-0.075109035
219	0xbd133dc6	-0.035947584
220	0xbc83dd74	-0.016096808
221	0xbd1e5ebd	-0.03866457
222	0x3d8f29b1	0.06990374
223	0xbdaa0ae3	-0.08302858
224	0x3dbfd7c1	0.09367324
225	0x3d8edc27	0.069755845
226	0x3c582e68	0.013194658
227	0x3d91f3d5	0.071265854
228	0x3d6a42e3	0.057192694
229	0x3d056959	0.03257117
230	0xbd1564e3	-0.036473166
231	0x3d5ca2d1	0.05386621
232	0x3d8da86b	0.06916889
233	0x3cf84ea7	0.030310942
234	0xbc57a2ac	-0.013161343
235	0xbd998d52	-0.07497658
236	0xbd7546e2	-0.059882052
237	0x3d448c9e	0.047985666
238	0x3db2e31c	0.08734724
239	0x3d573a2e	0.05254572
240	0x3dbd580b	0.092453085
241	0xbd152445	-0.036411542
242	0x3d5005a2	0.050786622
243	0x3d2536b8	0.040335387
244	0x3c32ff54	0.010925133
245	0xbdd8a38d	-0.1057807
246	0x3d92733a	0.07150884
247	0xbb5109a2	-0.003189661
248	0xbd7b79ce	-0.06139546
249	0xbd5f21c6	-0.05447557
250	0xbdbd411b	-0.092409335
251	0xbda55ef3	-0.08074751
252	0x3d8bce56	0.06826465
253	0x3c8acffb	0.016944876
254	0x3d925cc0	0.07146597
255	0xbd398488	-0.045292407

fc1.bias f4 [256]
0	0xbde0ba21	-0.10973001
1	0x3f411a89	0.75431114
2	0xbbdcd030	-0.006738685
3	0x3f18bae4	0.5966017
4	0x3e470a13	0.19437437
5	0x3f480575	0.78133327
6	0x3f06b18f	0.5261468
7	0x3f4301ef	0.76174825
8	0x3f24d0d4	0.64381146
9	0x3eecbec3	0.4623929
10	0x3f053225	0.5202964
11	0x3f1cfc5f	0.6132259
12	0xbc7abcd4	-0.015303809
13	0x3f4f1c91	0.80902964
14	0x3efb30ea	0.49060756
15	0x3f2eecbe	0.6832999
16	0x3f017510	0.5056925
17	0x3f543fc8	0.8290982
18	0x3f351dda	0.70748675
19	0xbbd0eea2	-0.0063761035
20	0x3f110a89	0.566567
21	0xbd81b570	-0.063334346
22	0x3f11dec7	0.56980556
23	0x3ef209ba	0.47273046
24	0x3ee1c2ab	0.44093832
25	0x3f1f269d	0.62168294
26	0x3efbfad1	0.49214795
27	0x3f30bf3e	0.6904181
28	0x3ec7a780	0.3899498
29	0x3f04c02e	0.5185574
30	0xb9d833a5	-0.0004123721
31	0x3f32b85d	0.69812566
32	0xbc1135c2	-0.0088629145
33	0x3f130695	0.5743192
34	0xbdadc879	-0.08485503
35	0x3f407832	0.75183403
36	0x3f1025e7	0.56307834
37	0x3f354ccc	0.7082031
38	0xbc967ee9	-0.018371062
39	0x3ef6ded6	0.48216885
40	0x3f391a12	0.72305405
41	0x3f06c293	0.52640647
42	0xbdbfba85	-0.09361748
43	0x3f04eb38	0.51921415
44	0x3ed31654	0.41227973
45	0x3f0e7664	0.556494
46	0x3e147ead	0.14501448
47	0x3f2d118e	0.6760491
48	0xbe003b9f	-0.12522744
49	0x3eeec22a	0.4663251
50	0x3ee08110	0.43848467
51	0xb986dd8c	-0.00025723537
52	0x3f02a5f8	0.510345
53	0x3f3004c0	0.6875725
54	0x3f1073c2	0.5642663
55	0x3f04946f	0.5178899
56	0x3e916276	0.28395432
57	0x3f198f2c	0.5998409
58	0x3f17406e	0.59082687
59	0xbb51bbd1	-0.0032002816
60	0x3f19ed6d	0.6012791
61	0x3f169539	0.58821446
62	0x3f2fc8b7	0.6866564
63	0x3f062c78	0.52411604
64	0x3f356030	0.70849895
65	0x3f163112	0.58668625
66	0xbca13cb8	-0.019682273
67	0x3f136f26	0.57591474
68	0x3f117c2e	0.5683011
69	0xbd6a493a	-0.05719874
70	0x3ee0dff6	0.4392087
71	0x3f1b8971	0.60756594
72	0x3f13058b	0.5743033
73	0x3f0a7738	0.54088163
74	0xbc8ca524	-0.017168589
75	0x3f159816	0.5843519
76	0x3f0cab54	0.54948926
77	0x3ee2e329	0.44313934
78	0xbbb82560	-0.00561969
79	0x3f13d4a6	0.5774635
80	0x3f159ac0	0.58439255
81	0xbdb3d381	-0.087805755
82	0x3f2bf771	0.6717444
83	0x3ef79c47	0.48361418
84	0x3f08e309	0.5347143
85	0x3f20d17f	0.62819666
86	0x3f0a9997	0.5414061
87	0x3ed1bb83	0.40963373
88	0x3f112520	0.56697273
89	0x3f1922ec	0.5981891
90	0x3e0e789e	0.139132
91	0x3ed9420b	0.424332
92	0x3f1e2e1a	0.61789095
93	0x3f0c1b3f	0.54729074
94	0x3f08b0c9	0.5339475
95	0xba2955f4	-0.00064596464
96	0x3f0b6753	0.54454535
97	0x3f1328aa	0.57483923
98	0x3ef6d5e6	0.48210067
99	0xbdc2d67a	-0.095135644
100	0x3f2f4170	0.68459225
101	0xbb418def	-0.0029534062
102	0x3f197302	0.59941113
103	0x3f171b2c	0.59025836
104	0xbd80df50	-0.062925935
105	0xba1ba9c7	-0.00059380796
106	0xbb579ba6	-0.003289917
107	0xbb8ac656	-0.0042350693
108	0x3f14c957	0.5811972
109	0x3ec104db	0.37699017
110	0xbcff480c	-0.031162284
111	0xbd071c1b	-0.032985788
112	0x3f134a51	0.5753527
113	0x3f1d9813	0.6156017
114	0x3f177f67	0.59178776
115	0x3ed563a1	0.41677573
116	0xbdaed702	-0.08537103
117	0x3f008dda	0.5021645
118	0x3f1d8c27	0.6154198
119	0x3ef7fe3c	0.48436153
120	0x3f1f54f9	0.62239033
121	0xbd6b4bdb	-0.05744539
122	0x3f303344	0.68828225
123	0x3f021504	0.5081332
124	0x3f1243af	0.57134527
125	0xbce652c5	-0.02811564
126	0x3f2391cf	0.6389436
127	0x3f047ff9	0.5175777
128	0x3f281752	0.65660584
129	0xbdcbe6eb	-0.099561535
130	0x3f02e099	0.5112396
131	0x3f1c3b2b	0.61027783
132	0x3f176948	0.5914502
133	0xbc1a8d07	-0.009433038
134	0xbd97c061	-0.0740974
135	0xb8f84ab4	-0.00011839476
136	0xbdbfe3a9	-0.093695946
137	0x3f34cc23	0.7062399
138	0x3f1b9381	0.6077195
139	0xbdc2e0e2	-0.09515549
140	0x3ee0c058	0.43896747
141	0xbdd08c04	-0.10182956
142	0x3f0cadf4	0.5495293
143	0x3e1891e7	0.14899407
144	0x3f0f6078	0.56006575
145	0x3eec8b49	0.46200016
146	0x3f37c56c	0.71785617
147	0x3e784d26	0.2424818
148	0x3f260373	0.64849013
149	0x3f09100f	0.5354013
150	0xbc226d9e	-0.00991383
151	0x3f121e1c	0.57077193
152	0x3f2b2f64	0.6686919
153	0xbdbbeb41	-0.091757305
154	0x3edb6063	0.42846975
155	0x3f155f29	0.5834833
156	0x3f0b9242	0.54520047
157	0x3f16c75c	0.5889795
158	0xbccde57c	-0.02513384
159	0x3f31bd6c	0.6942966
160	0x3f07c7fe	0.5303954
161	0x3e76fc50	0.24119687
162	0x3f05f31d	0.52324086
163	0x3f3dd6b2	0.74155724
164	0x3f1c75c1	0.6111718
165	0xb9e638f5	-0.00043911455
166	0x3f45021f	0.7695636
167	0x3f3cf970	0.7381811
168	0x3f0cc7a8	0.5499215
169	0x3f2ddf51	0.6791888
170	0x3f1c88d9	0.6114631
171	0x3f01ea1b	0.5074784
172	0x3f2e630b	0.6811988
173	0x3f1a7df6	0.6034845
174	0x3f150930	0.58217144
175	0x3ef70b7e	0.48250955
176	0xbd6fe359	-0.058566425
177	0xbdc0feda	-0.09423609
178	0x3f387334	0.72050786
179	0xbd8ef244	-0.06979802
180	0x3f0790be	0.52955234
181	0x3f0b1d34	0.54341435
182	0x3f0a27bf	0.539669
183	0xbdbd0743	-0.09229901
184	0x3f061463	0.5237486
185	0xbd804b2c	-0.06264338
186	0x3effbe45	0.49949852
187	0x3f23cbe0	0.63982964
188	0x3f11a0b7	0.56885856
189	0xbdbf8fcd	-0.093536
190	0x3f29fe79	0.6640392
191	0xbdabe2f5	-0.08392898
192	0xbda07ed0	-0.078366876
193	0x3f033a3b	0.5126073
194	0xbdb66ce5	-0.08907489
195	0x3ea140ec	0.31494844
196	0x3f1acfd5	0.60473377
197	0x3db5d9d8	0.08879441
198	0x3f17aa38	0.5924411
199	0x3efb74c3	0.4911252
200	0x3f051dbd	0.519985
201	0x3f0dec10	0.5543833
202	0x3f1a548e	0.6028527
203	0xbdb79306	-0.08963589
204	0xbdbc9703	-0.09208491
205	0x3f374443	0.71588534
206	0x3f06be9e	0.5263461
207	0x3eed3817	0.46331856
208	0x3f07572c	0.5286739
209	0x3f0e745f	0.5564632
210	0x3e9c6a9a	0.3055008
211	0x3f1b4ae9	0.6066118
212	0x3ee4ae61	0.4466429
213	0x3efd70cb	0.49500117
214	0x3f30b6c8	0.690289
215	0x3f1cc3ad	0.6123608
216	0x3f03b022	0.5144063
217	0x3f24767c	0.6424329
218	0x3f0ac0db	0.54200524
219	0x3f106f07	0.56419414
220	0x3efb54bf	0.49088094
221	0x3f0b7d84	0.54488397
222	0xbda889d1	-0.082294114
223	0x3ee847c0	0.4536724
224	0x3f0966f4	0.5367272
225	0x3eee75e5	0.4657432
226	0x3f23fe3c	0.64059806
227	0xbc1af0a0	-0.0094567835
228	0x3ec71e0d	0.38890114
229	0x3f413f41	0.7548714
230	0x3f2ab5a7	0.6668343
231	0xbca57b4f	-0.0202004
232	0xbd7bb8d7	-0.061455574
233	0x3f41cfea	0.75707877
234	0x3f21d68a	0.63217986
235	0x3ea9b152	0.33143097
236	0xbd5f4e31	-0.05451793
237	0xbd65e62e	-0.05612772
238	0xbb89cdf0	-0.004205458
239	0x3f04df94	0.51903653
240	0x3f0d56bb	0.55210465
241	0x3e52073c	0.20510572
242	0x3f0342c7	0.5127377
243	0x3f4bd7be	0.7962607
244	0x3f0e2c88	0.555367
245	0x3f33e5fc	0.70272803
246	0x3f1f1d08	0.62153673
247	0x3f2683c3	0.650448
248	0x3f11a929	0.5689874
249	0x3f0e1d54	0.555135
250	0x3eb597a9	0.3546727
251	0x3ed98ed0	0.4249177
252	0xbcf7d091	-0.03025082
253	0x3f54e963	0.8316862
254	0x3f413af6	0.7548059
255	0x3f16dd41	0.58931357
