model_epoch_1300.pth (torch, 141274 bytes, 15 tensors)

target_net.fc1.weight f4 [64, 36]
000000 80 ed cc 3d f0 1b 66 3d d6 51 3b 3c 8c cf e5 bc
       0.10006237 0.056178987 0.011433085 -0.028053068
000010 48 e7 ed 3c af 8d 9a 3c 8b 27 e7 bc 2b ff e5 3d
       0.029040948 0.018866388 -0.028217098 0.1123031
000020 db d5 56 3d cb 77 83 ba 07 f8 db bd 9d ad 07 be
       0.052450042 -0.0010030208 -0.10740667 -0.13249822
000030 0b 2b f1 bd 9b 9e b3 3d 00 95 4e bd 33 2d 53 3d
       -0.11775788 0.08770486 -0.050435066 0.051556777
000040 6e 5c ad 3c f9 1e 05 be e0 d0 16 bd ce cc 8b bd
       0.021162238 -0.13000096 -0.036820292 -0.06826173
000050 98 25 27 be 90 27 19 3d 8e 69 ca 3d 63 e1 31 bd
       -0.16322935 0.037391245 0.09883414 -0.043427836
000060 00 37 fe 3c a0 be ec bc 86 b0 a3 bd 6b 0f 1a 3c
       0.031032085 -0.02889949 -0.079926535 0.00940309
000070 f0 2f fb 3d ad d3 18 be 23 4b 19 3e 66 5b 77 bd
       0.12265003 -0.14924498 0.14970069 -0.0603899
000080 b6 f9 0b 3d 00 03 24 3c 0b fc 56 bd 82 57 34 bc
       0.03417369 0.010010481 -0.05248646 -0.011007192
000090 88 88 14 3e d6 cb c0 3d 36 f6 3c bd 67 26 3d bd
       0.14505208 0.094138786 -0.046133243 -0.0461792
0000a0 13 34 4f bd da 67 d9 3d af d8 06 3e 57 8c 1f 3e
       -0.05058677 0.10615511 0.13168596 0.15580879
0000b0 0b 07 26 3d 67 95 e2 3b 08 e1 fe bc d2 c4 9c bb
       0.04053406 0.006914783 -0.031113163 -0.004784205
0000c0 ee c0 d5 3d d4 05 02 be 86 a9 01 3e fe 7d 9c 3d
       0.10437189 -0.12697536 0.12662324 0.076412186
0000d0 10 d4 86 3c 58 94 1a 3e f0 97 5c bd 16 6d 2a 3d
       0.016458541 0.15095651 -0.053855836 0.04160794
0000e0 fc 51 24 3e 57 69 27 be fe 97 8d 3d fe d7 8d 3d
       0.160469 -0.16348778 0.06913756 0.06925963
0000f0 10 72 74 bd 10 f4 08 bd ec df 0f 3e 18 0f c7 3d
       -0.05967909 -0.03343588 0.14050263 0.09719676
000100 20 12 90 3c 30 76 9b bd 00 3b 9c bc 8b 19 66 3d
       0.017586768 -0.07590902 -0.019071102 0.056176703
000110 d6 29 47 bc 23 da 1f 3e fe 4e fb bd b9 9c ff bd
       -0.012155971 0.15610556 -0.12270926 -0.12481064
000120 16 62 0b 3e 90 2b 37 3d 80 49 15 3d c6 8a c2 3d
       0.13611636 0.04471928 0.03644705 0.09499125
000130 95 22 d1 bd 80 48 10 bd 60 eb ee 3c aa fa 23 3e
       -0.10211674 -0.03522539 0.02916497 0.1601359
000140 ab 89 3d bd f5 07 94 3d 38 0f 43 3d 1a 6e ce bd
       -0.04627387 0.0722808 0.047621936 -0.10079594
000150 ab 74 eb 3b 98 0d b2 bd f3 dc de bd 70 3c 8a 3d
       0.0071855388 -0.08693999 -0.108819865 0.06749809
000160 82 b7 96 3d 83 f0 8d 3d 6b fa 16 3d d6 da a8 bd
       0.0735922 0.069306396 0.03685991 -0.08244865
000170 5a d6 1f 3e 2b 99 45 3c a0 45 ba 3c bc d7 97 bd
       0.15609112 0.012060444 0.022738278 -0.07414195
000180 ab ce f9 3d 33 51 9c bd 48 d6 a1 3d 46 f0 64 bd
       0.12197622 -0.07632675 0.07902199 -0.055893205
000190 a8 cd 00 be fa fa 99 bc 63 0a 17 be a8 d9 b2 bd
       -0.12578452 -0.018796433 -0.14750056 -0.08732921
0001a0 00 e3 5e 3c a0 4a 28 3d 93 f7 0a be e5 d4 db bd
       0.013603926 0.041086793 -0.13571005 -0.10733966
0001b0 28 15 94 3d 13 0a c4 bd 24 c8 1d be b4 51 a1 bd
       0.07230598 -0.09572234 -0.15408379 -0.07876912
0001c0 de ee 4c 3d b3 53 a2 bd ca 2f 10 3e 20 7d 39 bd
       0.05003249 -0.079261206 0.1408073 -0.045285344
0001d0 5b 8c 11 3d 02 46 98 3d 92 2b ea bd 8d 4e 3b 3e
       0.035534244 0.07435228 -0.11434092 0.18291683
0001e0 8b f2 b0 bc 30 4f 28 be ac f5 09 3e f4 eb f4 3c
       -0.021600028 -0.16436458 0.13472623 0.029897667
0001f0 9e 31 d9 3d 7e 3a 10 3d 66 35 e8 3d 56 70 28 3c
       0.10605167 0.035212032 0.1133831 0.010280689
000200 2b 8f 8d bb 00 ae 32 3b 44 7a 01 3e 67 b0 3e bb
       -0.0043200455 0.0027264357 0.12644297 -0.0029096843
000210 96 19 2f 3d 46 7a bd 3d af e8 1c 3e a3 1a 16 3e
       0.04274901 0.092518374 0.15323137 0.14658599
000220 c6 a4 b5 bd 66 63 ee bc f6 72 fa bc 3a 28 18 be
       -0.08869319 -0.029100131 -0.030572396 -0.14859095
000230 a6 9f 83 bd 36 32 8e bc 16 bb a8 bd b1 9c dd bd
       -0.06426935 -0.017357927 -0.08238809 -0.10820902
000240 86 c3 56 bd c0 04 c1 bc 46 f2 51 bd 28 94 a0 bd
       -0.05243256 -0.023561835 -0.05125644 -0.078407586
000250 89 97 da 3d 91 24 b6 3d 56 c8 a6 bc 96 95 4e bc
       0.10673434 0.08893693 -0.0203592 -0.012608906
000260 a0 90 1d bd 3e 7d 6c bd d6 a7 19 3e cd 02 83 bd
       -0.038468003 -0.057736628 0.1500543 -0.063970186
000270 36 dd 07 be 06 95 4e bd ff 8b 16 3e 2b 89 4a be
       -0.13267979 -0.05043509 0.14701842 -0.19778888
000280 05 e6 52 3d 6c 97 df bd 17 96 19 3e 20 86 82 3d
       0.051488895 -0.10917553 0.14998661 0.063732386
000290 ae 7a 9b bd e0 57 48 bd 10 46 2a bd c2 e7 e8 3d
       -0.07591759 -0.04891193 -0.041570723 0.11372329
0002a0 40 ce 8b 3c 00 37 9a 3c 73 5d 97 bd 8e fb d5 3d
       0.017066121 0.018825054 -0.07390871 0.10448371
0002b0 00 e0 5a b9 33 8d 0f 3e 90 4c 1e 3e 0f 0c 07 3e
       -0.00020873547 0.14018707 0.15458894 0.13188194
0002c0 70 c0 0a 3d b0 52 28 bd f0 60 fd 3d 7d 91 ae bd
       0.03387493 -0.041094482 0.12372005 -0.085238434
0002d0 f6 ad c1 bc 43 cb d5 bd 96 ba 5c 3c a5 1c 8b bd
       -0.023642521 -0.1043916 0.01347222 -0.06792573
0002e0 36 e1 5e bd c0 48 56 3d ab 96 6c bb c0 a8 01 3e
       -0.054413997 0.052315474 -0.0036100547 0.1266203
0002f0 7e 49 ea bd ea aa fa 3c 8c 92 bb 3d 50 01 57 3d
       -0.11439799 0.030599076 0.09158811 0.052491486
000300 8e 73 11 3e 44 0b 1b 3e 53 4d e4 bd ab e7 95 bd
       0.14204237 0.15141016 -0.11147561 -0.07319578
000310 4f 07 30 3e 77 56 68 bd eb a5 1b be 6e 8a f3 bd
       0.17190288 -0.056723084 -0.15200011 -0.11891638
000320 e6 18 5f 3d 00 e8 1e 3b 66 b4 25 bd 4b a2 87 3d
       0.054467104 0.002424717 -0.040455244 0.06622752
000330 8b ff b2 bd e0 97 d7 3d 0b 77 d4 bc 8e 60 86 3d
       -0.08740147 0.10527015 -0.02593567 0.06561385
000340 02 10 16 be e9 4c c3 bd 0b 57 17 3d c0 72 2c 3c
       -0.14654544 -0.09536154 0.036948245 0.010525405
000350 d6 d0 96 bd e8 f2 d5 3d 60 f3 86 3c b1 37 4c be
       -0.07364051 0.10446721 0.016473472 -0.1994312
000360 56 b1 3e bc 07 d6 02 3e 9b e3 b6 bd ca 98 f7 3b
       -0.01163896 0.12776957 -0.08930131 0.0075560557
000370 30 64 0c be 50 9b 43 3e 08 89 fc bd f3 d3 d4 3d
       -0.13710093 0.19102216 -0.12330824 0.103919886
000380 8b 6c dc bd a8 cc 00 3e 72 7e d8 3d 78 e5 95 3d
       -0.107628904 0.1257807 0.105709925 0.07319158
000390 52 8f 20 be c8 d9 c3 bd 26 50 34 3d 72 ff df 3d
       -0.15679672 -0.09563023 0.044021748 0.10937394
0003a0 36 3f ff bd 7e 39 85 3d f6 a8 d7 bc ab 6d a7 bb
       -0.124632284 0.065051064 -0.026325684 -0.005109509
0003b0 60 a7 22 3d fb ea 94 3d 2b 99 a0 bd e2 8a 1f 3d
       0.039710402 0.072713815 -0.078417145 0.03895081
0003c0 63 b4 e9 bd 9e d4 bd bd 00 ca e2 bb ee 27 17 be
       -0.11411359 -0.09269069 -0.006921053 -0.14761326
0003d0 30 f6 64 bd 5c 5c 0a be a3 4a ca 3d 70 bf 48 bd
       -0.055898845 -0.13511795 0.09877517 -0.049010694
0003e0 c2 5d 0d 3e f6 a9 6f 3d 00 21 33 bc 62 75 e7 bd
       0.13805297 0.058511697 -0.010933161 -0.11301686
0003f0 d8 d1 f1 3d 0b 19 df 3d 5c 46 10 be 88 f5 da 3d
       0.11807603 0.108934484 -0.1408934 0.106913626

target_net.fc1.bias f4 [64]
000000 45 ac e0 3b 73 b3 97 3d 69 61 01 be f9 c9 45 bd
       0.0068564736 0.07407274 -0.12634815 -0.04828832
000010 be e8 9c bc 32 3d 48 be a8 7e c2 ba 8c 36 3d 3d
       -0.019153949 -0.19554594 -0.0014838772 0.046194598
000020 d8 f4 12 be d0 ed 02 3e e0 e6 da 3c 03 7a 16 3e
       -0.14351213 0.12786031 0.026721418 0.14694981
000030 de fd b5 3d b6 22 81 bd bc 20 0b 3e f2 2b 8a bd
       0.08886312 -0.06305449 0.13586706 -0.06746663
000040 53 ed 12 be ac 06 32 be 8c 5d ce 3d 58 94 db bd
       -0.14348345 -0.17385358 0.100764364 -0.10721654
000050 3a 2d 08 be 14 e0 29 be c5 a8 d8 3d 17 3e bf bd
       -0.13298503 -0.16589385 0.10579065 -0.093380146
000060 b6 dd 81 bd 8a b8 65 bd a6 ab 05 3e d6 81 33 bd
       -0.06341116 -0.056084193 0.1305376 -0.043824993
000070 83 b8 09 be fa e2 49 3e d9 c6 72 3d 7d 91 16 be
       -0.13449292 0.19715491 0.059271667 -0.14703937
000080 19 96 81 bd 9b 29 e0 bc 7a 3a 5f 3c 58 19 5a bd
       -0.06327457 -0.027363589 0.013624782 -0.053246826
000090 c7 6d c6 3d 34 0d ab 3d c6 4e 4f be e9 8d b7 3b
       0.09688907 0.08352128 -0.20244893 0.005601634
0000a0 6f bf 29 be 99 28 0a bb 2d 4c 20 be ba 83 03 be
       -0.16576932 -0.0021081327 -0.15654059 -0.12843218
0000b0 3a 62 20 3e a1 3f 0e 3d 4a 96 92 bd 1b f7 0e be
       0.1566247 0.03472865 -0.071575716 -0.13961451
0000c0 b1 91 f2 3c 25 18 19 be a0 90 19 be a6 09 36 bd
       0.029610487 -0.14950617 -0.14996576 -0.044442795
0000d0 c8 a2 c8 3c 29 36 9a bc 8d 8f 23 3d f1 60 5b 3d
       0.024491683 -0.018824654 0.039931823 0.053559247
0000e0 43 f4 2a be 43 4e eb b9 53 7a 2c bb c3 2a 8e bc
       -0.16694741 -0.00044881002 -0.0026318028 -0.017354375
0000f0 c5 ce 05 be e4 38 5b bd b1 09 20 3e 4e 07 ae bd
       -0.13067158 -0.053521052 0.15628697 -0.08497487

target_net.fc2.weight f4 [3, 64]
000000 e6 3c 71 bd 95 4f 24 bd eb b9 03 bd 4e 19 73 bd
       -0.058895968 -0.040114958 -0.032159727 -0.059350304
000010 88 e7 3e bc 91 d6 4a bd 99 65 95 3d 4d 09 7e 3b
       -0.011651881 -0.049521033 0.07294769 0.0038762868
000020 d0 cc c5 bd 84 fb 0e 3e c5 a0 22 bd df 0a 72 3c
       -0.096582055 0.13963133 -0.039704103 0.0147731
000030 9e 58 7d bd e1 e3 a9 ba 5b 7c c8 bd d1 5f 86 3d
       -0.06185209 -0.001296159 -0.09789344 0.06561244
000040 d2 b8 8c 3d 54 20 20 bc 4b ff 7f bc 19 38 78 3c
       0.06871189 -0.009773333 -0.015624831 0.0151500935
000050 aa a5 40 bd a3 e1 d4 3d a9 49 ad bd c9 c4 48 bc
       -0.04703299 0.10394599 -0.08461315 -0.0122539485
000060 f5 ff 2a bd 55 dc 2e bd f7 2e b1 3c 37 e9 4b 3d
       -0.041748006 -0.042690594 0.02162884 0.049782958
000070 06 65 9a 3d e7 cd 8c bd 53 6a 7e bd e4 45 8c 3d
       0.075388 -0.0687521 -0.062113117 0.06849268
000080 84 b6 f3 bc e1 47 af 3d 93 94 6e 3d f9 67 a0 bb
       -0.029750116 0.08558632 0.05824716 -0.004895207
000090 5e 0f f6 bc 35 05 a7 bd 07 18 fb 3d c6 b9 7e 3c
       -0.030036625 -0.0815529 0.12260442 0.0155472215
0000a0 16 31 6f 3d 28 bf 9a bd 06 2a e2 bb 61 16 8f 3d
       0.05839642 -0.075559914 -0.0069019822 0.0698669
0000b0 97 d0 30 bd 3e 15 99 3d db 4d 11 3d 2a be a2 3c
       -0.043167677 0.07474755 0.03547464 0.019866068
0000c0 62 6a 04 3d 4d 80 49 bd a0 51 e1 bc 68 de 92 bd
       0.032328017 -0.049194623 -0.027504742 -0.07171327
0000d0 79 6e e3 bd d0 c5 dc bd 08 e4 23 bd f8 72 aa 3d
       -0.11105055 -0.10779917 -0.04001239 0.0832271
0000e0 3a b6 e4 3c 29 f7 df 3c d6 23 a4 3d 75 7e 06 be
       0.027918924 0.027339535 0.08014648 -0.13134177
0000f0 e0 c0 2e bd 47 cd bb 3c 22 aa 3b be 40 eb 44 3d
       -0.04266441 0.022925032 -0.1832662 0.048075914
000100 e6 f9 6b bd bc 18 94 bd 43 57 af 3d 24 ab 23 bd
       -0.05761137 -0.0723128 0.08561566 -0.039958134
000110 a2 2c b8 3d ad 02 c4 bd 4d 69 7f 3d eb 7f d9 3d
       0.08992888 -0.09570823 0.062356282 0.106201015
000120 50 40 41 bc b9 ae b2 bd 51 88 d4 3d 71 1a 22 3e
       -0.011795118 -0.08724732 0.10377563 0.15830399
000130 90 d2 02 3d bc 86 0f 3d c4 dc 9e 3d 03 31 49 bd
       0.03193909 0.035040602 0.077569515 -0.049119007
000140 b9 7c ce bc 31 5e c0 3d c2 79 c5 3c 4c d4 bc 3c
       -0.025205957 0.093929656 0.02410591 0.02305045
000150 fd 4f bb 3d 91 1d d6 3c 74 9b 94 bd 32 13 7b 3c
       0.09146116 0.026137145 -0.07256213 0.015324401
000160 89 13 0a 3d 03 f9 ec bd 22 30 ad 3d 9f 7f e4 3d
       0.033710036 -0.11570933 0.08456446 0.11157154
000170 ab 8f 03 bd d2 55 ed 3c e3 4a 27 bd 4c 09 16 3c
       -0.032119434 0.028971586 -0.040842902 0.00915749
000180 da 90 f1 3d eb d7 37 bc 00 02 89 bc 76 62 fc 3c
       0.11795206 -0.011220912 -0.016724586 0.030808669
000190 6e 65 ea bb 69 2f 08 3d 87 8a 85 bd 6a 93 85 bd
       -0.0071532046 0.03324834 -0.065205626 -0.065222576
0001a0 7d 86 d9 3c 20 f5 ab 3d 26 eb 55 bd be ab 9a 3d
       0.026553387 0.08396363 -0.05222621 0.075522885
0001b0 20 82 04 3e 76 c1 a0 3d 67 9b e1 3d 04 73 66 bc
       0.12940264 0.078494 0.11015969 -0.014065508
0001c0 23 5f eb 3c cd fd a1 3d d4 40 f1 bd 7c f1 84 3c
       0.028731888 0.07909737 -0.11779943 0.01622843
0001d0 13 14 70 bd 72 85 39 bd df 58 3b bd 38 bb cd bc
       -0.058612894 -0.04529328 -0.04573905 -0.025113687
0001e0 da c3 8c bd 75 f1 ea bc 6c 60 b0 bc 45 82 0d 3d
       -0.06873293 -0.028679589 -0.021530353 0.034548063
0001f0 b2 2f 34 bc eb d3 89 bd e1 cc 93 bc 10 2d 83 3c
       -0.0109977 -0.06729873 -0.01804203 0.016012698
000200 36 af 83 bd 5f 07 5c bd 4e ea 77 bd b1 5d 01 3c
       -0.06429903 -0.053717967 -0.060526185 0.007895873
000210 e3 ad 2c bd 26 87 61 3d 91 1f d1 bd 58 e2 b8 bc
       -0.04215802 0.05506053 -0.10211099 -0.022568867
000220 ba a9 82 3d 20 f2 9a 3d 54 5f 0c 3e 73 88 83 bd
       0.06380029 0.07565713 0.1370824 -0.0642251
000230 06 e4 6e bc 1b 44 0f 3e dd d5 83 bd fb 60 b0 bb
       -0.014580732 0.13990824 -0.064372756 -0.0053826547
000240 a7 08 c3 bc 85 58 c0 3c 84 0b 3e 3d 68 6b be 3b
       -0.023807837 0.02347971 0.0463977 0.0058111437
000250 d7 4d 06 be d2 01 7c bd 30 35 a0 3d 2f 8a af bd
       -0.13115631 -0.061525173 0.07822645 -0.08571278
000260 ca 78 bd bc 86 8b 9d 3d e0 1c 9f 3d 46 dc 91 3c
       -0.023128886 0.076926276 0.07769179 0.01780523
000270 80 d3 78 bd 5e 10 19 3e 15 79 c8 3d ab 53 f3 3d
       -0.060748577 0.1494765 0.097887196 0.11881193
000280 b6 8b b7 bd 4d df 10 3d 45 4b d8 3d f8 ee 6f bd
       -0.089621946 0.035369206 0.105612315 -0.058577508
000290 9a eb 3e bd 14 9b 35 bc 3d dc 29 3d 5c 64 86 bd
       -0.046611406 -0.011084337 0.0414698 -0.06562111
0002a0 c5 c2 c0 bc 3e 2e c7 bd c4 60 01 bb e4 a1 ea 3d
       -0.023530373 -0.09725617 -0.0019741515 0.114566594
0002b0 d2 de b2 3d b5 e3 4f bd b0 b1 54 bd 56 7b df 3d
       0.08733906 -0.050754268 -0.05192727 0.10912196
0002c0 48 25 ee 3c f3 7b 02 3d c5 06 b5 3d d9 ea 12 bd
       0.029070511 0.03185649 0.08839182 -0.0358685
0002d0 3f e7 b8 bd d8 dc 20 bd b4 11 24 3d 9e 8e dd 3d
       -0.09028482 -0.039273113 0.040055946 0.10818218
0002e0 16 86 02 be 10 dd d4 bd 1d 81 aa 3d 51 c7 c5 3d
       -0.12746462 -0.10393727 0.08325408 0.09657157
0002f0 46 4e da bd 2f 54 c9 bd ff af 95 3d 50 1e 06 3c
       -0.10659461 -0.0983051 0.07308959 0.008185938

target_net.fc2.bias f4 [3]
000000 ca c1 4a 3a ff 9b 45 3c ec e0 27 3d
       0.00077345653 0.012061118 0.040985987

tatic_net.fc1.weight f4 [64, 42]
000000 7b 30 12 3e bf ca 1d bd 8d c3 f0 3b 1e 3e 0e be
       0.14276306 -0.038523432 0.00734753 -0.13890883
000010 8d 60 40 3d 87 6f f4 bd 13 bc 32 bd 36 8c d7 bd
       0.046967078 -0.11935335 -0.043636393 -0.1052479
000020 c5 5e bc 3d cf f4 00 3e 9c 8e b8 bd b0 8b a6 3c
       0.09197763 0.12593387 -0.090115756 0.02033028
000030 69 06 00 be e0 cb ff 3d d6 df b9 3d 64 1e f8 bd
       -0.12502445 0.12490058 0.090758964 -0.121151716
000040 16 b6 20 be 69 e9 c0 3d 9e aa 63 3c 56 ac de bd
       -0.1569446 0.094195195 0.013895659 -0.10872714
000050 f6 3d 1d 3e 89 c0 c0 bd 03 65 44 bd 5f 6d 24 3e
       0.15355667 -0.09411723 -0.047947895 0.16057347
000060 91 77 16 be 20 6c bc 3d cf 18 92 bd be 9e ca bd
       -0.14694048 0.09200311 -0.07133638 -0.09893559
000070 4d c2 9c 3d 7a 05 5d bd 9a 53 06 3d a0 a9 fb 3d
       0.076542474 -0.0539603 0.032794572 0.12288213
000080 61 06 5a bc 16 86 19 be 15 58 d2 3d e1 7e fb 3d
       -0.013307185 -0.14992556 0.102707066 0.122800596
000090 61 d1 d4 bd 0b fa 0f 3d 95 bd 3e 3d 18 a4 8b 3d
       -0.10391498 0.03515057 0.04656752 0.06818408
0000a0 96 86 ae 3d 37 a0 28 bd a1 ce fc bd 1a ce 15 3e
       0.08521764 -0.041168418 -0.12344099 0.14629403
0000b0 b2 1f 62 bd e6 b5 f6 3d 6a ed be bc 2f 32 9b 3d
       -0.05520601 0.12046413 -0.023306567 0.07577931
0000c0 43 1b 0e 3e 7d 4a 19 bd 54 c6 21 bc 42 f4 84 bc
       0.13877587 -0.037424553 -0.009873945 -0.016229752
0000d0 44 d1 92 3d 43 fd af 3d 38 5c ad bd bf 05 90 bc
       0.071688205 0.08593228 -0.08464855 -0.017580865
0000e0 c4 c7 a9 bd d1 83 f5 bd 40 4f 8d 3d a6 9d d4 3d
       -0.082900554 -0.119880326 0.06899881 0.103816316
0000f0 06 79 b0 3d 60 ad 92 3d f3 4c 18 bd a3 cd 08 3d
       0.086168334 0.07161975 -0.03718276 0.033399235
000100 7a 4c 1d 3e 00 0c 0d bd 43 36 b5 bd 28 7c f1 3d
       0.15361205 -0.034435272 -0.0884824 0.11791259
000110 62 4c af 3d 36 dc 15 3c 34 f6 04 be f7 05 2c 3b
       0.08559491 0.009146741 -0.12984544 0.0026248673
000120 1f de c1 bd 94 e3 27 3d a4 29 17 be b6 99 f4 bd
       -0.09466194 0.04098852 -0.14761978 -0.119433805
000130 1e d5 1c bd 15 c9 fa 3d a1 18 05 be e9 01 54 bd
       -0.038289182 0.122453846 -0.12997676 -0.051759634
000140 b2 0c 07 be 0d 0f cf 3d 00 d0 a9 bc c4 79 85 3d
       -0.13188437 0.101102926 -0.020729065 0.065173656
000150 36 05 83 3d 2c 40 b2 3d be da f9 bd 6d c2 04 be
       0.06397478 0.08703646 -0.12199925 -0.12964793
000160 f2 7d 17 be cd c0 48 3e 00 d0 44 3d a3 94 ad 3d
       -0.14794138 0.19604798 0.048049927 0.08475616
000170 08 2f 86 3d 54 29 50 3d 99 bc 4c bd ee 28 8e 3d
       0.06551939 0.050820664 -0.04998455 0.069414005
000180 67 82 19 be bf 84 09 be e8 da 98 3d 3b 2e a7 bd
       -0.14991151 -0.13429545 0.07463628 -0.08163115
000190 d1 7d 1f 3e 1b a7 a3 bd b5 a3 96 3d d8 6f f6 bd
       0.15575339 -0.07990857 0.073554434 -0.12033051
0001a0 84 fd b6 bd ed 8a 36 bd 7d 93 ff bd 4d e2 0f bd
       -0.08935073 -0.044566084 -0.12479303 -0.035127927
0001b0 d5 15 56 3d a8 b8 ca 3c 6e d2 7a bd 56 d0 cd 3d
       0.052266914 0.024746254 -0.061235838 0.100495026
0001c0 24 2d 8f bc 8b 5c c3 3d 6e 23 0f be 0e ca a6 3b
       -0.01747758 0.095391355 -0.13978359 0.0050900048
0001d0 cb 3f 23 3d 0e 88 46 3d b8 22 0a be 46 21 d6 3c
       0.03985576 0.048469596 -0.13489807 0.026138913
0001e0 1b d7 40 3d 9e 18 15 be a7 0a 04 be 32 aa c5 3d
       0.04708014 -0.14560172 -0.12894689 0.09651603
0001f0 63 50 14 be 41 f1 5f bb 81 0c 11 be 32 e0 dd bd
       -0.1448379 -0.0034170898 -0.14164926 -0.108337775
000200 6f 3b 90 3d 15 f4 22 3e 1f 95 25 3d 4a e3 34 3e
       0.07042586 0.15913422 0.040425416 0.17664829
000210 96 f5 0f be eb ba fa bd 77 76 fb bd fa 25 1a 3e
       -0.14058527 -0.12242683 -0.12278455 0.1505355
000220 13 0d 38 bd 53 31 2e 3d 84 6c 97 3d 44 ec 13 be
       -0.044934344 0.042527508 0.073937446 -0.14445597
000230 ba e7 ba 3d ae c8 29 be c2 38 36 bc 6d 4c 08 3e
       0.091262296 -0.1658046 -0.011121931 0.13310404
000240 2f a1 9b 3d 5e d5 1c 3e c3 45 56 3c 09 be 96 3d
       0.07599103 0.15315768 0.013078156 0.07360465
000250 37 5b c0 bd 8e 0d 11 3e e2 10 87 bd 70 14 e4 bd
       -0.09392398 0.14165327 -0.06595017 -0.11136711
000260 72 d6 d2 3d 17 6d 98 bd bf f5 10 3e 41 bb cb bd
       0.102948084 -0.07442682 0.14156245 -0.09947825
000270 1c 9f c0 3c 15 85 0b bd e8 2b a1 3d 37 81 b5 bc
       0.02351337 -0.034062464 0.078697026 -0.022156341
000280 91 ce f8 3d 37 3f f8 bb a7 5b 0e be 70 67 9d bd
       0.121487744 -0.007575895 -0.1390215 -0.07685745
000290 48 9c 2b be b5 9a cc 3d 7a 0d 95 bd 2d ee 1d 3e
       -0.16758835 0.099904455 -0.07277961 0.15422888
0002a0 4b 34 52 3d 25 fd 02 be 18 ba 0a be c6 16 ed bd
       0.0513194 -0.1279188 -0.13547552 -0.11576609
0002b0 ca 94 90 3d 14 e4 a5 bd 19 c8 d1 bd f8 21 18 be
       0.07059629 -0.08100143 -0.10243244 -0.14856708
0002c0 ae f0 13 bd 06 ab a3 bd 5a b7 ae bd 36 91 1b 3e
       -0.036118202 -0.079916045 -0.08531065 0.15192112
0002d0 88 c8 f3 bc 42 85 a2 bd da c0 14 bd a6 2f f2 bd
       -0.029758707 -0.07935573 -0.03631673 -0.118254945
0002e0 2c 33 2c 3b 4c 12 14 3e 16 02 96 bd 21 6f ca 3c
       0.0026275618 0.14460105 -0.073246166 0.024711194
0002f0 2f c0 d6 bd b7 b6 39 3d f9 9b d5 bd 35 30 26 be
       -0.10485875 0.045340266 -0.1043014 -0.16229327
000300 e5 a1 de 3d e2 38 da 3d dd f2 bb 3d 22 1c 4a 3d
       0.10870723 0.10655381 0.09177182 0.049343236
000310 37 40 11 be ab b1 ee 3c 3f 1f 44 3d d3 67 cf 3d
       -0.14184652 0.029137453 0.04788136 0.10127225
000320 9b 85 3d bc ce 44 ed bd a3 5b 20 bc 59 ac be 3d
       -0.011567499 -0.11585389 -0.009787473 0.093102165
000330 96 20 48 bd cc 45 45 bc 08 60 49 3c 4f 25 e9 bb
       -0.0488592 -0.012040567 0.012290962 -0.0071150432
000340 1d ad 01 3d 37 34 1c 3e 7e 23 9d 3d da 9f f7 bd
       0.031659234 0.15254293 0.07672785 -0.12091036
000350 d7 9c 15 3e ed 85 eb 3b b9 86 19 bd 79 b5 4a 3d
       0.14610611 0.007187596 -0.037481997 0.049489472
000360 ba 1a ad 3c 4d f6 12 3d 4f 85 1f bb b7 0e ac 3d
       0.021130908 0.035879422 -0.0024340933 0.08401244
000370 9e 81 ba bd 7d c9 e0 3d 38 62 7d 3d af 32 b6 3d
       -0.09106754 0.10975931 0.061861247 0.08896386
000380 23 fb 33 3d 20 cc cd 3c 09 b9 97 bd 3e 97 1e be
       0.043940675 0.025121748 -0.074083395 -0.15487382
000390 35 bf d1 3d c2 5a b2 bd ec 84 70 3d 4d 79 56 3c
       0.10241548 -0.08708717 0.058720514 0.013090444
0003a0 b0 30 fe bd 24 33 8d bc 16 d5 dc 3c 86 ba 67 3d
       -0.1241163 -0.0172363 0.026957076 0.056574367
0003b0 fc fa de bb ca 20 19 3d f7 43 fe bd e4 92 1c bd
       -0.006804822 0.037384786 -0.12415307 -0.038226023
0003c0 90 bf 1d 3e e2 e8 05 3e 8d df 9c bd 60 f7 0b 3e
       0.15405107 0.13077119 -0.076598264 0.13668585
0003d0 a2 cf 0c 3e 43 d9 a1 3c bf f2 e1 bd b0 6d c0 3d
       0.1375108 0.019756919 -0.11032628 0.09395921
0003e0 c5 fe e5 bd c4 63 ef 3d 32 1c a2 3c d7 26 05 be
       -0.11230234 0.11688951 0.019788835 -0.13003097
0003f0 73 00 c6 3d d4 ff fd 3d 36 39 b0 3d 3a fa ce ba
       0.096680544 0.12402311 0.08604662 -0.0015791126

tatic_net.fc1.bias f4 [64]
000000 35 b2 d3 3d f6 f5 96 bd 45 6b 47 3d f1 66 b7 3d
       0.10336725 -0.07371132 0.048686285 0.089551814
000010 ae f6 de 3c 96 1f b6 3d 77 38 30 bd 67 4a 96 bd
       0.027217235 0.08892743 -0.0430226 -0.0733841
000020 c5 b6 9a bd 4b 85 e4 3a 08 cd 3e 3d ba d8 d0 3d
       -0.07554392 0.0017434744 0.04658225 0.10197587
000030 0e b8 a1 bd 7b 3c 2a 3d f3 bb 5e 3d 83 bc e1 3d
       -0.07896434 0.041561585 0.05437846 0.11022284
000040 1d 69 9c bd fb 20 d8 3d f2 22 0f 3e ca 7f dd 3d
       -0.07637236 0.105531655 0.13978174 0.108153895
000050 61 0a 27 3d 90 4e f3 3d cf 6d ca bd 1c 37 0b 3e
       0.040781382 0.11880219 -0.098842256 0.13595241
000060 0a 60 87 bd 02 8e 60 bd 05 33 7d bd 8f 0a 11 3b
       -0.06610115 -0.05482293 -0.061816234 0.0022131538
000070 77 b7 0f be bd bc 0a 3e 14 78 bc bd f0 e2 74 bd
       -0.1403483 0.1354856 -0.092025906 -0.059786737
000080 32 9b 05 3e d1 19 a4 bd a4 03 ba 3d cc 12 2a bd
       0.13047484 -0.080127366 0.09082726 -0.041521832
000090 03 67 c0 3b d1 74 3c bd 42 26 4f 3d 1d 28 89 3d
       0.005871655 -0.046009842 0.050573595 0.06697104
0000a0 d3 3e aa bd c7 ff c5 bd 58 32 62 3d 64 7d 0d 3e
       -0.08312764 -0.09667926 0.055223793 0.13817364
0000b0 ec 9c 87 3d 85 30 20 3e 4c e1 f9 bd 72 bb d6 3d
       0.06621727 0.15643509 -0.12201175 0.10484971
0000c0 b2 97 3c 3d 7c 09 ee bd af f5 0b be 7e 9c 23 bd
       0.046043105 -0.11622903 -0.1366794 -0.039944164
0000d0 10 9e fe bc 5a 01 bc 3b 3e f0 d8 bc 47 36 94 3c
       -0.03108123 0.005737466 -0.026481744 0.018092288
0000e0 e8 60 19 3e 48 fd 46 3d eb 24 7f 3d 7f a4 a4 3d
       0.14978373 0.04858139 0.062291067 0.08039188
0000f0 8e ed 69 3c e5 33 ce bd 6b c4 fe bd 2c 5d a9 bd
       0.014277829 -0.10068492 -0.124398075 -0.08269724

tatic_net.fc2.weight f4 [6, 64]
000000 c8 47 08 3d 66 a6 82 3d 68 1e 77 bd 94 7f 90 3d
       0.03327158 0.06379394 -0.060331732 0.070555836
000010 b0 44 17 bd 60 57 6d 3c 00 67 41 3a fc 31 c5 3d
       -0.03693074 0.014486164 0.0007377714 0.096286744
000020 ec 34 a5 3d 98 01 bc bd 3a 06 d9 3d 22 43 c1 3d
       0.08066735 -0.091799915 0.10596891 0.09436633
000030 ae 4b a6 bd 40 e2 da 3c 34 1e 2f bd 72 6e 9c 3d
       -0.081199035 0.026719213 -0.042753413 0.07638253
000040 1a 9d f2 bd da a4 cb bd c0 14 0f bc 04 74 04 3d
       -0.11846371 -0.09943552 -0.0087329745 0.032337204
000050 c2 d7 eb 3d 5a 93 dd bd 9a 3e 9e 3d 60 69 fa bb
       0.11515762 -0.10819121 0.07726784 -0.007641956
000060 c0 0d 49 bc 72 af f7 bd 80 81 e5 3d 3c 61 b2 3d
       -0.012271345 -0.120940104 0.11206341 0.08709952
000070 dc 98 5e 3d b8 6b a1 3c ac 36 08 bd 6e 6f c2 bd
       0.054344997 0.019704685 -0.033255264 -0.0949391
000080 0c 9f cf bd 8c 24 33 3d b0 53 9b bc 38 67 ac 3c
       -0.10137758 0.043736026 -0.018960804 0.021045312
000090 f4 f3 f0 3d 00 00 01 3c 60 38 0c 3c 8c 33 e1 bd
       0.1176528 0.007873535 0.008558363 -0.1099616
0000a0 0a 8d b4 bd 08 9b cd bd f0 e2 26 bc 50 ec e6 bd
       -0.088159636 -0.100393355 -0.010185942 -0.11275542
0000b0 10 a9 f8 bd 70 e9 4e bd 70 fa 4c 3c 4c f7 72 3d
       -0.12141621 -0.050515592 0.012510881 0.059317872
0000c0 60 22 2e 3d f0 1f 7e 3d 86 a9 a6 bd 2c 57 ca bd
       0.04251325 0.062042177 -0.08137803 -0.09879908
0000d0 c6 f2 b3 bd a2 5b aa bd c0 a0 0d 3c 9a 10 c7 bd
       -0.0878654 -0.08318259 0.008644283 -0.09719963
0000e0 a0 da 77 bc e4 5b 8e bd 78 6e da 3d 30 56 99 3c
       -0.015127808 -0.069511205 0.106656015 0.018717855
0000f0 c0 f0 d7 3b a8 b3 c7 3d 80 06 84 bd b2 78 bf 3d
       0.006589979 0.097510636 -0.06446552 0.09349193
000100 c0 5a 7c bd 2f a8 e2 3d bb a1 2c bd d5 a6 30 3d
       -0.061609983 0.11067235 -0.042146426 0.043127853
000110 00 94 0a be 7b 67 08 3c 3d 9b 9a bd e7 57 0d be
       -0.1353302 0.008325453 -0.075491406 -0.13803063
000120 8a f4 4a bd b9 93 d6 3d 68 34 0b be 20 1b cc 3d
       -0.049549617 0.104773946 -0.1359421 0.09966111
000130 2f 22 3e 3d 83 20 9f bd 3d 71 aa 3d 59 d5 f5 bc
       0.04641932 -0.07769873 0.0832238 -0.030008959
000140 ea 4b 07 3d 2c 73 44 bc 70 3e 40 bd d3 62 c6 bd
       0.03303138 -0.01199035 -0.046934545 -0.09686818
000150 ba 32 86 3c 3b 60 e2 3c b9 3f c0 bd f4 59 e3 bc
       0.01638161 0.027633777 -0.09387154 -0.027752854
000160 c1 7a ac 3d 14 d0 de bc 4e c8 65 bd fa bd 92 bd
       0.08421851 -0.027198829 -0.05609923 -0.071651414
000170 9a 88 07 3c 9c a8 57 3d 18 e5 45 bd b9 f1 d0 bd
       0.008272314 0.052651033 -0.048314184 -0.10202355
000180 fb 4c 50 3d da 40 1d 3d 72 a0 0d 3e fe bd 5d 3d
       0.050854664 0.038391925 0.13830736 0.05413627
000190 37 dc 80 3d 91 50 65 3d 45 dd ae bc a3 43 06 3d
       0.06292003 0.055985037 -0.021345744 0.032779347
0001a0 b5 22 3f bd 58 e3 aa 3d b5 3b ab 3d e0 18 26 3b
       -0.04666396 0.08344144 0.083609976 0.0025344416
0001b0 40 8a 10 bd 27 b5 c3 bd 47 34 7a 3c 72 a5 84 bc
       -0.035288095 -0.095560364 0.015271253 -0.016192172
0001c0 27 bf e7 bd b2 8c 10 3d af c4 c5 3d dd 90 02 be
       -0.11315756 0.035290428 0.09656655 -0.12750573
0001d0 86 27 48 3d 3c 49 91 3d fc f4 00 bd 54 dc 06 be
       0.048865817 0.070940465 -0.031483635 -0.13169986
0001e0 2b a0 ff bc 59 59 a9 bd 78 81 1c 3e cf db b7 3c
       -0.031204304 -0.08268995 0.15283763 0.02244368
0001f0 d6 f6 c1 3d b6 b2 2f bd 2b 6a d4 3c 49 8d 73 bc
       0.09470908 -0.04289504 0.025929531 -0.014865228
000200 cb 60 84 bd e4 cb 52 bd ee 99 a5 3c 23 38 8d 3d
       -0.06463774 -0.051463977 0.020215001 0.06895473
000210 a5 c7 a8 3d e8 bd 19 bd cf 8c 54 3d 3d 7a 1a 3d
       0.08241204 -0.037534624 0.051892098 0.03771423
000220 a6 30 1c bc b3 a5 e3 bd aa 95 a4 bc 0d 52 a9 bb
       -0.009533083 -0.11115589 -0.020090897 -0.005167252
000230 4f ab a4 3d 62 95 02 bd 5b ae 2c bd 9b 6e c1 bc
       0.08040487 -0.031880744 -0.042158466 -0.023612311
000240 49 f4 f6 bd b7 22 86 bd 88 72 6c bd 8e d2 aa bd
       -0.120583124 -0.0654959 -0.057726413 -0.08340941
000250 1c 73 73 3d 87 03 02 3e b6 f1 73 3d b9 1e d2 bb
       0.05943595 0.12696658 0.059556685 -0.006412354
000260 4c 07 07 3d 0a f0 16 3d 23 b2 18 bd 7a 23 b1 bb
       0.032965943 0.036850013 -0.03727926 -0.0054058405
000270 d4 7c ef 3d 25 66 cd 3c 2e 36 04 bd cd 1f 6c 3c
       0.11693731 0.02507312 -0.032278232 0.014411879
000280 5a e9 87 3c 12 69 f5 3d bc b2 2b 3c f4 71 a3 3d
       0.016590763 0.11982931 0.010479625 0.07980719
000290 e2 e5 2f bc c9 b8 b7 3d ed 77 93 bd 67 23 11 be
       -0.010735961 0.08970792 -0.072006084 -0.14173661
0002a0 cd a1 c2 3d ce c6 2a 3e 8f 53 94 bd d8 ce e0 3d
       0.09503517 0.166774 -0.072425 0.10976952
0002b0 28 3f e4 bc 31 0b c2 3c 1a 84 b5 3d 15 63 f3 3d
       -0.027862146 0.023686977 0.08863087 0.11884133
0002c0 52 ee 90 bd 83 19 66 bd 5b 83 af 3c ae 74 9d 3d
       -0.07076706 -0.056176674 0.02142494 0.076882705
0002d0 71 ea a0 bd 2c df ff 3d d4 8b a0 bd 1e 0c 81 bc
       -0.07857216 0.124937385 -0.0783917 -0.015752848
0002e0 8b 91 0b be 48 21 25 bd 4c 4a 19 3e 39 60 40 3e
       -0.13629739 -0.040314943 0.14969748 0.18786706
0002f0 fc 4f 6d bd c6 de 74 3d 46 fa e6 3c 15 b4 c1 3d
       -0.057937607 0.059782766 0.028195512 0.09458176
000300 bf 32 04 bd 3f 72 bb 3d 4a 0e 06 3d c4 5b c8 3d
       -0.032274958 0.0915265 0.03272847 0.09783128
000310 a9 1f 78 3c fb 88 15 3c d7 17 f0 3c d4 7d a9 bc
       0.015144267 0.009126897 0.029308243 -0.020689882
000320 8d 11 c5 bc 35 54 71 bc 20 7a d6 bd 0d e5 ab bd
       -0.02405622 -0.014729549 -0.10472512 -0.08393297
000330 15 46 a6 3c 0e 64 a7 bd 10 ba 7b bd 42 77 03 3c
       0.02029709 -0.08173381 -0.06145674 0.008024039
000340 d2 39 a3 3d de 61 da bd 96 5b 7e 3c 22 0f 61 bd
       0.07970013 -0.10663198 0.0155247655 -0.054946072
000350 13 e1 8d bd 73 28 90 bd dd af 2f 3d 2e 0d 82 bc
       -0.06927695 -0.07038965 0.042892326 -0.015875425
000360 57 8e 36 3d a3 98 5f bd 96 6c e9 bc e8 74 50 3c
       0.04456934 -0.054588925 -0.02849416 0.012723185
000370 8a 8d e9 bd 81 43 07 3e c2 47 41 bd 64 c3 3d bd
       -0.114039496 0.13209344 -0.047187574 -0.046328917
000380 65 12 07 be 4b 22 de 3d 28 a0 f6 3d 63 6e f0 bc
       -0.1319061 0.108463846 0.12042266 -0.029349511
000390 e0 c3 66 3d d5 08 48 bd 12 4b 43 bc 34 ee ff 3c
       0.056339145 -0.048836548 -0.011919754 0.031241514
0003a0 0b ed bf 3d 97 6d 35 3d 58 11 73 bd eb 8c 85 bd
       0.09371384 0.044293966 -0.059342712 -0.065210186
0003b0 c1 b2 52 bd 68 d6 d0 3d 1b d4 be 3d 96 a6 02 bd
       -0.051440004 0.10197145 0.093178 -0.03189715
0003c0 a6 9f be bd aa 70 32 3e 09 2e 5c 3d a4 55 c9 bd
       -0.09307794 0.1742579 0.05375484 -0.09830788
0003d0 f9 8e fd bc 55 b3 3b 3d 54 e6 aa bd 44 56 61 bd
       -0.030951964 0.04582532 -0.08344713 -0.05501391
0003e0 5a 92 00 be 64 77 af 3d f2 14 12 3e 4d e1 c2 3c
       -0.12555829 0.08567694 0.14265803 0.023789072
0003f0 9f 4c bf bd 17 cd 87 bd 3d ca 91 3b 69 35 2f bd
       -0.09340786 -0.06630915 0.0044491575 -0.042775545

tatic_net.fc2.bias f4 [6]
000000 c4 b9 65 3d 15 f3 e5 bd 8c 6b a8 3c 41 09 4d 3c
       0.056085363 -0.11228005 0.020559095 0.012514413
000010 20 b2 0a 3d 53 4a b3 bd
       0.03386128 -0.087544106

tatic_net.fc3.weight f4 [6, 3]
000000 58 21 b5 be e6 b8 be 3e ff 26 d6 be 5f bf e2 3d
       -0.35377002 0.3725044 -0.41826627 0.110716574
000010 09 42 cd 3e 88 1c 7f bd 0c ee 89 3e c7 13 07 be
       0.40089443 -0.06228307 0.26939428 -0.13191138
000020 4b d3 7f be 6c 90 aa 3e d4 2e 47 be de 92 17 bf
       -0.24982946 0.3331331 -0.19451457 -0.59208477
000030 61 bc 7d be b3 18 05 bf 2b 21 10 3f 0b ea 1a 3f
       -0.24778892 -0.51990813 0.5630061 0.6051337
000040 35 38 ef 3e df 6f 03 bc
       0.4672257 -0.008022278

tatic_net.fc3.bias f4 [6]
000000 4e a4 b7 3e c8 6b 00 3f c5 e2 02 3e 65 d4 b1 3e
       0.35867542 0.5016446 0.12781818 0.34732357
000010 61 f3 ba bd d0 12 a1 bd
       -0.09128452 -0.07864916

tatic_net.fc4.weight f4 [3, 9]
000000 48 d4 95 3e 08 4d c2 3e 46 0e aa 3d 02 ab 89 3e
       0.2926352 0.37949395 0.08303504 0.2688828
000010 50 7e e3 3e 36 6a be 3e f4 dc da bd f8 73 bb 3e
       0.44432306 0.37190408 -0.10686675 0.36611915
000020 e8 29 02 be cd 89 e8 3c 7f 3d 3f bb 9d 91 0a be
       -0.12711298 0.028386021 -0.0029180942 -0.1353211
000030 e8 34 5a 3e c1 f9 5f be 1f 93 76 3e 5c 38 66 3e
       0.21309245 -0.21872617 0.2407956 0.22482437
000040 ea 49 38 3e b5 e4 d9 3e 3a 50 b0 3d 42 1b 23 bd
       0.17996946 0.42557302 0.08609052 -0.039820917
000050 bb 7f 97 3e f7 eb 66 be 8a b2 f7 3c 06 55 db 3d
       0.29589638 -0.22550951 0.030236501 0.10709576
000060 b4 fa a7 bd 0f 05 e2 3d eb 00 90 3d
       -0.08202115 0.11036121 0.07031425

tatic_net.fc4.bias f4 [3]
000000 f2 3e 35 be 6a 7d 4d be 08 8c 66 bd
       -0.17699793 -0.20067373 -0.056285888

fc1.weight f4 [256, 108]
000000 17 69 df b9 b6 8e a2 bc de 9d a3 3d 8c 45 92 3d
       -0.00042612173 -0.01984344 0.07989095 0.07142171
000010 bf 89 58 bd 3e 96 54 3d c7 39 b9 3c 28 f8 15 bd
       -0.05286574 0.051901095 0.022610558 -0.036613613
000020 18 d9 96 3d 85 5c 8d 3c 45 84 7d bd 6b 41 7b 3d
       0.07365626 0.01725603 -0.06189372 0.061341684
000030 35 91 25 bd 02 9c b5 bd 68 99 b6 3c b2 39 7d 3d
       -0.040421683 -0.08867647 0.022289947 0.0618226
000040 a7 ca df 3c 79 96 b8 bd 83 ea 98 bc 72 2b fa 3b
       0.027318312 -0.090130754 -0.018666511 0.0076345736
000050 cb d8 c4 bc b9 da ab bd 1e 1a 77 3d 97 a1 80 3d
       -0.024029156 -0.083913274 0.06032764 0.06280821
000060 79 00 69 3d 9c 37 a5 3d 07 fa 66 bd d4 f1 d5 3c
       0.056885216 0.08067247 -0.05639079 0.02611629
000070 0d 34 0e bd bf 63 7a 3d 80 43 a2 bd 8d 86 b4 3d
       -0.03471761 0.06113028 -0.07923031 0.08814726
000080 d1 25 41 bb 7a 41 b4 bd de f3 78 3c 50 1f ae 3d
       -0.0029472003 -0.08801551 0.015194861 0.08502066
000090 8b 72 7c bd 6f 4e 93 3d 22 3a a9 bd 04 36 ee bc
       -0.061632674 0.071926944 -0.08263041 -0.029078491
0000a0 11 12 b0 bd 5c ef ba bc 7c 1b ad bc 1c d2 73 bd
       -0.08597196 -0.022819214 -0.02113127 -0.059526548
0000b0 8c 6f 84 3b 60 ca 98 3d cf 28 c3 bd 7f e4 95 3d
       0.0040416177 0.07460475 -0.09529268 0.07318973
0000c0 cd 1f 92 3d b9 b6 89 3d 57 6f 82 bb e5 b5 fa bb
       0.07134972 0.06724305 -0.003980558 -0.007651078
0000d0 c4 68 5b bd 4b 54 04 3d 51 e6 4a 3d ed cb ae 3d
       -0.05356671 0.03230695 0.049536053 0.085349895
0000e0 83 01 a0 bd f6 6a 49 3c 39 1f 3b 3d 0e 00 93 bc
       -0.07812788 0.012293568 0.045684073 -0.017944362
0000f0 09 0f 6a bd 56 d8 14 bd 3b 63 4f 3d f3 d2 78 3d
       -0.057143245 -0.036339127 0.050631743 0.06074805
000100 72 1c 4f 3d ad 2b ba bd d0 cd 87 3d 95 53 e6 3c
       0.050564237 -0.09090362 0.066310525 0.028116027
000110 83 3b dd 3c fd a7 43 3d a8 28 81 bb 9a ca 25 bd
       0.027005916 0.047767628 -0.003941614 -0.04047642
000120 b1 37 c2 bd 50 c0 a8 bd e9 ba 8d bd e0 f6 89 bd
       -0.094832785 -0.08239806 -0.06920416 -0.06736541
000130 9f 6b a4 bd 40 42 54 3b 13 55 82 bd f4 e4 94 3b
       -0.080283396 0.003238812 -0.06363883 0.004543895
000140 08 0c 89 3d 9b 68 97 3d fd fc 7e bd 39 86 a7 bd
       0.06691748 0.07392999 -0.062252987 -0.08179898
000150 1a 4d 96 bc a0 af bd bd 2e fe 1f bd 3d e8 a6 bd
       -0.018347312 -0.092620134 -0.039060764 -0.08149765
000160 70 04 a4 3c bd b9 5c bd 76 cc 20 bd 26 95 9c 3d
       0.020021647 -0.05388807 -0.03925749 0.07645635
000170 da c2 22 bd 99 7e c2 3d 33 4d 80 3d c4 15 e3 bd
       -0.039736606 0.09496803 0.062647246 -0.11088136
000180 4f c4 e6 bc 41 a9 00 bd 7b 0a 35 3d ab b4 be bd
       -0.02816978 -0.031411413 0.044199448 -0.093118034
000190 29 4a 4b bb 08 c5 7b 3d e7 3e 50 3d 8e 27 e9 3c
       -0.0031019545 0.0614672 0.05084124 0.028461244
0001a0 2b b4 ab bd 81 89 c8 bb f7 3d 74 3d d6 81 5d bd
       -0.08383974 -0.0061199074 0.059629407 -0.0540789
0001b0 16 a4 2d bd 3c 2f 3f bd 7e 94 57 bd ae 2d b0 3e
       -0.042392813 -0.046675906 -0.052631848 0.3440985
0001c0 6d 09 53 3e fa d5 66 3e 75 a5 24 bb 6d fd 8b 3d
       0.20609064 0.22542563 -0.0025123034 0.068354465
0001d0 f1 4b 92 bb 81 fb c2 3e af 25 86 3e 1a 86 80 3e
       -0.0044646193 0.38082507 0.26200625 0.2510231
0001e0 e7 a9 30 bd 60 55 e8 bc 57 88 8f bd 5b d8 83 3e
       -0.04313078 -0.028361022 -0.07008427 0.25751004
0001f0 e9 aa 8c 3e ee d4 03 3e 8d b1 2e 3b 85 40 7a 3c
       0.27474144 0.12874195 0.0026656121 0.015274172
000200 53 d2 43 bd b3 07 7a bd 45 c8 48 bd 9f f2 47 3c
       -0.047808003 -0.0610425 -0.049019117 0.0122038415
000210 65 8b 8e bd 9a f2 7d 3d d8 25 88 3d ea db 11 3d
       -0.06960181 0.06199894 0.06647843 0.035610117
000220 92 37 96 bb 60 fc 40 3e 54 5e 8a 3d 89 de 83 bd
       -0.004584261 0.18846273 0.06756273 -0.064389296
000230 40 44 53 3d 43 73 93 3d 7b e8 3a 3b 32 b3 58 3e
       0.05157876 0.07199719 0.0028519917 0.21162108
000240 c9 3e 84 bc e5 8b 76 3d b4 e5 5e bd 1d 94 a5 3e
       -0.01614322 0.060192008 -0.05441828 0.32339564
000250 df 1f a1 3e 6e 08 35 3e ee bc ce 3a 08 af af 3c
       0.31469628 0.17678997 0.0015772858 0.021445766
000260 d4 33 9f 3d ed b5 af 3e 5d ca 56 3e 48 f5 cd 3d
       0.07773557 0.34318486 0.20975633 0.10056549
000270 bb 1b b5 bb a8 32 6b bc d5 21 0b 3d a5 95 86 3e
       -0.0055269874 -0.014355339 0.03396781 0.26286045
000280 ed 5f 85 3e cc 7c a8 3d 3d 7e 70 bd ec cf 77 bd
       0.26049748 0.08226928 -0.05871414 -0.060501024
000290 c4 03 91 bc 56 35 35 3d d3 5c 95 3d d2 cb 52 3a
       -0.01770199 0.04424032 0.072930954 0.0008041236
0002a0 b1 87 31 3d cb 60 ba bd 2d d7 03 bc 61 4e 82 bd
       0.043342296 -0.09100493 -0.008046907 -0.06362606
0002b0 7e 3a 16 bd 18 5e e2 3d 24 b5 00 bd 80 75 66 3a
       -0.036676876 0.11053103 -0.03142275 0.00087913126
0002c0 9d 9b bf 3d 82 70 e8 bc 68 04 c4 bd 8e d8 24 3e
       0.09355853 -0.02837396 -0.09571153 0.16098234
0002d0 7f a2 52 3d db fd 2a bd ec 30 55 bd 07 3f 7f 3e
       0.0514245 -0.041746 -0.05204861 0.24926387
0002e0 07 0a 90 3e 5a dc e0 3d 4e bf 09 3c 1e 8f 85 bc
       0.2813265 0.10979529 0.008407427 -0.016303595
0002f0 d2 39 7a 3d bf a1 cf 3e 5d 0d 86 3e 2c e5 c9 3d
       0.061090298 0.4055309 0.2618207 0.09858164
000300 2c 00 23 bd b3 29 85 3d f7 a1 a0 3c 35 65 ae 3e
       -0.039795086 0.06502094 0.01960848 0.3406159
000310 41 66 85 3e 20 ae 6a 3e 3b 6c 6e bd 28 40 93 bd
       0.26054576 0.22917986 -0.058208685 -0.07189971
000320 fd 90 6a 3d 0d c2 a6 b8 d1 3a 2f 3d f6 48 bf 3d
       0.057267178 -7.9516416e-05 0.0427807 0.09340088
000330 30 6f 9d 3c 90 aa 8c bc 48 82 a3 3b 6c 90 b1 3d
       0.019218057 -0.017171174 0.004989896 0.086701244
000340 bd 3c 87 bd d6 58 18 3e 04 3d 42 bc 5a b4 01 3d
       -0.06603382 0.14877638 -0.011855368 0.031666137
000350 ec 28 13 3d 01 9b f1 3c 93 8d 92 3d be 14 db 3d
       0.035927698 0.029492857 0.071559094 0.10697316
000360 75 2d 82 3d df c0 98 3c c4 d2 99 bd c6 3d 13 bd
       0.063563265 0.018646656 -0.075109035 -0.035947584
000370 74 dd 83 bc bd 5e 1e bd b1 29 8f 3d e3 0a aa bd
       -0.016096808 -0.03866457 0.06990374 -0.08302858
000380 c1 d7 bf 3d 27 dc 8e 3d 68 2e 58 3c d5 f3 91 3d
       0.09367324 0.069755845 0.013194658 0.071265854
000390 e3 42 6a 3d 59 69 05 3d e3 64 15 bd d1 a2 5c 3d
       0.057192694 0.03257117 -0.036473166 0.05386621
0003a0 6b a8 8d 3d a7 4e f8 3c ac a2 57 bc 52 8d 99 bd
       0.06916889 0.030310942 -0.013161343 -0.07497658
0003b0 e2 46 75 bd 9e 8c 44 3d 1c e3 b2 3d 2e 3a 57 3d
       -0.059882052 0.047985666 0.08734724 0.05254572
0003c0 0b 58 bd 3d 45 24 15 bd a2 05 50 3d b8 36 25 3d
       0.092453085 -0.036411542 0.050786622 0.040335387
0003d0 54 ff 32 3c 8d a3 d8 bd 3a 73 92 3d a2 09 51 bb
       0.010925133 -0.1057807 0.07150884 -0.003189661
0003e0 ce 79 7b bd c6 21 5f bd 1b 41 bd bd f3 5e a5 bd
       -0.06139546 -0.05447557 -0.092409335 -0.08074751
0003f0 56 ce 8b 3d fb cf 8a 3c c0 5c 92 3d 88 84 39 bd
       0.06826465 0.016944876 0.07146597 -0.045292407

fc1.bias f4 [256]
000000 21 ba e0 bd b5 61 90 3e 30 d0 dc bb d9 de ef 3d
       -0.10973001 0.28199545 -0.006738685 0.11712427
000010 00 11 21 3f 34 da 9c 3e 6d d3 12 3d b6 87 93 3e
       0.62916565 0.30635226 0.035846163 0.28814477
000020 b5 28 2c 3e e7 c8 66 3f 57 81 75 3f 2f 7c 86 3f
       0.16812404 0.901503 0.9590048 1.0506648
000030 d4 bc 7a bc a5 6b ac 3e 72 e3 6d 3f 47 76 8f 3f
       -0.015303809 0.33675876 0.9292518 1.120797
000040 c4 ee 71 3f 76 bd b5 3e 6b 91 92 3f a2 ee d0 bb
       0.9450495 0.3549611 1.1450628 -0.0063761035
000050 fd c0 80 3f 70 b5 81 bd 8c ef 80 3f 42 84 69 3f
       1.0058895 -0.063334346 1.0073104 0.91217434
000060 1d 83 ff 3e c6 d2 87 3f f5 74 6e 3f a6 25 5a 3e
       0.4990472 1.0611198 0.9314721 0.21303424
000070 de d2 53 3f 29 e6 74 3f a5 33 d8 b9 04 66 91 3f
       0.8274363 0.95663697 -0.0004123721 1.1359258
000080 c2 35 11 bc b3 bb 81 3f 79 c8 ad bd d7 12 8e 3e
       -0.0088629145 1.0135406 -0.08485503 0.2774875
000090 29 51 80 3f 12 c8 6f 3e e9 7e 96 bc 83 cf 6b 3f
       1.0024768 0.23416165 -0.018371062 0.9211351
0000a0 ef 78 7d 3e 14 fd 76 3f 1c 75 be bd 69 cd 74 3f
       0.24753164 0.96479917 -0.092996806 0.9562593
0000b0 80 ec 59 3f 1f b4 7e 3f ea c2 13 3f 6e 8d 8e 3f
       0.85126495 0.9949359 0.5771929 1.1136911
0000c0 9f 3b 00 be ee a0 67 3f 2c 16 90 bd 8c dd 86 b9
       -0.12522744 0.90479934 -0.07035479 -0.00025723537
0000d0 55 ca 72 3f 87 5e 5d 3e e8 79 80 3f d8 cf 74 3f
       0.94839984 0.2161809 1.0037203 0.95629644
0000e0 59 bd 37 3f 0b f4 84 3f 9c b2 83 3f d1 bb 51 bb
       0.71773297 1.0386976 1.0288882 -0.0032002816
0000f0 35 25 85 3f 48 58 83 3f e3 01 90 3f b7 4e 76 3f
       1.040198 1.0261316 1.1250576 0.9621386
000100 2b aa 6a 3e e8 3f 83 3f b8 3c a1 bc 63 df 81 3f
       0.22916476 1.0253878 -0.019682273 1.0146297
000110 42 d6 80 3f 3a 49 6a bd 17 5e 53 bd 4c da d5 3d
       1.0065386 -0.05719874 -0.051603403 0.104420274
000120 02 b3 81 3f ae 02 7b 3f ed 29 6c bc 61 fd 82 3f
       1.0132754 0.98050964 -0.014414293 1.0233575
000130 50 13 7d 3f 56 d2 61 3f 60 25 b8 bb 55 24 82 3f
       0.98857594 0.8821157 -0.00561969 1.0167338
000140 ba f8 82 3f 81 d3 b3 bd 45 08 8e 3f 6a fb 6b 3f
       1.0232155 -0.087805755 1.1096274 0.921805
000150 64 b5 78 3f 01 7d 88 3f f1 e8 7a 3f c2 97 58 3f
       0.9715178 1.0663148 0.9801169 0.84606564
000160 5f c6 80 3f 21 d4 84 3f 73 d2 b4 3e f7 f5 5c 3f
       1.0060538 1.0377237 0.3531681 0.8631281
000170 e9 1e 10 3e 16 8c 7c 3f e5 ef 78 3f f4 55 29 ba
       0.14074291 0.98651254 0.9724105 -0.00064596464
000180 a6 80 7b 3f 7e d5 81 3f 38 ca 6b 3f 7a d6 c2 bd
       0.98243177 1.0143278 0.92105436 -0.095135644
000190 dd ca 8f 3f ef 8d 41 bb 7a e3 84 3f db 43 e0 3d
       1.1233784 -0.0029534062 1.038192 0.109504424
0001a0 50 df 80 bd c7 a9 1b ba a6 9b 57 bb 09 b8 b8 ba
       -0.062925935 -0.00059380796 -0.003289917 -0.0014092933
0001b0 34 94 82 3f 68 27 50 3f 0c 48 ff bc 1b 1c 07 bd
       1.0201478 0.8131013 -0.031162284 -0.032985788
0001c0 63 c2 81 3f 14 d9 86 3f 6b d3 83 3f 03 26 5b 3f
       1.0137447 1.0534997 1.0298895 0.85604876
0001d0 02 d7 ae bd 0b cb 70 3f c0 de 86 3f a2 3d 6c 3f
       -0.08537103 0.9405982 1.0536728 0.92281544
0001e0 36 e1 87 3f db 4b 6b bd 9c 38 90 3f bc 55 72 3f
       1.0615604 -0.05744539 1.1267276 0.9466207
0001f0 91 37 81 3f c5 52 e6 bc 8c fc 89 3f 26 b7 74 3f
       1.0095083 -0.02811564 1.0780196 0.9559196
000200 d3 0c 8c 3f 0a 52 c6 bd ac 6d 73 3f b4 2d 86 3f
       1.0941414 -0.096836165 0.9508922 1.0482697
000210 d9 ed 83 3f 07 8d 1a bc 61 c0 97 bd b4 4a f8 b8
       1.030696 -0.009433038 -0.0740974 -0.00011839476
000220 5d 1e b5 bd 28 67 92 3f 78 0e 86 3f e2 e0 c2 bd
       -0.08843682 1.1437731 1.0473166 -0.09515549
000230 71 cf 60 3f 04 8c d0 bd 6f c1 7c 3f b7 06 53 3e
       0.8781653 -0.10182956 0.98732656 0.2060803
000240 0f a9 7f 3f 51 61 05 3f e9 3d 77 3e b3 3b 27 3f
       0.9986734 0.5210162 0.2414471 0.6532547
000250 89 1e 2d 3e 0d 75 79 3f 9e 6d 22 bc 6a 2e 81 3f
       0.1690618 0.9744423 -0.00991383 1.009229
000260 28 a3 8d 3f 41 eb bb bd cf cf 5c 3f 7f dc 82 3f
       1.1065416 -0.091757305 0.8625459 1.022354
000270 0d 10 7c 3f bf 75 83 3f 7c e5 cd bc f4 9e 62 3e
       0.9846199 1.0270308 -0.02513384 0.22130948
000280 3f 1b 78 3f b5 2d 2c 3f af 08 76 3f d6 81 87 3e
       0.96916574 0.67257243 0.96107 0.26466244
000290 8b 48 86 3f f5 38 e6 b9 ab d7 97 3e c9 9f 86 3e
       1.0490888 -0.00043911455 0.2965673 0.2629378
0002a0 a9 e2 7c 3f b6 02 8f 3f 61 5a 86 3f 3e 23 72 3f
       0.98783356 1.1172702 1.0496331 0.94585025
0002b0 e3 3a 8f 3f 2f 40 85 3f 39 a7 82 3f 87 e4 6b 3f
       1.1189846 1.0410212 1.0207282 0.9214558
0002c0 59 e3 6f bd da fe c0 bd 33 fb 7c 3e 44 f2 8e bd
       -0.058566425 -0.09423609 0.247052 -0.06979802
0002d0 8f e2 77 3f 09 a6 7b 3f 2f 35 5c 3d 43 07 bd bd
       0.96830076 0.98300225 0.053761657 -0.09229901
0002e0 83 55 76 3f 2c 4b 80 bd 06 64 70 3f cc 02 8a 3f
       0.9622423 -0.06264338 0.93902624 1.0782104
0002f0 7c cc 80 3f cd 8f bf bd 3c f6 40 3e f5 e2 ab bd
       1.0062404 -0.093536 0.18843931 -0.08392898
000300 d0 7e a0 bd 80 a9 73 3f e5 6c b6 bd 0e af 40 3f
       -0.078366876 0.9518051 -0.08907489 0.7526711
000310 0e a2 85 3f f2 bd db 3e d7 fd 83 3f bb e3 6d 3f
       1.044008 0.42918354 1.0311841 0.92925614
000320 9c 2f ac bc c4 57 7e 3f 7b 5a 85 3f 06 93 b7 bd
       -0.021018796 0.9935267 1.0418237 -0.08963589
000330 03 97 bc bd 20 8f 72 3e f7 96 76 3f 01 15 67 3f
       -0.09208491 0.2368741 0.96324104 0.90266424
000340 07 8a 77 3f 7c 84 7e 3f bc 9b aa bb e4 81 f9 3d
       0.9669499 0.99420905 -0.0052065533 0.12182978
000350 d4 99 62 3f 4c 0b 6f 3f 40 6a 90 3f f4 7e 86 3f
       0.88515973 0.9337661 1.1282425 1.0507493
000360 e9 8a 73 3f 78 77 2a 3e b3 fd 7a 3f e8 41 80 3f
       0.95133835 0.16647136 0.98043364 1.0020113
000370 77 16 6e 3f 09 9d 7b 3f d1 89 a8 bd 89 6e 64 3f
       0.9300303 0.9828649 -0.082294114 0.89231163
000380 75 c7 79 3f 90 80 67 3f b2 20 8a 3f a0 f0 1a bc
       0.9756997 0.90430546 1.0791228 -0.0094567835
000390 42 66 52 3f b1 86 91 3e 71 7d 8d 3f 4f 7b a5 bc
       0.82187283 0.28423074 1.1053907 -0.0202004
0003a0 d7 b8 7b bd 7a 12 91 3e ac 00 89 3f 54 92 44 3f
       -0.061455574 0.2833441 1.070333 0.7678578
0003b0 31 4e 5f bd 2e e6 65 bd f0 cd 89 bb 57 3c 75 3f
       -0.05451793 -0.05612772 -0.004205458 0.95795196
0003c0 b1 a6 7d 3f 1c 95 22 3f bb ad 73 3f 6c 34 a4 3e
       0.99082476 0.6350877 0.95186967 0.32071245
0003d0 f7 8c 7e 3f c9 f3 91 3f 62 90 87 3f 95 68 8b 3f
       0.99433845 1.1402522 1.0590937 1.0891291
0003e0 da 14 81 3f 72 77 7e 3f e4 66 4a 3f 2c a7 ba bd
       1.0084488 0.9940101 0.7906325 -0.09113917
0003f0 91 d0 f7 bc ce 60 b8 3e 03 b5 8f 3e 20 a8 83 3f
       -0.03025082 0.36011356 0.28067788 1.0285683
