model_epoch_800.pth (torch, 141254 bytes, 15 tensors)

target_net.fc1.weight f4 [64, 36]
0.10006237 0.056178987 0.011433085 -0.017537242 0.046384387 -0.0037145293 -0.028217098 0.1123031
0.052450042 0.025137274 -0.07804159 -0.12535092 -0.11775788 0.08770486 -0.050435066 0.07123925
0.06901648 -0.08335326 -0.036820292 -0.06826173 -0.16322935 0.037391245 0.09883414 -0.058952205
0.031032085 -0.02889949 -0.079926535 0.00940309 0.12265003 -0.15635155 0.14970069 -0.0603899
0.03417369 0.010010481 -0.05248646 0.05536425 0.14505208 0.094138786 -0.046133243 -0.040677574
-0.049818724 0.06767293 0.13168596 0.15580879 0.04053406 0.027754175 -0.026224812 0.005388654
0.10437189 -0.12697536 0.12662324 0.109636195 0.028988896 0.134863 -0.053855836 0.04160794
0.160469 -0.16348778 0.06913756 0.0027017703 -0.05967909 -0.03343588 0.14050263 0.09719676
0.017586768 -0.051425904 -0.019071102 0.056176703 -0.012155971 0.15610556 -0.12270926 -0.113783814
0.13611636 0.04471928 0.03644705 0.10929517 -0.082663886 0.0020663275 0.02916497 0.1601359
-0.04627387 0.06928441 0.06856272 -0.10241725 0.0071855388 -0.08693999 -0.108819865 0.05993006
0.1014391 0.111779034 0.03685991 -0.08244865 0.15609112 0.012060444 0.022738278 -0.012892352
0.12197622 -0.07632675 0.07902199 -0.055893205 -0.12578452 0.01185093 -0.14750056 -0.08732921
0.013603926 0.041086793 -0.13571005 -0.09842785 0.07230598 -0.09572234 -0.15408379 -0.066118516
0.048149828 -0.119032316 0.1408073 -0.045285344 0.035534244 0.10841947 -0.096871264 0.19759192
-0.021600028 -0.16436458 0.13472623 0.051519338 0.10993887 0.045559186 0.1133831 0.010280689
-0.0043200455 0.0027264357 0.12644297 -0.047421042 0.04274901 0.092518374 0.15323137 0.14658599
-0.08869319 -0.040737513 -0.030572396 -0.14859095 -0.06426935 -0.017357927 -0.08238809 -0.07176842
-0.05243256 -0.023561835 -0.05125644 -0.049965158 0.11794587 0.10721138 -0.0203592 -0.012608906
-0.038468003 -0.053007092 0.15276046 -0.0742247 -0.13267979 -0.05043509 0.14701842 -0.17806092
0.058648296 -0.12773219 0.14998661 0.063732386 -0.07591759 -0.04891193 -0.041570723 0.15775152
0.017066121 0.018825054 -0.07390871 0.10448371 -0.00020873547 0.15807325 0.15458894 0.13188194
0.03387493 -0.041094482 0.12372005 -0.111728795 -0.023642521 -0.1043916 0.01347222 -0.07851
-0.05391226 0.0012098269 -0.0036100547 0.1266203 -0.11439799 0.065184906 0.09233245 0.085355766
0.14204237 0.15141016 -0.11147561 -0.07238792 0.161423 -0.060518708 -0.15200011 -0.11891638
0.054467104 0.002424717 -0.040455244 0.018857878 -0.08740147 0.10527015 -0.02593567 0.06561385
-0.14654544 -0.10455215 0.036948245 0.010525405 -0.07364051 0.10446721 0.016473472 -0.19523343
-0.01163896 0.12776957 -0.08930131 -0.065859705 -0.1774323 0.17734519 -0.12330824 0.103919886
-0.107628904 0.0777967 0.066189975 0.046128258 -0.15679672 -0.09563023 0.044021748 0.06093727
-0.19355378 0.030664805 -0.026325684 -0.005109509 0.039710402 0.072713815 -0.078417145 0.015594769
-0.11411359 -0.09269069 -0.006921053 -0.14761326 -0.055898845 -0.11092708 0.09877517 -0.049010694
0.13805297 0.058511697 -0.010933161 -0.1346315 0.11807603 0.108934484 -0.1408934 0.08687018
00000000: 80ed cc3d f01b 663d d651 3b3c 43aa 8fbc
00000010: 8efd 3d3d 766f 73bb 8b27 e7bc 2bff e53d
00000020: dbd5 563d afec cd3c 45d4 9fbd fe5b 00be
00000030: 0b2b f1bd 9b9e b33d 0095 4ebd e2e5 913d
00000040: 8358 8d3d 1db5 aabd e0d0 16bd cecc 8bbd
00000050: 9825 27be 9027 193d 8e69 ca3d de77 71bd
00000060: 0037 fe3c a0be ecbc 86b0 a3bd 6b0f 1a3c
00000070: f02f fb3d 9f1a 20be 234b 193e 665b 77bd
00000080: b6f9 0b3d 0003 243c 0bfc 56bd a0c5 623d
00000090: 8888 143e d6cb c03d 36f6 3cbd 879d 26bd
000000a0: b80e 4cbd 1b98 8a3d afd8 063e 578c 1f3e
000000b0: 0b07 263d b95c e33c 6bd5 d6bc 4e93 b03b
000000c0: eec0 d53d d405 02be 86a9 013e f188 e03d
000000d0: 1f7a ed3c 8719 0a3e f097 5cbd 166d 2a3d
000000e0: fc51 243e 5769 27be fe97 8d3d 2f10 313b
000000f0: 1072 74bd 10f4 08bd ecdf 0f3e 180f c73d
00000100: 2012 903c f8a3 52bd 003b 9cbc 8b19 663d
00000110: d629 47bc 23da 1f3e fe4e fbbd 7d07 e9bd
00000120: 1662 0b3e 902b 373d 8049 153d 25d6 df3d
00000130: af4b a9bd 396b 073b 60eb ee3c aafa 233e
00000140: ab89 3dbd fce4 8d3d 9d6a 8c3d 23c0 d1bd
00000150: ab74 eb3b 980d b2bd f3dc debd 3979 753d
00000160: 4ebf cf3d 68ec e43d 6bfa 163d d6da a8bd
00000170: 5ad6 1f3e 2b99 453c a045 ba3c 723a 53bc
00000180: abce f93d 3351 9cbd 48d6 a13d 46f0 64bd
00000190: a8cd 00be 672a 423c 630a 17be a8d9 b2bd
000001a0: 00e3 5e3c a04a 283d 93f7 0abe 8a94 c9bd
000001b0: 2815 943d 130a c4bd 24c8 1dbe 2569 87bd
000001c0: c138 453d 37c7 f3bd ca2f 103e 207d 39bd
000001d0: 5b8c 113d 070b de3d 7164 c6bd 8955 4a3e
000001e0: 8bf2 b0bc 304f 28be acf5 093e f105 533d
000001f0: a127 e13d 459c 3a3d 6635 e83d 5670 283c
00000200: 2b8f 8dbb 00ae 323b 447a 013e 913c 42bd
00000210: 9619 2f3d 467a bd3d afe8 1c3e a31a 163e
00000220: c6a4 b5bd 61dc 26bd f672 fabc 3a28 18be
00000230: a69f 83bd 3632 8ebc 16bb a8bd 52fb 92bd
00000240: 86c3 56bd c004 c1bc 46f2 51bd 44a8 4cbd
00000250: 9b8d f13d a491 db3d 56c8 a6bc 9695 4ebc
00000260: a090 1dbd f71d 59bd 3d6d 1c3e 1f03 98bd
00000270: 36dd 07be 0695 4ebd ff8b 163e 9a55 36be
00000280: 3239 703d 3acc 02be 1796 193e 2086 823d
00000290: ae7a 9bbd e057 48bd 1046 2abd 9d89 213e
000002a0: 40ce 8b3c 0037 9a3c 735d 97bd 8efb d53d
000002b0: 00e0 5ab9 f4dd 213e 904c 1e3e 0f0c 073e
000002c0: 70c0 0a3d b052 28bd f060 fd3d 11d2 e4bd
000002d0: f6ad c1bc 43cb d5bd 96ba 5c3c dac9 a0bd
000002e0: 1ad3 5cbd 0e93 9e3a ab96 6cbb c0a8 013e
000002f0: 7e49 eabd aa7f 853d cc18 bd3d 01cf ae3d
00000300: 8e73 113e 440b 1b3e 534d e4bd 1e40 94bd
00000310: 124c 253e 77e2 77bd eba5 1bbe 6e8a f3bd
00000320: e618 5f3d 00e8 1e3b 66b4 25bd d67b 9a3c
00000330: 8bff b2bd e097 d73d 0b77 d4bc 8e60 863d
00000340: 0210 16be 701f d6bd 0b57 173d c072 2c3c
00000350: d6d0 96bd e8f2 d53d 60f3 863c 46eb 47be
00000360: 56b1 3ebc 07d6 023e 9be3 b6bd 74e1 86bd
00000370: d0b0 35be fa99 353e 0889 fcbd f3d3 d43d
00000380: 8b6c dcbd e053 9f3d 9c8e 873d fcf0 3c3d
00000390: 528f 20be c8d9 c3bd 2650 343d 5c99 793d
000003a0: f632 46be c234 fb3c f6a8 d7bc ab6d a7bb
000003b0: 60a7 223d fbea 943d 2b99 a0bd 3481 7f3c
000003c0: 63b4 e9bd 9ed4 bdbd 00ca e2bb ee27 17be
000003d0: 30f6 64bd bd2d e3bd a34a ca3d 70bf 48bd
000003e0: c25d 0d3e f6a9 6f3d 0021 33bc d7dc 09be
000003f0: d8d1 f13d 0b19 df3d 5c46 10be fee8 b13d

target_net.fc1.bias f4 [64]
0.035445504 0.11062124 -0.11530899 -0.039354134 -0.0007871316 -0.18684825 -0.061302084 0.014879744
-0.14351213 0.16801123 0.058046974 0.122870125 0.06399476 -0.07240564 0.10608345 -0.055146806
-0.14088124 -0.17829213 0.09925768 -0.10721654 -0.13839361 -0.16589385 0.10216227 -0.10238714
-0.04660006 -0.056084193 0.13524221 0.0021634237 -0.11186696 0.19831386 0.04492148 -0.13453814
-0.06327457 0.058974717 0.014618098 -0.034699667 0.11722416 0.037657626 -0.16897947 0.013313922
-0.16206962 -0.0021081327 -0.09275333 -0.108076856 0.076959446 0.049819108 -0.056555398 -0.12154834
0.064285114 -0.14024346 -0.14996576 -0.047238376 0.03419667 -0.019222183 0.08052048 0.08089855
-0.16694741 0.02790533 0.042126384 -0.041484635 -0.13067158 -0.03976906 0.12553969 -0.08497487
00000000: 4e2f 113d 648d e23d 1f27 ecbd cd31 21bd
00000010: 8257 4eba 2655 3fbe e517 7bbd 2bca 733c
00000020: d8f4 12be 230b 2c3e aac2 6d3d 55a3 fb3d
00000030: af0f 833d 6849 94bd 4842 d93d 9ee1 61bd
00000040: 2c43 10be 3692 36be 9c47 cb3d 5894 dbbd
00000050: 0eb7 0dbe 14e0 29be 743a d13d 59b0 d1bd
00000060: b4df 3ebd 8ab8 65bd ef7c 0a3e 3ac8 0d3b
00000070: 811a e5bd ca12 4b3e 96ff 373d 5ec4 09be
00000080: 1996 81bd 798f 713d bf80 6f3c 3d21 0ebd
00000090: 3813 f03d e23e 1a3d f408 2dbe a322 5a3c
000000a0: 94f5 25be 9928 0abb 75f5 bdbd 6657 ddbd
000000b0: ea9c 9d3d 1f0f 4c3d a2a6 67bd 56ee f8bd
000000c0: eaa7 833d fb9b 0fbe a090 19be 077d 41bd
000000d0: cf11 0c3d d777 9dbc ece7 a43d 24ae a53d
000000e0: 43f4 2abe b899 e43c b78c 2c3d cbeb 29bd
000000f0: c5ce 05be e2e4 22bd 7a8d 003e 4e07 aebd

target_net.fc2.weight f4 [3, 64]
-0.058957774 -0.0064900964 -0.041390035 -0.08239781 -0.01738826 -0.097835585 0.06498014 0.07757208
-0.096582055 0.15187831 -0.038861558 0.04839486 -0.04165119 0.08763805 -0.073791765 0.0848069
0.13819993 0.004947288 -0.028377231 0.0151500935 -0.05493238 0.10394599 -0.087070554 -0.021751914
-0.06782283 -0.042690594 0.08820788 0.07197579 0.08358984 -0.0021519861 -0.075016946 0.08927432
-0.029750116 0.09213247 0.063454546 -0.008722125 -0.038405545 -0.04013345 0.113108695 -0.014919623
0.05869722 -0.075559914 0.038823698 0.052053634 0.03052505 0.06864688 0.05100769 0.012138338
0.06038731 -0.06568845 -0.027504742 -0.08344194 -0.11997776 -0.12936188 0.02142275 0.07825799
0.027918924 0.052565213 0.10144863 -0.117119394 -0.04266441 0.042470176 -0.11504516 0.048075914
-0.053019743 -0.1138455 0.1003404 -0.045355603 0.09984713 -0.069275424 0.0485393 0.038000233
-0.011795118 -0.09868747 0.05700454 0.11039417 -0.008701049 0.049165975 0.02095028 -0.039115675
-0.05544012 0.093929656 0.049910262 0.02305045 0.047192223 0.026137145 -0.10328608 0.041416902
0.023331856 -0.11570933 0.03804911 0.10800447 -0.04442494 -0.017968072 -0.030568618 0.010708462
0.11795206 -0.056306254 -0.0049445615 0.015441774 -0.027662521 -0.0043226997 -0.08871786 -0.00022427802
0.026553387 0.08396363 -0.06996687 0.08915732 0.07200852 0.09824811 0.106597595 -0.025308706
0.018067272 0.07131081 -0.11779943 -0.001316806 -0.052116174 -0.068883836 -0.089024834 -0.025512926
-0.06873293 -0.06436648 -0.05282954 -0.023450648 -0.0109977 -0.060226075 -0.066093996 0.016012698
-0.06916082 -0.049413186 -0.06572504 0.042620655 -0.05267887 0.08349879 -0.07900265 0.0019751063
0.06380029 0.07462889 0.17224509 -0.038658272 -0.012480271 0.052560415 -0.035156563 -0.042441137
-0.076175585 0.008733893 0.03496934 0.0058111437 -0.10487758 -0.061525173 0.10859051 -0.10011215
0.00330084 0.076926276 0.09580535 -0.0062944856 -0.058587745 0.16907342 0.100345984 0.09935922
-0.089621946 0.049203124 0.08984844 -0.046412032 -0.018718015 0.028459122 0.061029043 -0.10140374
-0.023836512 -0.09725617 -0.033815846 0.120282136 0.10579084 -0.06805522 -0.07860193 0.11761389
0.017846828 0.05047453 0.08839182 -0.010992875 -0.086111605 -0.004513548 0.057056427 0.113530986
-0.12746462 -0.11765923 0.10734834 0.09344736 -0.10659461 -0.1179328 0.09282321 0.008185938
00000000: b57d 71bd e0aa d4bb 9988 29bd 2fc0 a8bd
00000010: d371 8ebc 065e c8bd 4f14 853d 1cde 9e3d
00000020: d0cc c5bd fd85 1b3e 4c2d 1fbd b039 463d
00000030: 709a 2abd 947b b33d 2320 97bd 3daf ad3d
00000040: 4884 0d3e dc1c a23b 5e77 e8bc 1938 783c
00000050: c600 61bd a3e1 d43d 0c52 b2bd 1231 b2bc
00000060: b2e6 8abd 55dc 2ebd 55a6 b43d 0b68 933d
00000070: 2631 ab3d 5608 0dbb 7ca2 99bd 74d5 b63d
00000080: 84b6 f3bc f3af bc3d 75f4 813d 3ee7 0ebc
00000090: 224f 1dbd f962 24bd 88a5 e73d 6f71 74bc
000000a0: 7f6c 703d 28bf 9abd 9905 1f3d 3136 553d
000000b0: ab0f fa3c bc96 8c3d 71ed 503d e1df 463c
000000c0: af58 773d ab87 86bd a051 e1bc 9ce3 aabd
000000d0: e6b6 f5bd 7177 04be c37e af3c ba45 a03d
000000e0: 3ab6 e43c 9f4e 573d 4dc4 cf3d 4bdc efbd
000000f0: e0c0 2ebd 35f5 2d3d cc9c ebbd 40eb 443d
00000100: 3b2b 59bd d427 e9bd 457f cd3d ccc6 39bd
00000110: a77c cc3d 46e0 8dbd 25d1 463d 22a6 1b3d
00000120: 5040 41bc a81c cabd 987d 693d 5716 e23d
00000130: d88e 0ebc 4362 493d ec9f ab3c c237 20bd
00000140: 2e15 63bd 315e c03d b46e 4c3d 4cd4 bc3c
00000150: a24c 413d 911d d63c a787 d3bd c5a4 293d
00000160: 7322 bf3c 03f9 ecbd 62d9 1b3d 7331 dd3d
00000170: edf6 35bd c731 93bc 0a6b fabc 8c72 2f3c
00000180: da90 f13d 63a1 66bd fd05 a2bb 7fff 7c3c
00000190: 839c e2bc 6fa5 8dbb b6b1 b5bd 2c2c 6bb9
000001a0: 7d86 d93c 20f5 ab3d ca4a 8fbd 1d98 b63d
000001b0: 3479 933d 4e36 c93d d74f da3d 3454 cfbc
000001c0: d101 943c 670b 923d d440 f1bd ad98 acba
000001d0: c577 55bd f812 8dbd a752 b6bd 7c00 d1bc
000001e0: dac3 8cbd 93d2 83bd ca63 58bd 931b c0bc
000001f0: b22f 34bc 9eaf 76bd 4a5c 87bd 102d 833c
00000200: 30a4 8dbd 7b65 4abd da9a 86bd ff92 2e3d
00000210: ccc5 57bd 6a01 ab3d 24cc a1bd c970 013b
00000220: baa9 823d 08d7 983d 0461 303e 2358 1ebd
00000230: 0d7a 4cbc 9749 573d 5400 10bd c2d6 2dbd
00000240: f201 9cbd 9a18 0f3c 033c 0f3d 686b be3b
00000250: 0fca d6bd d201 7cbd b464 de3d 9907 cdbd
00000260: e852 583b 868b 9d3d 9835 c43d f941 cebb
00000270: b4f9 6fbd 9521 2d3e 3282 cd3d d97c cb3d
00000280: b68b b7bd 3789 493d 7502 b83d 8b1a 3ebd
00000290: 8656 99bc 1b23 e93c 97f9 793d c4ac cfbd
000002a0: ca44 c3bc 3e2e c7bd 7c82 0abd 7b56 f63d
000002b0: dea8 d83d 8960 8bbd 0cfa a0bd 8ddf f03d
000002c0: 8333 923c 61be 4e3d c506 b53d 761b 34bc
000002d0: 485b b0bd 63e6 93bb 00b4 693d ef82 e83d
000002e0: 1686 02be 53f7 f0bd 72d9 db3d 5461 bf3d
000002f0: 464e dabd c086 f1bd 181a be3d 501e 063c

target_net.fc2.bias f4 [3]
0.018668858 -0.0050391774 0.03908104
00000000: 6fef 983c af1f a5bb 7113 203d

tatic_net.fc1.weight f4 [64, 42]
0.14276306 -0.038523432 0.00734753 -0.1420518 0.036295388 -0.1173978 -0.043636393 -0.1052479
0.09197763 0.12956573 -0.07170791 0.011816936 -0.12502445 0.12490058 0.090758964 -0.12310236
-0.14119668 0.12112783 0.013895659 -0.10872714 0.15355667 -0.09411723 -0.047947895 0.1453912
-0.14694048 0.09200311 -0.07133638 -0.09893559 0.076542474 -0.058355797 0.032794572 0.12288213
-0.013307185 -0.14992556 0.102707066 0.09754516 -0.10381106 0.035077415 0.038159747 0.06818408
0.08521764 -0.041168418 -0.12344099 0.14629403 -0.05520601 0.12335126 -0.0095742205 0.070828736
0.13877587 -0.037424553 -0.009873945 -0.023256442 0.059846036 0.096632876 -0.08464855 -0.017580865
-0.082900554 -0.11959168 0.05787492 0.08679689 0.086168334 0.07161975 -0.03718276 0.033399235
0.15361205 -0.021286406 -0.0884824 0.11791259 0.08559491 0.009146741 -0.12984544 0.004963467
-0.09466194 0.04098852 -0.14761978 -0.119433805 -0.038289182 0.15323925 -0.1328144 -0.0513763
-0.11900788 0.101102926 -0.020729065 0.065173656 0.06397478 0.08703646 -0.12199925 -0.13125044
-0.13252574 0.18150723 0.048049927 0.08475616 0.06551939 0.04664147 -0.059349485 0.080319814
-0.14991151 -0.13429545 0.07463628 -0.088859275 0.13636921 -0.0990406 0.073554434 -0.12033051
-0.08935073 -0.044566084 -0.12479303 -0.04454217 0.052266914 0.024746254 -0.061235838 0.100495026
-0.01747758 0.103821546 -0.13978359 0.0050900048 0.03985576 0.048469596 -0.13489807 0.04708485
0.043575753 -0.14093196 -0.12540677 0.09651603 -0.1448379 -0.0034170898 -0.14164926 -0.108337775
0.07042586 0.16207683 0.054010663 0.17155804 -0.14058527 -0.12242683 -0.12278455 0.14346914
-0.05684309 0.053195424 0.073937446 -0.14445597 0.091262296 -0.1655283 -0.02245251 0.115736075
0.07599103 0.15315768 0.013078156 0.07360465 -0.09392398 0.15481709 -0.06595017 -0.11136711
0.102948084 -0.07442682 0.14156245 -0.09735134 0.02351337 -0.034062464 0.078697026 -0.022156341
0.121487744 0.023233432 -0.14180768 -0.076307565 -0.15451218 0.099904455 -0.07277961 0.15422888
0.0513194 -0.1279188 -0.13547552 -0.11927946 0.05462551 -0.061750233 -0.10243244 -0.14856708
-0.036118202 -0.07571876 -0.069741584 0.14619884 -0.029758707 -0.07935573 -0.03631673 -0.11681414
0.015766585 0.16399682 -0.073246166 0.024711194 -0.10485875 0.045340266 -0.1043014 -0.15970144
0.10870723 0.10655381 0.09177182 0.049343236 -0.14184652 0.019684564 0.04788136 0.10127225
-0.011567499 -0.11585389 -0.009787473 0.07631169 -0.049772866 -0.015252097 0.0035606066 -0.0071150432
0.031659234 0.15254293 0.07672785 -0.12091036 0.14610611 -0.0014608447 -0.037746526 0.03340724
0.021130908 0.035879422 -0.0024340933 0.08256032 -0.07293495 0.10265316 0.061861247 0.08896386
0.043940675 0.016755871 -0.06344936 -0.11688586 0.10241548 -0.08708717 0.058720514 0.013090444
-0.1241163 -0.021119518 0.026957076 0.056574367 -0.006804822 0.037384786 -0.12415307 -0.051219597
0.15405107 0.13077119 -0.076598264 0.13668585 0.1375108 -0.0033393141 -0.10210215 0.10603131
-0.12178947 0.11688951 0.019788835 -0.13003097 0.096680544 0.12402311 0.08604662 0.0005605697
00000000: 7b30 123e bfca 1dbd 8dc3 f03b 0776 11be
00000010: 79aa 143d 426e f0bd 13bc 32bd 368c d7bd
00000020: c55e bc3d e1ac 043e 99db 92bd d29b 413c
00000030: 6906 00be e0cb ff3d d6df b93d 171d fcbd
00000040: dd95 10be de11 f83d 9eaa 633c 56ac debd
00000050: f63d 1d3e 89c0 c0bd 0365 44bd 6ee1 143e
00000060: 9177 16be 206c bc3d cf18 92bd be9e cabd
00000070: 4dc2 9c3d 7d06 6fbd 9a53 063d a0a9 fb3d
00000080: 6106 5abc 1686 19be 1558 d23d c2c5 c73d
00000090: e59a d4bd 56ad 0f3d 654d 1c3d 18a4 8b3d
000000a0: 9686 ae3d 37a0 28bd a1ce fcbd 1ace 153e
000000b0: b21f 62bd 969f fc3d 31dd 1cbc a80e 913d
000000c0: 431b 0e3e 7d4a 19bd 54c6 21bc 4b84 bebc
000000d0: 1e21 753d 75e7 c53d 385c adbd bf05 90bc
000000e0: c4c7 a9bd 7cec f4bd 410e 6d3d 91c2 b13d
000000f0: 0679 b03d 60ad 923d f34c 18bd a3cd 083d
00000100: 7a4c 1d3e d460 aebc 4336 b5bd 287c f13d
00000110: 624c af3d 36dc 153c 34f6 04be 94a4 a23b
00000120: 1fde c1bd 94e3 273d a429 17be b699 f4bd
00000130: 1ed5 1cbd c0ea 1c3e 8000 08be f56f 52bd
00000140: 67ba f3bd 0d0f cf3d 00d0 a9bc c479 853d
00000150: 3605 833d 2c40 b23d beda f9bd 8466 06be
00000160: d4b4 07be 08dd 393e 00d0 443d a394 ad3d
00000170: 082f 863d 200b 3f3d 7218 73bd b77e a43d
00000180: 6782 19be bf84 09be e8da 983d dafb b5bd
00000190: 5fa4 0b3e ccd5 cabd b5a3 963d d86f f6bd
000001a0: 84fd b6bd ed8a 36bd 7d93 ffbd da71 36bd
000001b0: d515 563d a8b8 ca3c 6ed2 7abd 56d0 cd3d
000001c0: 242d 8fbc 64a0 d43d 6e23 0fbe 0eca a63b
000001d0: cb3f 233d 0e88 463d b822 0abe 0bdc 403d
000001e0: 7d7c 323d 7850 10be a26a 00be 32aa c53d
000001f0: 6350 14be 41f1 5fbb 810c 11be 32e0 ddbd
00000200: 6f3b 903d 78f7 253e 493a 5d3d e9ac 2f3e
00000210: 96f5 0fbe ebba fabd 7776 fbbd 93e9 123e
00000220: 4dd4 68bd 72e3 593d 846c 973d 44ec 13be
00000230: bae7 ba3d 4080 29be 54ee b7bc 0907 ed3d
00000240: 2fa1 9b3d 5ed5 1c3e c345 563c 09be 963d
00000250: 375b c0bd 5f88 1e3e e210 87bd 7014 e4bd
00000260: 72d6 d23d 176d 98bd bff5 103e 2460 c7bd
00000270: 1c9f c03c 1585 0bbd e82b a13d 3781 b5bc
00000280: 91ce f83d 0a54 be3c 0836 11be 2447 9cbd
00000290: 7138 1ebe b59a cc3d 7a0d 95bd 2dee 1d3e
000002a0: 4b34 523d 25fd 02be 18ba 0abe ca48 f4bd
000002b0: 00bf 5f3d d0ed 7cbd 19c8 d1bd f821 18be
000002c0: aef0 13bd 7012 9bbd add4 8ebd 26b5 153e
000002d0: 88c8 f3bc 4285 a2bd dac0 14bd 403c efbd
000002e0: ed28 813c c8ee 273e 1602 96bd 216f ca3c
000002f0: 2fc0 d6bd b7b6 393d f99b d5bd c688 23be
00000300: e5a1 de3d e238 da3d ddf2 bb3d 221c 4a3d
00000310: 3740 11be 8641 a13c 3f1f 443d d367 cf3d
00000320: 9b85 3dbc ce44 edbd a35b 20bc 4e49 9c3d
00000330: a2de 4bbd eee3 79bc 1159 693b 4f25 e9bb
00000340: 1dad 013d 3734 1c3e 7e23 9d3d da9f f7bd
00000350: d79c 153e d079 bfba 1a9c 1abd 08d6 083d
00000360: ba1a ad3c 4df6 123d 4f85 1fbb 6315 a93d
00000370: eb5e 95bd d23b d23d 3862 7d3d af32 b63d
00000380: 23fb 333d 9c43 893c bdf1 81bd db61 efbd
00000390: 35bf d13d c25a b2bd ec84 703d 4d79 563c
000003a0: b030 febd d702 adbc 16d5 dc3c 86ba 673d
000003b0: fcfa debb ca20 193d f743 febd a4cb 51bd
000003c0: 90bf 1d3e e2e8 053e 8ddf 9cbd 60f7 0b3e
000003d0: a2cf 0c3e 65d8 5abb ef1a d1bd f226 d93d
000003e0: c26c f9bd c463 ef3d 321c a23c d726 05be
000003f0: 7300 c63d d4ff fd3d 3639 b03d 32f3 123a

tatic_net.fc1.bias f4 [64]
0.09517662 -0.06244484 0.057208966 0.100762084 0.019731812 0.07703921 -0.047358897 -0.082617186
-0.077018 0.0017555605 0.056827314 0.09956667 -0.08159684 0.02777674 0.047653757 0.10807939
-0.08215397 0.09786514 0.13611676 0.10112166 0.05173804 0.1203332 -0.08939124 0.13595241
-0.068914644 -0.04749035 -0.048325855 0.012039819 -0.14507961 0.12776579 -0.092025764 -0.05903068
0.12347428 -0.07265504 0.09800666 -0.038879443 0.00963067 -0.039226007 0.04278495 0.07680545
-0.08137822 -0.10568099 0.050050046 0.1298161 0.06213449 0.16638954 -0.12469949 0.10696773
0.041464318 -0.14025837 -0.13986659 -0.03668905 -0.03460833 0.0028671965 -0.026481744 0.018092288
0.1481768 0.04357907 0.07175989 0.0821554 0.009732601 -0.10068492 -0.1259875 -0.08269791
00000000: f6eb c23d 29c6 7fbd f353 6a3d 5a5c ce3d
00000010: 9ca4 a13c bcc6 9d3d 67fb 41bd 3333 a9bd
00000020: 9dbb 9dbd d61a e63a c2c3 683d 9ce9 cb3d
00000030: 3e1c a7bd 0c8c e33c 9630 433d ba58 dd3d
00000040: 5740 a8bd 856d c83d 3162 0b3e df18 cf3d
00000050: 44eb 533d 4171 f63d c112 b7bd 1c37 0b3e
00000060: 1f23 8dbd 3e85 42bd 55f1 45bd a942 453c
00000070: c08f 14be 09d5 023e 0178 bcbd 28ca 71bd
00000080: 15e0 fc3d 2acc 94bd b7b7 c83d 0d40 1fbd
00000090: f5c9 1d3c 73ab 20bd 463f 2f3d 2d4c 9d3d
000000a0: a0a9 a6bd 466f d8bd 4701 4d3d 83ee 043e
000000b0: bc80 7e3d 0562 2a3e 7262 ffbd e611 db3d
000000c0: 7dd6 293d e49f 0fbe 3039 0fbe 4247 16bd
000000d0: 77c1 0dbd 93e7 3b3b 3ef0 d8bc 4736 943c
000000e0: a9bb 173e f87f 323d d9f6 923d 1741 a83d
000000f0: 7d75 1f3c e533 cebd de02 01be 865d a9bd

tatic_net.fc2.weight f4 [6, 64]
0.03327158 0.06379394 -0.060331732 0.070555836 -0.03693074 0.014486164 0.0007377714 0.096286744
0.08066735 -0.091799915 0.10596891 0.09436633 -0.081199035 0.026719213 -0.042753413 0.07638253
-0.11846371 -0.09943552 -0.0087329745 0.032337204 0.11515762 -0.10819121 0.07726784 -0.007641956
-0.012271345 -0.120940104 0.11206341 0.08709952 0.054344997 0.019704685 -0.033255264 -0.0949391
-0.10137758 0.043736026 -0.018960804 0.021045312 0.1176528 0.007873535 0.008558363 -0.1099616
-0.088159636 -0.100393355 -0.010185942 -0.11275542 -0.12141621 -0.050515592 0.012510881 0.059317872
0.04251325 0.062042177 -0.08137803 -0.09879908 -0.0878654 -0.08318259 0.008644283 -0.09719963
-0.015127808 -0.069511205 0.106656015 0.018717855 0.006589979 0.097510636 -0.06446552 0.09349193
-0.049504705 0.11381908 -0.054163486 0.04643074 -0.13250527 0.012311647 -0.07443072 -0.13653693
-0.04840632 0.10476845 -0.12808873 0.10285952 0.04953565 -0.0781626 0.08490299 -0.029318068
0.039249565 -0.011393517 -0.037460353 -0.09571282 0.040690646 0.020590823 -0.0961842 -0.027752854
0.07692784 -0.030858265 -0.058661498 -0.060994294 0.003529203 0.044084184 -0.048314147 -0.09853109
0.04611173 0.02242302 0.12381899 0.058461737 0.056243796 0.050759334 -0.01581878 0.03446412
-0.046493392 0.05796126 0.09007954 0.005577364 -0.027111594 -0.09617988 0.017571757 -0.016846173
-0.105658665 0.007871813 0.09870425 -0.11752832 0.050105274 0.07105093 -0.031483635 -0.13169986
-0.023832023 -0.06767753 0.14273599 -0.000990223 0.09894677 -0.04289504 0.034878243 -0.014865168
-0.054829672 -0.051501088 0.0037942256 0.068884246 0.08063421 -0.033291515 0.05332647 0.035271328
-0.008079947 -0.11116648 -0.014288898 -0.0016749557 0.08378396 -0.0347149 -0.04292194 -0.022795653
-0.11721962 -0.06584165 -0.051720526 -0.08591409 0.08183512 0.115468815 0.056560285 -0.006412354
0.025893766 0.030102111 -0.043438695 0.0059100986 0.110783726 0.015740128 -0.032278154 0.016740019
0.010535624 0.10122812 -0.00531655 0.084366895 -0.019457474 0.084347144 -0.067488395 -0.14269885
0.09600772 0.14053318 -0.06599539 0.11089605 -0.020900322 0.020393504 0.09121866 0.11847398
-0.06656217 -0.08570822 0.023847133 0.084064215 -0.07852623 0.1253548 -0.0783917 -0.015752848
-0.1306047 -0.02511216 0.13602152 0.15976314 -0.05702158 0.059782766 0.03740868 0.09458185
-0.02204869 0.092205405 0.017224519 0.098504424 0.014259122 0.013481895 0.030630056 -0.022308828
-0.022720052 -0.014742403 -0.09845692 -0.08056771 0.023557924 -0.08401585 -0.06160483 0.008774308
0.08365871 -0.10667505 0.022137463 -0.05666828 -0.0464402 -0.08100369 0.040022485 -0.015875425
0.03744513 -0.060648948 -0.033844307 0.023819003 -0.11980695 0.122966066 -0.047187474 -0.043785553
-0.13762999 0.090239204 0.10498078 -0.024887247 0.048029702 -0.054173164 -0.007131071 0.030880848
0.09468001 0.018279044 -0.052982483 -0.06368693 -0.044333573 0.099164926 0.09564595 -0.032367248
-0.08820693 0.14530672 0.05603265 -0.09057781 -0.030773446 0.046120733 -0.08344713 -0.05501391
-0.119546734 0.10072562 0.12985313 -0.0033328445 -0.09176106 -0.06630915 0.013502176 -0.042775426
00000000: c847 083d 66a6 823d 681e 77bd 947f 903d
00000010: b044 17bd 6057 6d3c 0067 413a fc31 c53d
00000020: ec34 a53d 9801 bcbd 3a06 d93d 2243 c13d
00000030: ae4b a6bd 40e2 da3c 341e 2fbd 726e 9c3d
00000040: 1a9d f2bd daa4 cbbd c014 0fbc 0474 043d
00000050: c2d7 eb3d 5a93 ddbd 9a3e 9e3d 6069 fabb
00000060: c00d 49bc 72af f7bd 8081 e53d 3c61 b23d
00000070: dc98 5e3d b86b a13c ac36 08bd 6e6f c2bd
00000080: 0c9f cfbd 8c24 333d b053 9bbc 3867 ac3c
00000090: f4f3 f03d 0000 013c 6038 0c3c 8c33 e1bd
000000a0: 0a8d b4bd 089b cdbd f0e2 26bc 50ec e6bd
000000b0: 10a9 f8bd 70e9 4ebd 70fa 4c3c 4cf7 723d
000000c0: 6022 2e3d f01f 7e3d 86a9 a6bd 2c57 cabd
000000d0: c6f2 b3bd a25b aabd c0a0 0d3c 9a10 c7bd
000000e0: a0da 77bc e45b 8ebd 786e da3d 3056 993c
000000f0: c0f0 d73b a8b3 c73d 8006 84bd b278 bf3d
00000100: 72c5 4abd fa19 e93d 88da 5dbd 292e 3e3d
00000110: 76af 07be cab6 493c 226f 98bd 56d0 0bbe
00000120: b545 46bd d790 d63d b129 03be 03a8 d23d
00000130: e5e5 4a3d b713 a0bd 9ee1 ad3d 722c f0bc
00000140: 27c4 203d e0ab 3abc 0770 19bd 1505 c4bd
00000150: 3cab 263d 16ae a83c 39fc c4bd f459 e3bc
00000160: 588c 9d3d 79ca fcbc 0a47 70bd 27d5 79bd
00000170: 334a 673b 9e91 343d 0ee5 45bd abca c9bd
00000180: a7df 3c3d 7bb0 b73c d094 fd3d 9375 6f3d
00000190: e55f 663d 05e9 4f3d 6396 81bc 402a 0d3d
000001a0: db6f 3ebd c968 6d3d 9f7b b83d 52c2 b63b
000001b0: 2219 debc f5f9 c4bd a5f2 8f3c fc00 8abc
000001c0: 9263 d8bd c7f8 003c 7425 ca3d b0b2 f0bd
000001d0: 303b 4d3d 2683 913d fcf4 00bd 54dc 06be
000001e0: 603b c3bc 849a 8abd 6229 123e 5fca 81ba
000001f0: 9ba4 ca3d b6b2 2fbd 7ddc 0e3d 098d 73bc
00000200: 1495 60bd cef2 52bd 8ba8 783b 2f13 8d3d
00000210: 8c23 a53d af5c 08bd db6c 5a3d ab78 103d
00000220: c161 04bc 40ab e3bd fb1b 6abc 308a dbba
00000230: ed96 ab3d 3631 0ebd ebce 2fbd f3bd babc
00000240: d710 f0bd fdd7 86bd e7d8 53bd baf3 afbd
00000250: 2c99 a73d ea7a ec3d c2ab 673d b91e d2bb
00000260: 2a1f d43c b498 f63c c6ec 31bd 80a9 c13b
00000270: 94e2 e23d 71f1 803c 1936 04bd 5d22 893c
00000280: 9c9d 2c3c b050 cf3d 7436 aebb 8dc8 ac3d
00000290: 4865 9fbc 32be ac3d 5b37 8abd a61f 12be
000002a0: b29f c43d eee7 0f3e 9728 87bd 781d e33d
000002b0: 2737 abbc 4710 a73c d9d0 ba3d 7ca2 f23d
000002c0: bf51 88bd cb87 afbd 105b c33c dc29 ac3d
000002d0: 5cd2 a0bd 025d 003e d48b a0bd 1e0c 81bc
000002e0: 3dbd 05be 04b8 cdbc 3a49 0b3e f398 233e
000002f0: 768f 69bd c6de 743d d839 193d 21b4 c13d
00000300: 749f b4bc 30d6 bc3d 6f1a 8d3c b0bc c93d
00000310: 189f 693c 2be3 5c3c e2eb fa3c 01c1 b6bc
00000320: 671f babc 1f8a 71bc c8a3 c9bd af00 a5bd
00000330: 8cfc c03c 8110 acbd 5955 7cbd 1dc2 0f3c
00000340: 4255 ab3d 7378 dabd a059 b53c 001d 68bd
00000350: 1438 3ebd 43e5 a5bd 9eee 233d 2e0d 82bc
00000360: 1160 193d 086b 78bd 54a0 0abd 1220 c33c
00000370: 595d f5bd a2d5 fb3d a747 41bd 7b58 33bd
00000380: e0ee 0cbe 55cf b83d 2a00 d73d 57e0 cbbc
00000390: cbba 443d aee4 5dbd c2ab e9bb d5f9 fc3c
000003a0: 98e7 c13d efbd 953c 2904 59bd 4b6e 82bd
000003b0: 1f97 35bd fb16 cb3d 06e2 c33d 8593 04bd
000003c0: d6a5 b4bd 49cb 143e 7e82 653d dc80 b9bd
000003d0: 9818 fcbc 18e9 3c3d 54e6 aabd 4456 61bd
000003e0: ebd4 f4bd 3c49 ce3d 38f8 043e da6b 5abb
000003f0: 39ed bbbd 17cd 87bd 3b38 5d3c 4935 2fbd

tatic_net.fc2.bias f4 [6]
0.056085363 -0.10185537 0.028377067 0.020956518 0.03386128 -0.07909961
00000000: c4b9 653d 8c99 d0bd 0677 e83c 01ad ab3c
00000010: 20b2 0a3d fafe a1bd

tatic_net.fc3.weight f4 [6, 3]
-0.35377002 0.3725044 -0.41826627 0.116767645 0.3890662 -0.053444862 0.2705104 -0.13969815
-0.24587901 0.3419888 -0.19514306 -0.5791629 -0.24778892 -0.51990813 0.5630061 0.59594417
0.4705781 -0.022502065
00000000: 5821 b5be e6b8 be3e ff26 d6be e023 ef3d
00000010: af33 c73e 00e9 5abd 5780 8a3e 080d 0fbe
00000020: b5c7 7bbe 2819 af3e 95d3 47be 0544 14bf
00000030: 61bc 7dbe b318 05bf 2b21 103f cc8f 183f
00000040: 9def f03e 4056 b8bc

tatic_net.fc3.bias f4 [6]
0.35867542 0.47181022 0.109838516 0.33360797 -0.09128452 -0.058734484
00000000: 4ea4 b73e 1c91 f13e 04f3 e03d aace aa3e
00000010: 61f3 babd 9293 70bd

tatic_net.fc4.weight f4 [3, 9]
0.26971903 0.35256997 0.0561112 0.24130169 0.4174034 0.34499347 -0.13703945 0.33919948
-0.15402347 0.004551813 -0.021735169 -0.15413734 0.20128907 -0.23753798 0.2219942 0.21344224
0.16115764 0.4067726 0.08609052 -0.039820917 0.29589638 -0.22550951 0.030236501 0.10709576
-0.08202115 0.11036121 0.07031425
00000000: 9d18 8a3e 0d84 b43e dcd4 653d ca17 773e
00000010: e6b5 d53e fca2 b03e 1254 0cbe 8eab ad3e
00000020: 54b8 1dbe 6027 953b f40d b2bc 2ed6 1dbe
00000030: b91e 4e3e 283d 73be 7352 633e 9a90 5a3e
00000040: 8206 253e 8044 d03e 3a50 b03d 421b 23bd
00000050: bb7f 973e f7eb 66be 8ab2 f73c 0655 db3d
00000060: b4fa a7bd 0f05 e23d eb00 903d

tatic_net.fc4.bias f4 [3]
-0.2039253 -0.21949247 -0.056285888
00000000: cbd1 50be a2c2 60be 088c 66bd

fc1.weight f4 [256, 108]
-0.00042612173 -0.01984344 0.07989095 0.07550603 -0.050256476 0.051901095 0.022610558 -0.036613613
0.07365626 0.02057299 -0.059284456 0.05563956 -0.040421683 -0.08867647 0.022289947 0.066474944
0.028586317 -0.08553514 -0.018666511 0.0076345736 -0.024029156 -0.083913274 0.06032764 0.06740382
0.056885216 0.08067247 -0.05639079 0.02611629 -0.03471761 0.059684627 -0.07923031 0.08814726
-0.0029472003 -0.08801551 0.015194861 0.08502066 -0.061632674 0.071926944 -0.08263041 -0.024994167
-0.083362706 -0.022819214 -0.02113127 -0.059526548 0.0040416177 0.07792165 -0.09268343 0.0674876
0.07134972 0.06724305 -0.003980558 -0.0029987032 -0.052298743 0.036902577 0.049536053 0.085349895
-0.07812788 0.012293568 0.045684073 -0.0133487275 -0.057143245 -0.036339127 0.050631743 0.06074805
0.050564237 -0.092349276 0.066310525 0.028116027 0.027005916 0.047767628 -0.003941614 -0.04047642
-0.094832785 -0.08239806 -0.06920416 -0.06328108 -0.07767414 0.003238812 -0.06363883 0.004543895
0.06691748 0.07724689 -0.059643723 -0.08750111 -0.018347312 -0.092620134 -0.039060764 -0.0768453
0.021289647 -0.049292445 -0.03925749 0.07645635 -0.039736606 0.09496803 0.062647246 -0.10628574
-0.02816978 -0.031411413 0.044199448 -0.093118034 -0.0031019545 0.060021546 0.05084124 0.028461244
-0.08383974 -0.0061199074 0.059629407 -0.0540789 -0.042392813 -0.046675906 -0.052631848 0.8071669
0.6724646 0.639909 -0.0025123034 0.068354465 -0.0044646193 0.8398262 0.75454414 0.76538134
-0.04313078 -0.028361022 -0.07008427 0.72180355 0.7857553 0.64841574 0.0026656121 0.015274172
-0.047808003 -0.0610425 -0.049019117 0.49074635 -0.06960181 0.06199894 0.06647843 0.035610117
-0.004584261 0.71920973 0.06756273 -0.064389296 0.05157876 0.07199719 0.0028519917 0.7550324
-0.01614322 0.060192008 -0.05441828 0.7864639 0.7810704 0.5912744 0.0015772858 0.021445766
0.07773557 0.80218744 0.7022946 0.6149242 -0.0055269874 -0.014355339 0.03396781 0.72715366
0.7715112 0.60194165 -0.05871414 -0.060501024 -0.01770199 0.04424032 0.072930954 0.47934657
0.043342296 -0.09100493 -0.008046907 -0.06362606 -0.036676876 0.6412767 -0.03142275 0.00087913126
0.09355853 -0.02837396 -0.09571153 0.70439446 0.0514245 -0.041746 -0.05204861 0.71233255
0.7477008 0.5242795 0.008407427 -0.016303595 0.061090298 0.8645327 0.75435865 0.61294043
-0.039795086 0.06502094 0.01960848 0.8049109 0.7715595 0.7488543 -0.058208685 -0.07189971
0.057267178 -7.9516416e-05 0.0427807 0.5719425 0.019218057 -0.017171174 0.004989896 0.086701244
-0.06603382 0.67952293 -0.011855368 0.031666137 0.035927698 0.029492857 0.071559094 0.65038586
0.063563265 0.018646656 -0.075109035 -0.035947584 -0.016096808 -0.03866457 0.06990374 -0.08302858
0.09367324 0.069755845 0.013194658 0.071265854 0.057192694 0.03257117 -0.036473166 0.05386621
0.06916889 0.030310942 -0.013161343 -0.07497658 -0.059882052 0.047985666 0.08734724 0.05254572
0.092453085 -0.036411542 0.050786622 0.040335387 0.010925133 -0.1057807 0.07150884 -0.003189661
-0.06139546 -0.05447557 -0.092409335 -0.08074751 0.06826465 0.016944876 0.07146597 -0.045292407
00000000: 1769 dfb9 b68e a2bc de9d a33d e8a2 9a3d
00000010: bcd9 4dbd 3e96 543d c739 b93c 28f8 15bd
00000020: 18d9 963d b088 a83c 42d4 72bd 4fe6 633d
00000030: 3591 25bd 029c b5bd 6899 b63c 0424 883d
00000040: da2d ea3c 0c2d afbd 83ea 98bc 722b fa3b
00000050: cbd8 c4bc b9da abbd 1e1a 773d 040b 8a3d
00000060: 7900 693d 9c37 a53d 07fa 66bd d4f1 d53c
00000070: 0d34 0ebd de77 743d 8043 a2bd 8d86 b43d
00000080: d125 41bb 7a41 b4bd def3 783c 501f ae3d
00000090: 8b72 7cbd 6f4e 933d 223a a9bd 91c0 ccbc
000000a0: 11ba aabd 5cef babc 7c1b adbc 1cd2 73bd
000000b0: 8c6f 843b 6395 9f3d cfd0 bdbd f036 8a3d
000000c0: cd1f 923d b9b6 893d 576f 82bb e485 44bb
000000d0: 3537 56bd 2827 173d 51e6 4a3d edcb ae3d
000000e0: 8301 a0bd f66a 493c 391f 3b3d 9fb4 5abc
000000f0: 090f 6abd 56d8 14bd 3b63 4f3d f3d2 783d
00000100: 721c 4f3d 9e21 bdbd d0cd 873d 9553 e63c
00000110: 833b dd3c fda7 433d a828 81bb 9aca 25bd
00000120: b137 c2bd 50c0 a8bd e9ba 8dbd 8399 81bd
00000130: 9f13 9fbd 4042 543b 1355 82bd f4e4 943b
00000140: 080c 893d 9e33 9e3d fa4c 74bd c833 b3bd
00000150: 1a4d 96bc a0af bdbd 2efe 1fbd 1261 9dbd
00000160: a067 ae3c e0e6 49bd 76cc 20bd 2695 9c3d
00000170: dac2 22bd 997e c23d 334d 803d 57ac d9bd
00000180: 4fc4 e6bc 41a9 00bd 7b0a 353d abb4 bebd
00000190: 294a 4bbb 27d9 753d e73e 503d 8e27 e93c
000001a0: 2bb4 abbd 8189 c8bb f73d 743d d681 5dbd
000001b0: 16a4 2dbd 3c2f 3fbd 7e94 57bd 7da2 4e3f
000001c0: a426 2c3f 14d1 233f 75a5 24bb 6dfd 8b3d
000001d0: f14b 92bb dafe 563f ce29 413f 08f0 433f
000001e0: e7a9 30bd 6055 e8bc 5788 8fbd 1ec8 383f
000001f0: 4227 493f 93fe 253f 8db1 2e3b 8540 7a3c
00000200: 53d2 43bd b307 7abd 45c8 48bd 1b43 fb3e
00000210: 658b 8ebd 9af2 7d3d d825 883d eadb 113d
00000220: 9237 96bb 211e 383f 545e 8a3d 89de 83bd
00000230: 4044 533d 4373 933d 7be8 3a3b ce49 413f
00000240: c93e 84bc e58b 763d b4e5 5ebd b355 493f
00000250: 3bf4 473f c25d 173f eebc ce3a 08af af3c
00000260: d433 9f3d 285c 4d3f 94c9 333f ac6b 1d3f
00000270: bb1b b5bb a832 6bbc d521 0b3d be26 3a3f
00000280: c281 453f d918 1a3f 3d7e 70bd eccf 77bd
00000290: c403 91bc 5635 353d d35c 953d ea6c f53e
000002a0: b187 313d cb60 babd 2dd7 03bc 614e 82bd
000002b0: 7e3a 16bd b62a 243f 24b5 00bd 8075 663a
000002c0: 9d9b bf3d 8270 e8bc 6804 c4bd 3253 343f
000002d0: 7fa2 523d dbfd 2abd ec30 55bd 6d5b 363f
000002e0: 5269 3f3f 2e37 063f 4ebf 093c 1e8f 85bc
000002f0: d239 7a3d 0452 5d3f a61d 413f aae9 1c3f
00000300: 2c00 23bd b329 853d f7a1 a03c a40e 4e3f
00000310: ec84 453f eab4 3f3f 3b6c 6ebd 2840 93bd
00000320: fd90 6a3d 0dc2 a6b8 d13a 2f3d d36a 123f
00000330: 306f 9d3c 90aa 8cbc 4882 a33b 6c90 b13d
00000340: bd3c 87bd 37f5 2d3f 043d 42bc 5ab4 013d
00000350: ec28 133d 019b f13c 938d 923d b07f 263f
00000360: 752d 823d dfc0 983c c4d2 99bd c63d 13bd
00000370: 74dd 83bc bd5e 1ebd b129 8f3d e30a aabd
00000380: c1d7 bf3d 27dc 8e3d 682e 583c d5f3 913d
00000390: e342 6a3d 5969 053d e364 15bd d1a2 5c3d
000003a0: 6ba8 8d3d a74e f83c aca2 57bc 528d 99bd
000003b0: e246 75bd 9e8c 443d 1ce3 b23d 2e3a 573d
000003c0: 0b58 bd3d 4524 15bd a205 503d b836 253d
000003d0: 54ff 323c 8da3 d8bd 3a73 923d a209 51bb
000003e0: ce79 7bbd c621 5fbd 1b41 bdbd f35e a5bd
000003f0: 56ce 8b3d fbcf 8a3c c05c 923d 8884 39bd

fc1.bias f4 [256]
-0.10712076 0.76990587 -0.006738685 0.5971276 0.08566921 0.7912977 0.50334376 0.7746475
0.65245724 0.36897686 0.42597312 0.5155746 -0.015303809 0.8247035 0.39620867 0.58589923
0.41299307 0.84074783 0.61035794 -0.0063761035 0.4737392 -0.063334346 0.47234803 0.38033795
0.2906095 0.5292784 0.39947876 0.6952492 0.2834722 0.4223646 -0.0004123721 0.6014911
-0.0088629145 0.4812555 -0.08485503 0.7631901 0.4705044 0.7202461 -0.018371062 0.38850918
0.7318251 0.4311204 -0.09240323 0.4204252 0.31857222 0.46143848 0.022654451 0.5789739
-0.117316164 0.37119156 0.3679232 -0.00025723537 0.4141703 0.7051699 0.47200462 0.4228418
0.16870621 0.5061459 0.49457863 -0.0032002816 0.50742143 0.49193323 0.59156597 0.42803687
0.70918626 0.49233598 -0.017549986 0.48161805 0.47259516 -0.05719874 0.41991732 0.55425435
0.48054418 0.4491241 -0.014414293 0.4908175 0.45603728 0.3493399 -0.00561969 0.484499
0.49026608 -0.087805755 0.5752854 0.38789052 0.43435007 0.5323818 0.44701955 0.30457768
0.47348922 0.50595415 0.057554252 0.33005512 0.62337893 0.45444748 0.43924463 -0.00064596464
0.44800812 0.48237708 0.38835108 -0.091405176 0.5904369 -0.0029534062 0.50547713 0.58846575
-0.062925935 -0.00059380796 -0.003289917 0.092312254 0.4873812 0.2832521 -0.031162284 -0.032985788
0.4803184 0.51923746 0.49602973 0.32380727 -0.08537103 0.4070757 0.51975936 0.38919172
0.52923065 -0.05744539 0.59341645 0.41328898 0.47559905 -0.02811564 0.54550177 0.4223443
0.55922 -0.096836165 0.419526 0.5141229 0.49843937 -0.009433038 -0.0740974 -0.00011839476
-0.08843682 0.6088939 0.51576483 -0.09515549 0.34581012 -0.10182956 0.45277107 0.08302889
0.46550053 0.31256178 0.7248803 0.20437415 0.6495751 0.44201595 -0.00991383 0.47561872
0.5721626 -0.091757305 0.31868416 0.48959228 0.45259663 0.49289474 -0.02513384 0.7085285
0.43626177 0.11506592 0.42659155 0.74738467 0.51484585 -0.00043911455 0.7836587 0.7474808
0.45362294 0.58331287 0.51548404 0.41226047 0.5845128 0.50623786 0.48735812 0.38877332
-0.058566425 -0.09423609 0.73350847 -0.06979802 0.43528712 0.45133933 0.52626 -0.09229901
0.42869562 -0.06264338 0.40735692 0.54468876 0.47104356 -0.093536 0.67254454 0.15930462
-0.078366876 0.41949117 -0.08907489 0.20962265 0.511799 0.040921073 0.4979998 0.3951877
-0.021018796 0.46117163 0.5091684 -0.08963589 0.057912055 0.71744156 0.42653275 0.370667
0.43312252 0.45977604 -0.0052065533 0.5961158 0.3517164 0.40084165 0.5940807 0.5173061
0.4146539 0.6502246 0.44702277 0.46746904 0.39764997 0.44861412 -0.075411014 0.35905808
0.4428489 0.37084997 0.54599094 -0.0094567835 0.27502546 0.7741346 0.572179 -0.0202004
-0.061455574 0.76990944 0.5364933 0.22928524 -0.05451793 -0.05612772 -0.00015594873 0.42519045
0.4579873 0.07654394 0.41929272 0.80482334 0.46169135 0.6053166 0.5240931 0.556314
0.47643197 0.4612867 0.2005568 0.33412293 -0.03025082 0.84885484 0.7669492 0.49635097
00000000: 2162 dbbd 8d18 453f 30d0 dcbb 5bdd 183f
00000010: 5773 af3d 7c92 4a3f 23db 003f 4c4f 463f
00000020: 7007 273f 89ea bc3e 2619 da3e b2fc 033f
00000030: d4bc 7abc c51f 533f dddb ca3e 7efd 153f
00000040: d473 d33e 403b 573f 6b40 1c3f a2ee d0bb
00000050: f28d f23e 70b5 81bd 9ad7 f13e a8bb c23e
00000060: c5ca 943e ca7e 073f 7b88 cc3e dafb 313f
00000070: 4523 913e 2c40 d83e a533 d8b9 52fb 193f
00000080: c235 11bc 1f67 f63e 79c8 adbd 6d60 433f
00000090: f4e5 f03e 0c62 383f e97e 96bc adea c63e
000000a0: e458 3b3f d0bb dc3e e83d bdbd f941 d73e
000000b0: e61b a33e aa41 ec3e d495 b93c a237 143f
000000c0: 7543 f0bd d20c be3e 6e60 bc3e 8cdd 86b9
000000d0: 210e d43e 0486 343f 97aa f13e b87e d83e
000000e0: 52c1 2c3e c792 013f 6939 fd3e d1bb 51bb
000000f0: 5fe6 013f acde fb3e de70 173f a627 db3e
00000100: 3b8d 353f 7613 fc3e fdc4 8fbc a496 f63e
00000110: fef7 f13e 3a49 6abd 67ff d63e 9de3 0d3f
00000120: e309 f63e 98f3 e53e ed29 6cbc 6e4c fb3e
00000130: b87d e93e aedc b23e 6025 b8bb 4110 f83e
00000140: 2804 fb3e 81d3 b3bd e745 133f 9699 c63e
00000150: 2263 de3e 2c4a 083f bfdf e43e 9bf1 9b3e
00000160: 2e6d f23e 3686 013f 02be 6b3d fcfc a83e
00000170: c395 1f3f 57ad e83e ace4 e03e f455 29ba
00000180: 5261 e53e 21fa f63e f4d5 c63e a332 bbbd
00000190: df26 173f ef8d 41bb f366 013f b1a5 163f
000001a0: 50df 80bd c7a9 1bba a69b 57bb 350e bd3d
000001b0: 078a f93e 6b06 913e 0c48 ffbc 1b1c 07bd
000001c0: 4bec f53e bfec 043f 9cf7 fd3e 11ca a53e
000001d0: 02d7 aebd 3a6c d03e f30e 053f 2344 c73e
000001e0: a97b 073f db4b 6bbd 24ea 173f 9d9a d33e
000001f0: b881 f33e c552 e6bc 01a6 0b3f 833d d83e
00000200: 0b29 0f3f 0a52 c6bd 1dcc d63e 8f9d 033f
00000210: 7233 ff3e 078d 1abc 61c0 97bd b44a f8b8
00000220: 5d1e b5bd 78e0 1b3f 2a09 043f e2e0 c2bd
00000230: 060e b13e 048c d0bd 9cd1 e73e 0d0b aa3d
00000240: 1656 ee3e 1908 a03e c191 393f 7547 513e
00000250: 8e4a 263f ea4f e23e 9e6d 22bc 4c84 f33e
00000260: 4079 123f 41eb bbbd 922a a33e d7ab fa3e
00000270: bfba e73e b35c fc3e 7ce5 cdbc 2062 353f
00000280: b45d df3e aea7 eb3d 356a da3e 9a54 3f3f
00000290: f0cc 033f f538 e6b9 db9d 483f e75a 3f3f
000002a0: 4441 e83e fe53 153f c3f6 033f ce13 d33e
000002b0: a2a2 153f ce98 013f 0187 f93e 4c0d c73e
000002c0: 59e3 6fbd dafe c0bd 36c7 3b3f 44f2 8ebd
000002d0: f4dd de3e f315 e73e fab8 063f 4307 bdbd
000002e0: fe7d db3e 2c4b 80bd 1691 d03e b970 0b3f
000002f0: 9f2c f13e cd8f bfbd e12b 2c3f c020 233e
00000300: d07e a0bd 8cc7 d63e e56c b6bd 52a7 563e
00000310: 4205 033f db9c 273d d4f9 fe3e 0b56 ca3e
00000320: 9c2f acbc b01e ec3e dc58 023f 0693 b7bd
00000330: 3135 6d3d 40aa 373f 8062 da3e 11c8 bd3e
00000340: 3cc2 dd3e c467 eb3e bc9b aabb 0c9b 183f
00000350: 2c14 b43e 1e3b cd3e ac15 183f 2c6e 043f
00000360: 844d d43e 1f75 263f 2be0 e43e 1a58 ef3e
00000370: c798 cb3e c0b0 e53e 1771 9abd 76d6 b73e
00000380: 17bd e23e 0ce0 bd3e 10c6 0b3f a0f0 1abc
00000390: 23d0 8c3e af2d 463f 537a 123f 4f7b a5bc
000003a0: d7b8 7bbd c918 453f a057 093f c0c9 6a3e
000003b0: 314e 5fbd 2ee6 65bd 2b86 23b9 90b2 d93e
000003c0: 507d ea3e 12c3 9c3d 89ad d63e e708 4e3f
000003d0: cf62 ec3e 07f6 1a3f f72a 063f 986a 0e3f
000003e0: e4ee f33e c52d ec3e c35e 4d3e 2912 ab3e
000003f0: 91d0 f7bc 8d4e 593f c856 443f b721 fe3e

fc2.weight f4 [1, 256]
-0.0036479896 -0.8405384 -0.048761606 -0.6935267 0.30550793 -0.77622026 -0.5659437 -0.8073696
-0.75968003 0.5640294 0.54273176 0.47297543 -0.04603731 -0.8417289 0.541449 0.4779705
0.58237416 -0.79569393 0.48344404 -0.032093775 0.5788574 -0.03880699 0.47672588 0.5904465
0.32486597 0.58977646 0.58338374 -0.72974515 0.368198 0.50125563 -0.011043663 0.49290127
-0.035236895 0.5728365 -0.05334013 -0.78949773 0.5855842 -0.7964529 -0.04625152 0.55836177
-0.7651102 0.5206679 -0.003024075 0.45170003 0.5570245 0.5260743 0.18632282 0.48418933
-0.046333417 0.5238375 -0.5004486 0.006370552 0.5019305 -0.8665938 0.5939707 0.5264341
0.23921163 0.55827445 0.49990347 -0.0390421 0.55345154 0.5004871 0.5256752 0.5043497
-0.6979113 0.54215366 -0.018038893 0.543447 0.51184404 -0.055539608 -0.57876974 -0.52837706
0.55554265 0.6078507 -0.047217723 0.56160367 0.56307465 0.554467 0.047252093 0.5755353
0.54707885 0.037141673 0.4963709 0.5116034 0.42235076 0.50987154 0.54098415 0.3480249
0.5619505 0.59425426 -0.026491046 0.5432884 -0.73227906 0.5789324 0.53482825 -0.04682232
0.49454832 0.5879477 0.556049 -0.019767417 0.54657555 0.04412234 0.5524936 -0.6683409
-0.051316097 -0.0033691323 -0.04317356 -0.122697905 0.55426073 0.27731478 -0.013318475 0.0017973408
0.5269081 0.49866226 0.51140785 0.5754145 -0.016974106 0.5251803 0.512677 0.52330136
0.57047474 0.04906428 0.53089017 0.53108376 0.5112055 -0.015319116 0.56336325 0.5224591
0.47789347 -0.045669638 0.6090114 0.5027501 0.5740301 -0.02131157 0.048635818 0.0015586297
-0.04710758 0.47887757 0.60225415 -0.055640556 0.5704436 -0.04854974 0.49031088 -0.05504785
0.53743345 0.42175663 -0.74654686 0.36516127 -0.68775743 0.5655528 -0.021521598 0.5235068
0.49484208 0.042358987 0.2953 0.5530393 0.58453137 0.5038488 -0.023796426 -0.82243985
0.54747164 0.16330205 0.49225715 -0.73877627 0.4993262 -0.008554815 -0.822968 -0.7714424
0.50000656 0.508654 0.5056256 0.52250427 0.4920126 0.4813161 0.5312481 0.55653435
-0.007566928 -0.038751453 -0.81223977 0.035051182 0.5439336 0.59857905 -0.59156287 -0.03810595
0.52579087 0.022019364 0.5971075 0.5244356 0.46960607 0.0075770244 -0.7643914 -0.2574993
-0.0115794875 0.57174987 -0.053608507 0.3617437 0.57585394 -0.01817635 0.5392012 0.50687927
-0.031345055 0.56937325 0.5575078 -0.0010519387 -0.18076897 -0.7007177 0.4323668 0.5836388
0.5149978 0.49223384 -0.031873982 -0.6135439 0.52873486 0.54665655 0.5016797 0.5265294
0.43319735 -0.75667906 0.5281015 0.49062634 0.56889415 0.49992606 -0.030025257 0.53568816
0.5524673 0.5290848 0.536855 -0.022875628 0.25499713 -0.8895375 0.53532654 -0.04684032
0.043033145 -0.8025582 0.51278496 0.392805 -0.0389395 -0.01836099 -0.03238494 0.5538981
0.5479184 0.11440491 0.5630461 -0.76607376 0.5579056 0.47742525 0.47658658 0.5480809
0.5854079 0.5540288 0.26250264 -0.4479713 -0.029547067 -0.86145234 -0.7920383 0.57557756
00000000: 1c13 6fbb 862d 57bf 40ba 47bd f78a 31bf
00000010: 896b 9c3e 5fb6 46bf b0e1 10bf c6af 4ebf
00000020: 647a 42bf 3b64 103f 78f0 0a3f d629 f23e
00000030: 9e91 3cbd 8c7b 57bf 679c 0a3f 8db8 f43e
00000040: 7916 153f 99b2 4bbf fa85 f73e c374 03bd
00000050: 0030 143f 14f4 1ebd 6a15 f43e 8027 173f
00000060: d554 a63e 97fb 163f a358 153f 94d0 3abf
00000070: 7384 bc3e 4a52 003f 7bf0 34bc 8e5d fc3e
00000080: 9054 10bd 6aa5 123f 2e7b 5abd 861c 4abf
00000090: d9e8 153f 56e4 4bbf 3c72 3dbd ccf0 0e3f
000000a0: 43de 43bf 7e4a 053f 8f2f 46bb 3a45 e73e
000000b0: 2899 0e3f ceac 063f 69cb 3e3e aae7 f73e
000000c0: 1cc8 3dbd 371a 063f 661d 00bf 10c0 d03b
000000d0: 847e 003f 17d9 5dbf 770e 183f 63c4 063f
000000e0: e5f3 743e 13eb 0e3f 59f3 ff3e 9cea 1fbd
000000f0: 00af 0d3f ec1f 003f a692 063f 101d 013f
00000100: 51aa 32bf 95ca 0a3f 4dc6 93bc 581f 0b3f
00000110: 3608 033f 807d 63bd 412a 14bf b843 07bf
00000120: 0b38 0e3f 1a9c 1b3f 5f67 41bd 42c5 0f3f
00000130: a925 103f 8df1 0d3f 698b 413d 4856 133f
00000140: 5c0d 0c3f de21 183d 5424 fe3e 71f8 023f
00000150: 5c3e d83e f186 023f f07d 0a3f 5230 b23e
00000160: fddb 0f3f 0c21 183f c003 d9bc f314 0b3f
00000170: a476 3bbf ea34 143f 81ea 083f c3c8 3fbd
00000180: 7035 fd3e be83 163f 3a59 0e3f 47ef a1bc
00000190: 60ec 0b3f a0b9 343d 3870 0d3f 6418 2bbf
000001a0: d430 52bd a9cc 5cbb c2d6 30bd 0a49 fbbd
000001b0: 08e4 0d3f 34fc 8d3e bc35 5abc c094 eb3a
000001c0: 73e3 063f a950 ff3e a0eb 023f 5d4e 133f
000001d0: 480d 8bbc 3772 063f cd3e 033f 14f7 053f
000001e0: a20a 123f a0f7 483d 6be8 073f 1bf5 073f
000001f0: 5dde 023f 08fd 7abc 9338 103f e1bf 053f
00000200: 74ae f43e 1610 3bbd 2ce8 1b3f 3bb4 003f
00000210: a3f3 123f 9a95 aebc 5a36 473d ef4a cc3a
00000220: e1f3 40bd 712f f53e 542d 1a3f 5ae7 63bd
00000230: 9708 123f 18dc 46bd 070a fb3e db79 61bd
00000240: 3d95 093f 7cf0 d73e b21d 3fbf 6bf6 ba3e
00000250: df10 30bf 11c8 103f 104e b0bc 8b04 063f
00000260: f15b fd3e 9e80 2d3d 9031 973e fc93 0d3f
00000270: d9a3 153f 3cfc 003f b9f0 c2bc 6b8b 52bf
00000280: 1a27 0c3f a738 273e 2109 fc3e 7120 3dbf
00000290: afa7 ff3e 7f29 0cbc 08ae 52bf 407d 45bf
000002a0: 6e00 003f 2637 023f ae70 013f d7c2 053f
000002b0: 13e9 fb3e 106f f63e e0ff 073f 0979 0e3f
000002c0: fef3 f7bb d8b9 1ebd f2ee 4fbf d491 0f3d
000002d0: 3b3f 0b3f 7a3c 193f aa70 17bf fc14 1cbd
000002e0: 3b9a 063f f461 b43c 0adc 183f 6941 063f
000002f0: 3570 f03e b048 f83b 28af 43bf f3d6 83be
00000300: e4b7 3dbc 335e 123f 9894 5bbd 7836 b93e
00000310: 2a6b 133f 92e6 94bc 1709 0a3f d7c2 013f
00000320: ac63 00bd 72c2 113f d5b8 0e3f 35e1 89ba
00000330: 801b 39be 3c62 33bf 2e5f dd3e 5a69 153f
00000340: e5d6 033f 1306 fc3e 4b8e 02bd 3711 1dbf
00000350: 2b5b 073f aff1 0b3f 156e 003f a1ca 063f
00000360: 0bcc dd3e b8b5 41bf a931 073f 6033 fb3e
00000370: 0ca3 113f 4ff6 ff3e 87f7 f5bc dc22 093f
00000380: 7f6e 0d3f 1a72 073f 546f 093f ab65 bbbc
00000390: fc8e 823e bbb8 63bf 290b 093f a3db 3fbd
000003a0: 8643 303d 7474 4dbf e045 033f bd1d c93e
000003b0: 067f 1fbd c969 96bc 12a6 04bd 44cc 0d3f
000003c0: 6144 0c3f 1f4d ea3d ca23 103f 691d 44bf
000003d0: e7d2 0e3f 1571 f43e 2803 f43e 084f 0c3f
000003e0: 4bdd 153f d5d4 0d3f bf66 863e 7f5c e5be
000003f0: b10c f2bc 2488 5cbf 06c3 4abf 0d59 133f
