model_epoch_1500.pth (torch, 141274 bytes, 15 tensors)

target_net.fc1.weight f4 [64, 36]
0	0x3dcced80	0.10006237
1	0x3d661bf0	0.056178987
2	0x3c3b51d6	0.011433085
3	0xbcef276c	-0.029193603
4	0x3d35f56c	0.044423506
5	0xbb5ec907	-0.0033994333
6	0xbce7278b	-0.028217098
7	0x3de5ff2b	0.1123031
8	0x3d56d5db	0.052450042
9	0xbbe9236b	-0.007114818
10	0xbdc4897c	-0.095965356
11	0xbdf4b6df	-0.119489424
12	0xbdf12b0b	-0.11775788
13	0x3db39e9b	0.08770486
14	0xbd4e9500	-0.050435066
15	0x3d91413f	0.07092523
16	0x3c9bc040	0.01901257
17	0xbe2e1893	-0.17001562
18	0xbd16d0e0	-0.036820292
19	0xbd8bccce	-0.06826173
20	0xbe272598	-0.16322935
21	0x3d192790	0.037391245
22	0x3dca698e	0.09883414
23	0xbd3b8aed	-0.045786787
24	0x3cfe3700	0.031032085
25	0xbcecbea0	-0.02889949
26	0xbda3b086	-0.079926535
27	0x3c1a0f6b	0.00940309
28	0x3dfb2ff0	0.12265003
29	0xbe0e0291	-0.13868167
30	0x3e194b23	0.14970069
31	0xbd775b66	-0.0603899
32	0x3d0bf9b6	0.03417369
33	0x3c240300	0.010010481
34	0xbd56fc0b	-0.05248646
35	0xbcfa63ca	-0.030565161
36	0x3e148888	0.14505208
37	0x3dc0cbd6	0.094138786
38	0xbd3cf636	-0.046133243
39	0xbd8ba167	-0.068178944
40	0xbd91f2b0	-0.07126367
41	0x3e04cca4	0.12968689
42	0x3e06d8af	0.13168596
43	0x3e1f8c57	0.15580879
44	0x3d26070b	0.04053406
45	0xbc838f25	-0.016059468
46	0xbd8327cc	-0.06404075
47	0xbcd0f572	-0.025507662
48	0x3dd5c0ee	0.10437189
49	0xbe0205d4	-0.12697536
50	0x3e01a986	0.12662324
51	0x3d561ff0	0.05227655
52	0xbb54d2b8	-0.003247423
53	0x3decdb29	0.11565239
54	0xbd5c97f0	-0.053855836
55	0x3d2a6d16	0.04160794
56	0x3e2451fc	0.160469
57	0xbe276957	-0.16348778
58	0x3d8d97fe	0.06913756
59	0x3d6f5af4	0.05843635
60	0xbd747210	-0.05967909
61	0xbd08f410	-0.03343588
62	0x3e0fdfec	0.14050263
63	0x3dc70f18	0.09719676
64	0x3c901220	0.017586768
65	0xbda311d7	-0.07962387
66	0xbc9c3b00	-0.019071102
67	0x3d66198b	0.056176703
68	0xbc4729d6	-0.012155971
69	0x3e1fda23	0.15610556
70	0xbdfb4efe	-0.12270926
71	0xbe14f290	-0.14545655
72	0x3e0b6216	0.13611636
73	0x3d372b90	0.04471928
74	0x3d154980	0.03644705
75	0x3dba3dff	0.09093856
76	0xbdaa1624	-0.08305004
77	0xbc52968e	-0.012853278
78	0x3ceeeb60	0.02916497
79	0x3e23faaa	0.1601359
80	0xbd3d89ab	-0.04627387
81	0x3d82f111	0.06393636
82	0x3d63fb45	0.05565955
83	0xbda8bbac	-0.082389206
84	0x3beb74ab	0.0071855388
85	0xbdb20d98	-0.08693999
86	0xbddedcf3	-0.108819865
87	0x3da62eca	0.08114393
88	0x3d9042ca	0.07043989
89	0x3de293e1	0.11063362
90	0x3d16fa6b	0.03685991
91	0xbda8dad6	-0.08244865
92	0x3e1fd65a	0.15609112
93	0x3c45992b	0.012060444
94	0x3cba45a0	0.022738278
95	0xbd43c7a9	-0.047797833
96	0x3df9ceab	0.12197622
97	0xbd9c5133	-0.07632675
98	0x3da1d648	0.07902199
99	0xbd64f046	-0.055893205
100	0xbe00cda8	-0.12578452
101	0xbc9e8576	-0.019350749
102	0xbe170a63	-0.14750056
103	0xbdb2d9a8	-0.08732921
104	0x3c5ee300	0.013603926
105	0x3d284aa0	0.041086793
106	0xbe0af793	-0.13571005
107	0xbdb372c3	-0.087621234
108	0x3d941528	0.07230598
109	0xbdc40a13	-0.09572234
110	0xbe1dc824	-0.15408379
111	0xbd944f0e	-0.07241641
112	0x3d08b1d2	0.033372708
113	0xbdd68bd3	-0.10475888
114	0x3e102fca	0.1408073
115	0xbd397d20	-0.045285344
116	0x3d118c5b	0.035534244
117	0x3d877edd	0.06615994
118	0xbdea6e04	-0.11446765
119	0x3e48156f	0.19539426
120	0xbcb0f28b	-0.021600028
121	0xbe284f30	-0.16436458
122	0x3e09f5ac	0.13472623
123	0x3cf5003d	0.02990734
124	0x3dd44755	0.10365168
125	0x3ca84650	0.02054134
126	0x3de83566	0.1133831
127	0x3c287056	0.010280689
128	0xbb8d8f2b	-0.0043200455
129	0x3b32ae00	0.0027264357
130	0x3e017a44	0.12644297
131	0xbcca488b	-0.024692794
132	0x3d2f1996	0.04274901
133	0x3dbd7a46	0.092518374
134	0x3e1ce8af	0.15323137
135	0x3e161aa3	0.14658599
136	0xbdb5a4c6	-0.08869319
137	0xbcae3883	-0.021267181
138	0xbcfa72f6	-0.030572396
139	0xbe18283a	-0.14859095
140	0xbd839fa6	-0.06426935
141	0xbc8e3236	-0.017357927
142	0xbda8bb16	-0.08238809
143	0xbdd499be	-0.103808865
144	0xbd56c386	-0.05243256
145	0xbcc104c0	-0.023561835
146	0xbd51f246	-0.05125644
147	0xbd83d8c9	-0.06437833
148	0x3de41002	0.11135866
149	0x3e097581	0.1342373
150	0xbca6c856	-0.0203592
151	0xbc4e9596	-0.012608906
152	0xbd1d90a0	-0.038468003
153	0xbd48d79a	-0.04903374
154	0x3e2073ed	0.15669222
155	0xbd90d124	-0.070711404
156	0xbe07dd36	-0.13267979
157	0xbd4e9506	-0.05043509
158	0x3e168bff	0.14701842
159	0xbe47c382	-0.19508174
160	0x3d3db358	0.046313614
161	0xbdbad4fd	-0.091226555
162	0x3e199617	0.14998661
163	0x3d828620	0.063732386
164	0xbd9b7aae	-0.07591759
165	0xbd4857e0	-0.04891193
166	0xbd2a4610	-0.041570723
167	0x3e1a1101	0.15045549
168	0x3c8bce40	0.017066121
169	0x3c9a3700	0.018825054
170	0xbd975d73	-0.07390871
171	0x3dd5fb8e	0.10448371
172	0xb95ae000	-0.00020873547
173	0x3e2613d4	0.16218501
174	0x3e1e4c90	0.15458894
175	0x3e070c0f	0.13188194
176	0x3d0ac070	0.03387493
177	0xbd2852b0	-0.041094482
178	0x3dfd60f0	0.12372005
179	0xbdf08085	-0.11743263
180	0xbcc1adf6	-0.023642521
181	0xbdd5cb43	-0.1043916
182	0x3c5cba96	0.01347222
183	0xbd91b680	-0.07114887
184	0xbd9f3383	-0.07773497
185	0x39ce9bf0	0.00039407564
186	0xbb6c96ab	-0.0036100547
187	0x3e01a8c0	0.1266203
188	0xbdea497e	-0.11439799
189	0x3cdf6873	0.027271485
190	0x3d9fc094	0.07800403
191	0x3d3188c1	0.04334331
192	0x3e11738e	0.14204237
193	0x3e1b0b44	0.15141016
194	0xbde44d53	-0.11147561
195	0xbd9bf4d2	-0.07615055
196	0x3e2b033e	0.16700456
197	0xbdbab825	-0.09117154
198	0xbe1ba5eb	-0.15200011
199	0xbdf38a6e	-0.11891638
200	0x3d5f18e6	0.054467104
201	0x3b1ee800	0.002424717
202	0xbd25b466	-0.040455244
203	0x3d619dfb	0.055082303
204	0xbdb2ff8b	-0.08740147
205	0x3dd797e0	0.10527015
206	0xbcd4770b	-0.02593567
207	0x3d86608e	0.06561385
208	0xbe161002	-0.14654544
209	0xbdd2f67c	-0.103009194
210	0x3d17570b	0.036948245
211	0x3c2c72c0	0.010525405
212	0xbd96d0d6	-0.07364051
213	0x3dd5f2e8	0.10446721
214	0x3c86f360	0.016473472
215	0xbe5409ad	-0.20706816
216	0xbc3eb156	-0.01163896
217	0x3e02d607	0.12776957
218	0xbdb6e39b	-0.08930131
219	0xbc4bebbe	-0.012446342
220	0xbe0a2e40	-0.13494205
221	0x3e54470a	0.20730224
222	0xbdfc8908	-0.12330824
223	0x3dd4d3f3	0.103919886
224	0xbddc6c8b	-0.107628904
225	0x3de9bfdc	0.114135474
226	0x3dd0ddad	0.10198531
227	0x3d68c3be	0.0568273
228	0xbe208f52	-0.15679672
229	0xbdc3d9c8	-0.09563023
230	0x3d345026	0.044021748
231	0x3de057d9	0.109542556
232	0xbe0152bf	-0.12629221
233	0x3dad1a1b	0.08452245
234	0xbcd7a8f6	-0.026325684
235	0xbba76dab	-0.005109509
236	0x3d22a760	0.039710402
237	0x3d94eafb	0.072713815
238	0xbda0992b	-0.078417145
239	0x3d95a050	0.07305968
240	0xbde9b463	-0.11411359
241	0xbdbdd49e	-0.09269069
242	0xbbe2ca00	-0.006921053
243	0xbe1727ee	-0.14761326
244	0xbd64f630	-0.055898845
245	0xbe0474e9	-0.12935223
246	0x3dca4aa3	0.09877517
247	0xbd48bf70	-0.049010694
248	0x3e0d5dc2	0.13805297
249	0x3d6fa9f6	0.058511697
250	0xbc332100	-0.010933161
251	0xbd9e1888	-0.07719523
252	0x3df1d1d8	0.11807603
253	0x3ddf190b	0.108934484
254	0xbe10465c	-0.1408934
255	0x3db45761	0.08805729

target_net.fc1.bias f4 [64]
0	0x3c069b9c	0.008215811
1	0x3d00e0fb	0.031464558
2	0xbe01b95e	-0.12668368
3	0xbd3c5551	-0.0459798
4	0xbcb86ca7	-0.022512747
5	0xbe4e96ea	-0.20174757
6	0xbc4c1408	-0.012455948
7	0x3d0d24c4	0.03445889
8	0xbe12f4d8	-0.14351213
9	0x3de4b1eb	0.11166748
10	0x3d6e1905	0.05812933
11	0x3e178200	0.14795685
12	0x3df0fa95	0.11766545
13	0xbd9464fc	-0.07245824
14	0x3e1d983e	0.15390107
15	0xbdc27e6c	-0.09496769
16	0xbe17b149	-0.14813723
17	0xbe408439	-0.18800439
18	0x3dfb4b4a	0.122702196
19	0xbddb9458	-0.10721654
20	0xbe1a3bb0	-0.15061831
21	0xbe29e014	-0.16589385
22	0x3df32ae9	0.11873419
23	0xbdf466c8	-0.119336665
24	0xbd52998f	-0.051415976
25	0xbd65b88a	-0.056084193
26	0x3e25103e	0.16119477
27	0xbcb0c045	-0.021576056
28	0xbe1ecd54	-0.15508014
29	0x3e63b730	0.22237849
30	0x3d91ad83	0.07113173
31	0xbdf773d7	-0.120826416
32	0xbd819619	-0.06327457
33	0xbce0299b	-0.027363589
34	0x3c89dfa7	0.016830279
35	0xbdb9d3aa	-0.09073575
36	0x3dccd14a	0.10000856
37	0x3de28513	0.11060538
38	0xbe4f4ec6	-0.20244893
39	0x3c23cc3e	0.009997426
40	0xbe29bf6f	-0.16576932
41	0xbb0a2899	-0.0021081327
42	0xbe0dea63	-0.13858943
43	0xbe0a9bf4	-0.13536054
44	0x3e180835	0.1484688
45	0x3b8f67e4	0.0043763984
46	0xbd92964a	-0.071575716
47	0xbe149801	-0.1451111
48	0x3cb32404	0.02186776
49	0xbe1d84a8	-0.15382636
50	0xbe1990a0	-0.14996576
51	0xbd41e68c	-0.047339007
52	0x3d25069e	0.040289514
53	0xbce8cc34	-0.028417684
54	0x3d65c0e0	0.056092143
55	0x3d30f794	0.04320486
56	0xbe2af443	-0.16694741
57	0xbbaf8720	-0.0053566843
58	0xbb2c7a53	-0.0026318028
59	0x3cd0b863	0.025478547
60	0xbe05cec5	-0.13067158
61	0xbd42da9c	-0.047571763
62	0x3e3e0f33	0.18560486
63	0xbdae074e	-0.08497487

target_net.fc2.weight f4 [3, 64]
0	0xbd0ad845	-0.033897657
1	0xbd6d9a7a	-0.05800865
2	0xbd12201b	-0.03567515
3	0xbd285caf	-0.041104015
4	0x3cbfae5b	0.023398569
5	0xbd1b8225	-0.037965912
6	0x3d5d2104	0.053986564
7	0xbc800d46	-0.01563133
8	0xbdc5ccd0	-0.096582055
9	0x3deaf343	0.1147218
10	0xbda0158e	-0.07816611
11	0xbc23dc3b	-0.0100012375
12	0xbdbf8533	-0.093515776
13	0x3bd9234b	0.0066265217
14	0xbdd44f95	-0.103667416
15	0x3d8affc8	0.06787068
16	0x3d95f4f3	0.07322111
17	0x3bbc33ba	0.005743471
18	0xbc4235b9	-0.011853629
19	0x3c783819	0.0151500935
20	0xbd6415d8	-0.055684894
21	0x3dd4e1a3	0.10394599
22	0xbda6cb29	-0.081442185
23	0xbc3655c4	-0.011128847
24	0xbd770a6a	-0.060312666
25	0xbd2edc55	-0.042690594
26	0xbc54f847	-0.012998647
27	0x3d69a99a	0.05704651
28	0x3d804ea7	0.06265002
29	0xbdd24130	-0.1026634
30	0xbd77720c	-0.060411498
31	0x3d1be454	0.038059548
32	0xbcf3b684	-0.029750116
33	0x3daf47e1	0.08558632
34	0x3d6b8556	0.057500206
35	0x3a7a65d5	0.00095519173
36	0xbd8f8311	-0.07007421
37	0xbdf1cc5c	-0.118065566
38	0x3dfb1807	0.12260442
39	0x3ce5d302	0.028054718
40	0x3d6f3116	0.05839642
41	0xbd9abf28	-0.075559914
42	0x3cfae4d0	0.030626684
43	0x3d989477	0.074501924
44	0xbd0f2c03	-0.034954082
45	0x3d97ef5e	0.074187025
46	0x3d114ddb	0.03547464
47	0x3cc38ad8	0.023869917
48	0x3cb74cf4	0.022375561
49	0xbd01f800	-0.03173065
50	0xbce151a0	-0.027504742
51	0xbd89e432	-0.06732978
52	0xbdeac8d7	-0.114640884
53	0xbdd9803e	-0.106201634
54	0xbd997167	-0.07492333
55	0x3d9aadb0	0.075526595
56	0x3ce4b63a	0.027918924
57	0x3cc76beb	0.024343451
58	0x3da423d6	0.08014648
59	0xbe12295c	-0.1427359
60	0xbd2ec0e0	-0.04266441
61	0x3cf3955d	0.029734308
62	0xbe5ecba9	-0.21757378
63	0x3d44eb40	0.048075914
64	0xbd744b5c	-0.05964218
65	0xbd4849c2	-0.048898466
66	0x3da3651e	0.07978271
67	0xbd303ac7	-0.043024804
68	0x3daed914	0.08537498
69	0xbdcc0447	-0.09961753
70	0x3da88947	0.082293086
71	0x3dd88fd2	0.105743065
72	0xbc414050	-0.011795118
73	0xbd999d4c	-0.07500705
74	0x3defab91	0.117026456
75	0x3e34f9e8	0.17673457
76	0x3d54a8ea	0.0519189
77	0x3d4f5d08	0.05062583
78	0x3d920f1b	0.071317874
79	0xbce88fd1	-0.02838889
80	0xbc31954d	-0.010838819
81	0x3dda8943	0.10670712
82	0x3c86a257	0.016434832
83	0x3cbcd44c	0.02305045
84	0x3db19f43	0.08672955
85	0x3cd61d91	0.026137145
86	0xbda7a75b	-0.081862174
87	0x3cb6a46f	0.022295205
88	0x3cecda2d	0.028912628
89	0xbdecf903	-0.11570933
90	0x3dc944ab	0.098275505
91	0x3e153b7e	0.14573476
92	0xbcc20aca	-0.023686785
93	0x3d3148c1	0.043282274
94	0xbd3f4d33	-0.046704482
95	0xbaf44962	-0.0018637592
96	0x3df190da	0.11795206
97	0xbc37d7eb	-0.011220912
98	0xbccb2558	-0.02479808
99	0x3d0bbd3a	0.034116007
100	0x3cd1fa31	0.025631996
101	0x3d58a8ae	0.05289524
102	0xbd858a87	-0.065205626
103	0xbd747e31	-0.059690658
104	0x3cd9867d	0.026553387
105	0x3dabf520	0.08396363
106	0xbd873d30	-0.066034675
107	0x3d50a501	0.05093861
108	0x3df2c254	0.118534714
109	0x3d88c736	0.066786215
110	0x3de19b67	0.11015969
111	0xbc667304	-0.014065508
112	0x3d29b145	0.041428823
113	0x3d9d8c9d	0.076928355
114	0xbdf140d4	-0.11779943
115	0x3bde4ea4	0.006784277
116	0xbd304253	-0.043032
117	0xbd98ff6c	-0.07470593
118	0xbd002fef	-0.031295713
119	0xbc84790d	-0.016171003
120	0xbd8cc3da	-0.06873293
121	0xbd370274	-0.044680074
122	0xbcb0606c	-0.021530353
123	0x3d5f14ad	0.054463077
124	0xbc342fb2	-0.0109977
125	0xbd9b8e2d	-0.07595477
126	0xbb802341	-0.0039104526
127	0x3c832d10	0.016012698
128	0xbdbbd880	-0.091721535
129	0xbd67e915	-0.05661877
130	0xbd4f9393	-0.050677847
131	0xbc095d6b	-0.008384089
132	0xbda43162	-0.080172315
133	0x3d42feb5	0.04760619
134	0xbdcd9fc4	-0.100402385
135	0xbb899173	-0.004198247
136	0x3d82a9ba	0.06380029
137	0x3dbde1ad	0.0927156
138	0x3e281844	0.16415507
139	0xbd4f8d3c	-0.0506718
140	0x3afdc772	0.0019361807
141	0x3df54ac2	0.119771495
142	0xbd50ee2c	-0.05100839
143	0xbd0ebcce	-0.034848027
144	0xbd2f7717	-0.042838182
145	0x3bea0584	0.007141771
146	0x3d4de853	0.05027039
147	0x3bbe6b68	0.0058111437
148	0xbdf68da2	-0.12038733
149	0xbd7c01d2	-0.061525173
150	0x3dabd12b	0.08389505
151	0xbdb9cce0	-0.0907228
152	0x3b856f9e	0.0040721437
153	0x3d9d8b86	0.076926276
154	0x3dbe3edc	0.09289333
155	0xbd149781	-0.036277298
156	0xbd5d1b1a	-0.053980924
157	0x3e27f4c2	0.16401961
158	0x3dd22585	0.102610625
159	0x3e16255f	0.14662693
160	0xbdb78bb6	-0.089621946
161	0x3d10df4d	0.035369206
162	0x3de46ef5	0.11153976
163	0xbd839843	-0.06425526
164	0xbcf1a606	-0.029498111
165	0x3c92b815	0.017910043
166	0x3d29dc3d	0.0414698
167	0xbdb19d36	-0.08672564
168	0xbcc0c2c5	-0.023530373
169	0xbdc72e3e	-0.09725617
170	0xbcf673b4	-0.030084468
171	0x3e059ad0	0.13047338
172	0x3db5e6a4	0.08881882
173	0xbd0122ba	-0.03152726
174	0xbd54b1b0	-0.05192727
175	0x3dd74ae0	0.10512328
176	0x3d0a10a8	0.03370729
177	0x3c7de33d	0.015496072
178	0x3db506c5	0.08839182
179	0xbcfd72b0	-0.030938476
180	0xbdde187f	-0.10844516
181	0xbc49e32e	-0.01232223
182	0x3d63c206	0.055604957
183	0x3ddfe156	0.10931651
184	0xbe028616	-0.12746462
185	0xbdcae336	-0.09906618
186	0x3daa811d	0.08325408
187	0x3dcabf09	0.09899718
188	0xbdda4e46	-0.10659461
189	0xbdc34b1e	-0.09535812
190	0x3db4484a	0.088028505
191	0x3c061e50	0.008185938

target_net.fc2.bias f4 [3]
0	0xbcb1eb01	-0.021718504
1	0x3cb63eb0	0.022246689
2	0x3d67ec29	0.056621704

tatic_net.fc1.weight f4 [64, 42]
0	0x3e12307b	0.14276306
1	0xbd1dcabf	-0.038523432
2	0x3bf0c38d	0.00734753
3	0xbe0d0f45	-0.13775356
4	0x3d2902a1	0.041262273
5	0xbe132757	-0.14370476
6	0xbd32bc13	-0.043636393
7	0xbdd78c36	-0.1052479
8	0x3dbc5ec5	0.09197763
9	0x3e01402d	0.12622137
10	0xbdc78c13	-0.09743514
11	0x3c8084fe	0.015688416
12	0xbe000669	-0.12502445
13	0x3dffcbe0	0.12490058
14	0x3db9dfd6	0.090758964
15	0xbdf8120e	-0.12112819
16	0xbe228011	-0.15869166
17	0x3dc3ab04	0.09554103
18	0x3c63aa9e	0.013895659
19	0xbddeac56	-0.10872714
20	0x3e1d3df6	0.15355667
21	0xbdc0c089	-0.09411723
22	0xbd446503	-0.047947895
23	0x3e245ee9	0.1605183
24	0xbe167791	-0.14694048
25	0x3dbc6c20	0.09200311
26	0xbd9218cf	-0.07133638
27	0xbdca9ebe	-0.09893559
28	0x3d9cc24d	0.076542474
29	0xbd5382a0	-0.051638246
30	0x3d06539a	0.032794572
31	0x3dfba9a0	0.12288213
32	0xbc5a0661	-0.013307185
33	0xbe198616	-0.14992556
34	0x3dd25815	0.102707066
35	0x3de86f00	0.113492966
36	0xbdd27eb3	-0.10278072
37	0x3d14fc23	0.03637327
38	0x3d36e7c9	0.04465464
39	0x3d8ba418	0.06818408
40	0x3dae8696	0.08521764
41	0xbd28a037	-0.041168418
42	0xbdfccea1	-0.12344099
43	0x3e15ce1a	0.14629403
44	0xbd621fb2	-0.05520601
45	0x3df29e04	0.11846545
46	0xbca06035	-0.019577125
47	0x3db5e6e3	0.08881929
48	0x3e0e1b43	0.13877587
49	0xbd194a7d	-0.037424553
50	0xbc21c654	-0.009873945
51	0xbcb00009	-0.021484392
52	0x3d991db1	0.07476366
53	0x3dba3359	0.09091825
54	0xbdad5c38	-0.08464855
55	0xbc9005bf	-0.017580865
56	0xbda9c7c4	-0.082900554
57	0xbdfbb6cd	-0.12290726
58	0x3d860376	0.06543629
59	0x3dc91c39	0.09819836
60	0x3db07906	0.086168334
61	0x3d92ad60	0.07161975
62	0xbd184cf3	-0.03718276
63	0x3d08cda3	0.033399235
64	0x3e1d4c7a	0.15361205
65	0xbd0b5525	-0.034016747
66	0xbdb53643	-0.0884824
67	0x3df17c28	0.11791259
68	0x3daf4c62	0.08559491
69	0x3c15dc36	0.009146741
70	0xbe04f634	-0.12984544
71	0xbbab235b	-0.0052227206
72	0xbdc1de1f	-0.09466194
73	0x3d27e394	0.04098852
74	0xbe1729a4	-0.14761978
75	0xbdf499b6	-0.119433805
76	0xbd1cd51e	-0.038289182
77	0x3e04792e	0.12936851
78	0xbe05bd7a	-0.13060561
79	0xbd60e192	-0.05490262
80	0xbe160601	-0.14650728
81	0x3dcf0f0d	0.101102926
82	0xbca9d000	-0.020729065
83	0x3d8579c4	0.065173656
84	0x3d830536	0.06397478
85	0x3db2402c	0.08703646
86	0xbdf9dabe	-0.12199925
87	0xbe0699c4	-0.13144594
88	0xbe13b9c5	-0.14426334
89	0x3e561b6a	0.20908895
90	0x3d44d000	0.048049927
91	0x3dad94a3	0.08475616
92	0x3d862f08	0.06551939
93	0x3d39cbcc	0.04536037
94	0xbd49613c	-0.049164996
95	0x3d9369c3	0.07197907
96	0xbe198267	-0.14991151
97	0xbe0984bf	-0.13429545
98	0x3d98dae8	0.07463628
99	0xbdacfe65	-0.084469594
100	0x3e1dc6a2	0.15407804
101	0xbda8dbb9	-0.08245034
102	0x3d96a3b5	0.073554434
103	0xbdf66fd8	-0.12033051
104	0xbdb6fd84	-0.08935073
105	0xbd368aed	-0.044566084
106	0xbdff937d	-0.12479303
107	0xbd240f1b	-0.04005347
108	0x3d5615d5	0.052266914
109	0x3ccab8a8	0.024746254
110	0xbd7ad26e	-0.061235838
111	0x3dcdd056	0.100495026
112	0xbc8f2d24	-0.01747758
113	0x3db71651	0.089398034
114	0xbe0f236e	-0.13978359
115	0x3ba6ca0e	0.0050900048
116	0x3d233fcb	0.03985576
117	0x3d46880e	0.048469596
118	0xbe0a22b8	-0.13489807
119	0x3cea73a9	0.028619604
120	0x3d3ec9e0	0.04657924
121	0xbe15b789	-0.14620794
122	0xbe18da0b	-0.14926927
123	0x3dc5aa32	0.09651603
124	0xbe145063	-0.1448379
125	0xbb5ff141	-0.0034170898
126	0xbe110c81	-0.14164926
127	0xbddde032	-0.108337775
128	0x3d903b6f	0.07042586
129	0x3e20e7c5	0.15713413
130	0x3d351983	0.044213783
131	0x3e423f1b	0.18969385
132	0xbe0ff596	-0.14058527
133	0xbdfabaeb	-0.12242683
134	0xbdfb7677	-0.12278455
135	0x3e14cc1b	0.14530985
136	0xbd2b0a46	-0.041757844
137	0x3d43225e	0.047640197
138	0x3d976c84	0.073937446
139	0xbe13ec44	-0.14445597
140	0x3dbae7ba	0.091262296
141	0xbe2cdb69	-0.16880573
142	0xbc6fd644	-0.014638487
143	0x3e029b83	0.12754636
144	0x3d9ba12f	0.07599103
145	0x3e1cd55e	0.15315768
146	0x3c5645c3	0.013078156
147	0x3d96be09	0.07360465
148	0xbdc05b37	-0.09392398
149	0x3e1170f3	0.14203243
150	0xbd8710e2	-0.06595017
151	0xbde41470	-0.11136711
152	0x3dd2d672	0.102948084
153	0xbd986d17	-0.07442682
154	0x3e10f5bf	0.14156245
155	0xbddbc0bc	-0.107301205
156	0x3cc09f1c	0.02351337
157	0xbd0b8515	-0.034062464
158	0x3da12be8	0.078697026
159	0xbcb58137	-0.022156341
160	0x3df8ce91	0.121487744
161	0xba2d48a8	-0.0006610253
162	0xbe0efe74	-0.13964254
163	0xbda3cb14	-0.079977185
164	0xbe3a90b0	-0.18219256
165	0x3dcc9ab5	0.099904455
166	0xbd950d7a	-0.07277961
167	0x3e1dee2d	0.15422888
168	0x3d52344b	0.0513194
169	0xbe02fd25	-0.1279188
170	0xbe0aba18	-0.13547552
171	0xbde73a89	-0.112904616
172	0x3d8d9c3d	0.06914566
173	0xbdbeb088	-0.093110144
174	0xbdd1c819	-0.10243244
175	0xbe1821f8	-0.14856708
176	0xbd13f0ae	-0.036118202
177	0xbda22a44	-0.07918218
178	0xbdb8470a	-0.089979246
179	0x3e184981	0.1487179
180	0xbcf3c888	-0.029758707
181	0xbda28542	-0.07935573
182	0xbd14c0da	-0.03631673
183	0xbdf9ec98	-0.1220333
184	0x3ba05f64	0.004894184
185	0x3e1a0b92	0.15043476
186	0xbd960216	-0.073246166
187	0x3cca6f21	0.024711194
188	0xbdd6c02f	-0.10485875
189	0x3d39b6b7	0.045340266
190	0xbdd59bf9	-0.1043014
191	0xbe251171	-0.16119935
192	0x3ddea1e5	0.10870723
193	0x3dda38e2	0.10655381
194	0x3dbbf2dd	0.09177182
195	0x3d4a1c22	0.049343236
196	0xbe114037	-0.14184652
197	0x3d08dd15	0.033413965
198	0x3d441f3f	0.04788136
199	0x3dcf67d3	0.10127225
200	0xbc3d859b	-0.011567499
201	0xbded44ce	-0.11585389
202	0xbc205ba3	-0.009787473
203	0x3db43386	0.0879889
204	0xbd468296	-0.04846438
205	0xbc084b7d	-0.008318779
206	0x3c354fc5	0.011066382
207	0xbbe9254f	-0.0071150432
208	0x3d01ad1d	0.031659234
209	0x3e1c3437	0.15254293
210	0x3d9d237e	0.07672785
211	0xbdf79fda	-0.12091036
212	0x3e159cd7	0.14610611
213	0x3bd0f783	0.006377162
214	0xbd3e3186	-0.046433948
215	0x3d27f2d8	0.04100308
216	0x3cad1aba	0.021130908
217	0x3d12f64d	0.035879422
218	0xbb1f854f	-0.0024340933
219	0x3daafc20	0.0834887
220	0xbdccb788	-0.09995943
221	0x3dd739c4	0.10509065
222	0x3d7d6238	0.061861247
223	0x3db632af	0.08896386
224	0x3d33fb23	0.043940675
225	0x3ccba7c6	0.024860274
226	0xbda41fe6	-0.08013897
227	0xbe2b0f39	-0.16705026
228	0x3dd1bf35	0.10241548
229	0xbdb25ac2	-0.08708717
230	0x3d7084ec	0.058720514
231	0x3c56794d	0.013090444
232	0xbdfe30b0	-0.1241163
233	0xbc1001a7	-0.008789456
234	0x3cdcd516	0.026957076
235	0x3d67ba86	0.056574367
236	0xbbdefafc	-0.006804822
237	0x3d1920ca	0.037384786
238	0xbdfe43f7	-0.12415307
239	0xbd421c35	-0.04739018
240	0x3e1dbf90	0.15405107
241	0x3e05e8e2	0.13077119
242	0xbd9cdf8d	-0.076598264
243	0x3e0bf760	0.13668585
244	0x3e0ccfa2	0.1375108
245	0x3c567dcb	0.013091515
246	0xbdd569dc	-0.10420582
247	0x3dd40d2a	0.10354073
248	0xbde6fbac	-0.11278471
249	0x3def63c4	0.11688951
250	0x3ca21c32	0.019788835
251	0xbe0526d7	-0.13003097
252	0x3dc60073	0.096680544
253	0x3dfdffd4	0.12402311
254	0x3db03936	0.08604662
255	0xbc0f6ddf	-0.008754223

tatic_net.fc1.bias f4 [64]
0	0x3dd10113	0.10205283
1	0xbd9d8dbe	-0.07693051
2	0x3d3cee6a	0.046125807
3	0x3db0d937	0.086351804
4	0x3ce594ca	0.02802505
5	0x3db10878	0.086441934
6	0xbd45a7d8	-0.04825577
7	0xbd924006	-0.07141118
8	0xbd93359d	-0.0718796
9	0x3ae64e27	0.0017570899
10	0x3d6c5299	0.05769596
11	0x3dd8a5db	0.105785094
12	0xbd9977d1	-0.07493556
13	0x3d25b4ad	0.04045551
14	0x3d685604	0.056722656
15	0x3de98e96	0.11404149
16	0xbd99cc44	-0.07509664
17	0x3ddb9830	0.10722387
18	0x3e16d17a	0.14728346
19	0x3dd9cb49	0.10634477
20	0x3d2f69d6	0.042825542
21	0x3df5efc6	0.12008624
22	0xbdc54cad	-0.09633765
23	0x3e0b371c	0.13595241
24	0xbd7eb046	-0.062179826
25	0xbd6d67ec	-0.057960436
26	0xbd84592c	-0.06462321
27	0xbb343fcc	-0.0027503846
28	0xbe0f6341	-0.14002706
29	0x3dfff4b4	0.12497845
30	0xbdbc7814	-0.092025906
31	0xbd858b91	-0.06520761
32	0x3e0bdb14	0.1365779
33	0xbdb030f4	-0.08603087
34	0x3db3afda	0.087737754
35	0xbd242331	-0.040072624
36	0x3be1e870	0.006894164
37	0xbd3c74d1	-0.046009842
38	0x3d55f375	0.05223413
39	0x3d81c286	0.063359305
40	0xbdb46058	-0.088074386
41	0xbddcbac7	-0.107778125
42	0x3d57a9e7	0.052652266
43	0x3e0eb381	0.13935663
44	0x3d9538ed	0.07286248
45	0x3e237867	0.15963899
46	0xbdf19811	-0.117965825
47	0x3ddba9b5	0.107257284
48	0x3d457b2a	0.04821316
49	0xbded1b52	-0.115774766
50	0xbe0c5af0	-0.13706565
51	0xbd40df51	-0.04708797
52	0xbd33f364	-0.043933287
53	0x3c214fc5	0.009845679
54	0xbcd8f03e	-0.026481744
55	0x3c943647	0.018092288
56	0x3e1b88b4	0.15188867
57	0x3d34e2ad	0.044161487
58	0x3d727c94	0.05920084
59	0x3da8dcfe	0.08245276
60	0x3c7d81f4	0.015472878
61	0xbdce33e5	-0.10068492
62	0xbde08488	-0.10962778
63	0xbda95d2c	-0.08269724

tatic_net.fc2.weight f4 [6, 64]
0	0x3d0847c8	0.03327158
1	0x3d82a666	0.06379394
2	0xbd771e68	-0.060331732
3	0x3d907f94	0.070555836
4	0xbd1744b0	-0.03693074
5	0x3c6d5760	0.014486164
6	0x3a416700	0.0007377714
7	0x3dc531fc	0.096286744
8	0x3da534ec	0.08066735
9	0xbdbc0198	-0.091799915
10	0x3dd9063a	0.10596891
11	0x3dc14322	0.09436633
12	0xbda64bae	-0.081199035
13	0x3cdae240	0.026719213
14	0xbd2f1e34	-0.042753413
15	0x3d9c6e72	0.07638253
16	0xbdf29d1a	-0.11846371
17	0xbdcba4da	-0.09943552
18	0xbc0f14c0	-0.0087329745
19	0x3d047404	0.032337204
20	0x3debd7c2	0.11515762
21	0xbddd935a	-0.10819121
22	0x3d9e3e9a	0.07726784
23	0xbbfa6960	-0.007641956
24	0xbc490dc0	-0.012271345
25	0xbdf7af72	-0.120940104
26	0x3de58180	0.11206341
27	0x3db2613c	0.08709952
28	0x3d5e98dc	0.054344997
29	0x3ca16bb8	0.019704685
30	0xbd0836ac	-0.033255264
31	0xbdc26f6e	-0.0949391
32	0xbdcf9f0c	-0.10137758
33	0x3d33248c	0.043736026
34	0xbc9b53b0	-0.018960804
35	0x3cac6738	0.021045312
36	0x3df0f3f4	0.1176528
37	0x3c010000	0.007873535
38	0x3c0c3860	0.008558363
39	0xbde1338c	-0.1099616
40	0xbdb48d0a	-0.088159636
41	0xbdcd9b08	-0.100393355
42	0xbc26e2f0	-0.010185942
43	0xbde6ec50	-0.11275542
44	0xbdf8a910	-0.12141621
45	0xbd4ee970	-0.050515592
46	0x3c4cfa70	0.012510881
47	0x3d72f74c	0.059317872
48	0x3d2e2260	0.04251325
49	0x3d7e1ff0	0.062042177
50	0xbda6a986	-0.08137803
51	0xbdca572c	-0.09879908
52	0xbdb3f2c6	-0.0878654
53	0xbdaa5ba2	-0.08318259
54	0x3c0da0c0	0.008644283
55	0xbdc7109a	-0.09719963
56	0xbc77daa0	-0.015127808
57	0xbd8e5be4	-0.069511205
58	0x3dda6e78	0.106656015
59	0x3c995630	0.018717855
60	0x3bd7f0c0	0.006589979
61	0x3dc7b3a8	0.097510636
62	0xbd840680	-0.06446552
63	0x3dbf78b2	0.09349193
64	0xbd665e25	-0.056242127
65	0x3de572e8	0.11203557
66	0xbd2f00f7	-0.04272553
67	0x3d35c037	0.044372763
68	0xbe083803	-0.13302617
69	0x39a462fd	0.0003135427
70	0xbd9656b6	-0.073407575
71	0xbe0c69a3	-0.13712172
72	0xbd3fb02d	-0.046798874
73	0x3dd68c28	0.104759514
74	0xbe04e893	-0.12979345
75	0x3dd0a1c2	0.10187103
76	0x3d46f185	0.048570175
77	0xbd8f5e5c	-0.070004195
78	0x3d9f39b9	0.077746816
79	0xbce27bd8	-0.027646944
80	0x3d11cdac	0.035596535
81	0xbc2257dd	-0.009908644
82	0xbd3355ed	-0.043783117
83	0xbdbde554	-0.092722565
84	0x3c9a03da	0.018800665
85	0x3d0e13f1	0.034686986
86	0xbdb58080	-0.088624
87	0xbce359f4	-0.027752854
88	0x3db53df1	0.08849705
89	0xbcafd1ad	-0.021462286
90	0xbd60d1e0	-0.054887652
91	0xbd8e20e3	-0.069398664
92	0x3c40b1a2	0.011761101
93	0x3d4393f6	0.04774853
94	0xbd45e518	-0.048314184
95	0xbddba5b4	-0.10724965
96	0x3d453573	0.048146676
97	0x3d10c7a0	0.035346627
98	0x3e0cb4ac	0.13740796
99	0x3d5a080e	0.053230338
100	0x3d75ee50	0.060041726
101	0x3d655091	0.055985037
102	0xbc9f1742	-0.01942027
103	0x3d11359f	0.035451528
104	0xbd37a625	-0.044836182
105	0x3d9edeb6	0.077573225
106	0x3dabb567	0.08384209
107	0x3bb08177	0.005386527
108	0xbd110e5e	-0.035414092
109	0xbdc910ad	-0.09817634
110	0x3c9204f4	0.017824627
111	0xbc4dcbc2	-0.012560787
112	0xbde32938	-0.11091846
113	0x3d1dce34	0.03852673
114	0x3dcae815	0.099075474
115	0xbdf6f48a	-0.12058361
116	0x3d54a9e5	0.051919837
117	0x3d97502c	0.073883384
118	0xbd00f4fc	-0.031483635
119	0xbe06dc54	-0.13169986
120	0xbcf00249	-0.029297965
121	0xbda787ae	-0.08180176
122	0x3e1c00bd	0.15234657
123	0x3cea6b8f	0.028615741
124	0x3dc80fb5	0.09768621
125	0xbd2fb2b6	-0.04289504
126	0x3ce553ab	0.027993998
127	0xbc738d49	-0.014865228
128	0xbd70eaaa	-0.058817543
129	0xbd45ea88	-0.04831937
130	0x3cab79a0	0.020932019
131	0x3d92f67c	0.071759194
132	0x3db1db58	0.086844146
133	0xbd397815	-0.045280535
134	0x3d5cdf4e	0.053923897
135	0x3d23ba14	0.03997238
136	0xbbe05af7	-0.0068467814
137	0xbde3b400	-0.11118317
138	0xbc5335d2	-0.01289125
139	0xbb474848	-0.0030408073
140	0x3da8ebef	0.08248126
141	0xbcb8296a	-0.022480685
142	0xbd3b384c	-0.045707986
143	0xbcae7df2	-0.02130029
144	0xbdef8f81	-0.11697293
145	0xbd7eb377	-0.06218287
146	0xbd5a0c56	-0.05323442
147	0xbda05d33	-0.07830276
148	0x3d82769a	0.06370278
149	0x3e0a548c	0.13508815
150	0x3d86390b	0.06553849
151	0xbbd21eb9	-0.006412354
152	0x3d187972	0.037225194
153	0x3d338ef8	0.043837517
154	0xbd0d2d9f	-0.034467336
155	0xbb5301be	-0.0032197083
156	0x3df8f806	0.12156682
157	0x3cb1f5ac	0.02172359
158	0xbd04362e	-0.032278232
159	0x3c110456	0.008851131
160	0x3c82e38c	0.015977643
161	0x3df14965	0.11781577
162	0x3c34e891	0.011041776
163	0x3da24324	0.07922962
164	0xbc587f36	-0.013213923
165	0x3db7b8c9	0.08970792
166	0xbd8d6786	-0.06904511
167	0xbe0cb005	-0.13739021
168	0x3dc7edac	0.09762129
169	0x3e25e5a9	0.1620089
170	0xbd93e0db	-0.07220622
171	0x3de87423	0.11350276
172	0xbcdff0f5	-0.027336577
173	0x3cb07148	0.021538392
174	0x3dba99f1	0.09111393
175	0x3dfabbf3	0.1224288
176	0xbd8a276e	-0.06745802
177	0xbd4f429e	-0.05060064
178	0x3cc34460	0.023836315
179	0x3daf6a97	0.08565252
180	0xbd9a5257	-0.07535236
181	0x3e02e15f	0.12781285
182	0xbda08bd4	-0.0783917
183	0xbc810c1e	-0.015752848
184	0xbe090e63	-0.13384394
185	0xbd22463c	-0.039617762
186	0x3e1a4ff9	0.1506957
187	0x3e47e1bd	0.19519706
188	0xbd5b814f	-0.053590115
189	0x3d74dec6	0.059782766
190	0x3cf7f6e2	0.03026909
191	0x3dc1b415	0.09458176
192	0xbcd86544	-0.026415475
193	0x3dc160d9	0.094423
194	0x3d07c756	0.033149086
195	0x3dcdb132	0.10043563
196	0x3c9d9c9c	0.019239716
197	0x3abe9837	0.0014541213
198	0x3d00ff8e	0.031493716
199	0xbc985978	-0.01859735
200	0xbcadd8a7	-0.021221472
201	0xbc71dede	-0.014762608
202	0xbdc7ec47	-0.09761863
203	0xbda73920	-0.081651926
204	0x3cb8868f	0.0225251
205	0xbd9484cd	-0.07251892
206	0xbd859b53	-0.06523766
207	0x3c2baead	0.010478658
208	0x3daa7b98	0.08324355
209	0xbdd3ac1b	-0.10335561
210	0x3ca2f06c	0.019890033
211	0xbd4c613b	-0.049897414
212	0xbd859f54	-0.0652453
213	0xbd7fa9b8	-0.062417716
214	0x3d478d8b	0.04871897
215	0xbc820d2e	-0.015875425
216	0x3d488a71	0.048960153
217	0xbd43ab0c	-0.047770545
218	0xbcd41ad8	-0.025891706
219	0x3c76da8a	0.015066752
220	0xbde03787	-0.10948091
221	0x3e03c5f4	0.12868482
222	0xbd4147c2	-0.047187574
223	0xbd53c8c2	-0.05170513
224	0xbe07fac5	-0.13279255
225	0x3dd99d0e	0.10625659
226	0x3df78085	0.1208506
227	0xbcf3d91e	-0.029766615
228	0x3d5cd481	0.053913597
229	0xbd4808d5	-0.048836548
230	0xbc1382c9	-0.00900335
231	0x3d1144cd	0.035466004
232	0x3dc52f58	0.09628171
233	0x3d218c01	0.03944016
234	0xbd71815d	-0.05896126
235	0xbd7c0789	-0.061530624
236	0xbd504b92	-0.05085332
237	0x3dcc75a5	0.099833764
238	0x3dc4390b	0.095811926
239	0xbce6c244	-0.028168805
240	0xbdb8087a	-0.08985992
241	0x3e37dcc3	0.17955308
242	0x3d66b5f0	0.056325853
243	0xbdb7e62a	-0.08979447
244	0xbce27be0	-0.027646959
245	0x3d48177a	0.048850514
246	0xbdaae654	-0.08344713
247	0xbd615644	-0.05501391
248	0xbdfc14d0	-0.12308657
249	0x3db140aa	0.08654912
250	0x3e12e6bd	0.14345832
251	0x3cfe0fbb	0.03101336
252	0xbdb6af9a	-0.08920212
253	0xbd87cd17	-0.06630915
254	0x3bdacad6	0.006677012
255	0xbd2f3569	-0.042775545

tatic_net.fc2.bias f4 [6]
0	0x3d65b9c4	0.056085363
1	0xbdee30a0	-0.11630368
2	0x3c9627a2	0.018329445
3	0x3c2540d4	0.010086257
4	0x3d0ab220	0.03386128
5	0xbdb77110	-0.08957112

tatic_net.fc3.weight f4 [6, 3]
0	0xbeb52158	-0.35377002
1	0x3ebeb8e6	0.3725044
2	0xbed626ff	-0.41826627
3	0x3dd3281d	0.103103854
4	0x3eca7e20	0.3954935
5	0xbd941f2d	-0.07232509
6	0x3e8a4cd5	0.27011743
7	0xbe074e19	-0.13213386
8	0xbe80da74	-0.25166667
9	0x3ea51f96	0.3225066
10	0xbe4e6305	-0.2015496
11	0xbf1ac863	-0.60462016
12	0xbe7dbc61	-0.24778892
13	0xbf0518b3	-0.51990813
14	0x3f10212b	0.5630061
15	0x3f1db675	0.6160653
16	0x3ef3588d	0.47528496
17	0x3bb58402	0.005539418

tatic_net.fc3.bias f4 [6]
0	0x3eb7a44e	0.35867542
1	0x3f006a12	0.5016185
2	0x3e0460ee	0.129276
3	0x3eb12739	0.34600237
4	0xbdbaf361	-0.09128452
5	0xbd9d6941	-0.07686091

tatic_net.fc4.weight f4 [3, 9]
0	0x3e95eaf9	0.29280832
1	0x3ec40425	0.38284412
2	0x3db0eaf2	0.08638562
3	0x3e8c0db7	0.27354214
4	0x3ee535bd	0.44767562
5	0x3ec0222a	0.37526065
6	0xbdd307f4	-0.10304251
7	0x3ebd2b65	0.3694717
8	0xbdfd73f2	-0.123756304
9	0x3d40bdab	0.04705588
10	0x3c5cb67f	0.013471245
11	0xbdf39219	-0.118931
12	0x3e678919	0.22610892
13	0xbe4f334c	-0.20234412
14	0x3e83aacb	0.25716242
15	0x3e743444	0.23848063
16	0x3e49105f	0.19635151
17	0x3ee24601	0.44194034
18	0x3db0503a	0.08609052
19	0xbd231b42	-0.039820917
20	0x3e977fbb	0.29589638
21	0xbe66ebf7	-0.22550951
22	0x3cf7b28a	0.030236501
23	0x3ddb5506	0.10709576
24	0xbda7fab4	-0.08202115
25	0x3de2050f	0.11036121
26	0x3d9000eb	0.07031425

tatic_net.fc4.bias f4 [3]
0	0xbe31d106	-0.17364892
1	0xbe3cb3ab	-0.18427913
2	0xbd668c08	-0.056285888

fc1.weight f4 [256, 108]
0	0xb9df6917	-0.00042612173
1	0xbca28eb6	-0.01984344
2	0x3da39dde	0.07989095
3	0x3d92458c	0.07142171
4	0xbd5889bf	-0.05286574
5	0x3d54963e	0.051901095
6	0x3cb939c7	0.022610558
7	0xbd15f828	-0.036613613
8	0x3d96d918	0.07365626
9	0x3c8d5c85	0.01725603
10	0xbd7d8445	-0.06189372
11	0x3d7b416b	0.061341684
12	0xbd259135	-0.040421683
13	0xbdb59c02	-0.08867647
14	0x3cb69968	0.022289947
15	0x3d7d39b2	0.0618226
16	0x3cdfcaa7	0.027318312
17	0xbdb89679	-0.090130754
18	0xbc98ea83	-0.018666511
19	0x3bfa2b72	0.0076345736
20	0xbcc4d8cb	-0.024029156
21	0xbdabdab9	-0.083913274
22	0x3d771a1e	0.06032764
23	0x3d80a197	0.06280821
24	0x3d690079	0.056885216
25	0x3da5379c	0.08067247
26	0xbd66fa07	-0.05639079
27	0x3cd5f1d4	0.02611629
28	0xbd0e340d	-0.03471761
29	0x3d7a63bf	0.06113028
30	0xbda24380	-0.07923031
31	0x3db4868d	0.08814726
32	0xbb4125d1	-0.0029472003
33	0xbdb4417a	-0.08801551
34	0x3c78f3de	0.015194861
35	0x3dae1f50	0.08502066
36	0xbd7c728b	-0.061632674
37	0x3d934e6f	0.071926944
38	0xbda93a22	-0.08263041
39	0xbcee3604	-0.029078491
40	0xbdb01211	-0.08597196
41	0xbcbaef5c	-0.022819214
42	0xbcad1b7c	-0.02113127
43	0xbd73d21c	-0.059526548
44	0x3b846f8c	0.0040416177
45	0x3d98ca60	0.07460475
46	0xbdc328cf	-0.09529268
47	0x3d95e47f	0.07318973
48	0x3d921fcd	0.07134972
49	0x3d89b6b9	0.06724305
50	0xbb826f57	-0.003980558
51	0xbbfab5e5	-0.007651078
52	0xbd5b68c4	-0.05356671
53	0x3d04544b	0.03230695
54	0x3d4ae651	0.049536053
55	0x3daecbed	0.085349895
56	0xbda00183	-0.07812788
57	0x3c496af6	0.012293568
58	0x3d3b1f39	0.045684073
59	0xbc93000e	-0.017944362
60	0xbd6a0f09	-0.057143245
61	0xbd14d856	-0.036339127
62	0x3d4f633b	0.050631743
63	0x3d78d2f3	0.06074805
64	0x3d4f1c72	0.050564237
65	0xbdba2bad	-0.09090362
66	0x3d87cdd0	0.066310525
67	0x3ce65395	0.028116027
68	0x3cdd3b83	0.027005916
69	0x3d43a7fd	0.047767628
70	0xbb8128a8	-0.003941614
71	0xbd25ca9a	-0.04047642
72	0xbdc237b1	-0.094832785
73	0xbda8c050	-0.08239806
74	0xbd8dbae9	-0.06920416
75	0xbd89f6e0	-0.06736541
76	0xbda46b9f	-0.080283396
77	0x3b544240	0.003238812
78	0xbd825513	-0.06363883
79	0x3b94e4f4	0.004543895
80	0x3d890c08	0.06691748
81	0x3d97689b	0.07392999
82	0xbd7efcfd	-0.062252987
83	0xbda78639	-0.08179898
84	0xbc964d1a	-0.018347312
85	0xbdbdafa0	-0.092620134
86	0xbd1ffe2e	-0.039060764
87	0xbda6e83d	-0.08149765
88	0x3ca40470	0.020021647
89	0xbd5cb9bd	-0.05388807
90	0xbd20cc76	-0.03925749
91	0x3d9c9526	0.07645635
92	0xbd22c2da	-0.039736606
93	0x3dc27e99	0.09496803
94	0x3d804d33	0.062647246
95	0xbde315c4	-0.11088136
96	0xbce6c44f	-0.02816978
97	0xbd00a941	-0.031411413
98	0x3d350a7b	0.044199448
99	0xbdbeb4ab	-0.093118034
100	0xbb4b4a29	-0.0031019545
101	0x3d7bc508	0.0614672
102	0x3d503ee7	0.05084124
103	0x3ce9278e	0.028461244
104	0xbdabb42b	-0.08383974
105	0xbbc88981	-0.0061199074
106	0x3d743df7	0.059629407
107	0xbd5d81d6	-0.0540789
108	0xbd2da416	-0.042392813
109	0xbd3f2f3c	-0.046675906
110	0xbd57947e	-0.052631848
111	0x3edcd929	0.4313443
112	0x3e981144	0.29700673
113	0x3e8e2905	0.2776567
114	0xbb24a575	-0.0025123034
115	0x3d8bfd6d	0.068354465
116	0xbb924bf1	-0.0044646193
117	0x3eef5fd5	0.46752802
118	0x3eac2f5d	0.33629885
119	0x3e9a2da1	0.30112937
120	0xbd30a9e7	-0.04313078
121	0xbce85560	-0.028361022
122	0xbd8f8857	-0.07008427
123	0x3eb0dd2d	0.34543744
124	0x3eaeaa2a	0.341142
125	0x3e4451f9	0.19171895
126	0x3b2eb18d	0.0026656121
127	0x3c7a4085	0.015274172
128	0xbd43d253	-0.047808003
129	0xbd7a07b3	-0.0610425
130	0xbd48c845	-0.049019117
131	0x3d239350	0.03993541
132	0xbd8e8b65	-0.06960181
133	0x3d7df29a	0.06199894
134	0x3d8825d8	0.06647843
135	0x3d11dbea	0.035610117
136	0xbb963792	-0.004584261
137	0x3e785080	0.24249458
138	0x3d8a5e54	0.06756273
139	0xbd83de89	-0.064389296
140	0x3d534440	0.05157876
141	0x3d937343	0.07199719
142	0x3b3ae87b	0.0028519917
143	0x3e85b6d0	0.26116037
144	0xbc843ec9	-0.01614322
145	0x3d768be5	0.060192008
146	0xbd5ee5b4	-0.05441828
147	0x3ed23f99	0.41064146
148	0x3ecfac70	0.40561247
149	0x3e6a846d	0.22902079
150	0x3acebcee	0.0015772858
151	0x3cafaf08	0.021445766
152	0x3d9f33d4	0.07773557
153	0x3edc1a41	0.4298878
154	0x3e916eef	0.28404948
155	0x3e1a49a3	0.15067153
156	0xbbb51bbb	-0.0055269874
157	0xbc6b32a8	-0.014355339
158	0x3d0b21d5	0.03396781
159	0x3eb39a73	0.35078773
160	0x3ea75f2c	0.32689798
161	0x3e14bb6d	0.14524622
162	0xbd707e3d	-0.05871414
163	0xbd77cfec	-0.060501024
164	0xbc9103c4	-0.01770199
165	0x3d353556	0.04424032
166	0x3d955cd3	0.072930954
167	0x3ce9c3a8	0.028535679
168	0x3d3187b1	0.043342296
169	0xbdba60cb	-0.09100493
170	0xbc03d72d	-0.008046907
171	0xbd824e61	-0.06362606
172	0xbd163a7e	-0.036676876
173	0x3e28831c	0.16456264
174	0xbd00b524	-0.03142275
175	0x3a667580	0.00087913126
176	0x3dbf9b9d	0.09355853
177	0xbce87082	-0.02837396
178	0xbdc40468	-0.09571153
179	0x3e5792ee	0.21052143
180	0x3d52a27f	0.0514245
181	0xbd2afddb	-0.041746
182	0xbd5530ec	-0.05204861
183	0x3eac4b05	0.33650985
184	0x3ebe9698	0.3722427
185	0x3e25ea32	0.1620262
186	0x3c09bf4e	0.008407427
187	0xbc858f1e	-0.016303595
188	0x3d7a39d2	0.061090298
189	0x3efc0613	0.49223384
190	0x3eac170b	0.3361133
191	0x3e184194	0.14868766
192	0xbd23002c	-0.039795086
193	0x3d8529b3	0.06502094
194	0x3ca0a1f7	0.01960848
195	0x3edb6a03	0.42854318
196	0x3ea76580	0.32694626
197	0x3e9595bd	0.29215804
198	0xbd6e6c3b	-0.058208685
199	0xbd934028	-0.07189971
200	0x3d6a90fd	0.057267178
201	0xb8a6c20d	-7.9516416e-05
202	0x3d2f3ad1	0.0427807
203	0x3df81434	0.121132284
204	0x3c9d6f30	0.019218057
205	0xbc8caa90	-0.017171174
206	0x3ba38248	0.004989896
207	0x3db1906c	0.086701244
208	0xbd873cbd	-0.06603382
209	0x3e4facf6	0.20280823
210	0xbc423d04	-0.011855368
211	0x3d01b45a	0.031666137
212	0x3d1328ec	0.035927698
213	0x3cf19b01	0.029492857
214	0x3d928d93	0.071559094
215	0x3e2044b0	0.15651202
216	0x3d822d75	0.063563265
217	0x3c98c0df	0.018646656
218	0xbd99d2c4	-0.075109035
219	0xbd133dc6	-0.035947584
220	0xbc83dd74	-0.016096808
221	0xbd1e5ebd	-0.03866457
222	0x3d8f29b1	0.06990374
223	0xbdaa0ae3	-0.08302858
224	0x3dbfd7c1	0.09367324
225	0x3d8edc27	0.069755845
226	0x3c582e68	0.013194658
227	0x3d91f3d5	0.071265854
228	0x3d6a42e3	0.057192694
229	0x3d056959	0.03257117
230	0xbd1564e3	-0.036473166
231	0x3d5ca2d1	0.05386621
232	0x3d8da86b	0.06916889
233	0x3cf84ea7	0.030310942
234	0xbc57a2ac	-0.013161343
235	0xbd998d52	-0.07497658
236	0xbd7546e2	-0.059882052
237	0x3d448c9e	0.047985666
238	0x3db2e31c	0.08734724
239	0x3d573a2e	0.05254572
240	0x3dbd580b	0.092453085
241	0xbd152445	-0.036411542
242	0x3d5005a2	0.050786622
243	0x3d2536b8	0.040335387
244	0x3c32ff54	0.010925133
245	0xbdd8a38d	-0.1057807
246	0x3d92733a	0.07150884
247	0xbb5109a2	-0.003189661
248	0xbd7b79ce	-0.06139546
249	0xbd5f21c6	-0.05447557
250	0xbdbd411b	-0.092409335
251	0xbda55ef3	-0.08074751
252	0x3d8bce56	0.06826465
253	0x3c8acffb	0.016944876
254	0x3d925cc0	0.07146597
255	0xbd398488	-0.045292407

fc1.bias f4 [256]
0	0xbde0ba21	-0.10973001
1	0x3eb89b15	0.36055818
2	0xbbdcd030	-0.006738685
3	0x3e49c421	0.19703723
4	0x3f0dd109	0.5539709
5	0x3ec54e4c	0.38536298
6	0x3df34d59	0.11879987
7	0x3ebbdd0a	0.36692077
8	0x3e7d3a63	0.24729304
9	0x3f537a27	0.82608265
10	0x3f623402	0.8836061
11	0x3f79aec4	0.97532296
12	0xbc7abcd4	-0.015303809
13	0x3ed4a4a7	0.4153187
14	0x3f5a964c	0.85385585
15	0x3f85d179	1.0454551
16	0x3f5e9f55	0.8696187
17	0x3ede1f52	0.4338327
18	0x3f88ec78	1.0697165
19	0xbbd0eea2	-0.0063761035
20	0x3f6e3270	0.9304571
21	0xbd81b570	-0.063334346
22	0x3f6e955d	0.9319666
23	0x3f563473	0.8367378
24	0x3f0689d7	0.52554077
25	0x3f7c556f	0.9856786
26	0x3f5b2589	0.8560415
27	0x3e95c258	0.29249835
28	0x3f408b81	0.75212866
29	0x3f619ad7	0.8812689
30	0xb9d833a5	-0.0004123721
31	0x3f87c0b0	1.0605679
32	0xbc1135c2	-0.0088629145
33	0x3f702830	0.9381132
34	0xbdadc879	-0.08485503
35	0x3eb67bfc	0.35641468
36	0x3f6d5282	0.9270402
37	0x3ea04506	0.3130266
38	0xbc967ee9	-0.018371062
39	0x3f588130	0.84572124
40	0x3ea73f05	0.32665268
41	0x3f63b0a5	0.88941413
42	0xbdbfba85	-0.09361748
43	0x3f618571	0.8809424
44	0x3f469e4f	0.7758531
45	0x3f6b6794	0.9195492
46	0x3f008b1e	0.50212276
47	0x3f84e874	1.0383439
48	0xbe003b9f	-0.12522744
49	0x3f54544e	0.8294114
50	0x3d0bedc9	0.034162316
51	0xb986dd8c	-0.00025723537
52	0x3f5f7f18	0.87303305
53	0x3e96d7fa	0.29461652
54	0x3f6da3bf	0.9282798
55	0x3f618353	0.8809101
56	0x3f2480c9	0.6425901
57	0x3f7699e1	0.9632855
58	0x3f7419db	0.9535195
59	0xbb51bbd1	-0.0032002816
60	0x3f76fc26	0.964785
61	0x3f7365a7	0.95076984
62	0x3f865bb3	1.0496734
63	0x3f630378	0.8867717
64	0x3e9e3879	0.3090246
65	0x3f73328a	0.9499899
66	0xbca13cb8	-0.019682273
67	0x3f707158	0.9392295
68	0x3f6e608a	0.93116057
69	0xbd6a493a	-0.05719874
70	0x3d0f57c3	0.034995805
71	0x3e508186	0.2036191
72	0x3f701783	0.93785876
73	0x3f67b249	0.90506417
74	0xbc6c29ed	-0.014414293
75	0x3f72ac74	0.9479439
76	0x3f69c4ac	0.9131572
77	0x3f4e8419	0.80670315
78	0xbbb82560	-0.00561969
79	0x3f70f959	0.94130474
80	0x3f72a3aa	0.9478098
81	0xbdb3d381	-0.087805755
82	0x3f8462cc	1.034265
83	0x3f58af99	0.8464294
84	0x3f656e4b	0.8962142
85	0x3f7dae51	0.9909411
86	0x3f679b9b	0.9047181
87	0x3f455323	0.7707998
88	0x3f6e3dd1	0.93063074
89	0x3f765801	0.96228033
90	0x3e8f1dde	0.27952474
91	0x3f49a851	0.78772455
92	0x3e61757c	0.22017473
93	0x3f693cdd	0.91108495
94	0x3f65a34b	0.8970229
95	0xba2955f4	-0.00064596464
96	0x3f6835ea	0.90707266
97	0x3f705afa	0.9388882
98	0x3f587c14	0.8456433
99	0xbdc2d67a	-0.095135644
100	0x3f862401	1.0479738
101	0xbb418def	-0.0029534062
102	0x3f767921	0.9627858
103	0x3e425687	0.1897832
104	0xbd80df50	-0.062925935
105	0xba1ba9c7	-0.00059380796
106	0xbb579ba6	-0.003289917
107	0xbab8b809	-0.0014092933
108	0x3f71da2d	0.94473535
109	0x3f3ce77a	0.73790705
110	0xbcff480c	-0.031162284
111	0xbd071c1b	-0.032985788
112	0x3f703849	0.93835884
113	0x3f7a6740	0.97813797
114	0x3f745b37	0.9545168
115	0x3f47d6e4	0.7806227
116	0xbdaed702	-0.08537103
117	0x3f5d7e7c	0.86521125
118	0x3f7a718e	0.9782952
119	0x3f58f130	0.8474302
120	0x3f7c7388	0.98613787
121	0xbd6b4bdb	-0.05744539
122	0x3f869247	1.051339
123	0x3f5f090b	0.87123173
124	0x3f6f2345	0.9341319
125	0xbce652c5	-0.02811564
126	0x3f805543	1.002602
127	0x3f616ae5	0.88053733
128	0x3f8267f6	1.0187976
129	0xbdcbe6eb	-0.099561535
130	0x3f601d22	0.87544453
131	0x3f791025	0.9729026
132	0x3f748c61	0.955267
133	0xbc1a8d07	-0.009433038
134	0xbd97c061	-0.0740974
135	0xb8f84ab4	-0.00011839476
136	0xbdb51e5d	-0.08843682
137	0x3f88c251	1.0684301
138	0x3f78cc98	0.97187185
139	0xbdc2e0e2	-0.09515549
140	0x3f4d8079	0.8027416
141	0xbdd08c04	-0.10182956
142	0x3f6976f3	0.9119713
143	0x3e6d9bc0	0.23203945
144	0x3f6c5c16	0.9232801
145	0x3f0bf441	0.54669577
146	0x3ea43765	0.32073513
147	0x3f13fc83	0.5780718
148	0x3e7f08eb	0.24905746
149	0x3f662696	0.8990263
150	0xbc226d9e	-0.00991383
151	0x3f6f103b	0.9338414
152	0x3f83fdae	1.0311792
153	0xbdbbeb41	-0.091757305
154	0x3f499126	0.78737104
155	0x3f726af9	0.9469448
156	0x3f68c05d	0.90918523
157	0x3f73a011	0.95166117
158	0xbccde57c	-0.02513384
159	0x3e999a4c	0.30000532
160	0x3f64cdd1	0.8937655
161	0x3f18f81f	0.597536
162	0x3f62be00	0.88571167
163	0x3eb02568	0.3440354
164	0x3f794628	0.97372675
165	0xb9e638f5	-0.00043911455
166	0x3ec02094	0.37524855
167	0x3eaf19df	0.34199426
168	0x3f6997bd	0.9124716
169	0x3f855cff	1.0419005
170	0x3f796907	0.97425884
171	0x3f5ed6d1	0.87046534
172	0x3f85959a	1.043628
173	0x3f77368d	0.9656761
174	0x3f720193	0.9453365
175	0x3f589661	0.8460446
176	0xbd6fe359	-0.058566425
177	0xbdc0feda	-0.09423609
178	0x3ea6cf67	0.3258011
179	0xbd8ef244	-0.06979802
180	0x3f649507	0.892899
181	0x3f6855d1	0.90755945
182	0x3e0ae5a2	0.1356416
183	0xbdbd0743	-0.09229901
184	0x3f6308db	0.8868539
185	0xbd804b2c	-0.06264338
186	0x3f5d1404	0.86358666
187	0x3f805ca0	1.0028267
188	0x3f6e4f96	0.9309019
189	0xbdbf8fcd	-0.093536
190	0x3e88fe52	0.2675653
191	0xbdabe2f5	-0.08392898
192	0xbda07ed0	-0.078366876
193	0x3f605a91	0.87638193
194	0xbdb66ce5	-0.08907489
195	0x3f2d6916	0.67738473
196	0x3f77f4a8	0.9685769
197	0x3eb5ccff	0.35507962
198	0x3f74ae49	0.9557844
199	0x3f5a9822	0.85388386
200	0x3ddc01a0	0.107424974
201	0x3f6b08cb	0.9181029
202	0x3f776680	0.9664078
203	0xbdb79306	-0.08963589
204	0xbdbc9703	-0.09208491
205	0x3ea223bf	0.31667897
206	0x3f634f89	0.88793236
207	0x3f53c58e	0.8272332
208	0x3f643dda	0.8915688
209	0x3f6b3a0e	0.9188546
210	0xbbaa9bbc	-0.0052065533
211	0x3e5015f5	0.20320876
212	0x3f4f4d1b	0.8097703
213	0x3f5bbdc6	0.85836446
214	0x3f86c4a8	1.0528765
215	0x3f79b17b	0.9753644
216	0x3f60435f	0.876028
217	0x3e7b8fd0	0.24566579
218	0x3f67b144	0.9050486
219	0x3f6d390f	0.9266519
220	0x3f5ac79e	0.8546084
221	0x3f6851e1	0.9074994
222	0xbda889d1	-0.082294114
223	0x3f512175	0.81691676
224	0x3f66794a	0.9002882
225	0x3f5433b3	0.82891387
226	0x3f807a41	1.0037309
227	0xbc1af0a0	-0.0094567835
228	0x3f3f2ae7	0.7467484
229	0x3eb9a02a	0.36255008
230	0x3f83d6f0	1.0299969
231	0xbca57b4f	-0.0202004
232	0xbd7bb8d7	-0.061455574
233	0x3eb96eaa	0.36217242
234	0x3f7eb59a	0.9949585
235	0x3f314cb2	0.6925765
236	0xbd5f4e31	-0.05451793
237	0xbd65e62e	-0.05612772
238	0xbb89cdf0	-0.004205458
239	0x3f61ee4b	0.8825423
240	0x3f6a5936	0.91542375
241	0x3f0f65cb	0.560147
242	0x3f605ef5	0.8764489
243	0x3eccb4ea	0.39981776
244	0x3f6b3e99	0.9189239
245	0x3f884ee3	1.0649074
246	0x3f7bd6f1	0.9837485
247	0x3f81c1e5	1.0137297
248	0x3f6ed9ae	0.933009
249	0x3f6b295c	0.91859984
250	0x3f3724e9	0.71540695
251	0x3c8984ea	0.016787011
252	0xbcf7d091	-0.03025082
253	0x3ee08bf0	0.43856764
254	0x3eb81dab	0.35960135
255	0x3f7400fc	0.95314
