model_epoch_1600.pth (torch, 141274 bytes, 15 tensors)

target_net.fc1.weight f4 [64, 36]
0	0x3dcced80	0.10006237
1	0x3d661bf0	0.056178987
2	0x3c3b51d6	0.011433085
3	0xbd42b3ff	-0.04753494
4	0x3cdbe17d	0.02684092
5	0xbab69747	-0.0013930582
6	0xbce7278b	-0.028217098
7	0x3de5ff2b	0.1123031
8	0x3d56d5db	0.052450042
9	0xbc28ca01	-0.010302068
10	0xbde8cf3f	-0.11367654
11	0xbdf4b6df	-0.119489424
12	0xbdf12b0b	-0.11775788
13	0x3db39e9b	0.08770486
14	0xbd4e9500	-0.050435066
15	0x3d554171	0.052064363
16	0xbb7276b3	-0.003699702
17	0xbe34e9a1	-0.17667247
18	0xbd16d0e0	-0.036820292
19	0xbd8bccce	-0.06826173
20	0xbe272598	-0.16322935
21	0x3d192790	0.037391245
22	0x3dca698e	0.09883414
23	0xbd3725a7	-0.044713642
24	0x3cfe3700	0.031032085
25	0xbcecbea0	-0.02889949
26	0xbda3b086	-0.079926535
27	0x3c1a0f6b	0.00940309
28	0x3dfb2ff0	0.12265003
29	0xbe100bca	-0.14066997
30	0x3e194b23	0.14970069
31	0xbd775b66	-0.0603899
32	0x3d0bf9b6	0.03417369
33	0x3c240300	0.010010481
34	0xbd56fc0b	-0.05248646
35	0xbcc90cf7	-0.024542315
36	0x3e148888	0.14505208
37	0x3dc0cbd6	0.094138786
38	0xbd3cf636	-0.046133243
39	0xbd486095	-0.048920233
40	0xbd025c25	-0.031826157
41	0x3e2d4455	0.16920598
42	0x3e06d8af	0.13168596
43	0x3e1f8c57	0.15580879
44	0x3d26070b	0.04053406
45	0x3c02e1e5	0.007988428
46	0xbc8b5e34	-0.017012693
47	0xbc3f04fe	-0.011658905
48	0x3dd5c0ee	0.10437189
49	0xbe0205d4	-0.12697536
50	0x3e01a986	0.12662324
51	0x3d9f8a37	0.07790034
52	0x3d50f796	0.051017366
53	0x3e1ffffc	0.15624994
54	0xbd5c97f0	-0.053855836
55	0x3d2a6d16	0.04160794
56	0x3e2451fc	0.160469
57	0xbe276957	-0.16348778
58	0x3d8d97fe	0.06913756
59	0x3d87b7e9	0.06626875
60	0xbd747210	-0.05967909
61	0xbd08f410	-0.03343588
62	0x3e0fdfec	0.14050263
63	0x3dc70f18	0.09719676
64	0x3c901220	0.017586768
65	0xbdaf1237	-0.08548396
66	0xbc9c3b00	-0.019071102
67	0x3d66198b	0.056176703
68	0xbc4729d6	-0.012155971
69	0x3e1fda23	0.15610556
70	0xbdfb4efe	-0.12270926
71	0xbe0f473c	-0.13992018
72	0x3e0b6216	0.13611636
73	0x3d372b90	0.04471928
74	0x3d154980	0.03644705
75	0x3dd27e87	0.102780394
76	0xbda73b81	-0.08165646
77	0x3c6c24df	0.014413088
78	0x3ceeeb60	0.02916497
79	0x3e23faaa	0.1601359
80	0xbd3d89ab	-0.04627387
81	0x3d8e61f1	0.069522746
82	0x3d8ccea8	0.06875354
83	0xbdbae54e	-0.09125768
84	0x3beb74ab	0.0071855388
85	0xbdb20d98	-0.08693999
86	0xbddedcf3	-0.108819865
87	0x3db8455f	0.089976065
88	0x3dab8b7d	0.08376215
89	0x3e075d5b	0.13219206
90	0x3d16fa6b	0.03685991
91	0xbda8dad6	-0.08244865
92	0x3e1fd65a	0.15609112
93	0x3c45992b	0.012060444
94	0x3cba45a0	0.022738278
95	0xbc3a6005	-0.011375432
96	0x3df9ceab	0.12197622
97	0xbd9c5133	-0.07632675
98	0x3da1d648	0.07902199
99	0xbd64f046	-0.055893205
100	0xbe00cda8	-0.12578452
101	0xbcfba7da	-0.030719686
102	0xbe170a63	-0.14750056
103	0xbdb2d9a8	-0.08732921
104	0x3c5ee300	0.013603926
105	0x3d284aa0	0.041086793
106	0xbe0af793	-0.13571005
107	0xbdbd1468	-0.09232408
108	0x3d941528	0.07230598
109	0xbdc40a13	-0.09572234
110	0xbe1dc824	-0.15408379
111	0xbdc29e40	-0.0950284
112	0x3d0774c9	0.03307036
113	0xbdf5b1af	-0.11996781
114	0x3e102fca	0.1408073
115	0xbd397d20	-0.045285344
116	0x3d118c5b	0.035534244
117	0x3d2e20a4	0.042511597
118	0xbdf28680	-0.1184206
119	0x3e542405	0.20716865
120	0xbcb0f28b	-0.021600028
121	0xbe284f30	-0.16436458
122	0x3e09f5ac	0.13472623
123	0x3ca4b95a	0.020107914
124	0x3dcaff8a	0.099120215
125	0x3c7a2471	0.015267477
126	0x3de83566	0.1133831
127	0x3c287056	0.010280689
128	0xbb8d8f2b	-0.0043200455
129	0x3b32ae00	0.0027264357
130	0x3e017a44	0.12644297
131	0xbd8fcf5d	-0.07021973
132	0x3d2f1996	0.04274901
133	0x3dbd7a46	0.092518374
134	0x3e1ce8af	0.15323137
135	0x3e161aa3	0.14658599
136	0xbdb5a4c6	-0.08869319
137	0xbbaa92a0	-0.0052054673
138	0xbcfa72f6	-0.030572396
139	0xbe18283a	-0.14859095
140	0xbd839fa6	-0.06426935
141	0xbc8e3236	-0.017357927
142	0xbda8bb16	-0.08238809
143	0xbdc1a22f	-0.09454762
144	0xbd56c386	-0.05243256
145	0xbcc104c0	-0.023561835
146	0xbd51f246	-0.05125644
147	0xbd3a54dd	-0.04549109
148	0x3dfd439f	0.12366413
149	0x3e25d359	0.16193904
150	0xbca6c856	-0.0203592
151	0xbc4e9596	-0.012608906
152	0xbd1d90a0	-0.038468003
153	0xbd68e4c0	-0.056858778
154	0x3e231c37	0.15928732
155	0xbdb809af	-0.08986222
156	0xbe07dd36	-0.13267979
157	0xbd4e9506	-0.05043509
158	0x3e168bff	0.14701842
159	0xbe3e2434	-0.18568498
160	0x3d720785	0.059089202
161	0xbd92f0c7	-0.07174831
162	0x3e199617	0.14998661
163	0x3d828620	0.063732386
164	0xbd9b7aae	-0.07591759
165	0xbd4857e0	-0.04891193
166	0xbd2a4610	-0.041570723
167	0x3e38880b	0.18020646
168	0x3c8bce40	0.017066121
169	0x3c9a3700	0.018825054
170	0xbd975d73	-0.07390871
171	0x3dd5fb8e	0.10448371
172	0xb95ae000	-0.00020873547
173	0x3e2b4366	0.16724929
174	0x3e1e4c90	0.15458894
175	0x3e070c0f	0.13188194
176	0x3d0ac070	0.03387493
177	0xbd2852b0	-0.041094482
178	0x3dfd60f0	0.12372005
179	0xbe01b25e	-0.12665698
180	0xbcc1adf6	-0.023642521
181	0xbdd5cb43	-0.1043916
182	0x3c5cba96	0.01347222
183	0xbdbda77f	-0.09260463
184	0xbdb4359e	-0.08799289
185	0xbb46e51c	-0.0030348962
186	0xbb6c96ab	-0.0036100547
187	0x3e01a8c0	0.1266203
188	0xbdea497e	-0.11439799
189	0x3cd054bc	0.02543103
190	0x3d8cd4bf	0.068765156
191	0x3d00a7bd	0.031409968
192	0x3e11738e	0.14204237
193	0x3e1b0b44	0.15141016
194	0xbde44d53	-0.11147561
195	0xbdb7a071	-0.08966149
196	0x3e20c836	0.15701374
197	0xbde79a4c	-0.11308727
198	0xbe1ba5eb	-0.15200011
199	0xbdf38a6e	-0.11891638
200	0x3d5f18e6	0.054467104
201	0x3b1ee800	0.002424717
202	0xbd25b466	-0.040455244
203	0x3cefd771	0.029277535
204	0xbdb2ff8b	-0.08740147
205	0x3dd797e0	0.10527015
206	0xbcd4770b	-0.02593567
207	0x3d86608e	0.06561385
208	0xbe161002	-0.14654544
209	0xbdbf8cd6	-0.09353034
210	0x3d17570b	0.036948245
211	0x3c2c72c0	0.010525405
212	0xbd96d0d6	-0.07364051
213	0x3dd5f2e8	0.10446721
214	0x3c86f360	0.016473472
215	0xbe4ea427	-0.20179807
216	0xbc3eb156	-0.01163896
217	0x3e02d607	0.12776957
218	0xbdb6e39b	-0.08930131
219	0xbc8a9383	-0.016916042
220	0xbe0daeb0	-0.13836169
221	0x3e6a902f	0.22906564
222	0xbdfc8908	-0.12330824
223	0x3dd4d3f3	0.103919886
224	0xbddc6c8b	-0.107628904
225	0x3de4c805	0.11170963
226	0x3dbce061	0.092224844
227	0x3d255055	0.040359814
228	0xbe208f52	-0.15679672
229	0xbdc3d9c8	-0.09563023
230	0x3d345026	0.044021748
231	0x3dd0c22e	0.10193287
232	0xbe0bc7a7	-0.1365038
233	0x3da42d1f	0.08016419
234	0xbcd7a8f6	-0.026325684
235	0xbba76dab	-0.005109509
236	0x3d22a760	0.039710402
237	0x3d94eafb	0.072713815
238	0xbda0992b	-0.078417145
239	0x3ddf3ed0	0.109006524
240	0xbde9b463	-0.11411359
241	0xbdbdd49e	-0.09269069
242	0xbbe2ca00	-0.006921053
243	0xbe1727ee	-0.14761326
244	0xbd64f630	-0.055898845
245	0xbe13e939	-0.14444436
246	0x3dca4aa3	0.09877517
247	0xbd48bf70	-0.049010694
248	0x3e0d5dc2	0.13805297
249	0x3d6fa9f6	0.058511697
250	0xbc332100	-0.010933161
251	0xbd8cc719	-0.06873912
252	0x3df1d1d8	0.11807603
253	0x3ddf190b	0.108934484
254	0xbe10465c	-0.1408934
255	0x3dc0e432	0.09418525

target_net.fc1.bias f4 [64]
0	0xbc192fb0	-0.0093497485
1	0x3d75e677	0.06003424
2	0xbdf770a8	-0.12082034
3	0xbd81f540	-0.06345606
4	0xbc595bb5	-0.013266494
5	0xbe58601d	-0.21130414
6	0xbca410e1	-0.02002758
7	0x3d101345	0.035174627
8	0xbe12f4d8	-0.14351213
9	0x3df80496	0.1211025
10	0x3d371add	0.044703353
11	0x3e1942ce	0.1496689
12	0x3dc7cfae	0.09756409
13	0xbd9fd92e	-0.078050956
14	0x3e166e0c	0.14690417
15	0xbdceea0d	-0.101032354
16	0xbe24d0cf	-0.16095279
17	0xbe408439	-0.18800439
18	0x3defa6aa	0.117017105
19	0xbddb9458	-0.10721654
20	0xbe09e712	-0.13467053
21	0xbe29e014	-0.16589385
22	0x3df195ff	0.117961876
23	0xbdf89067	-0.121369176
24	0xbd422c9e	-0.04740583
25	0xbd65b88a	-0.056084193
26	0x3e1b7d29	0.15184464
27	0x3acfc2cb	0.00158509
28	0xbe2bcd1a	-0.16777459
29	0x3e5f1040	0.21783543
30	0x3da444f7	0.080209665
31	0xbe035d36	-0.12828526
32	0xbd819619	-0.06327457
33	0xbce0299b	-0.027363589
34	0x3c00d64c	0.007863592
35	0xbdb92955	-0.090410866
36	0x3dced8f6	0.10099976
37	0x3dbc1039	0.09182782
38	0xbe4f4ec6	-0.20244893
39	0xbb9758d5	-0.004618744
40	0xbe29bf6f	-0.16576932
41	0xbb0a2899	-0.0021081327
42	0xbe116a7f	-0.14200781
43	0xbe15501a	-0.14581338
44	0x3e0a18a0	0.13485956
45	0x3c5d360a	0.013501653
46	0xbd92964a	-0.071575716
47	0xbe149801	-0.1451111
48	0x3c135e52	0.008994656
49	0xbe0a24da	-0.1349062
50	0xbe1990a0	-0.14996576
51	0xbd1db986	-0.038507007
52	0x3d06f67a	0.032949902
53	0xbd043b71	-0.03228325
54	0x3d4defa8	0.050277382
55	0x3d1a87c0	0.037727118
56	0xbe2af443	-0.16694741
57	0xbbaf8720	-0.0053566843
58	0xbb2c7a53	-0.0026318028
59	0x3baed585	0.005335512
60	0xbe05cec5	-0.13067158
61	0xbd44638e	-0.047946505
62	0x3e3a9c27	0.1822363
63	0xbdae074e	-0.08497487

target_net.fc2.weight f4 [3, 64]
0	0xbd1e07fa	-0.038581826
1	0xbd87f63e	-0.06638764
2	0xbd642cf7	-0.055706944
3	0xbd54543e	-0.051838152
4	0x3c9c043d	0.01904499
5	0xbd7ce8ba	-0.061745383
6	0x3d18f2c0	0.03734088
7	0xb99c8b4e	-0.0002985843
8	0xbdc5ccd0	-0.096582055
9	0x3dd4e7f2	0.103958026
10	0xbd87561a	-0.066082194
11	0xba44aae2	-0.000750227
12	0xbd9f989a	-0.07792778
13	0x3c88fb32	0.016721342
14	0xbda59829	-0.08085663
15	0x3d859397	0.06522291
16	0x3d8643f6	0.06555931
17	0x3bbc33ba	0.005743471
18	0xbb64a605	-0.0034888994
19	0x3c783819	0.0151500935
20	0xbd28c3a7	-0.041202214
21	0x3dd4e1a3	0.10394599
22	0xbdbbec57	-0.091759376
23	0xbc34c9cb	-0.011034439
24	0xbd6a2698	-0.057165712
25	0xbd2edc55	-0.042690594
26	0xbbf8fb3a	-0.007598308
27	0x3d4ba9de	0.049722545
28	0x3d3eedf9	0.046613667
29	0xbdc69447	-0.096962504
30	0xbd8397b1	-0.06425417
31	0x3d2dad08	0.042401344
32	0xbcf3b684	-0.029750116
33	0x3daf47e1	0.08558632
34	0x3d0ac884	0.033882633
35	0x3b73af56	0.0037183366
36	0xbd82ab70	-0.06380355
37	0xbe0b3a4e	-0.1359646
38	0x3dfb1807	0.12260442
39	0x3cecb579	0.028895127
40	0x3d6f3116	0.05839642
41	0xbd9abf28	-0.075559914
42	0x3d0fce29	0.03510872
43	0x3dc8bff7	0.098022394
44	0xbd31be82	-0.043394573
45	0x3d9095ba	0.07059808
46	0x3d114ddb	0.03547464
47	0x3cc38ad8	0.023869917
48	0x3cfca290	0.030839235
49	0xbd3f982a	-0.046775974
50	0xbce151a0	-0.027504742
51	0xbdac0d82	-0.08401014
52	0xbdedb063	-0.11605909
53	0xbdb33d68	-0.08751947
54	0xbd8d51dc	-0.06900379
55	0x3d6d7c42	0.05797983
56	0x3ce4b63a	0.027918924
57	0x3cc76beb	0.024343451
58	0x3da423d6	0.08014648
59	0xbe02e326	-0.12781963
60	0xbd2ec0e0	-0.04266441
61	0x3cc38750	0.023868233
62	0xbe592fef	-0.21209691
63	0x3d44eb40	0.048075914
64	0xbd8640f0	-0.065553546
65	0xbc39221d	-0.011299637
66	0x3dcb25be	0.09919308
67	0xbd406d0f	-0.046979006
68	0x3ddf8b05	0.10915188
69	0xbdadb0a6	-0.08480959
70	0x3dc578cd	0.096421815
71	0x3de9ebda	0.11421938
72	0xbc414050	-0.011795118
73	0xbda696b7	-0.08134215
74	0x3de82005	0.11334232
75	0x3e2d03d9	0.16895999
76	0x3d3eb6c0	0.046561003
77	0x3d591984	0.05300285
78	0x3d7cd019	0.061721895
79	0xbcc4c896	-0.024021428
80	0xbc4078d3	-0.011747557
81	0x3dda8943	0.10670712
82	0x3c1af242	0.009457173
83	0x3cbcd44c	0.02305045
84	0x3db62d1a	0.08895321
85	0x3cd61d91	0.026137145
86	0xbda52a01	-0.08064652
87	0x3cb48a77	0.022038681
88	0x3d08ad19	0.033368204
89	0xbdecf903	-0.11570933
90	0x3dbf6159	0.093447395
91	0x3e2e51ec	0.17023438
92	0xbc985e9e	-0.018599804
93	0x3d1bc6a0	0.03803122
94	0xbd2865dc	-0.041112766
95	0x3c5397ee	0.012914641
96	0x3df190da	0.11795206
97	0xbc37d7eb	-0.011220912
98	0x3b5a1dd4	0.003328194
99	0x3d0c0dcf	0.034192856
100	0x3cca4b15	0.024694005
101	0x3d9291c2	0.07156707
102	0xbd858a87	-0.065205626
103	0xbd6543b8	-0.055972785
104	0x3cd9867d	0.026553387
105	0x3dabf520	0.08396363
106	0xbd8182d7	-0.06323784
107	0x3d187f32	0.037230678
108	0x3e05ad55	0.13054402
109	0x3db6d83a	0.08927961
110	0x3de19b67	0.11015969
111	0xbc667304	-0.014065508
112	0x3d1295dc	0.03578745
113	0x3db19dcb	0.08672675
114	0xbdf140d4	-0.11779943
115	0x3cc16be6	0.02361102
116	0xbd3e21cb	-0.046418946
117	0xbd9937ff	-0.074813835
118	0xbd12e594	-0.035863474
119	0x3bcc2b3e	0.006230741
120	0xbd8cc3da	-0.06873293
121	0xbd370274	-0.044680074
122	0xbcb0606c	-0.021530353
123	0x3d2f4cb8	0.042797774
124	0xbc342fb2	-0.0109977
125	0xbd7d7a94	-0.061884478
126	0xbc118e95	-0.008884092
127	0x3c832d10	0.016012698
128	0xbda35772	-0.07975663
129	0xbdb3fc90	-0.08788407
130	0xbd42e1aa	-0.04757849
131	0x3b862ce6	0.004094708
132	0xbdb4e2a0	-0.08832288
133	0x3d7c2a27	0.061563637
134	0xbdc6706e	-0.09689413
135	0xbcbe013c	-0.023193948
136	0x3d82a9ba	0.06380029
137	0x3dd6bc25	0.104851045
138	0x3e1ca6f5	0.15298064
139	0xbd59e692	-0.053198405
140	0xbc492748	-0.012277432
141	0x3ddea341	0.10870982
142	0xbd83a74b	-0.06428393
143	0xbd1e0624	-0.038580075
144	0xbd073f5d	-0.033019412
145	0x3bea0584	0.007141771
146	0x3d3734d0	0.0447281
147	0x3bbe6b68	0.0058111437
148	0xbe0be2a0	-0.1366067
149	0xbd7c01d2	-0.061525173
150	0x3dbc992d	0.092089035
151	0xbdb97af7	-0.09056657
152	0xbb819de5	-0.00395559
153	0x3d9d8b86	0.076926276
154	0x3db3b4e7	0.08774739
155	0xbd5de38f	-0.054172095
156	0xbd2802f2	-0.041018434
157	0x3e230908	0.15921414
158	0x3dcaeabf	0.099080555
159	0x3e0dab81	0.13834955
160	0xbdb78bb6	-0.089621946
161	0x3d10df4d	0.035369206
162	0x3de5c494	0.11219135
163	0xbd889e64	-0.066708356
164	0xbd0f3898	-0.03496608
165	0x3c8d39ae	0.017239418
166	0x3d29dc3d	0.0414698
167	0xbdbe9cef	-0.093072765
168	0xbcc0c2c5	-0.023530373
169	0xbdc72e3e	-0.09725617
170	0xbcf1b996	-0.02950744
171	0x3df50aac	0.11964926
172	0x3db361c7	0.08758884
173	0xbd50c736	-0.050971232
174	0xbd54b1b0	-0.05192727
175	0x3dd74ae0	0.10512328
176	0x3cdd7fda	0.027038503
177	0x3c9fd614	0.01951126
178	0x3db506c5	0.08839182
179	0xbcfc4016	-0.030792277
180	0xbdcee34a	-0.10101946
181	0xbcf13afd	-0.029447073
182	0x3d4937e6	0.049125575
183	0x3ddb96cb	0.10722121
184	0xbe028616	-0.12746462
185	0xbdcae336	-0.09906618
186	0x3daa811d	0.08325408
187	0x3dbe09dd	0.09279225
188	0xbdda4e46	-0.10659461
189	0xbdd33831	-0.10313452
190	0x3daa08e2	0.083024755
191	0x3c061e50	0.008185938

target_net.fc2.bias f4 [3]
0	0xbcdb8e5e	-0.026801284
1	0x3cddc392	0.027070794
2	0x3d692b33	0.056925964

tatic_net.fc1.weight f4 [64, 42]
0	0x3e12307b	0.14276306
1	0xbd1dcabf	-0.038523432
2	0x3bf0c38d	0.00734753
3	0xbe0ca15e	-0.13733432
4	0x3d535dfb	0.0516033
5	0xbe1383f3	-0.14405803
6	0xbd32bc13	-0.043636393
7	0xbdd78c36	-0.1052479
8	0x3dbc5ec5	0.09197763
9	0x3e02fb1b	0.12791102
10	0xbdc6a1ed	-0.09698854
11	0x3c95edc3	0.01830185
12	0xbe000669	-0.12502445
13	0x3dffcbe0	0.12490058
14	0x3db9dfd6	0.090758964
15	0xbdf3ddaf	-0.11907517
16	0xbe1ee07a	-0.15515319
17	0x3dca37aa	0.09873898
18	0x3c63aa9e	0.013895659
19	0xbddeac56	-0.10872714
20	0x3e1d3df6	0.15355667
21	0xbdc0c089	-0.09411723
22	0xbd446503	-0.047947895
23	0x3e269480	0.16267586
24	0xbe167791	-0.14694048
25	0x3dbc6c20	0.09200311
26	0xbd9218cf	-0.07133638
27	0xbdca9ebe	-0.09893559
28	0x3d9cc24d	0.076542474
29	0xbd41ad67	-0.04728451
30	0x3d06539a	0.032794572
31	0x3dfba9a0	0.12288213
32	0xbc5a0661	-0.013307185
33	0xbe198616	-0.14992556
34	0x3dd25815	0.102707066
35	0x3dee44b5	0.116341986
36	0xbddac917	-0.10682886
37	0x3cd111f8	0.025521263
38	0x3d3202ce	0.043459706
39	0x3d8ba418	0.06818408
40	0x3dae8696	0.08521764
41	0xbd28a037	-0.041168418
42	0xbdfccea1	-0.12344099
43	0x3e15ce1a	0.14629403
44	0xbd621fb2	-0.05520601
45	0x3dfca3eb	0.12335952
46	0xbcb12564	-0.021624275
47	0x3db9091e	0.09034942
48	0x3e0e1b43	0.13877587
49	0xbd194a7d	-0.037424553
50	0xbc21c654	-0.009873945
51	0xbc891450	-0.016733319
52	0x3da4ace4	0.08040789
53	0x3db88fae	0.0901178
54	0xbdad5c38	-0.08464855
55	0xbc9005bf	-0.017580865
56	0xbda9c7c4	-0.082900554
57	0xbdf36456	-0.11884372
58	0x3d8b1ec4	0.067929775
59	0x3dcb0799	0.099135585
60	0x3db07906	0.086168334
61	0x3d92ad60	0.07161975
62	0xbd184cf3	-0.03718276
63	0x3d08cda3	0.033399235
64	0x3e1d4c7a	0.15361205
65	0xbd0fbc9c	-0.03509198
66	0xbdb53643	-0.0884824
67	0x3df17c28	0.11791259
68	0x3daf4c62	0.08559491
69	0x3c15dc36	0.009146741
70	0xbe04f634	-0.12984544
71	0xbb1fffd4	-0.002441396
72	0xbdc1de1f	-0.09466194
73	0x3d27e394	0.04098852
74	0xbe1729a4	-0.14761978
75	0xbdf499b6	-0.119433805
76	0xbd1cd51e	-0.038289182
77	0x3e048753	0.12942247
78	0xbe066447	-0.1312419
79	0xbd5eab6d	-0.054362703
80	0xbe120336	-0.14259037
81	0x3dcf0f0d	0.101102926
82	0xbca9d000	-0.020729065
83	0x3d8579c4	0.065173656
84	0x3d830536	0.06397478
85	0x3db2402c	0.08703646
86	0xbdf9dabe	-0.12199925
87	0xbe0ab95f	-0.13547276
88	0xbe19fa7e	-0.15036961
89	0x3e57474c	0.21023291
90	0x3d44d000	0.048049927
91	0x3dad94a3	0.08475616
92	0x3d862f08	0.06551939
93	0x3d338c10	0.043834746
94	0xbd550707	-0.052008655
95	0x3d94604b	0.07244929
96	0xbe198267	-0.14991151
97	0xbe0984bf	-0.13429545
98	0x3d98dae8	0.07463628
99	0xbdafc503	-0.08582499
100	0x3e167571	0.14693238
101	0xbdb50006	-0.08837895
102	0x3d96a3b5	0.073554434
103	0xbdf66fd8	-0.12033051
104	0xbdb6fd84	-0.08935073
105	0xbd368aed	-0.044566084
106	0xbdff937d	-0.12479303
107	0xbd2daf52	-0.042403527
108	0x3d5615d5	0.052266914
109	0x3ccab8a8	0.024746254
110	0xbd7ad26e	-0.061235838
111	0x3dcdd056	0.100495026
112	0xbc8f2d24	-0.01747758
113	0x3dad2832	0.08454932
114	0xbe0f236e	-0.13978359
115	0x3ba6ca0e	0.0050900048
116	0x3d233fcb	0.03985576
117	0x3d46880e	0.048469596
118	0xbe0a22b8	-0.13489807
119	0x3ca0ae40	0.019614339
120	0x3d495ca5	0.04916062
121	0xbe104b8e	-0.14091322
122	0xbe1d4c41	-0.1536112
123	0x3dc5aa32	0.09651603
124	0xbe145063	-0.1448379
125	0xbb5ff141	-0.0034170898
126	0xbe110c81	-0.14164926
127	0xbddde032	-0.108337775
128	0x3d903b6f	0.07042586
129	0x3e25e860	0.16201925
130	0x3d2ccffd	0.04219054
131	0x3e43d021	0.19122364
132	0xbe0ff596	-0.14058527
133	0xbdfabaeb	-0.12242683
134	0xbdfb7677	-0.12278455
135	0x3e19aaf6	0.15006623
136	0xbd13eb01	-0.03611279
137	0x3d40002b	0.04687516
138	0x3d976c84	0.073937446
139	0xbe13ec44	-0.14445597
140	0x3dbae7ba	0.091262296
141	0xbe28b3d5	-0.1647485
142	0xbc46ca01	-0.012133122
143	0x3e0397b0	0.12850833
144	0x3d9ba12f	0.07599103
145	0x3e1cd55e	0.15315768
146	0x3c5645c3	0.013078156
147	0x3d96be09	0.07360465
148	0xbdc05b37	-0.09392398
149	0x3e105b56	0.14097342
150	0xbd8710e2	-0.06595017
151	0xbde41470	-0.11136711
152	0x3dd2d672	0.102948084
153	0xbd986d17	-0.07442682
154	0x3e10f5bf	0.14156245
155	0xbdd60af4	-0.10451308
156	0x3cc09f1c	0.02351337
157	0xbd0b8515	-0.034062464
158	0x3da12be8	0.078697026
159	0xbcb58137	-0.022156341
160	0x3df8ce91	0.121487744
161	0xba1b5a7a	-0.0005926263
162	0xbe0fa288	-0.14026845
163	0xbda2aeb6	-0.0794348
164	0xbe368e22	-0.17827657
165	0x3dcc9ab5	0.099904455
166	0xbd950d7a	-0.07277961
167	0x3e1dee2d	0.15422888
168	0x3d52344b	0.0513194
169	0xbe02fd25	-0.1279188
170	0xbe0aba18	-0.13547552
171	0xbdf1b530	-0.11802137
172	0x3d917ec8	0.0710426
173	0xbdc7b0e3	-0.09750535
174	0xbdd1c819	-0.10243244
175	0xbe1821f8	-0.14856708
176	0xbd13f0ae	-0.036118202
177	0xbdabd8e7	-0.0839098
178	0xbdc032ab	-0.09384664
179	0x3e1ba0fb	0.15198128
180	0xbcf3c888	-0.029758707
181	0xbda28542	-0.07935573
182	0xbd14c0da	-0.03631673
183	0xbe01bc23	-0.12669425
184	0x3b84610a	0.0040398883
185	0x3e1ad3fb	0.15119927
186	0xbd960216	-0.073246166
187	0x3cca6f21	0.024711194
188	0xbdd6c02f	-0.10485875
189	0x3d39b6b7	0.045340266
190	0xbdd59bf9	-0.1043014
191	0xbe28b48a	-0.1647512
192	0x3ddea1e5	0.10870723
193	0x3dda38e2	0.10655381
194	0x3dbbf2dd	0.09177182
195	0x3d4a1c22	0.049343236
196	0xbe114037	-0.14184652
197	0x3d0e7669	0.034780893
198	0x3d441f3f	0.04788136
199	0x3dcf67d3	0.10127225
200	0xbc3d859b	-0.011567499
201	0xbded44ce	-0.11585389
202	0xbc205ba3	-0.009787473
203	0x3db6fddb	0.08935138
204	0xbd4365db	-0.04770456
205	0xbc2c73e5	-0.010525678
206	0x3c153957	0.009107909
207	0xbbe9254f	-0.0071150432
208	0x3d01ad1d	0.031659234
209	0x3e1c3437	0.15254293
210	0x3d9d237e	0.07672785
211	0xbdf79fda	-0.12091036
212	0x3e159cd7	0.14610611
213	0x3b21cd76	0.0024689115
214	0xbd369dbe	-0.04458403
215	0x3d183343	0.037158262
216	0x3cad1aba	0.021130908
217	0x3d12f64d	0.035879422
218	0xbb1f854f	-0.0024340933
219	0x3da669e4	0.08125666
220	0xbdd3a3d2	-0.103339806
221	0x3dd31dba	0.10308404
222	0x3d7d6238	0.061861247
223	0x3db632af	0.08896386
224	0x3d33fb23	0.043940675
225	0x3cd7fc1e	0.026365336
226	0xbdab8ca8	-0.083764374
227	0xbe304fa7	-0.17217885
228	0x3dd1bf35	0.10241548
229	0xbdb25ac2	-0.08708717
230	0x3d7084ec	0.058720514
231	0x3c56794d	0.013090444
232	0xbdfe30b0	-0.1241163
233	0xbb6baef5	-0.0035962437
234	0x3cdcd516	0.026957076
235	0x3d67ba86	0.056574367
236	0xbbdefafc	-0.006804822
237	0x3d1920ca	0.037384786
238	0xbdfe43f7	-0.12415307
239	0xbd4eb2ed	-0.050463606
240	0x3e1dbf90	0.15405107
241	0x3e05e8e2	0.13077119
242	0xbd9cdf8d	-0.076598264
243	0x3e0bf760	0.13668585
244	0x3e0ccfa2	0.1375108
245	0x3c50b464	0.012738321
246	0xbdd1d670	-0.10245979
247	0x3dd65399	0.10465164
248	0xbdf42837	-0.11921733
249	0x3def63c4	0.11688951
250	0x3ca21c32	0.019788835
251	0xbe0526d7	-0.13003097
252	0x3dc60073	0.096680544
253	0x3dfdffd4	0.12402311
254	0x3db03936	0.08604662
255	0xbc34ed81	-0.0110429535

tatic_net.fc1.bias f4 [64]
0	0x3dd69aa2	0.104787126
1	0xbd96e9c1	-0.07368804
2	0x3d29a44e	0.04141646
3	0x3db78066	0.08960037
4	0x3cd3aad1	0.025838288
5	0x3dae12a2	0.08499648
6	0xbd5472ff	-0.05186748
7	0xbd9377e1	-0.072005995
8	0xbda0d29e	-0.07852672
9	0x3ae64e27	0.0017570899
10	0x3d6f265c	0.05838619
11	0x3dd7b3df	0.105323546
12	0xbd97bebb	-0.07409426
13	0x3d1f0348	0.03882149
14	0x3d6c48af	0.057686504
15	0x3de88be8	0.1135481
16	0xbd993fc9	-0.07482869
17	0x3dd5ad40	0.104334354
18	0x3e15a568	0.14613879
19	0x3ddb38fa	0.10704227
20	0x3d350466	0.044193648
21	0x3df82d8e	0.12118064
22	0xbdc737f9	-0.09727473
23	0x3e0b371c	0.13595241
24	0xbd802ffb	-0.062591515
25	0xbd60511b	-0.05476485
26	0xbd84eae9	-0.06490118
27	0xbc4b8403	-0.012421611
28	0xbe10403a	-0.14087
29	0x3e02952e	0.1275222
30	0xbdbc7814	-0.092025906
31	0xbd7b69f7	-0.061380353
32	0x3e084982	0.13309291
33	0xbdadce80	-0.084866524
34	0x3db73ae9	0.08946783
35	0xbd2129a7	-0.039346363
36	0x3c1f52a6	0.009724295
37	0xbd3c74d1	-0.046009842
38	0x3d556567	0.052098658
39	0x3d81aee7	0.06332188
40	0xbdb2a8d0	-0.08723605
41	0xbdd0a385	-0.10187439
42	0x3d5a76ee	0.053336076
43	0x3e0c1016	0.13678011
44	0x3d93f7a6	0.072249696
45	0x3e1fe556	0.15614828
46	0xbdfeae6d	-0.12435613
47	0x3dce89a4	0.100848466
48	0x3d3af6ad	0.045645405
49	0xbde5edbe	-0.11226986
50	0xbe0a12b5	-0.13483699
51	0xbd57e267	-0.05270615
52	0xbd470a77	-0.048593964
53	0x3c1c93f4	0.009556759
54	0xbcd8f03e	-0.026481744
55	0x3c943647	0.018092288
56	0x3e15885c	0.14602798
57	0x3d32d72d	0.04366224
58	0x3d7fa59e	0.062413804
59	0x3da24b88	0.07924563
60	0x3c7d84f3	0.015473592
61	0xbdce33e5	-0.10068492
62	0xbde49808	-0.1116181
63	0xbda95d2c	-0.08269724

tatic_net.fc2.weight f4 [6, 64]
0	0x3d0847c8	0.03327158
1	0x3d82a666	0.06379394
2	0xbd771e68	-0.060331732
3	0x3d907f94	0.070555836
4	0xbd1744b0	-0.03693074
5	0x3c6d5760	0.014486164
6	0x3a416700	0.0007377714
7	0x3dc531fc	0.096286744
8	0x3da534ec	0.08066735
9	0xbdbc0198	-0.091799915
10	0x3dd9063a	0.10596891
11	0x3dc14322	0.09436633
12	0xbda64bae	-0.081199035
13	0x3cdae240	0.026719213
14	0xbd2f1e34	-0.042753413
15	0x3d9c6e72	0.07638253
16	0xbdf29d1a	-0.11846371
17	0xbdcba4da	-0.09943552
18	0xbc0f14c0	-0.0087329745
19	0x3d047404	0.032337204
20	0x3debd7c2	0.11515762
21	0xbddd935a	-0.10819121
22	0x3d9e3e9a	0.07726784
23	0xbbfa6960	-0.007641956
24	0xbc490dc0	-0.012271345
25	0xbdf7af72	-0.120940104
26	0x3de58180	0.11206341
27	0x3db2613c	0.08709952
28	0x3d5e98dc	0.054344997
29	0x3ca16bb8	0.019704685
30	0xbd0836ac	-0.033255264
31	0xbdc26f6e	-0.0949391
32	0xbdcf9f0c	-0.10137758
33	0x3d33248c	0.043736026
34	0xbc9b53b0	-0.018960804
35	0x3cac6738	0.021045312
36	0x3df0f3f4	0.1176528
37	0x3c010000	0.007873535
38	0x3c0c3860	0.008558363
39	0xbde1338c	-0.1099616
40	0xbdb48d0a	-0.088159636
41	0xbdcd9b08	-0.100393355
42	0xbc26e2f0	-0.010185942
43	0xbde6ec50	-0.11275542
44	0xbdf8a910	-0.12141621
45	0xbd4ee970	-0.050515592
46	0x3c4cfa70	0.012510881
47	0x3d72f74c	0.059317872
48	0x3d2e2260	0.04251325
49	0x3d7e1ff0	0.062042177
50	0xbda6a986	-0.08137803
51	0xbdca572c	-0.09879908
52	0xbdb3f2c6	-0.0878654
53	0xbdaa5ba2	-0.08318259
54	0x3c0da0c0	0.008644283
55	0xbdc7109a	-0.09719963
56	0xbc77daa0	-0.015127808
57	0xbd8e5be4	-0.069511205
58	0x3dda6e78	0.106656015
59	0x3c995630	0.018717855
60	0x3bd7f0c0	0.006589979
61	0x3dc7b3a8	0.097510636
62	0xbd840680	-0.06446552
63	0x3dbf78b2	0.09349193
64	0xbd69683c	-0.05698417
65	0x3de96c14	0.113975674
66	0xbd4e1434	-0.050312236
67	0x3d3ad990	0.04561764
68	0xbe0f27ba	-0.13979998
69	0x3ac2355d	0.0014816929
70	0xbd933452	-0.07187714
71	0xbe0f0822	-0.13967946
72	0xbd3b13c3	-0.045673143
73	0x3dd68c28	0.104759514
74	0xbe022c65	-0.12712248
75	0x3dd3bc94	0.10338703
76	0x3d4d12f2	0.050066896
77	0xbd8dffdd	-0.06933568
78	0x3d92a292	0.07159914
79	0xbcce7325	-0.02520139
80	0x3d0c25d6	0.03421577
81	0xbbd6e15f	-0.006557628
82	0xbd40bbdb	-0.047054153
83	0xbdc513ea	-0.09622939
84	0x3c9a0921	0.018803181
85	0x3cf8a92d	0.030354107
86	0xbdb5cdfd	-0.0887718
87	0xbce359f4	-0.027752854
88	0x3dbbe336	0.091741964
89	0xbcb4d846	-0.022075783
90	0xbd5c0797	-0.053718176
91	0xbd8985c6	-0.067149684
92	0x3c5df144	0.013546292
93	0x3d59c5f1	0.053167287
94	0xbd45e518	-0.048314184
95	0xbde3ae6a	-0.11117251
96	0x3d57627a	0.05258415
97	0x3d28b498	0.041187853
98	0x3e165f4e	0.14684793
99	0x3d640b45	0.05567481
100	0x3d7924f6	0.060826264
101	0x3d655091	0.055985037
102	0xbc8dc54f	-0.017305998
103	0x3d1764e9	0.03696147
104	0xbd233893	-0.039848875
105	0x3dae05ac	0.084971756
106	0x3da76e89	0.0817538
107	0x3bdb24f7	0.006687756
108	0xbd14258e	-0.036168627
109	0xbdd00ff4	-0.10159293
110	0x3c9a875c	0.018863373
111	0xbc402718	-0.011728071
112	0xbde6b24a	-0.11264475
113	0x3d20339b	0.039111715
114	0x3dd02124	0.10162571
115	0xbdf34449	-0.11878259
116	0x3d5451c9	0.05183581
117	0x3d9ba3bc	0.07599589
118	0xbd00f4fc	-0.031483635
119	0xbe06dc54	-0.13169986
120	0xbcf259a5	-0.029583761
121	0xbda7b926	-0.08189611
122	0x3e1cd9a7	0.15317403
123	0x3cd17f96	0.025573533
124	0x3dc7ed5e	0.09762071
125	0xbd2fb2b6	-0.04289504
126	0x3cf81823	0.030284947
127	0xbc738d49	-0.014865228
128	0xbd7817c7	-0.06056955
129	0xbd46a5b3	-0.048497867
130	0x3c6512b3	0.013981509
131	0x3d9147dc	0.07093784
132	0x3da4f5b5	0.080546774
133	0xbd34ebbc	-0.044170126
134	0x3d623b13	0.05523212
135	0x3d14cc22	0.03632749
136	0xbbc3378f	-0.005957551
137	0xbde3b400	-0.11118317
138	0xbc4c574f	-0.012471988
139	0xbae6db79	-0.0017613015
140	0x3dab8867	0.08375626
141	0xbcc14ecc	-0.023597144
142	0xbd53f7f5	-0.051750142
143	0xbc9c58b7	-0.019085271
144	0xbdf3d048	-0.11904961
145	0xbd7a261b	-0.061071496
146	0xbd674073	-0.056457948
147	0xbda799a2	-0.081836
148	0x3d7d11d1	0.06178457
149	0x3e06497b	0.13113968
150	0x3d85780e	0.06517039
151	0xbbd21eb9	-0.006412354
152	0x3d24d41c	0.040241346
153	0x3d2e9468	0.042622
154	0xbd103be4	-0.035213366
155	0xbac684cc	-0.0015145778
156	0x3df917b4	0.12162724
157	0x3cca6536	0.024706464
158	0xbd04362e	-0.032278232
159	0x3b987ea8	0.0046537705
160	0x3c95b5f1	0.018275233
161	0x3dfd6533	0.12372818
162	0x3c908979	0.017643677
163	0x3da47447	0.08029991
164	0xbc79f5b8	-0.015256338
165	0x3db7b8c9	0.08970792
166	0xbd8cf380	-0.068823814
167	0xbe0d78ea	-0.13815656
168	0x3dcb58ca	0.099290445
169	0x3e2b3dac	0.16722745
170	0xbd98bf10	-0.07458317
171	0x3de7f951	0.1132685
172	0xbcece6da	-0.028918672
173	0x3c8fc457	0.017549677
174	0x3dbc38f5	0.09190551
175	0x3dfbe8e7	0.12300282
176	0xbd8fb39f	-0.07016682
177	0xbd55aa26	-0.05216422
178	0x3cd5ae54	0.026084103
179	0x3db2a950	0.087237
180	0xbd9b1461	-0.07572246
181	0x3e04ccba	0.12968722
182	0xbda08bd4	-0.0783917
183	0xbc810c1e	-0.015752848
184	0xbe09f6a6	-0.13472995
185	0xbd23ce54	-0.03999169
186	0x3e19ef4b	0.1503269
187	0x3e44c377	0.19215189
188	0xbd63666d	-0.055517603
189	0x3d74dec6	0.059782766
190	0x3cfcdf28	0.030868128
191	0x3dc1b415	0.09458176
192	0xbce544b6	-0.027986865
193	0x3dc1f4ea	0.09470542
194	0x3cd4babf	0.025967954
195	0x3dccf107	0.1000691
196	0x3c5031b7	0.012707165
197	0x3b2890dd	0.002572111
198	0x3d069df3	0.032865476
199	0xbcb4b4b5	-0.022058824
200	0xbca608e2	-0.020267908
201	0xbc71dede	-0.014762608
202	0xbdc5f73e	-0.09666298
203	0xbda47839	-0.08030743
204	0x3cc37b24	0.023862429
205	0xbd95fbf0	-0.07323444
206	0xbd9200bf	-0.071290486
207	0x3c50e01a	0.0127487425
208	0x3da6889f	0.08131527
209	0xbdd04080	-0.101685524
210	0x3c88e881	0.016712429
211	0xbd5b019c	-0.05346833
212	0xbd889dca	-0.06670721
213	0xbd884ed1	-0.06655658
214	0x3d46321a	0.048387624
215	0xbc820d2e	-0.015875425
216	0x3d55219d	0.05203401
217	0xbd4870d6	-0.048935734
218	0xbcd6a17f	-0.026200054
219	0x3c8a960f	0.016917257
220	0xbddf3dc6	-0.10900454
221	0x3e078625	0.13234766
222	0xbd4147c2	-0.047187574
223	0xbd64af8f	-0.05583149
224	0xbe05067a	-0.12990752
225	0x3de55eca	0.1119972
226	0x3e034db3	0.12822609
227	0xbce82132	-0.028336141
228	0x3d5789e8	0.052621752
229	0xbd4808d5	-0.048836548
230	0xbc086984	-0.008325938
231	0x3d1110de	0.035416476
232	0x3dcacf1d	0.09902785
233	0x3d3977c8	0.045280248
234	0xbd7ae5cb	-0.061254304
235	0xbd7ba532	-0.06143684
236	0xbd55d315	-0.052203257
237	0x3dc483d2	0.09595455
238	0x3dc5f9f1	0.09666813
239	0xbce18440	-0.027528882
240	0xbdbd393b	-0.092394315
241	0x3e36d708	0.17855465
242	0x3d703531	0.058644477
243	0xbdb47c4a	-0.08812769
244	0xbce4db43	-0.027936583
245	0x3d500953	0.050790142
246	0xbdaae654	-0.08344713
247	0xbd615644	-0.05501391
248	0xbdfdb43d	-0.12387893
249	0x3db097b9	0.08622689
250	0x3e12c67c	0.14333528
251	0x3ce553b0	0.027994007
252	0xbdb9c90d	-0.090715505
253	0xbd87cd17	-0.06630915
254	0x3bfd8b42	0.007737548
255	0xbd2f3569	-0.042775545

tatic_net.fc2.bias f4 [6]
0	0x3d65b9c4	0.056085363
1	0xbde7ddf5	-0.11321632
2	0x3c99cbd4	0.01877395
3	0x3c37342f	0.011181875
4	0x3d0ab220	0.03386128
5	0xbdb79aa0	-0.08965039

tatic_net.fc3.weight f4 [6, 3]
0	0xbeb52158	-0.35377002
1	0x3ebeb8e6	0.3725044
2	0xbed626ff	-0.41826627
3	0x3ddab01b	0.10678121
4	0x3ece7441	0.4032307
5	0xbd995c0d	-0.074882604
6	0x3e8b146e	0.27164024
7	0xbe0566b8	-0.13027465
8	0xbe812068	-0.25220037
9	0x3ea4afbb	0.32165322
10	0xbe4ffe65	-0.20311888
11	0xbf1aa8dc	-0.6041391
12	0xbe7dbc61	-0.24778892
13	0xbf0518b3	-0.51990813
14	0x3f10212b	0.5630061
15	0x3f1d28a9	0.6139017
16	0x3ef22186	0.472912
17	0x3bd93e8e	0.0066297716

tatic_net.fc3.bias f4 [6]
0	0x3eb7a44e	0.35867542
1	0x3f034764	0.5128081
2	0x3e0846f3	0.13308315
3	0x3eaf6ef6	0.34264344
4	0xbdbaf361	-0.09128452
5	0xbda7f0d6	-0.08200233

tatic_net.fc4.weight f4 [3, 9]
0	0x3e92c627	0.28666803
1	0x3ec16165	0.3776962
2	0x3da65f79	0.08123679
3	0x3e896141	0.2683201
4	0x3ee2932d	0.4425291
5	0x3ebd8005	0.37011734
6	0xbddb2e2e	-0.107021675
7	0x3eba88d5	0.3643252
8	0xbe03fe2f	-0.12889932
9	0x3d4842e7	0.048891928
10	0x3c603561	0.0136846015
11	0xbdf32254	-0.11871782
12	0x3e671f59	0.22570552
13	0xbe4efafd	-0.20212932
14	0x3e83c784	0.25738156
15	0x3e73bbd3	0.23802118
16	0x3e4948ae	0.19656631
17	0x3ee262ba	0.44215947
18	0x3db0503a	0.08609052
19	0xbd231b42	-0.039820917
20	0x3e977fbb	0.29589638
21	0xbe66ebf7	-0.22550951
22	0x3cf7b28a	0.030236501
23	0x3ddb5506	0.10709576
24	0xbda7fab4	-0.08202115
25	0x3de2050f	0.11036121
26	0x3d9000eb	0.07031425

tatic_net.fc4.bias f4 [3]
0	0xbe371701	-0.17879869
1	0xbe3c7c16	-0.1840671
2	0xbd668c08	-0.056285888

fc1.weight f4 [256, 108]
0	0xb9df6917	-0.00042612173
1	0xbca28eb6	-0.01984344
2	0x3da39dde	0.07989095
3	0x3d92458c	0.07142171
4	0xbd5889bf	-0.05286574
5	0x3d54963e	0.051901095
6	0x3cb939c7	0.022610558
7	0xbd15f828	-0.036613613
8	0x3d96d918	0.07365626
9	0x3c8d5c85	0.01725603
10	0xbd7d8445	-0.06189372
11	0x3d7b416b	0.061341684
12	0xbd259135	-0.040421683
13	0xbdb59c02	-0.08867647
14	0x3cb69968	0.022289947
15	0x3d7d39b2	0.0618226
16	0x3cdfcaa7	0.027318312
17	0xbdb89679	-0.090130754
18	0xbc98ea83	-0.018666511
19	0x3bfa2b72	0.0076345736
20	0xbcc4d8cb	-0.024029156
21	0xbdabdab9	-0.083913274
22	0x3d771a1e	0.06032764
23	0x3d80a197	0.06280821
24	0x3d690079	0.056885216
25	0x3da5379c	0.08067247
26	0xbd66fa07	-0.05639079
27	0x3cd5f1d4	0.02611629
28	0xbd0e340d	-0.03471761
29	0x3d7a63bf	0.06113028
30	0xbda24380	-0.07923031
31	0x3db4868d	0.08814726
32	0xbb4125d1	-0.0029472003
33	0xbdb4417a	-0.08801551
34	0x3c78f3de	0.015194861
35	0x3dae1f50	0.08502066
36	0xbd7c728b	-0.061632674
37	0x3d934e6f	0.071926944
38	0xbda93a22	-0.08263041
39	0xbcee3604	-0.029078491
40	0xbdb01211	-0.08597196
41	0xbcbaef5c	-0.022819214
42	0xbcad1b7c	-0.02113127
43	0xbd73d21c	-0.059526548
44	0x3b846f8c	0.0040416177
45	0x3d98ca60	0.07460475
46	0xbdc328cf	-0.09529268
47	0x3d95e47f	0.07318973
48	0x3d921fcd	0.07134972
49	0x3d89b6b9	0.06724305
50	0xbb826f57	-0.003980558
51	0xbbfab5e5	-0.007651078
52	0xbd5b68c4	-0.05356671
53	0x3d04544b	0.03230695
54	0x3d4ae651	0.049536053
55	0x3daecbed	0.085349895
56	0xbda00183	-0.07812788
57	0x3c496af6	0.012293568
58	0x3d3b1f39	0.045684073
59	0xbc93000e	-0.017944362
60	0xbd6a0f09	-0.057143245
61	0xbd14d856	-0.036339127
62	0x3d4f633b	0.050631743
63	0x3d78d2f3	0.06074805
64	0x3d4f1c72	0.050564237
65	0xbdba2bad	-0.09090362
66	0x3d87cdd0	0.066310525
67	0x3ce65395	0.028116027
68	0x3cdd3b83	0.027005916
69	0x3d43a7fd	0.047767628
70	0xbb8128a8	-0.003941614
71	0xbd25ca9a	-0.04047642
72	0xbdc237b1	-0.094832785
73	0xbda8c050	-0.08239806
74	0xbd8dbae9	-0.06920416
75	0xbd89f6e0	-0.06736541
76	0xbda46b9f	-0.080283396
77	0x3b544240	0.003238812
78	0xbd825513	-0.06363883
79	0x3b94e4f4	0.004543895
80	0x3d890c08	0.06691748
81	0x3d97689b	0.07392999
82	0xbd7efcfd	-0.062252987
83	0xbda78639	-0.08179898
84	0xbc964d1a	-0.018347312
85	0xbdbdafa0	-0.092620134
86	0xbd1ffe2e	-0.039060764
87	0xbda6e83d	-0.08149765
88	0x3ca40470	0.020021647
89	0xbd5cb9bd	-0.05388807
90	0xbd20cc76	-0.03925749
91	0x3d9c9526	0.07645635
92	0xbd22c2da	-0.039736606
93	0x3dc27e99	0.09496803
94	0x3d804d33	0.062647246
95	0xbde315c4	-0.11088136
96	0xbce6c44f	-0.02816978
97	0xbd00a941	-0.031411413
98	0x3d350a7b	0.044199448
99	0xbdbeb4ab	-0.093118034
100	0xbb4b4a29	-0.0031019545
101	0x3d7bc508	0.0614672
102	0x3d503ee7	0.05084124
103	0x3ce9278e	0.028461244
104	0xbdabb42b	-0.08383974
105	0xbbc88981	-0.0061199074
106	0x3d743df7	0.059629407
107	0xbd5d81d6	-0.0540789
108	0xbd2da416	-0.042392813
109	0xbd3f2f3c	-0.046675906
110	0xbd57947e	-0.052631848
111	0x3f10e664	0.5660155
112	0x3edda8c1	0.43292812
113	0x3eb6c247	0.35695097
114	0xbb24a575	-0.0025123034
115	0x3d8bfd6d	0.068354465
116	0xbb924bf1	-0.0044646193
117	0x3f1a5780	0.60289764
118	0x3eed651d	0.46366206
119	0x3ecd12b9	0.40053347
120	0xbd30a9e7	-0.04313078
121	0xbce85560	-0.028361022
122	0xbd8f8857	-0.07008427
123	0x3ef6f846	0.48236293
124	0x3eecb514	0.46231902
125	0x3e9a9be5	0.30197063
126	0x3b2eb18d	0.0026656121
127	0x3c7a4085	0.015274172
128	0xbd43d253	-0.047808003
129	0xbd7a07b3	-0.0610425
130	0xbd48c845	-0.049019117
131	0x3e087532	0.13325956
132	0xbd8e8b65	-0.06960181
133	0x3d7df29a	0.06199894
134	0x3d8825d8	0.06647843
135	0x3d11dbea	0.035610117
136	0xbb963792	-0.004584261
137	0x3eb06861	0.34454635
138	0x3d8a5e54	0.06756273
139	0xbd83de89	-0.064389296
140	0x3d534440	0.05157876
141	0x3d937343	0.07199719
142	0x3b3ae87b	0.0028519917
143	0x3ebe00c5	0.37109962
144	0xbc843ec9	-0.01614322
145	0x3d768be5	0.060192008
146	0xbd5ee5b4	-0.05441828
147	0x3f0b9994	0.54531217
148	0x3f0aa1fa	0.54153407
149	0x3e9ddb71	0.30831483
150	0x3acebcee	0.0015772858
151	0x3cafaf08	0.021445766
152	0x3d9f33d4	0.07773557
153	0x3f10b4be	0.5652579
154	0x3ed2a4af	0.4114127
155	0x3e8009fc	0.25007617
156	0xbbb51bbb	-0.0055269874
157	0xbc6b32a8	-0.014355339
158	0x3d0b21d5	0.03396781
159	0x3ef9b58c	0.48771322
160	0x3ee56a16	0.448075
161	0x3e82d099	0.25549772
162	0xbd707e3d	-0.05871414
163	0xbd77cfec	-0.060501024
164	0xbc9103c4	-0.01770199
165	0x3d353556	0.04424032
166	0x3d955cd3	0.072930954
167	0x3df991a9	0.121859856
168	0x3d3187b1	0.043342296
169	0xbdba60cb	-0.09100493
170	0xbc03d72d	-0.008046907
171	0xbd824e61	-0.06362606
172	0xbd163a7e	-0.036676876
173	0x3e8881b6	0.26661462
174	0xbd00b524	-0.03142275
175	0x3a667580	0.00087913126
176	0x3dbf9b9d	0.09355853
177	0xbce87082	-0.02837396
178	0xbdc40468	-0.09571153
179	0x3ea41377	0.320461
180	0x3d52a27f	0.0514245
181	0xbd2afddb	-0.041746
182	0xbd5530ec	-0.05204861
183	0x3ef13e7f	0.47117993
184	0x3f02170c	0.50816417
185	0x3e771c8c	0.24131984
186	0x3c09bf4e	0.008407427
187	0xbc858f1e	-0.016303595
188	0x3d7a39d2	0.061090298
189	0x3f20aa99	0.6276031
190	0x3eed4ccb	0.4634765
191	0x3e7e0be1	0.24809219
192	0xbd23002c	-0.039795086
193	0x3d8529b3	0.06502094
194	0x3ca0a1f7	0.01960848
195	0x3f10c282	0.56546795
196	0x3ee5706a	0.44812328
197	0x3ece08ad	0.40240994
198	0xbd6e6c3b	-0.058208685
199	0xbd934028	-0.07189971
200	0x3d6a90fd	0.057267178
201	0xb8a6c20d	-7.9516416e-05
202	0x3d2f3ad1	0.0427807
203	0x3e5b9a7f	0.21445654
204	0x3c9d6f30	0.019218057
205	0xbc8caa90	-0.017171174
206	0x3ba38248	0.004989896
207	0x3db1906c	0.086701244
208	0xbd873cbd	-0.06603382
209	0x3e9c16a0	0.30486012
210	0xbc423d04	-0.011855368
211	0x3d01b45a	0.031666137
212	0x3d1328ec	0.035927698
213	0x3cf19b01	0.029492857
214	0x3d928d93	0.071559094
215	0x3e886c4b	0.2664512
216	0x3d822d75	0.063563265
217	0x3c98c0df	0.018646656
218	0xbd99d2c4	-0.075109035
219	0xbd133dc6	-0.035947584
220	0xbc83dd74	-0.016096808
221	0xbd1e5ebd	-0.03866457
222	0x3d8f29b1	0.06990374
223	0xbdaa0ae3	-0.08302858
224	0x3dbfd7c1	0.09367324
225	0x3d8edc27	0.069755845
226	0x3c582e68	0.013194658
227	0x3d91f3d5	0.071265854
228	0x3d6a42e3	0.057192694
229	0x3d056959	0.03257117
230	0xbd1564e3	-0.036473166
231	0x3d5ca2d1	0.05386621
232	0x3d8da86b	0.06916889
233	0x3cf84ea7	0.030310942
234	0xbc57a2ac	-0.013161343
235	0xbd998d52	-0.07497658
236	0xbd7546e2	-0.059882052
237	0x3d448c9e	0.047985666
238	0x3db2e31c	0.08734724
239	0x3d573a2e	0.05254572
240	0x3dbd580b	0.092453085
241	0xbd152445	-0.036411542
242	0x3d5005a2	0.050786622
243	0x3d2536b8	0.040335387
244	0x3c32ff54	0.010925133
245	0xbdd8a38d	-0.1057807
246	0x3d92733a	0.07150884
247	0xbb5109a2	-0.003189661
248	0xbd7b79ce	-0.06139546
249	0xbd5f21c6	-0.05447557
250	0xbdbd411b	-0.092409335
251	0xbda55ef3	-0.08074751
252	0x3d8bce56	0.06826465
253	0x3c8acffb	0.016944876
254	0x3d925cc0	0.07146597
255	0xbd398488	-0.045292407

fc1.bias f4 [256]
0	0xbde0ba21	-0.10973001
1	0x3efb5b39	0.49093035
2	0xbbdcd030	-0.006738685
3	0x3ea918ac	0.33026636
4	0x3ede8852	0.4346338
5	0x3f044b80	0.51677704
6	0x3e835139	0.25647905
7	0x3efedfa4	0.4978
8	0x3ec20c07	0.378998
9	0x3f34af0d	0.70579606
10	0x3f436e83	0.763405
11	0x3f5afafe	0.85539234
12	0xbc7abcd4	-0.015303809
13	0x3f0bb144	0.5456736
14	0x3f3bd1b8	0.7336688
15	0x3f6cee2d	0.9255093
16	0x3f3fd0fd	0.74928266
17	0x3f109d9c	0.5649049
18	0x3f732315	0.94975406
19	0xbbd0eea2	-0.0063761035
20	0x3f4f6496	0.81012857
21	0xbd81b570	-0.063334346
22	0x3f4fe0a6	0.8120216
23	0x3f3764b6	0.7163805
24	0x3efdc242	0.4956227
25	0x3f5d85cb	0.86532277
26	0x3f3c5775	0.7357095
27	0x3ed98913	0.42487392
28	0x3f21dd6c	0.6322849
29	0x3f42de89	0.7612081
30	0xb9d833a5	-0.0004123721
31	0x3f70c874	0.9405587
32	0xbc1135c2	-0.0088629145
33	0x3f515baf	0.81780523
34	0xbdadc879	-0.08485503
35	0x3ef9a3b8	0.4875772
36	0x3f4e8391	0.80669504
37	0x3ee35dc1	0.44407466
38	0xbc967ee9	-0.018371062
39	0x3f39b818	0.7254653
40	0x3eeaa3d3	0.45828113
41	0x3f44efeb	0.76928586
42	0xbdbfba85	-0.09361748
43	0x3f42d716	0.76109445
44	0x3f27d51d	0.6555956
45	0x3f4ca5dd	0.7994059
46	0x3ec444f9	0.38333872
47	0x3f6b1a4d	0.91837007
48	0xbe003b9f	-0.12522744
49	0x3f359246	0.7092632
50	0x3e2ea4fa	0.17055121
51	0xb986dd8c	-0.00025723537
52	0x3f40c312	0.75297654
53	0x3ed969b1	0.4246345
54	0x3f4ed3a1	0.8079167
55	0x3f42c217	0.7607741
56	0x3f060333	0.5234863
57	0x3f57d22f	0.8430509
58	0x3f555da9	0.8334604
59	0xbb51bbd1	-0.0032002816
60	0x3f5833be	0.8445395
61	0x3f54ab1f	0.8307361
62	0x3f6df648	0.9295392
63	0x3f444795	0.76671726
64	0x3ee265ad	0.44218197
65	0x3f546d2a	0.8297907
66	0xbca13cb8	-0.019682273
67	0x3f51abcc	0.81902766
68	0x3f4fa1fd	0.8110655
69	0xbd6a493a	-0.05719874
70	0x3e2f2cbe	0.17106912
71	0x3eade865	0.33966365
72	0x3f514e8e	0.8176049
73	0x3f48dfa7	0.78466266
74	0xbc8ca524	-0.017168589
75	0x3f53e2c8	0.82767916
76	0x3f4af9ee	0.7928761
77	0x3f2fbb19	0.68644863
78	0xbbb82560	-0.00561969
79	0x3f522c3f	0.82098764
80	0x3f53dccb	0.8275878
81	0xbdb3d381	-0.087805755
82	0x3f6a0ba6	0.91424024
83	0x3f39f176	0.72634065
84	0x3f46c42d	0.7764309
85	0x3f5ef106	0.8708652
86	0x3f48d62c	0.784518
87	0x3f26b1f1	0.6511527
88	0x3f4f733d	0.81035215
89	0x3f5786fd	0.8419035
90	0x3e309c86	0.17247209
91	0x3f2ae1cd	0.66750795
92	0x3eb476c5	0.35246864
93	0x3f4a7011	0.7907725
94	0x3f46e109	0.77687126
95	0xba2955f4	-0.00064596464
96	0x3f497bf6	0.78704774
97	0x3f518ac1	0.81852347
98	0x3f39b351	0.7253924
99	0xbdc2d67a	-0.095135644
100	0x3f6d8191	0.9277583
101	0xbb418def	-0.0029534062
102	0x3f57b271	0.84256655
103	0x3ea5acad	0.32358304
104	0xbd80df50	-0.062925935
105	0xba1ba9c7	-0.00059380796
106	0xbb579ba6	-0.003289917
107	0xbb8ac656	-0.0042350693
108	0x3f531183	0.82448596
109	0x3f1e54ab	0.61847943
110	0xbcff480c	-0.031162284
111	0xbd071c1b	-0.032985788
112	0x3f517745	0.81822616
113	0x3f5bacfa	0.85810816
114	0x3f559e12	0.8344432
115	0x3f2909d3	0.66030616
116	0xbdaed702	-0.08537103
117	0x3f3ebceb	0.74507016
118	0x3f5bb2bd	0.8581961
119	0x3f3a2f8d	0.72728807
120	0x3f5da7a5	0.8658393
121	0xbd6b4bdb	-0.05744539
122	0x3f6e627c	0.93119025
123	0x3f4046a1	0.7510777
124	0x3f506589	0.8140493
125	0xbce652c5	-0.02811564
126	0x3f61dfd7	0.8823218
127	0x3f42aab1	0.76041704
128	0x3f661ac0	0.8988457
129	0xbdcbe6eb	-0.099561535
130	0x3f414a29	0.75503784
131	0x3f5a54a6	0.85285413
132	0x3f55bf8f	0.8349542
133	0xbc1a8d07	-0.009433038
134	0xbd97c061	-0.0740974
135	0xb8f84ab4	-0.00011839476
136	0xbdb51e5d	-0.08843682
137	0x3f72cf74	0.948478
138	0x3f59fa7c	0.85147834
139	0xbdc2e0e2	-0.09515549
140	0x3f2eb44b	0.68243855
141	0xbdd08c04	-0.10182956
142	0x3f4abe44	0.7919657
143	0x3e4f32b1	0.20234181
144	0x3f4d9837	0.80310386
145	0x3f044a7c	0.51676154
146	0x3ee7cbeb	0.45272765
147	0x3eead54f	0.45865867
148	0x3ec3bed2	0.38231522
149	0x3f475c6e	0.7787541
150	0xbc226d9e	-0.00991383
151	0x3f504e72	0.813697
152	0x3f6941cc	0.91116023
153	0xbdbbeb41	-0.091757305
154	0x3f2b0c04	0.6681521
155	0x3f53a36c	0.82671237
156	0x3f49f12d	0.7888363
157	0x3f54e3d5	0.83160144
158	0xbccde57c	-0.02513384
159	0x3edc7c4c	0.4306358
160	0x3f46078c	0.77355266
161	0x3ef53292	0.47890145
162	0x3f4404bc	0.76569724
163	0x3ef3d160	0.47620678
164	0x3f5a8b9e	0.8536929
165	0xb9e638f5	-0.00043911455
166	0x3f018148	0.5058789
167	0x3ef26fc1	0.47350886
168	0x3f4add3a	0.79243815
169	0x3f6bfd54	0.92183423
170	0x3f5aab65	0.8541778
171	0x3f401643	0.7503397
172	0x3f6c72ae	0.9236249
173	0x3f588144	0.84572244
174	0x3f533e55	0.82516986
175	0x3f39cda7	0.72579426
176	0xbd6fe359	-0.058566425
177	0xbdc0feda	-0.09423609
178	0x3ee9c80f	0.45660445
179	0xbd8ef244	-0.06979802
180	0x3f45cf16	0.77269113
181	0x3f4983f0	0.78716946
182	0x3e8b09c6	0.27155894
183	0xbdbd0743	-0.09229901
184	0x3f4446a9	0.7667032
185	0xbd804b2c	-0.06264338
186	0x3f3e42ff	0.7432098
187	0x3f61f87b	0.88269776
188	0x3f4f9c7b	0.81098145
189	0xbdbf8fcd	-0.093536
190	0x3ecc6619	0.39921644
191	0xbdabe2f5	-0.08392898
192	0xbda07ed0	-0.078366876
193	0x3f418e70	0.7560797
194	0xbdb66ce5	-0.08907489
195	0x3f0ebe4a	0.5575911
196	0x3f592761	0.8482571
197	0x3e7676ae	0.2406871
198	0x3f55e87d	0.83557874
199	0x3f3bdaed	0.7338093
200	0x3e7e61d6	0.24842009
201	0x3f4c3d23	0.7978079
202	0x3f589d5d	0.8461512
203	0xbdb79306	-0.08963589
204	0xbdbc9703	-0.09208491
205	0x3ee64287	0.4497263
206	0x3f44a3d2	0.7681247
207	0x3f34f752	0.7068988
208	0x3f457e9b	0.7714631
209	0x3f4c81e2	0.79885685
210	0xbbaa9bbc	-0.0052065533
211	0x3ead65e1	0.3386679
212	0x3f308a72	0.6896125
213	0x3f3cf795	0.7381528
214	0x3f6ece34	0.9328339
215	0x3f5af08b	0.8552329
216	0x3f41971d	0.75621206
217	0x3ec142c6	0.37746257
218	0x3f48efb7	0.78490776
219	0x3f4e7fee	0.80663955
220	0x3f3bfbfc	0.7343137
221	0x3f4996a0	0.7874546
222	0xbda889d1	-0.082294114
223	0x3f325d2f	0.69673437
224	0x3f47b069	0.78003556
225	0x3f357089	0.7087484
226	0x3f62316a	0.8835665
227	0xbc1af0a0	-0.0094567835
228	0x3f20b45b	0.627752
229	0x3efc0ce6	0.4922859
230	0x3f68ea82	0.9098283
231	0xbca57b4f	-0.0202004
232	0xbd7bb8d7	-0.061455574
233	0x3efc78b1	0.4931083
234	0x3f5ff7df	0.87487596
235	0x3f12a885	0.5728839
236	0xbd5f4e31	-0.05451793
237	0xbd65e62e	-0.05612772
238	0xbb89cdf0	-0.004205458
239	0x3f4325e3	0.76229686
240	0x3f4b9367	0.79521793
241	0x3ee24165	0.44190517
242	0x3f4193be	0.7561606
243	0x3f080cc0	0.53144455
244	0x3f4c7585	0.7986682
245	0x3f71e8ad	0.9449566
246	0x3f5d218c	0.86379313
247	0x3f64be8d	0.8935326
248	0x3f5009eb	0.81265134
249	0x3f4c61a8	0.7983651
250	0x3f188cb1	0.5958968
251	0x3e1f0d0b	0.15532319
252	0xbcf7d091	-0.03025082
253	0x3f119351	0.5686541
254	0x3efb3c3d	0.49069396
255	0x3f55340b	0.83282536
