model_epoch_100.pth (torch, 141254 bytes, 15 tensors)

target_net.fc1.weight f4 [64, 36]
0.10006237 0.056178987 0.011433085 0.045686137 0.08822199 0.07288653 -0.028217098 0.1123031
0.052450042 0.09494719 -0.013373662 -0.0900548 -0.11775788 0.08770486 -0.050435066 0.12975541
0.14230603 -0.06373308 -0.036820292 -0.06826173 -0.16322935 0.037391245 0.09883414 -0.079135366
0.031032085 -0.02889949 -0.079926535 0.00940309 0.12265003 -0.15824941 0.14970069 -0.0603899
0.03417369 0.010010481 -0.05248646 0.08311268 0.14505208 0.094138786 -0.046133243 -0.02964059
-0.08246643 0.019703506 0.13168596 0.15580879 0.04053406 0.03737745 -0.064412884 0.008375535
0.10437189 -0.12697536 0.12662324 0.10845517 0.0005029908 0.088614315 -0.053855836 0.04160794
0.160469 -0.16348778 0.06913756 -0.009110865 -0.05967909 -0.03343588 0.14050263 0.09719676
0.017586768 -0.04046438 -0.019071102 0.056176703 -0.012155971 0.15610556 -0.12270926 -0.14063095
0.13611636 0.04471928 0.03644705 0.10860482 -0.09415284 0.05465883 0.02916497 0.1601359
-0.04627387 0.07103187 0.09544685 -0.10534687 0.0071855388 -0.08693999 -0.108819865 0.066037476
0.11288284 0.13273537 0.03685991 -0.08244865 0.15609112 0.012060444 0.022738278 -0.03149358
0.12197622 -0.07632675 0.07902199 -0.055893205 -0.12578452 0.02674974 -0.14750056 -0.08732921
0.013603926 0.041086793 -0.13571005 -0.12454846 0.07230598 -0.09572234 -0.15408379 -0.05900182
0.05364494 -0.16018549 0.1408073 -0.045285344 0.035534244 0.12276528 -0.08626173 0.14556418
-0.021600028 -0.16436458 0.13472623 0.076408796 0.1109346 0.06539033 0.1133831 0.010280689
-0.0043200455 0.0027264357 0.12644297 -0.03161091 0.04274901 0.092518374 0.15323137 0.14658599
-0.08869319 -0.023913642 -0.030572396 -0.14859095 -0.06426935 -0.017357927 -0.08238809 -0.092989534
-0.05243256 -0.023561835 -0.05125644 -0.09175009 0.08555204 0.11819762 -0.0203592 -0.012608906
-0.038468003 -0.090673655 0.11703557 -0.123912185 -0.13267979 -0.05043509 0.14701842 -0.16669084
0.04050584 -0.13923813 0.14998661 0.063732386 -0.07591759 -0.04891193 -0.041570723 0.15300857
0.017066121 0.018825054 -0.07390871 0.10448371 -0.00020873547 0.14587368 0.15458894 0.13188194
0.03387493 -0.041094482 0.12372005 -0.18041655 -0.023642521 -0.1043916 0.01347222 -0.026066802
-0.03734243 -0.049394194 -0.0036100547 0.1266203 -0.11439799 0.09801836 0.09150507 0.03933018
0.14204237 0.15141016 -0.11147561 -0.04694512 0.1557118 -0.07622119 -0.15200011 -0.11891638
0.054467104 0.002424717 -0.040455244 0.038888622 -0.08740147 0.10527015 -0.02593567 0.06561385
-0.14654544 -0.10035672 0.036948245 0.010525405 -0.07364051 0.10446721 0.016473472 -0.15063226
-0.01163896 0.12776957 -0.08930131 -0.06372859 -0.14018139 0.16792473 -0.12330824 0.103919886
-0.107628904 0.10207149 0.09168432 0.14961554 -0.15679672 -0.09563023 0.044021748 0.075749554
-0.13167907 0.0896766 -0.026325684 -0.005109509 0.039710402 0.072713815 -0.078417145 -0.010073586
-0.11411359 -0.09269069 -0.006921053 -0.14761326 -0.055898845 -0.06139708 0.09877517 -0.049010694
0.13805297 0.058511697 -0.010933161 -0.11014891 0.11807603 0.108934484 -0.1408934 0.14205122
00000000: 80ed cc3d f01b 663d d651 3b3c 6321 3b3d
00000010: bbad b43d 8845 953d 8b27 e7bc 2bff e53d
00000020: dbd5 563d ac73 c23d 341d 5bbc a76e b8bd
00000030: 0b2b f1bd 9b9e b33d 0095 4ebd 9ade 043e
00000040: acb8 113e 7d86 82bd e0d0 16bd cecc 8bbd
00000050: 9825 27be 9027 193d 8e69 ca3d b911 a2bd
00000060: 0037 fe3c a0be ecbc 86b0 a3bd 6b0f 1a3c
00000070: f02f fb3d 220c 22be 234b 193e 665b 77bd
00000080: b6f9 0b3d 0003 243c 0bfc 56bd fb36 aa3d
00000090: 8888 143e d6cb c03d 36f6 3cbd d3d0 f2bc
000000a0: 29e4 a8bd 3f69 a13c afd8 063e 578c 1f3e
000000b0: 0b07 263d 1919 193d e7ea 83bd 8a39 093c
000000c0: eec0 d53d d405 02be 86a9 013e bf1d de3d
000000d0: 24db 033a 6c7b b53d f097 5cbd 166d 2a3d
000000e0: fc51 243e 5769 27be fe97 8d3d bd45 15bc
000000f0: 1072 74bd 10f4 08bd ecdf 0f3e 180f c73d
00000100: 2012 903c fabd 25bd 003b 9cbc 8b19 663d
00000110: d629 47bc 23da 1f3e fe4e fbbd 8f01 10be
00000120: 1662 0b3e 902b 373d 8049 153d 346c de3d
00000130: 34d3 c0bd f0e1 5f3d 60eb ee3c aafa 233e
00000140: ab89 3dbd 2879 913d a379 c33d 1ac0 d7bd
00000150: ab74 eb3b 980d b2bd f3dc debd a83e 873d
00000160: 1e2f e73d c8eb 073e 6bfa 163d d6da a8bd
00000170: 5ad6 1f3e 2b99 453c a045 ba3c 6aff 00bd
00000180: abce f93d 3351 9cbd 48d6 a13d 46f0 64bd
00000190: a8cd 00be 4522 db3c 630a 17be a8d9 b2bd
000001a0: 00e3 5e3c a04a 283d 93f7 0abe 4313 ffbd
000001b0: 2815 943d 130a c4bd 24c8 1dbe e4ab 71bd
000001c0: ccba 5b3d aa07 24be ca2f 103e 207d 39bd
000001d0: 5b8c 113d 5d6c fb3d fda9 b0bd c70e 153e
000001e0: 8bf2 b0bc 304f 28be acf5 093e 377c 9c3d
000001f0: ae31 e33d 5eeb 853d 6635 e83d 5670 283c
00000200: 2b8f 8dbb 00ae 323b 447a 013e 717a 01bd
00000210: 9619 2f3d 467a bd3d afe8 1c3e a31a 163e
00000220: c6a4 b5bd 8be6 c3bc f672 fabc 3a28 18be
00000230: a69f 83bd 3632 8ebc 16bb a8bd 4c71 bebd
00000240: 86c3 56bd c004 c1bc 46f2 51bd 79e7 bbbd
00000250: e835 af3d 9811 f23d 56c8 a6bc 9695 4ebc
00000260: a090 1dbd 1cb3 b9bd 58b0 ef3d acc5 fdbd
00000270: 36dd 07be 0695 4ebd ff8b 163e 01b1 2abe
00000280: 74e9 253d 7194 0ebe 1796 193e 2086 823d
00000290: ae7a 9bbd e057 48bd 1046 2abd 47ae 1c3e
000002a0: 40ce 8b3c 0037 9a3c 735d 97bd 8efb d53d
000002b0: 00e0 5ab9 e95f 153e 904c 1e3e 0f0c 073e
000002c0: 70c0 0a3d b052 28bd f060 fd3d 1ebf 38be
000002d0: f6ad c1bc 43cb d5bd 96ba 5c3c 0c8a d5bc
000002e0: 60f4 18bd 9151 4abd ab96 6cbb c0a8 013e
000002f0: 7e49 eabd dabd c83d 0367 bb3d af18 213d
00000300: 8e73 113e 440b 1b3e 534d e4bd 8749 40bd
00000310: ea72 1f3e db19 9cbd eba5 1bbe 6e8a f3bd
00000320: e618 5f3d 00e8 1e3b 66b4 25bd ad49 1f3d
00000330: 8bff b2bd e097 d73d 0b77 d4bc 8e60 863d
00000340: 0210 16be d387 cdbd 0b57 173d c072 2c3c
00000350: d6d0 96bd e8f2 d53d 60f3 863c 583f 1abe
00000360: 56b1 3ebc 07d6 023e 9be3 b6bd 2384 82bd
00000370: b68b 0fbe 76f4 2b3e 0889 fcbd f3d3 d43d
00000380: 8b6c dcbd db0a d13d fdc4 bb3d d134 193e
00000390: 528f 20be c8d9 c3bd 2650 343d 9522 9b3d
000003a0: e1d6 06be 5ea8 b73d f6a8 d7bc ab6d a7bb
000003b0: 60a7 223d fbea 943d 2b99 a0bd af0b 25bc
000003c0: 63b4 e9bd 9ed4 bdbd 00ca e2bb ee27 17be
000003d0: 30f6 64bd 817b 7bbd a34a ca3d 70bf 48bd
000003e0: c25d 0d3e f6a9 6f3d 0021 33bc c095 e1bd
000003f0: d8d1 f13d 0b19 df3d 5c46 10be e075 113e

target_net.fc1.bias f4 [64]
0.11493115 0.09964202 -0.11118239 -0.021279924 0.006995406 -0.14856686 -0.039283745 0.07556637
-0.14351213 0.13971947 0.043659907 0.15524167 0.112631656 0.010001467 0.15138347 -0.05698105
-0.18016885 -0.15326266 0.12180255 -0.038690813 -0.12770744 -0.14782046 0.098137945 -0.099506766
-0.025960794 -0.04731683 0.16682297 0.036223374 -0.094832964 0.15417087 0.065503806 -0.102218404
-0.06327457 0.05144507 0.02567819 0.015824543 0.1549567 0.05755202 -0.15505953 0.048547342
-0.0904945 -0.0053095524 -0.092183135 -0.13262123 0.07748676 0.06956752 -0.009584059 -0.07690251
0.09552557 -0.12330276 -0.122067824 -0.014036579 0.008198829 0.010524305 0.06994491 0.09787964
-0.14370357 0.0698122 0.023666708 0.01959034 -0.13067158 -0.04205348 0.08046497 -0.08497487
00000000: 0661 eb3d 1e11 cc3d 98b3 e3bd 3c53 aebc
00000010: b839 e53b e921 18be fee7 20bd 8ac2 9a3d
00000020: d8f4 12be 9f12 0f3e bbd4 323d acf7 1e3e
00000030: 6dab e63d 31dd 233c 4504 1b3e f664 69bd
00000040: 2f7e 38be e3f0 1cbe 9e73 f93d 427a 1ebd
00000050: bdc5 02be 3f5e 17be 8cfc c83d 34ca cbbd
00000060: bbab d4bc 4bcf 41bd a4d3 2a3e f65e 143d
00000070: c937 c2bd f8de 1d3e dc26 863d e257 d1bd
00000080: 1996 81bd 11b8 523d 115b d23c 79a2 813c
00000090: f8ac 1e3e abbb 6b3d edc7 1ebe 94d9 463d
000000a0: 2e55 b9bd c1fb adbb 83ca bcbd dccd 07be
000000b0: 61b1 9e3d 6a79 8e3d 7506 1dbc 107f 9dbd
000000c0: e9a2 c33d 2886 fcbd b2fe f9bd aef9 65bc
000000d0: 6254 063c 226e 2c3c 473f 8f3d 1f75 c83d
000000e0: 0727 13be b3f9 8e3d afe0 c13c ec7b a03c
000000f0: c5ce 05be 4540 2cbd d1ca a43d 4e07 aebd

target_net.fc2.weight f4 [3, 64]
-0.051394213 0.012841996 -0.05436138 -0.08790694 -0.047442038 -0.08362974 0.06926857 0.052381437
-0.096582055 0.124732904 -0.03196944 0.096967205 -0.057530787 0.096810065 -0.089581065 0.11622381
0.036658596 -0.025542086 -0.056301564 0.03955538 -0.06380335 0.11234997 -0.09357459 -0.07329643
-0.08878788 -0.035646766 0.096756175 0.01664738 0.1109583 0.008957631 -0.11389132 0.078239135
-0.029750116 0.09492315 0.05425487 -0.017493933 -0.07986978 -0.028121829 0.091248214 -0.030169254
0.10727101 -0.075546786 0.022616714 0.060009953 0.05280799 0.09453942 0.0364207 0.075046726
0.08562048 -0.10228011 -0.020870034 -0.11133244 -0.100337826 -0.11053461 0.03349884 0.08721945
0.031403277 0.036190487 0.11240766 -0.09218233 -0.04266441 0.05044996 -0.10541344 0.048075914
-0.053239297 -0.12864053 0.12292275 -0.05577768 0.093988344 -0.06398962 0.0034465545 0.0764891
-0.011795118 -0.072046325 0.09863716 0.042816065 -0.02473655 0.009410165 0.019763008 -0.043692864
0.0068727285 0.11462589 0.06545396 0.026434533 0.06165755 0.019913377 -0.12221544 0.07522086
0.0098586995 -0.12275103 0.06346264 0.1357793 -0.059440408 0.01644331 0.010898784 0.0017978899
0.11795206 -0.00320753 -0.02065053 0.022906564 -0.0072855055 0.017705569 -0.12011959 0.0049800165
-0.0068961503 0.09644944 -0.10392052 0.07109443 0.061519563 0.10877038 0.14212666 -0.028748956
0.021707576 0.089686885 -0.11624737 -0.012083941 -0.059917443 -0.0903983 -0.059774395 -0.040426288
-0.076827526 -0.09701513 -0.018786281 -0.03249885 -0.0109977 -0.072425894 -0.030532759 0.016012698
-0.0809928 -0.06034466 -0.07533255 0.058396764 -0.026255414 0.059907194 -0.05057605 -0.024509141
0.06380029 0.07688961 0.12133227 -0.034613993 0.015870854 0.08303253 -0.024050895 -0.08002431
0.012133638 0.021731187 0.048897207 -0.028234119 -0.106352575 -0.0654419 0.12895533 -0.06682453
0.036076333 0.0839629 0.06473 -0.002109317 -0.07541512 0.11940289 0.104968525 0.11233557
-0.089621946 0.02655882 0.10827043 -0.04811949 0.0041731154 -0.015823314 0.114107534 -0.08066919
-0.042398985 -0.0680634 0.004855102 0.123772345 0.10199283 -0.11852786 -0.10281609 0.048592772
-0.013130818 0.06833873 0.08868511 0.023073634 -0.11231769 -0.0036194911 0.008557969 0.11681298
-0.12556991 -0.07672523 0.05491709 0.08471629 -0.10659461 -0.11581027 0.04325787 0.008185938
00000000: bd82 52bd 3c67 523c 0aaa 5ebd 8e08 b4bd
00000010: 9552 42bd 1246 abbd aedc 8d3d eb8d 563d
00000020: d0cc c5bd f773 ff3d 63f2 02bd be96 c63d
00000030: 67a5 6bbd 5b44 c63d 4776 b7bd c006 ee3d
00000040: 5327 163d a33d d1bc 789c 66bd d204 223d
00000050: 55ab 82bd be17 e63d 09a4 bfbd 701c 96bd
00000060: 6cd6 b5bd 5802 12bd 1a28 c63d 1660 883c
00000070: 1b3e e33d 07c3 123c da3f e9bd d73b a03d
00000080: 84b6 f3bc 1267 c23d 5b3a 5e3d 704f 8fbc
00000090: c492 a3bd c05f e6bc 58e0 ba3d 8325 f7bc
000000a0: e7b0 db3d 46b8 9abd b046 b93c ffcc 753d
000000b0: 314d 583d e29d c13d df2d 153d 19b2 993d
000000c0: ca59 af3d 3c78 d1bd a2f7 aabc 4302 e4bd
000000d0: eb7d cdbd f85f e2bd 1436 093d 1ca0 b23d
000000e0: b9a0 003d 7a3c 143d fd35 e63d 17ca bcbd
000000f0: e0c0 2ebd 9ea4 4e3d 00e3 d7bd 40eb 443d
00000100: 7311 5abd 58ba 03be ecbe fb3d 2377 64bd
00000110: f67c c03d fd0c 83bd 97df 613b 51a6 9c3d
00000120: 5040 41bc 068d 93bd 4802 ca3d e65f 2f3d
00000130: 4ea4 cabc 182d 1a3c 08e6 a13c 4af7 32bd
00000140: a034 e13b fbc0 ea3d ba0c 863d 3c8d d83c
00000150: a18c 7c3d 6121 a33c 174c fabd 650d 9a3d
00000160: 6286 213c e464 fbbd b3f8 813d bb09 0b3e
00000170: c977 73bd 1fb4 863c d090 323c 2da7 eb3a
00000180: da90 f13d 6c35 52bb 4d2b a9bc 8ca6 bb3c
00000190: 40bb eebb 450b 913c 4201 f6bd 682f a33b
000001a0: 1af9 e1bb 4987 c53d 48d4 d4bd f599 913d
000001b0: f0fb 7b3d 01c3 de3d a789 113e ee82 ebbc
000001c0: 16d4 b13c c2ad b73d 1a13 eebd b9fb 45bc
000001d0: fe6b 75bd be22 b9bd ffd5 74bd 0996 25bd
000001e0: c057 9dbd deaf c6bd b0e5 99bc 841d 05bd
000001f0: b22f 34bc 0754 94bd d61f fabc 102d 833c
00000200: 8edf a5bd f62b 77bd f447 9abd 7231 6f3d
00000210: 9815 d7bc 3f61 753d d528 4fbd 65c7 c8bc
00000220: baa9 823d 4d78 9d3d 0e7d f83d 67c7 0dbd
00000230: 9803 823c f60c aa3d 6206 c5bc c9e3 a3bd
00000240: 2bcc 463c 9a05 b23c 7048 483d 3d4b e7bc
00000250: 61cf d9bd 6706 86bd de0c 043e 4ddb 88bd
00000260: c7c4 133d bef4 ab3d 2a91 843d 783c 0abb
00000270: 3e73 9abd 8189 f43d bdf9 d63d 3110 e63d
00000280: b68b b7bd e291 d93c e3bc dd3d f118 45bd
00000290: a1be 883b e59f 81bc 36b1 e93d e335 a5bd
000002a0: 8faa 2dbd d364 8bbd 8c17 9f3b 5b7c fd3d
000002b0: 9ee1 d03d bcbe f2bd 3e91 d2bd 3709 473d
000002c0: a422 57bc 2df5 8b3d 8aa0 b53d eb04 bd3c
000002d0: d106 e6bd fc34 6dbb b936 0c3c a53b ef3d
000002e0: 6695 00be 1e22 9dbd bef0 603d bc7f ad3d
000002f0: 464e dabd ef2d edbd 2a2f 313d 501e 063c

target_net.fc2.bias f4 [3]
0.022635328 -0.003691501 0.029929355
00000000: b96d b93c 1ced 71bb 682e f53c

tatic_net.fc1.weight f4 [64, 42]
0.14276306 -0.038523432 0.00734753 -0.12127611 0.018874189 -0.08391534 -0.043636393 -0.1052479
0.09197763 0.14528944 -0.051365666 0.019258635 -0.12502445 0.12490058 0.090758964 -0.10787436
-0.11803728 0.12186473 0.013895659 -0.10872714 0.15355667 -0.09411723 -0.047947895 0.14134127
-0.14694048 0.09200311 -0.07133638 -0.09893559 0.076542474 -0.07076325 0.032794572 0.12288213
-0.013307185 -0.14992556 0.102707066 0.11113452 -0.11441479 0.020579398 0.06344547 0.06818408
0.08521764 -0.041168418 -0.12344099 0.14629403 -0.05520601 0.11055752 0.011300952 0.045574464
0.13877587 -0.037424553 -0.009873945 -0.02521713 0.046645638 0.097925454 -0.08464855 -0.017580865
-0.082900554 -0.11499604 0.05297722 0.10128917 0.086168334 0.07161975 -0.03718276 0.033399235
0.15361205 -0.020272983 -0.0884824 0.11791259 0.08559491 0.009146741 -0.12984544 0.009573019
-0.09466194 0.04098852 -0.14761978 -0.119433805 -0.038289182 0.15485078 -0.14077437 -0.054051843
-0.05668689 0.101102926 -0.020729065 0.065173656 0.06397478 0.08703646 -0.12199925 -0.13213986
-0.08919573 0.15429464 0.048049927 0.08475616 0.06551939 0.051838364 -0.060739797 0.08163219
-0.14991151 -0.13429545 0.07463628 -0.080114365 0.13250005 -0.08391589 0.073554434 -0.12033051
-0.08935073 -0.044566084 -0.12479303 -0.06587169 0.052266914 0.024746254 -0.061235838 0.100495026
-0.01747758 0.12635428 -0.13978359 0.0050900048 0.03985576 0.048469596 -0.13489807 0.02814896
0.026227191 -0.13946816 -0.08655738 0.09651603 -0.1448379 -0.0034170898 -0.14164926 -0.108337775
0.07042586 0.15037677 0.078142636 0.14616746 -0.14058527 -0.12242683 -0.12278455 0.14178273
-0.068539634 0.058845576 0.073937446 -0.14445597 0.091262296 -0.15968587 -0.025993517 0.13169387
0.07599103 0.15315768 0.013078156 0.07360465 -0.09392398 0.15601121 -0.06595017 -0.11136711
0.102948084 -0.07442682 0.14156245 -0.08915532 0.02351337 -0.034062464 0.078697026 -0.022156341
0.121487744 0.026114548 -0.14936802 -0.07936544 -0.08926903 0.099904455 -0.07277961 0.15422888
0.0513194 -0.1279188 -0.13547552 -0.09427686 0.02091805 -0.04150678 -0.10243244 -0.14856708
-0.036118202 -0.07071967 -0.04919609 0.15077756 -0.029758707 -0.07935573 -0.03631673 -0.12147694
0.028544785 0.14496486 -0.073246166 0.024711194 -0.10485875 0.045340266 -0.1043014 -0.12954287
0.10870723 0.10655381 0.09177182 0.049343236 -0.14184652 0.016693406 0.04788136 0.10127225
-0.011567499 -0.11585389 -0.009787473 0.09226953 -0.04979771 -0.023600379 -0.011683737 -0.0071150432
0.031659234 0.15254293 0.07672785 -0.12091036 0.14610611 0.023702623 -0.006168326 0.01733896
0.021130908 0.035879422 -0.0024340933 0.10254269 -0.05632447 0.121208906 0.061861247 0.08896386
0.043940675 0.032856707 -0.07459246 -0.13112661 0.10241548 -0.08708717 0.058720514 0.013090444
-0.1241163 0.002345507 0.026957076 0.056574367 -0.006804822 0.037384786 -0.12415307 -0.054645747
0.15405107 0.13077119 -0.076598264 0.13668585 0.1375108 0.01587711 -0.09015978 0.11818265
-0.13742897 0.11688951 0.019788835 -0.13003097 0.096680544 0.12402311 0.08604662 -0.00033968964
00000000: 7b30 123e bfca 1dbd 8dc3 f03b 9c5f f8bd
00000010: 0b9e 9a3c cedb abbd 13bc 32bd 368c d7bd
00000020: c55e bc3d c1c6 143e ce64 52bd 49c4 9d3c
00000030: 6906 00be e0cb ff3d d6df b93d 3ced dcbd
00000040: 88bd f1bd 3794 f93d 9eaa 633c 56ac debd
00000050: f63d 1d3e 89c0 c0bd 0365 44bd c4bb 103e
00000060: 9177 16be 206c bc3d cf18 92bd be9e cabd
00000070: 4dc2 9c3d 53ec 90bd 9a53 063d a0a9 fb3d
00000080: 6106 5abc 1686 19be 1558 d23d 7f9a e33d
00000090: 4d52 eabd 2096 a83c b3ef 813d 18a4 8b3d
000000a0: 9686 ae3d 37a0 28bd a1ce fcbd 1ace 153e
000000b0: b21f 62bd fb6b e23d a127 393c 4aac 3a3d
000000c0: 431b 0e3e 7d4a 19bd 54c6 21bc 2894 cebc
000000d0: 7f0f 3f3d 248d c83d 385c adbd bf05 90bc
000000e0: c4c7 a9bd 0b83 ebbd a4fe 583d b270 cf3d
000000f0: 0679 b03d 60ad 923d f34c 18bd a3cd 083d
00000100: 7a4c 1d3e 8713 a6bc 4336 b5bd 287c f13d
00000110: 624c af3d 36dc 153c 34f6 04be 27d8 1c3c
00000120: 1fde c1bd 94e3 273d a429 17be b699 f4bd
00000130: 1ed5 1cbd 3491 1e3e 2827 10be 7765 5dbd
00000140: 8330 68bd 0d0f cf3d 00d0 a9bc c479 853d
00000150: 3605 833d 2c40 b23d beda f9bd ac4f 07be
00000160: 40ac b6bd 6aff 1d3e 00d0 443d a394 ad3d
00000170: 082f 863d 7754 543d 4bca 78bd c72e a73d
00000180: 6782 19be bf84 09be e8da 983d 0013 a4bd
00000190: 18ae 073e 18dc abbd b5a3 963d d86f f6bd
000001a0: 84fd b6bd ed8a 36bd 7d93 ffbd bde7 86bd
000001b0: d515 563d a8b8 ca3c 6ed2 7abd 56d0 cd3d
000001c0: 242d 8fbc 0463 013e 6e23 0fbe 0eca a63b
000001d0: cb3f 233d 0e88 463d b822 0abe a698 e63c
000001e0: 68da d63c bed0 0ebe ff44 b1bd 32aa c53d
000001f0: 6350 14be 41f1 5fbb 810c 11be 32e0 ddbd
00000200: 6f3b 903d 5efc 193e 3f09 a03d ecac 153e
00000210: 96f5 0fbe ebba fabd 7776 fbbd 7e2f 113e
00000220: 825e 8cbd 0f08 713d 846c 973d 44ec 13be
00000230: bae7 ba3d b184 23be 5bf0 d4bc c2da 063e
00000240: 2fa1 9b3d 5ed5 1c3e c345 563c 09be 963d
00000250: 375b c0bd 67c1 1f3e e210 87bd 7014 e4bd
00000260: 72d6 d23d 176d 98bd bff5 103e 1097 b6bd
00000270: 1c9f c03c 1585 0bbd e82b a13d 3781 b5bc
00000280: 91ce f83d 2dee d53c eef3 18be 598a a2bd
00000290: aed2 b6bd b59a cc3d 7a0d 95bd 2dee 1d3e
000002a0: 4b34 523d 25fd 02be 18ba 0abe 3a14 c1bd
000002b0: 555c ab3c 0303 2abd 19c8 d1bd f821 18be
000002c0: aef0 13bd 79d5 90bd d781 49bd 6f65 1a3e
000002d0: 88c8 f3bc 4285 a2bd dac0 14bd e7c8 f8bd
000002e0: c1d6 e93c ab71 143e 1602 96bd 216f ca3c
000002f0: 2fc0 d6bd b7b6 393d f99b d5bd e3a6 04be
00000300: e5a1 de3d e238 da3d ddf2 bb3d 221c 4a3d
00000310: 3740 11be 9cc0 883c 3f1f 443d d367 cf3d
00000320: 9b85 3dbc ce44 edbd a35b 20bc cff7 bc3d
00000330: aff8 4bbd 9555 c1bc 256d 3fbc 4f25 e9bb
00000340: 1dad 013d 3734 1c3e 7e23 9d3d da9f f7bd
00000350: d79c 153e 012c c23c ab1f cabb 6f0a 8e3c
00000360: ba1a ad3c 4df6 123d 4f85 1fbb e701 d23d
00000370: 7db4 66bd 603c f83d 3862 7d3d af32 b63d
00000380: 23fb 333d c194 063d efc3 98bd 0e46 06be
00000390: 35bf d13d c25a b2bd ec84 703d 4d79 563c
000003a0: b030 febd 14b7 193b 16d5 dc3c 86ba 673d
000003b0: fcfa debb ca20 193d f743 febd 38d4 5fbd
000003c0: 90bf 1d3e e2e8 053e 8ddf 9cbd 60f7 0b3e
000003d0: a2cf 0c3e b710 823c b1a5 b8bd bf09 f23d
000003e0: 2eba 0cbe c463 ef3d 321c a23c d726 05be
000003f0: 7300 c63d d4ff fd3d 3639 b03d 5f18 b2b9

tatic_net.fc1.bias f4 [64]
0.10287229 -0.049706038 0.07117176 0.11466681 0.01792043 0.07554557 -0.046086103 -0.0954777
-0.093300715 0.016198704 0.079572566 0.08898681 -0.09330029 0.026593303 0.038026284 0.09991434
-0.08545857 0.090371534 0.14002897 0.09374104 0.059948504 0.12098999 -0.105973266 0.13595241
-0.073899806 -0.032229953 -0.031929955 0.013379903 -0.14767389 0.10356634 -0.0920246 -0.060203046
0.10844601 -0.06571581 0.1067304 -0.009587037 0.017229266 -0.009965468 0.03406554 0.073252305
-0.06278444 -0.08189265 0.030111915 0.12254238 0.042522673 0.1674426 -0.14438008 0.096776485
0.03780754 -0.13983335 -0.12942083 -0.02982026 0.00512116 -0.01375776 -0.026481744 0.012619184
0.13534862 0.052117743 0.062247306 0.116602615 0.007576303 -0.10078696 -0.14279874 -0.08127238
00000000: b5ae d23d 8f98 4bbd 80c2 913d 6fd6 ea3d
00000010: decd 923c a3b7 9a3d c8c4 3cbd d089 c3bd
00000020: 7214 bfbd 25b3 843c f1f6 a23d b73e b63d
00000030: 3914 bfbd 33da d93c 73c1 1b3d e49f cc3d
00000040: e704 afbd b614 b93d c163 0f3e 4dfb bf3d
00000050: 908c 753d 9ac9 f73d 8308 d9bd 1c37 0b3e
00000060: c858 97bd 8e03 04bd fcc8 02bd 6137 5b3c
00000070: d337 17be 971a d43d 6577 bcbd 7897 76bd
00000080: f118 de3d 0396 86bd 7895 da3d f312 1dbc
00000090: 6424 8d3c 3446 23bc 4f88 0b3d 4e05 963d
000000a0: 2195 80bd 55b7 a7bd 43ad f63c 80f7 fa3d
000000b0: 412c 2e3d 1376 2b3e 5fd8 13be c032 c63d
000000c0: 14dc 1a3d 7930 0fbe e586 04be 9e49 f4bc
000000d0: 67cf a73b 3a68 61bc 3ef0 d8bc b2c0 4e3c
000000e0: d498 0a3e 6a79 553d 08f7 7e3d 5acd ee3d
000000f0: a342 f83b 6569 cebd d539 12be 2272 a6bd

tatic_net.fc2.weight f4 [6, 64]
0.03327158 0.06379394 -0.060331732 0.070555836 -0.03693074 0.014486164 0.0007377714 0.096286744
0.08066735 -0.091799915 0.10596891 0.09436633 -0.081199035 0.026719213 -0.042753413 0.07638253
-0.11846371 -0.09943552 -0.0087329745 0.032337204 0.11515762 -0.10819121 0.07726784 -0.007641956
-0.012271345 -0.120940104 0.11206341 0.08709952 0.054344997 0.019704685 -0.033255264 -0.0949391
-0.10137758 0.043736026 -0.018960804 0.021045312 0.1176528 0.007873535 0.008558363 -0.1099616
-0.088159636 -0.100393355 -0.010185942 -0.11275542 -0.12141621 -0.050515592 0.012510881 0.059317872
0.04251325 0.062042177 -0.08137803 -0.09879908 -0.0878654 -0.08318259 0.008644283 -0.09719963
-0.015127808 -0.069511205 0.106656015 0.018717855 0.006589979 0.097510636 -0.06446552 0.09349193
-0.036999706 0.11551252 -0.06937768 0.04985274 -0.12084129 0.005716677 -0.08778999 -0.123712584
-0.065597534 0.09584713 -0.124463394 0.09144501 0.03528664 -0.0822371 0.091484666 -0.05362758
0.047321968 -0.009785855 -0.020284403 -0.08950886 0.056446925 0.005583242 -0.10816588 -0.027752854
0.03068612 -0.036063943 -0.06084873 -0.04987774 0.0040373066 0.026793571 -0.04831413 -0.09512377
0.050675604 -0.03132142 0.092930295 0.0500505 0.057359107 0.043124046 -0.012666991 0.037467543
-0.065472856 0.03865326 0.076991424 0.012959134 -0.03598993 -0.09869532 0.0036147723 -0.036759567
-0.096241735 -0.0075873984 0.09503762 -0.11586802 0.062412832 0.052548487 -0.031483635 -0.12652566
-0.0096453 -0.067536265 0.13124251 -0.028771862 0.106544524 -0.042890538 0.025977915 -0.016268006
-0.044004083 -0.053712916 -0.018407349 0.068333514 0.08433065 -0.039859354 0.041810013 0.043260176
-0.023394303 -0.12042815 -0.012270825 -0.011266384 0.071302 -0.039154816 -0.03678541 -0.045702387
-0.11231129 -0.06452128 -0.035270788 -0.082398176 0.09526595 0.09613285 0.044756904 -0.006412349
-0.019473772 0.022500115 -0.04971108 0.017891785 0.11045768 -0.00070915243 -0.032278053 0.021852417
0.014287144 0.040049016 -0.03852144 0.07484466 -0.019554846 0.07686681 -0.06543484 -0.13987511
0.07585521 0.117842145 -0.07681475 0.11570573 -0.028561821 0.016581552 0.07910796 0.100387216
-0.061303247 -0.10125122 0.021663753 0.083126426 -0.06838166 0.10862432 -0.0783917 -0.010171146
-0.118671134 -0.024052078 0.11911734 0.12606373 -0.05221022 0.059801392 0.030024553 0.09379152
-0.0109397555 0.09112925 -0.0031305216 0.0990556 0.019424483 0.006542978 0.018699916 -0.013039034
-0.038452007 -0.023948945 -0.09579944 -0.09059393 0.0106599275 -0.08816506 -0.055502247 -0.014474344
0.08929769 -0.10524288 0.038536433 -0.05226606 -0.03245423 -0.09901863 0.028189117 -0.015875425
-0.007907194 -0.067385815 -0.038919955 0.035499018 -0.11986051 0.106496304 -0.04718741 -0.038964994
-0.13381915 0.03059346 0.07254037 -0.034007665 0.04829276 -0.061688818 -0.0048212595 0.034151506
0.07490866 -0.0038174016 -0.06424784 -0.058309566 -0.052184157 0.095774904 0.083101474 -0.050857626
-0.081899025 0.1297896 0.053393308 -0.09047475 -0.02014742 0.028999342 -0.08344713 -0.049272567
-0.10730494 0.10147537 0.11437749 -0.03601497 -0.086003035 -0.066296525 0.0057230955 -0.043280713
00000000: c847 083d 66a6 823d 681e 77bd 947f 903d
00000010: b044 17bd 6057 6d3c 0067 413a fc31 c53d
00000020: ec34 a53d 9801 bcbd 3a06 d93d 2243 c13d
00000030: ae4b a6bd 40e2 da3c 341e 2fbd 726e 9c3d
00000040: 1a9d f2bd daa4 cbbd c014 0fbc 0474 043d
00000050: c2d7 eb3d 5a93 ddbd 9a3e 9e3d 6069 fabb
00000060: c00d 49bc 72af f7bd 8081 e53d 3c61 b23d
00000070: dc98 5e3d b86b a13c ac36 08bd 6e6f c2bd
00000080: 0c9f cfbd 8c24 333d b053 9bbc 3867 ac3c
00000090: f4f3 f03d 0000 013c 6038 0c3c 8c33 e1bd
000000a0: 0a8d b4bd 089b cdbd f0e2 26bc 50ec e6bd
000000b0: 10a9 f8bd 70e9 4ebd 70fa 4c3c 4cf7 723d
000000c0: 6022 2e3d f01f 7e3d 86a9 a6bd 2c57 cabd
000000d0: c6f2 b3bd a25b aabd c0a0 0d3c 9a10 c7bd
000000e0: a0da 77bc e45b 8ebd 786e da3d 3056 993c
000000f0: c0f0 d73b a8b3 c73d 8006 84bd b278 bf3d
00000100: 018d 17bd d491 ec3d e315 8ebd 6332 4c3d
00000110: a37b f7bd f652 bb3b 3dcb b3bd 065d fdbd
00000120: 0058 86bd 804b c43d aae6 febd 8547 bb3d
00000130: b988 103d ed6b a8bd 505c bb3d 98a8 5bbd
00000140: aed4 413d da54 20bc 7a2b a6bc 6c50 b7bd
00000150: e434 673d a1f3 b63b 1386 ddbd f459 e3bc
00000160: 7561 fb3c c9b7 13bd 853c 79bd 9a4c 4cbd
00000170: 624b 843b 317e db3c 0ae5 45bd 40d0 c2bd
00000180: 3991 4f3d e44a 00bd 3d52 be3d c101 4d3d
00000190: 62f1 6a3d d7a2 303d 3689 4fbc 9177 193d
000001a0: a216 86bd e152 1e3d aead 9d3d 8c52 543c
000001b0: 2d6a 13bd c620 cabd d1e5 6c3b 3391 16bd
000001c0: 631a c5bd b69f f8bb 15a3 c23d 364c edbd
000001d0: 99a4 7f3d 153d 573d fcf4 00bd f18f 01be
000001e0: 5207 1ebc 7450 8abd 7064 063e f8b2 ebbc
000001f0: 0434 da3d fdad 2fbd a3cf d43c 7b44 85bc
00000200: a03d 34bd 1302 5cbd 02cb 96bc 71f2 8b3d
00000210: 8cb5 ac3d 9043 23bd fa40 2b3d 9531 313d
00000220: 69a5 bfbc 09a3 f6bd 920b 49bc a496 38bc
00000230: c806 923d cd60 20bd 4cac 16bd 6d32 3bbd
00000240: 7603 e6bd bc23 84bd 1a78 10bd 60c0 a8bd
00000250: cb1a c33d 4de1 c43d 0453 373d af1e d2bb
00000260: 7687 9fbc 2952 b83c d89d 4bbd cb91 923c
00000270: a337 e23d 6ae6 39ba fe35 04bd d703 b33c
00000280: a014 6a3c 700a 243d a8c8 1dbd 2848 993d
00000290: 7c31 a0bc 596c 9d3d b402 86bd 6c3b 0fbe
000002a0: fa59 9b3d 3957 f13d 0d51 9dbd 20f7 ec3d
000002b0: 7bfa e9bc 09d6 873c 5b03 a23d d097 cd3d
000002c0: 1d19 7bbd cd5c cfbd 2f78 b13c 303e aa3d
000002d0: af0b 8cbd 6d76 de3d d48b a0bd e1a4 26bc
000002e0: da09 f3bd dd08 c5bc cbf3 f33d da16 013e
000002f0: 62da 55bd 4ef2 743d 0df6 f53c c515 c03d
00000300: a93c 33bc f9a1 ba3d 7029 4dbb aadd ca3d
00000310: 1820 9f3c 7a66 d63b 9130 993c aca1 55bc
00000320: da7f 1dbd 9430 c4bc 7f32 c4bd 4f89 b9bd
00000330: faa6 2e3c e28f b4bd 5356 63bd cd25 6dbc
00000340: b5e1 b63d 9489 d7bd 61d8 1d3d f014 56bd
00000350: baee 04bd 48ca cabd ddec e63c 2e0d 82bc
00000360: 2d8d 01bc 9301 8abd 886a 1fbd 6b67 113d
00000370: 6d79 f5bd bc1a da3d 9647 41bd c299 1fbd
00000380: e307 09be 239f fa3c 0c90 943d 9f4b 0bbd
00000390: a1ce 453d 6aad 7cbd a8fb 9dbb 73e2 0b3d
000003a0: b669 993d 5f2d 7abb 5f94 83bd 03d6 6ebd
000003b0: 0ebf 55bd a225 c43d 1b31 aa3d 1650 50bd
000003c0: adba a7bd 91e7 043e f1b2 5a3d d34a b9bd
000003d0: 340c a5bc 0790 ed3c 54e6 aabd 08d2 49bd
000003e0: b1c2 dbbd 52d2 cf3d bf3e ea3d 6f84 13bd
000003f0: 5c22 b0bd 79c6 87bd ce88 bb3b 1e47 31bd

tatic_net.fc2.bias f4 [6]
0.056085363 -0.08938375 0.036294196 0.030087778 0.03386128 -0.0708331
00000000: c4b9 653d d40e b7bd 39a9 143d a57a f63c
00000010: 20b2 0a3d f210 91bd

tatic_net.fc3.weight f4 [6, 3]
-0.35377002 0.3725044 -0.41826627 0.13667263 0.38637263 -0.012757258 0.24651729 -0.16902527
-0.27089077 0.3544511 -0.19855857 -0.55124134 -0.24778892 -0.51990813 0.5630061 0.57559174
0.46602675 -0.06252126
00000000: 5821 b5be e6b8 be3e ff26 d6be e9f3 0b3e
00000010: a2d2 c53e d103 51bc 076f 7c3e f614 2dbe
00000020: 32b2 8abe 9d7a b53e f052 4bbe 271e 0dbf
00000030: 61bc 7dbe b318 05bf 2b21 103f fb59 133f
00000040: 0f9b ee3e 250b 80bd

tatic_net.fc3.bias f4 [6]
0.35867542 0.4330325 0.07696443 0.30632928 -0.09128452 -0.033404246
00000000: 4ea4 b73e 70b6 dd3e 879f 9d3d 31d7 9c3e
00000010: 61f3 babd e4d2 08bd

tatic_net.fc4.weight f4 [3, 9]
0.22587182 0.30539274 0.008933199 0.19302255 0.3702282 0.2978222 -0.18651503 0.29202428
-0.20119564 -0.06128797 -0.07561481 -0.20801626 0.16103959 -0.29141533 0.16812764 0.17952846
0.10728198 0.35290205 0.08737412 -0.038571574 0.29714566 -0.22430761 0.031485785 0.10834491
-0.08086622 0.11161047 0.0715634
00000000: f14a 673e 705c 9c3e 8d5c 123c b4a7 453e
00000010: 8d8e bd3e 277c 983e ccfd 3ebe 3584 953e
00000020: 3b06 4ebe 1809 7bbd f0db 9abd 3702 55be
00000030: 90e7 243e 6434 95be a729 2c3e 4fd6 373e
00000040: a8b6 db3d 94af b43e 34f1 b23d 3afd 1dbd
00000050: 7a23 983e e5b0 65be 3df7 003d f0e3 dd3d
00000060: 309d a5bd 0894 e43d d58f 923d

tatic_net.fc4.bias f4 [3]
-0.2511038 -0.27337584 -0.055036508
00000000: ad90 80be ebf7 8bbe f66d 61bd

fc1.weight f4 [256, 108]
-0.00042612173 -0.01984344 0.07989095 0.07614833 -0.049364768 0.051901095 0.022610558 -0.036613613
0.07365626 0.021695666 -0.058478445 0.05563956 -0.040421683 -0.08867647 0.022289947 0.06711286
0.030048883 -0.08553514 -0.018666511 0.0076345736 -0.024029156 -0.083913274 0.06032764 0.06740382
0.056885216 0.08067247 -0.05639079 0.02611629 -0.03471761 0.06654737 -0.07923031 0.08814726
-0.0029472003 -0.08801551 0.015194861 0.08502066 -0.061632674 0.071926944 -0.08263041 -0.024351737
-0.08247115 -0.022819214 -0.02113127 -0.059526548 0.0040416177 0.07904404 -0.09187756 0.0674876
0.07134972 0.06724305 -0.003980558 -0.0023605896 -0.050836217 0.036902577 0.049536053 0.085349895
-0.07812788 0.012293568 0.045684073 -0.0133487275 -0.057143245 -0.036339127 0.050631743 0.06074805
0.050564237 -0.085486636 0.066310525 0.028116027 0.027005916 0.047767628 -0.003941614 -0.04047642
-0.094832785 -0.08239806 -0.06920416 -0.06263878 -0.076782584 0.003238812 -0.06363883 0.004543895
0.06691748 0.078369275 -0.05883771 -0.08750111 -0.018347312 -0.092620134 -0.039060764 -0.076207384
0.022752212 -0.049292445 -0.03925749 0.07645635 -0.039736606 0.09496803 0.062647246 -0.10628574
-0.02816978 -0.031411413 0.044199448 -0.093118034 -0.0031019545 0.06688428 0.05084124 0.028461244
-0.08383974 -0.0061199074 0.059629407 -0.0540789 -0.042392813 -0.046675906 -0.052631848 0.01254517
-0.10702868 0.07280878 -0.0025123034 0.068354465 -0.0044646193 0.04041349 -0.0034843183 0.08594659
-0.04313078 -0.028361022 -0.07008427 -0.07825241 0.039133362 -0.05921687 0.0026656121 0.015274172
-0.047808003 -0.0610425 -0.049019117 -0.066084504 -0.06960181 0.06199894 0.06647843 0.035610117
-0.004584261 0.030144006 0.06756273 -0.064389296 0.05157876 0.07199719 0.0028519917 0.076957226
-0.01614322 0.060192008 -0.05441828 -0.008158083 0.0015785492 0.024172658 0.0015772858 0.021445766
0.07773557 0.0027746337 -0.055734236 -0.06450936 -0.0055269874 -0.014355339 0.03396781 -0.07290215
0.024889303 -0.105689876 -0.05871414 -0.060501024 -0.01770199 0.04424032 0.072930954 -0.07748332
0.043342296 -0.09100493 -0.008046907 -0.06362606 -0.036676876 -0.04779044 -0.03142275 0.00087913126
0.09355853 -0.02837396 -0.09571153 0.026319422 0.0514245 -0.041746 -0.05204861 -0.08229111
-0.03179146 -0.04282294 0.008407427 -0.016303595 0.061090298 0.06511978 -0.0036697944 -0.066493005
-0.039795086 0.06502094 0.01960848 0.0048559946 0.02493762 0.04122125 -0.058208685 -0.07189971
0.057267178 -7.9516416e-05 0.0427807 0.015114287 0.019218057 -0.017171174 0.004989896 0.086701244
-0.06603382 -0.009544449 -0.011855368 0.031666137 0.035927698 0.029492857 0.071559094 -0.027688188
0.063563265 0.018646656 -0.075109035 -0.033267733 -0.013289755 -0.03866457 0.06990374 -0.08302858
0.09367324 0.07415444 0.017466582 0.076748535 0.057192694 0.03257117 -0.036473166 0.057983223
0.07084095 0.035775088 -0.013161343 -0.07497658 -0.059882052 0.047985666 0.08734724 0.05254572
0.092453085 -0.036411542 0.050786622 0.040335387 0.010925133 -0.09700731 0.07150884 -0.003189661
-0.06139546 -0.05447557 -0.092409335 -0.08074751 0.06826465 0.016944876 0.07146597 -0.042612556
00000000: 1769 dfb9 b68e a2bc de9d a33d a8f3 9b3d
00000010: b632 4abd 3e96 543d c739 b93c 28f8 15bd
00000020: 18d9 963d 1cbb b13c 1887 6fbd 4fe6 633d
00000030: 3591 25bd 029c b5bd 6899 b63c 7872 893d
00000040: 1329 f63c 0c2d afbd 83ea 98bc 722b fa3b
00000050: cbd8 c4bc b9da abbd 1e1a 773d 040b 8a3d
00000060: 7900 693d 9c37 a53d 07fa 66bd d4f1 d53c
00000070: 0d34 0ebd fd49 883d 8043 a2bd 8d86 b43d
00000080: d125 41bb 7a41 b4bd def3 783c 501f ae3d
00000090: 8b72 7cbd 6f4e 933d 223a a9bd 4b7d c7bc
000000a0: a2e6 a8bd 5cef babc 7c1b adbc 1cd2 73bd
000000b0: 8c6f 843b d7e1 a13d 4d2a bcbd f036 8a3d
000000c0: cd1f 923d b9b6 893d 576f 82bb 1fb4 1abb
000000d0: a339 50bd 2827 173d 51e6 4a3d edcb ae3d
000000e0: 8301 a0bd f66a 493c 391f 3b3d 9fb4 5abc
000000f0: 090f 6abd 56d8 14bd 3b63 4f3d f3d2 783d
00000100: 721c 4f3d 9e13 afbd d0cd 873d 9553 e63c
00000110: 833b dd3c fda7 433d a828 81bb 9aca 25bd
00000120: b137 c2bd 50c0 a8bd e9ba 8dbd c348 80bd
00000130: 3040 9dbd 4042 543b 1355 82bd f4e4 943b
00000140: 080c 893d 1280 a03d d0ff 70bd c833 b3bd
00000150: 1a4d 96bc a0af bdbd 2efe 1fbd 9e12 9cbd
00000160: d962 ba3c e0e6 49bd 76cc 20bd 2695 9c3d
00000170: dac2 22bd 997e c23d 334d 803d 57ac d9bd
00000180: 4fc4 e6bc 41a9 00bd 7b0a 353d abb4 bebd
00000190: 294a 4bbb a0fa 883d e73e 503d 8e27 e93c
000001a0: 2bb4 abbd 8189 c8bb f73d 743d d681 5dbd
000001b0: 16a4 2dbd 3c2f 3fbd 7e94 57bd 428a 4d3c
000001c0: da31 dbbd c51c 953d 75a5 24bb 6dfd 8b3d
000001d0: f14b 92bb 9e88 253d 2959 64bb c404 b03d
000001e0: e7a9 30bd 6055 e8bc 5788 8fbd cd42 a0bd
000001f0: 4e4a 203d 648d 72bd 8db1 2e3b 8540 7a3c
00000200: 53d2 43bd b307 7abd 45c8 48bd 5057 87bd
00000210: 658b 8ebd 9af2 7d3d d825 883d eadb 113d
00000220: 9237 96bb 90f0 f63c 545e 8a3d 89de 83bd
00000230: 4044 533d 4373 933d 7be8 3a3b c09b 9d3d
00000240: c93e 84bc e58b 763d b4e5 5ebd 7ba9 05bc
00000250: 52e7 ce3a bd05 c63c eebc ce3a 08af af3c
00000260: d433 9f3d a1d6 353b 9549 64bd 7c1d 84bd
00000270: bb1b b5bb a832 6bbc d521 0b3d b94d 95bd
00000280: a7e4 cb3c ef73 d8bd 3d7e 70bd eccf 77bd
00000290: c403 91bc 5635 353d d35c 953d 93af 9ebd
000002a0: b187 313d cb60 babd 2dd7 03bc 614e 82bd
000002b0: 7e3a 16bd e9bf 43bd 24b5 00bd 8075 663a
000002c0: 9d9b bf3d 8270 e8bc 6804 c4bd d49b d73c
000002d0: 7fa2 523d dbfd 2abd ec30 55bd 3e88 a8bd
000002e0: c337 02bd 1b67 2fbd 4ebf 093c 1e8f 85bc
000002f0: d239 7a3d 855d 853d ef80 70bb 7c2d 88bd
00000300: 2c00 23bd b329 853d f7a1 a03c 091f 9f3b
00000310: fb49 cc3c 9dd7 283d 3b6c 6ebd 2840 93bd
00000320: fd90 6a3d 0dc2 a6b8 d13a 2f3d eaa1 773c
00000330: 306f 9d3c 90aa 8cbc 4882 a33b 6c90 b13d
00000340: bd3c 87bd 5260 1cbc 043d 42bc 5ab4 013d
00000350: ec28 133d 019b f13c 938d 923d 57d2 e2bc
00000360: 752d 823d dfc0 983c c4d2 99bd bf43 08bd
00000370: 46bd 59bc bd5e 1ebd b129 8f3d e30a aabd
00000380: c1d7 bf3d 48de 973d 1416 8f3c 562e 9d3d
00000390: e342 6a3d 5969 053d e364 15bd d17f 6d3d
000003a0: 0f15 913d e688 123d aca2 57bc 528d 99bd
000003b0: e246 75bd 9e8c 443d 1ce3 b23d 2e3a 573d
000003c0: 0b58 bd3d 4524 15bd a205 503d b836 253d
000003d0: 54ff 323c c5ab c6bd 3a73 923d a209 51bb
000003e0: ce79 7bbd c621 5fbd 1b41 bdbd f35e a5bd
000003f0: 56ce 8b3d fbcf 8a3c c05c 923d 818a 2ebd

fc1.bias f4 [256]
-0.10621267 -0.004670416 -0.0026817606 -0.058975533 -0.094944045 0.06806757 -0.04506316 0.04023203
-0.034600265 0.2959044 0.3504894 0.42453074 -0.008275997 0.05442784 0.32140753 0.49785438
0.34429914 0.07634722 0.5238624 -0.001550732 0.40423676 -0.059141368 0.38180062 0.31583774
0.06655 0.4651658 0.33391973 -0.00865656 0.13896179 0.33789653 0.018552229 0.5167366
-0.007914591 0.4119461 -0.08485503 0.03399527 0.40413854 -0.0019630634 -0.008897311 0.31733584
0.0019512073 0.34892485 -0.09240323 0.3241583 0.24410631 0.38116634 -0.050767202 0.49091816
-0.11677383 0.2897563 -0.06910693 -0.00025723537 0.33025852 -0.09684462 0.40737957 0.34590083
0.022159468 0.43132707 0.40823546 0.00039851072 0.4338846 0.40894252 0.4911039 0.34335658
0.02226013 0.41694787 -0.013992283 0.40648767 0.38926706 -0.054805014 -0.09706235 0.06312087
0.40582293 0.38851953 -0.013475867 0.4195267 0.38323876 0.2751245 -0.005036984 0.41410473
0.41386604 -0.087805755 0.49096587 0.3043454 0.22415324 0.45175698 0.37112188 0.1258085
0.40216374 0.4419568 0.037882924 0.25276688 -0.05524233 0.3854483 0.35972857 0.014617411
0.36089024 0.41534376 0.31437275 -0.0910287 0.51709694 -0.0029534062 0.42616394 0.014115785
-0.05964056 -0.00059380796 0.025214268 0.02022756 0.41236094 0.093366355 -0.030651169 -0.032985788
0.39009744 0.43352652 0.41524202 0.25365385 -0.0830003 0.32871398 0.43638444 0.30882278
0.46010268 -0.05744539 0.5173482 0.31986633 0.39323825 -0.02811564 0.47453916 0.3433414
0.47081286 -0.089917056 0.35835204 0.43040028 0.42952746 -0.004605647 -0.0740974 0.029930837
-0.08534725 0.5206773 0.45371678 -0.09197617 0.2751898 -0.09619554 0.36462426 0.07719
0.38839003 0.09206051 0.03366269 0.115609564 0.059729636 0.37262347 -0.00991383 0.3941889
0.48180956 -0.091757305 0.050483983 0.41575435 0.38436106 0.40943715 -0.024627253 -0.059877854
0.3603637 0.039260104 0.34031802 0.023173241 0.43097958 -0.00043911455 0.0023439603 0.003921319
0.37093592 0.50217104 0.4310135 0.33218998 0.49791092 0.41918734 0.40846333 0.315066
-0.050501168 -0.09214795 -0.06947983 -0.06979802 0.35985866 0.3882327 -0.0037491631 -0.09179716
0.34763548 -0.06264338 0.34425595 0.46588933 0.38012096 -0.093536 -0.080170125 -0.068002015
-0.074283265 0.34882554 -0.08202153 0.11908753 0.4441937 0.025494877 0.41995108 0.31033453
-0.021018796 0.39207524 0.43787962 -0.08963589 -0.082031414 0.05718992 0.24964869 0.30499837
0.35022065 0.36641034 -0.00026004788 0.005441932 0.27143106 0.32664365 0.51118153 0.44052613
0.2387763 -0.08496993 0.3690165 0.3811454 0.32719216 0.36423868 -0.075411014 0.28034618
0.36801395 0.29054376 0.4713399 -0.007831264 0.058175582 -0.015193806 0.49597108 -0.0202004
-0.055476498 0.063009165 0.43843377 -0.04836931 -0.05451793 -0.055660002 0.007558318 0.35071555
0.38499078 0.061016206 0.34659225 0.047135454 0.38821465 0.51073027 0.4332185 0.4802528
0.40812972 0.38896072 0.06532769 -0.08158443 -0.022355463 0.066111125 0.07898864 0.42711526
00000000: 0786 d9bd 4a0a 99bb 7ac0 2fbb 5490 71bd
00000010: 0672 c2bd 0367 8b3d 2694 38bd 57ca 243d
00000020: 02b9 0dbd c880 973e 5973 b33e 185c d93e
00000030: 0c98 07bc baef 5e3d 878f a43e c5e6 fe3e
00000040: fa47 b03e ee5b 9c3d d91b 063f ee41 cbba
00000050: 1ff8 ce3e 383e 72bd 5f7b c33e 7cb5 a13e
00000060: 5e4b 883d 362a ee3e 87f7 aa3e 3fd4 0dbc
00000070: 004c 0e3e c600 ad3e d8fa 973c da48 043f
00000080: 33ac 01bc 99ea d23e 79c8 adbd a03e 0b3d
00000090: 3feb ce3e bda6 00bb 07c6 11bc d879 a23e
000000a0: a7bf ff3a 47a6 b23e e83d bdbd 14f8 a53e
000000b0: 01f7 793e 3c28 c33e 45f1 4fbd a059 fb3e
000000c0: 1e27 efbd f05a 943e ef87 8dbd 8cdd 86b9
000000d0: a517 a93e 7956 c6bd 0e94 d03e ea19 b13e
000000e0: c687 b53c e7d6 dc3e 3d04 d13e 34ef d039
000000f0: 1f26 de3e ea60 d13e f871 fb3e 6fcc af3e
00000100: e05a b63c 317a d53e e33f 65bc 271f d03e
00000110: 034e c73e 397b 60bd a0c8 c6bd 8445 813d
00000120: 06c8 cf3e 08ec c63e e2c9 5cbc 34cc d63e
00000130: df37 c43e 1edd 8c3e 490d a5bb 8905 d43e
00000140: 40e6 d33e 81d3 b3bd e15f fb3e 29d3 9b3e
00000150: 6d88 653e b14c e73e b003 be3e f2d3 003e
00000160: 68e8 cd3e 2948 e23e 202b 1b3d a96a 813e
00000170: c845 62bd 7b59 c53e 582e b83e de7d 6f3c
00000180: 9bc6 b83e f0a7 d43e 77f5 a03e 416d babd
00000190: 7760 043f ef8d 41bb 2932 da3e e545 673c
000001a0: a949 74bd c7a9 1bba 278e ce3c 45b4 a53c
000001b0: f920 d33e dc36 bf3d 2918 fbbc 1b1c 07bd
000001c0: daba c73e 30f7 dd3e 9a9a d43e ebde 813e
000001d0: 10fc a9bd 334d a83e c86d df3e 051e 9e3e
000001e0: 9492 eb3e db4b 6bbd ee70 043f 85c5 a33e
000001f0: 8656 c93e c552 e6bc ccf6 f23e 72ca af3e
00000200: 620e f13e 6f26 b8bd eb79 b73e 6d5d dc3e
00000210: 06eb db3e f8ea 96bb 61c0 97bd 8431 f53c
00000220: 8aca aebd 1c4b 053f 914d e83e 015e bcbd
00000230: ade5 8c3e 2b02 c5bd 08b0 ba3e ca15 9e3d
00000240: 0fdb c63e 388a bc3d e4e1 093d b5c4 ec3d
00000250: 10a7 743d 81c8 be3e 9e6d 22bc 21d3 c93e
00000260: beaf f63e 41eb bbbd 4bc8 4e3d c1dd d43e
00000270: f9ca c43e bfa1 d13e 18bf c9bc 7b42 75bd
00000280: 9781 b83e 34cf 203d 2a3e ae3e cfd5 bd3c
00000290: 5ba9 dc3e f538 e6b9 219d 193b 687e 803b
000002a0: 50eb bd3e 488e 003f cdad dc3e ce14 aa3e
000002b0: 2eee fe3e b99f d63e 1b22 d13e 5550 a13e
000002c0: 50da 4ebd 10b8 bcbd 714b 8ebd 44f2 8ebd
000002d0: 653f b83e 70c6 c63e 85b4 75bb 2600 bcbd
000002e0: 47fd b13e 2c4b 80bd 5142 b03e 0c89 ee3e
000002f0: 379f c23e cd8f bfbd 3c30 a4bd a444 8bbd
00000300: d321 98bd 4399 b23e e7fa a7bd 2ae4 f33d
00000310: 5b6d e33e a2da d03c d403 d73e 2be4 9e3e
00000320: 9c2f acbc 16be c83e c231 e03e 0693 b7bd
00000330: 1600 a8bd fa3f 6a3d e8a3 7f3e bf28 9c3e
00000340: 1f50 b33e 239a bb3e 0957 88b9 3c52 b23b
00000350: 03f9 8a3e d63d a73e cbdc 023f a48c e13e
00000360: c681 743e b704 aebd bbef bc3e 7d25 c33e
00000370: bb85 a73e 7e7d ba3e 1771 9abd 8989 8f3e
00000380: 536c bc3e 27c2 943e 7753 f13e b44e 00bc
00000390: 8549 6e3d 71ef 78bc ecef fd3e 4f7b a5bc
000003a0: 533b 63bd f30a 813d 647a e03e e61e 46bd
000003b0: 314e 5fbd befb 63bd c4ab f73b fd90 b33e
000003c0: 831d c53e 21ec 793d 8a74 b13e 1b11 413d
000003d0: 12c4 c63e 38bf 023f d1ce dd3e b2e3 f53e
000003e0: 61f6 d03e dc25 c73e 86ca 853d bd15 a7bd
000003f0: ce22 b7bc 4565 873d ccc4 a13d daae da3e

fc2.weight f4 [1, 256]
-0.003835156 -0.044031613 -0.05019438 -0.018465389 0.056399144 -0.026058206 0.00067163754 -0.03811104
-0.043188173 0.46173054 0.45330843 0.3921129 -0.048474032 -0.034078006 0.45553723 0.40179986
0.47920936 -0.015180268 0.41123974 -0.035548087 0.476111 -0.0413407 0.3942777 0.4977708
0.020193148 0.49963602 0.49273834 -0.007814473 0.07827156 0.4023553 -0.012853082 0.41455618
-0.035263505 0.4764052 -0.05334013 -0.030420454 0.48917064 -0.046808038 -0.04736376 0.4692466
-0.016374214 0.4253058 -0.003024075 0.36744273 0.45433077 0.43491986 0.03513381 0.403352
-0.046365228 0.42592198 -0.040179238 0.006370552 0.40355918 -0.03614152 0.5111785 0.44545013
0.006707008 0.47890803 0.40534085 -0.04101208 0.45911774 0.4217981 0.41673505 0.4175504
-0.007795578 0.45287386 -0.018492138 0.4547429 0.41335535 -0.05598757 -0.032838166 -0.018502675
0.4576108 0.52192384 -0.047265947 0.46966532 0.46373117 0.45435432 0.007778406 0.47194862
0.44936228 0.037141673 0.41655004 0.4216538 0.18679427 0.43237916 0.4508744 0.07043424
0.4695385 0.49567872 -0.012656036 0.44264662 -0.034452587 0.4978544 0.45628655 -0.04851287
0.405113 0.48319104 0.45819962 -0.019792011 0.46071678 0.04412234 0.4689485 -0.052241903
-0.052392773 -0.0033691323 -0.047873322 -0.031733513 0.45528227 0.088820286 -0.013539499 0.0017973408
0.43620238 0.4132032 0.43648645 0.47023878 -0.017983424 0.4404986 0.41499677 0.42155716
0.47697017 0.04906428 0.45534253 0.43056923 0.42667648 -0.015319116 0.4695814 0.4379694
0.40054172 -0.04619881 0.5237041 0.42091817 0.47829184 -0.023060622 0.048635818 -0.03329964
-0.049456093 0.4019573 0.5078901 -0.056502353 0.4725659 -0.049799908 0.40167862 -0.050012387
0.44719905 0.09548291 -0.026545292 0.11107993 -0.037416633 0.47614837 -0.021521598 0.4263403
0.41268167 0.042358987 0.0037406618 0.4598704 0.48006237 0.42098323 -0.023808321 -0.030095022
0.45262223 -0.012529268 0.41008016 -0.008486548 0.41910568 -0.008554815 -0.02852417 -0.019480715
0.4236389 0.42902145 0.4070837 0.43514505 0.4100573 0.40594235 0.4398912 0.4608366
-0.0144441975 -0.04042336 -0.008340445 0.035051182 0.4531965 0.5007045 -0.037092496 -0.03812773
0.42730337 0.022019364 0.5045659 0.43918166 0.39199868 0.0075770244 -0.00572422 -0.014901672
-0.01574026 0.4723526 -0.056174833 0.104498364 0.48410922 -0.013113951 0.4422286 0.4128101
-0.031345055 0.47825018 0.46887282 -0.0010519387 -0.037201956 -0.015562945 0.24243584 0.49207205
0.42426115 0.40770265 -0.020711156 -0.016551057 0.43353313 0.45742097 0.42583138 0.44657338
0.24424045 -0.010218689 0.44273803 0.40948015 0.47262138 0.41699442 -0.030025257 0.4393207
0.44859937 0.43071306 0.46178824 -0.023006186 -0.004929871 -0.058498967 0.45655414 -0.04684032
0.048326947 -0.047222484 0.41186655 0.054031022 -0.0389395 -0.018403254 -0.03261062 0.45718154
0.47173446 -0.020725582 0.45667627 -0.005362028 0.46275592 0.39588383 0.39051569 0.4708266
0.4781873 0.46502116 0.0025415607 -0.017841114 -0.03545052 -0.0483958 -0.046445623 0.47686175
00000000: 3e57 7bbb 7e5a 34bd 9f98 4dbd ba44 97bc
00000010: ca02 673d 0578 d5bc d510 303a 521a 1cbd
00000020: 15e6 30bd f267 ec3e 0b18 e83e 06c3 c83e
00000030: b58c 46bd 6195 0bbd 2d3c e93e b6b8 cd3e
00000040: ee5a f53e a9b6 78bc 048e d23e df9a 11bd
00000050: d2c4 f33e de54 29bd c4de c93e d0db fe3e
00000060: 1a6c a53c 4bd0 ff3e 3348 fc3e 4608 00bc
00000070: d74c a03d 8401 ce3e bc95 52bc b540 d43e
00000080: 7770 10bd 62eb f33e 2e7b 5abd 5134 f9bc
00000090: 9374 fa3e c9b9 3fbd 8100 42bd 1741 f03e
000000a0: 3723 86bc afc1 d93e 8f2f 46bb 7421 bc3e
000000b0: 0b9e e83e d1ad de3e 78e8 0f3d 2784 ce3e
000000c0: 77e9 3dbd 7212 da3e fc92 24bd 10c0 d03b
000000d0: 4f9f ce3e 2109 14bd 98dc 023f 0a12 e43e
000000e0: 76c6 db3b 6f33 f53e d688 cf3e 48fc 27bd
000000f0: 7b11 eb3e ecf5 d73e 4c5e d53e 2bc9 d53e
00000100: 0c72 ffbb 15df e73e d37c 97bc 10d4 e83e
00000110: 50a3 d33e 3953 65bd 5081 06bd ec92 97bc
00000120: f64b ea3e cd9c 053f f099 41bd f977 f03e
00000130: 2c6e ed3e 21a1 e83e 00e2 fe3b 40a3 f13e
00000140: d012 e63e de21 183d 0c46 d53e 02e3 d73e
00000150: ff46 3f3e cd60 dd3e 02d9 e63e d43f 903d
00000160: 5a67 f03e 9ac9 fd3e 435b 4fbc 94a2 e23e
00000170: 281e 0dbd c6e6 fe3e 649e e93e 6eb5 46bd
00000180: f96a cf3e d164 f73e 2499 ea3e db22 a2bc
00000190: 12e3 eb3e a0b9 343d 051a f03e 9bfb 55bd
000001a0: ce99 56bd a9cc 5cbb d116 44bd 00fb 01bd
000001b0: c21a e93e 69e7 b53d c6d4 5dbc c094 eb3a
000001c0: eb55 df3e 5f8f d33e 277b df3e 23c3 f03e
000001d0: f951 93bc 0889 e13e 757a d43e 57d6 d73e
000001e0: 6f35 f43e a0f7 483d a822 e93e 9273 dc3e
000001f0: 5775 da3e 08fd 7abc f96c f03e 863d e03e
00000200: ce13 cd3e f73a 3dbd 7911 063f 9682 d73e
00000210: abe2 f43e a1e9 bcbc 5a36 473d 3465 08bd
00000220: 7992 4abd 59cd cd3e 1605 023f 036f 67bd
00000230: 28f4 f13e fdfa 4bbd d2a8 cd3e cad9 4cbd
00000240: 46f7 e43e 8b8c c33d 8375 d9bc e07d e33d
00000250: 2f42 19bd b8c9 f33e 104e b0bc 4749 da3e
00000260: 034b d33e 9e80 2d3d e425 753b 2274 eb3e
00000270: bcca f53e 1d8b d73e ab09 c3bc d689 f6bc
00000280: 1abe e73e 8f47 4dbc 07f6 d13e 2a0b 0bbc
00000290: 0595 d63e 7f29 0cbc 85ab e9bc 0596 9fbc
000002a0: 33e7 d83e b3a8 db3e 466d d03e 55cb de3e
000002b0: 08f3 d13e add7 cf3e 6b39 e13e c6f2 eb3e
000002c0: 5ba7 6cbc f792 25bd 5da6 08bc d491 0f3d
000002d0: 5f09 e83e 2c2e 003f 4dee 17bd d32b 1cbd
000002e0: 82c7 da3e f461 b43c 3b2b 013f 6bdc e03e
000002f0: 0db4 c83e b048 f83b 3d92 bbbb 2426 74bc
00000300: b8f1 80bc 33d8 f13e 9517 66bd 3d03 d63d
00000310: 2add f73e e6db 56bc c96b e23e d85b d33e
00000320: ac63 00bd 35dd f43e 1910 f03e 35e1 89ba
00000330: 1461 18bd b9fb 7ebc 1a41 783e def0 fb3e
00000340: c238 d93e 67be d03e 71aa a9bc 1596 87bc
00000350: 0ef8 dd3e 1533 ea3e 9206 da3e 44a5 e43e
00000360: 2b1a 7a3e 4a6c 27bc 8fae e23e 62a7 d13e
00000370: 6efb f13e 4b80 d53e 87f7 f5bc a5ee e03e
00000380: d1ae e53e 6c86 dc3e 826f ec3e 7877 bcbc
00000390: c18a a1bb 9d9c 6fbd 77c1 e93e a3db 3fbd
000003a0: 7af2 453d 5d6c 41bd 2ce0 d23e a24f 5d3d
000003b0: 067f 1fbd 6cc2 96bc b792 05bd b313 ea3e
000003c0: 2e87 f13e b2c8 a9bc 79d1 e93e f3b3 afbb
000003d0: 58ee ec3e 49b1 ca3e acf1 c73e 2f10 f13e
000003e0: f7d4 f43e 4117 ee3e 5090 263b 8727 92bc
000003f0: 9134 11bd ad3a 46bd c43d 3ebd 3927 f43e
