model_epoch_500.pth (torch, 141254 bytes, 15 tensors)

target_net.fc1.weight f4 [64, 36]
0.10006237 0.056178987 0.011433085 0.006272786 0.04249291 0.012451232 -0.028217098 0.1123031
0.052450042 0.067646556 -0.074216135 -0.12219502 -0.11775788 0.08770486 -0.050435066 0.101365246
0.067575194 -0.11078148 -0.036820292 -0.06826173 -0.16322935 0.037391245 0.09883414 -0.069858566
0.031032085 -0.02889949 -0.079926535 0.00940309 0.12265003 -0.18336032 0.14970069 -0.0603899
0.03417369 0.010010481 -0.05248646 0.06312935 0.14505208 0.094138786 -0.046133243 -0.014593844
-0.05968399 0.027904144 0.13168596 0.15580879 0.04053406 0.042639405 -0.0227219 0.017764363
0.10437189 -0.12697536 0.12662324 0.120454945 0.02837317 0.115168266 -0.053855836 0.04160794
0.160469 -0.16348778 0.06913756 -0.017869001 -0.05967909 -0.03343588 0.14050263 0.09719676
0.017586768 -0.045518305 -0.019071102 0.056176703 -0.012155971 0.15610556 -0.12270926 -0.11799049
0.13611636 0.04471928 0.03644705 0.09822748 -0.079289325 0.018387806 0.02916497 0.1601359
-0.04627387 0.07802249 0.06602189 -0.09373056 0.0071855388 -0.08693999 -0.108819865 0.062558755
0.0919967 0.11668355 0.03685991 -0.08244865 0.15609112 0.012060444 0.022738278 -0.0210959
0.12197622 -0.07632675 0.07902199 -0.055893205 -0.12578452 -0.00052101625 -0.14750056 -0.08732921
0.013603926 0.041086793 -0.13571005 -0.09855841 0.07230598 -0.09572234 -0.15408379 -0.07440251
0.05400498 -0.14646062 0.1408073 -0.045285344 0.035534244 0.10788136 -0.0910348 0.15683588
-0.021600028 -0.16436458 0.13472623 0.05345837 0.1224597 0.06487294 0.1133831 0.010280689
-0.0043200455 0.0027264357 0.12644297 -0.042086665 0.04274901 0.092518374 0.15323137 0.14658599
-0.08869319 -0.02853685 -0.030572396 -0.14859095 -0.06426935 -0.017357927 -0.08238809 -0.06923753
-0.05243256 -0.023561835 -0.05125644 -0.09000128 0.105408125 0.106826045 -0.0203592 -0.012608906
-0.038468003 -0.06910861 0.13633561 -0.0746976 -0.13267979 -0.05043509 0.14701842 -0.16216017
0.05069422 -0.14998972 0.14998661 0.063732386 -0.07591759 -0.04891193 -0.041570723 0.14519325
0.017066121 0.018825054 -0.07390871 0.10448371 -0.00020873547 0.11979053 0.15458894 0.13188194
0.03387493 -0.041094482 0.12372005 -0.13109982 -0.023642521 -0.1043916 0.01347222 -0.028919557
-0.033119544 -0.011090206 -0.0036100547 0.1266203 -0.11439799 0.08638507 0.10666942 0.055098955
0.14204237 0.15141016 -0.11147561 -0.053242262 0.18190986 -0.045583267 -0.15200011 -0.11891638
0.054467104 0.002424717 -0.040455244 0.030051721 -0.08740147 0.10527015 -0.02593567 0.06561385
-0.14654544 -0.09376679 0.036948245 0.010525405 -0.07364051 0.10446721 0.016473472 -0.16767484
-0.01163896 0.12776957 -0.08930131 -0.060629018 -0.16454247 0.20765758 -0.12330824 0.103919886
-0.107628904 0.08430234 0.06906439 0.11111929 -0.15679672 -0.09563023 0.044021748 0.07040954
-0.16965428 0.07849144 -0.026325684 -0.005109509 0.039710402 0.072713815 -0.078417145 0.019172598
-0.11411359 -0.09269069 -0.006921053 -0.14761326 -0.055898845 -0.069818035 0.09877517 -0.049010694
0.13805297 0.058511697 -0.010933161 -0.102992855 0.11807603 0.108934484 -0.1408934 0.09591691
00000000: 80ed cc3d f01b 663d d651 3b3c f18b cd3b
00000010: 0c0d 2e3d 4100 4c3c 8b27 e7bc 2bff e53d
00000020: dbd5 563d 478a 8a3d a1fe 97bd 6241 fabd
00000030: 0b2b f1bd 9b9e b33d 0095 4ebd 9598 cf3d
00000040: dd64 8a3d 67e1 e2bd e0d0 16bd cecc 8bbd
00000050: 9825 27be 9027 193d 8e69 ca3d 0212 8fbd
00000060: 0037 fe3c a0be ecbc 86b0 a3bd 6b0f 1a3c
00000070: f02f fb3d cfc2 3bbe 234b 193e 665b 77bd
00000080: b6f9 0b3d 0003 243c 0bfc 56bd f649 813d
00000090: 8888 143e d6cb c03d 36f6 3cbd 051b 6fbc
000000a0: 3377 74bd 3b97 e43c afd8 063e 578c 1f3e
000000b0: 0b07 263d a8a6 2e3d 4723 babc 9286 913c
000000c0: eec0 d53d d405 02be 86a9 013e 15b1 f63d
000000d0: da6e e83c 57dd eb3d f097 5cbd 166d 2a3d
000000e0: fc51 243e 5769 27be fe97 8d3d 0362 92bc
000000f0: 1072 74bd 10f4 08bd ecdf 0f3e 180f c73d
00000100: 2012 903c 6771 3abd 003b 9cbc 8b19 663d
00000110: d629 47bc 23da 1f3e fe4e fbbd ffa4 f1bd
00000120: 1662 0b3e 902b 373d 8049 153d 7d2b c93d
00000130: 7162 a2bd 06a2 963c 60eb ee3c aafa 233e
00000140: ab89 3dbd 41ca 9f3d 7c36 873d cff5 bfbd
00000150: ab74 eb3b 980d b2bd f3dc debd ce1e 803d
00000160: c468 bc3d c9f7 ee3d 6bfa 163d d6da a8bd
00000170: 5ad6 1f3e 2b99 453c a045 ba3c 4fd1 acbc
00000180: abce f93d 3351 9cbd 48d6 a13d 46f0 64bd
00000190: a8cd 00be cf94 08ba 630a 17be a8d9 b2bd
000001a0: 00e3 5e3c a04a 283d 93f7 0abe fed8 c9bd
000001b0: 2815 943d 130a c4bd 24c8 1dbe 5860 98bd
000001c0: 5334 5d3d c6f9 15be ca2f 103e 207d 39bd
000001d0: 5b8c 113d e7f0 dc3d 7470 babd 9699 203e
000001e0: 8bf2 b0bc 304f 28be acf5 093e 2af7 5a3d
000001f0: 27cc fa3d 1bdc 843d 6635 e83d 5670 283c
00000200: 2b8f 8dbb 00ae 323b 447a 013e 1163 2cbd
00000210: 9619 2f3d 467a bd3d afe8 1c3e a31a 163e
00000220: c6a4 b5bd 1dc6 e9bc f672 fabc 3a28 18be
00000230: a69f 83bd 3632 8ebc 16bb a8bd 68cc 8dbd
00000240: 86c3 56bd c004 c1bc 46f2 51bd 9752 b8bd
00000250: 37e0 d73d 9dc7 da3d 56c8 a6bc 9695 4ebc
00000260: a090 1dbd d188 8dbd 909b 0b3e 0efb 98bd
00000270: 36dd 07be 0695 4ebd ff8b 163e 510d 26be
00000280: bea4 4f3d e896 19be 1796 193e 2086 823d
00000290: ae7a 9bbd e057 48bd 1046 2abd 8aad 143e
000002a0: 40ce 8b3c 0037 9a3c 735d 97bd 8efb d53d
000002b0: 00e0 5ab9 bd54 f53d 904c 1e3e 0f0c 073e
000002c0: 70c0 0a3d b052 28bd f060 fd3d 083f 06be
000002d0: f6ad c1bc 43cb d5bd 96ba 5c3c b5e8 ecbc
000002e0: 5ca8 07bd b2b3 35bc ab96 6cbb c0a8 013e
000002f0: 7e49 eabd a8ea b03d 7f75 da3d 71af 613d
00000300: 8e73 113e 440b 1b3e 534d e4bd 8f14 5abd
00000310: 9446 3a3e 85b5 3abd eba5 1bbe 6e8a f3bd
00000320: e618 5f3d 00e8 1e3b 66b4 25bd 072f f63c
00000330: 8bff b2bd e097 d73d 0b77 d4bc 8e60 863d
00000340: 0210 16be ce08 c0bd 0b57 173d c072 2c3c
00000350: d6d0 96bd e8f2 d53d 60f3 863c f4b2 2bbe
00000360: 56b1 3ebc 07d6 023e 9be3 b6bd 2256 78bd
00000370: d27d 28be 30a4 543e 0889 fcbd f3d3 d43d
00000380: 8b6c dcbd b5a6 ac3d a271 8d3d 8392 e33d
00000390: 528f 20be c8d9 c3bd 2650 343d e032 903d
000003a0: dab9 2dbe 1fc0 a03d f6a8 d7bc ab6d a7bb
000003b0: 60a7 223d fbea 943d 2b99 a0bd da0f 9d3c
000003c0: 63b4 e9bd 9ed4 bdbd 00ca e2bb ee27 17be
000003d0: 30f6 64bd c2fc 8ebd a34a ca3d 70bf 48bd
000003e0: c25d 0d3e f6a9 6f3d 0021 33bc ebed d2bd
000003f0: d8d1 f13d 0b19 df3d 5c46 10be 1670 c43d

target_net.fc1.bias f4 [64]
0.061743703 0.11406977 -0.106887065 -0.042595036 -0.0014700927 -0.16015135 -0.051240776 0.018641092
-0.14351213 0.15750885 0.035514038 0.1328816 0.105182596 -0.02837334 0.14164507 -0.054803185
-0.16919231 -0.15221152 0.10495714 -0.07575769 -0.13884409 -0.16589385 0.08365764 -0.10816557
-0.04422893 -0.056084193 0.15235509 -0.025867969 -0.10187517 0.20440029 0.08004212 -0.09345314
-0.06327457 0.06926664 0.025525248 -0.011886229 0.13694039 0.053268947 -0.15794495 0.02715906
-0.1332255 -0.0021081327 -0.11109002 -0.122820966 0.1119856 0.06352769 -0.048615523 -0.11899696
0.0844761 -0.13327058 -0.13819656 -0.04218049 -0.022260742 -0.014360092 0.08748147 0.0853143
-0.15997227 0.03891024 0.043597538 -0.017062496 -0.13067158 -0.051119484 0.1327505 -0.08497487
00000000: f7e6 7c3d 699d e93d 9be7 dabd 2278 2ebd
00000010: 20b0 c0ba b7fe 23be d9e1 51bd 34b5 983c
00000020: d8f4 12be 004a 213e 2b77 113d 1d12 083e
00000030: f969 d73d 356f e8bc 680b 113e 4e79 60bd
00000040: c040 2dbe 56dd 1bbe c5f3 d63d d926 9bbd
00000050: 252d 0ebe 14e0 29be b254 ab3d e985 ddbd
00000060: 6529 35bd 8ab8 65bd f902 1c3e 10e9 d3bc
00000070: eea3 d0bd 4f4e 513e 1fed a33d 5c64 bfbd
00000080: 1996 81bd abdb 8d3d 531a d13c 75be 42bc
00000090: 1a3a 0c3e 8a30 5a3d 52bc 21be ad7c de3c
000000a0: 446c 08be 9928 0abb 2a83 e3bd 8f89 fbbd
000000b0: b558 e53d ce1a 823d 1221 47bd aeb4 f3bd
000000c0: ce01 ad3d 1578 08be 6683 0dbe 73c5 2cbd
000000d0: 295c b6bc 9746 6bbc 7c29 b33d 44b9 ae3d
000000e0: c5cf 23be 5860 1f3d 5593 323d a6c6 8bbc
000000f0: c5ce 05be aa62 51bd bfef 073e 4e07 aebd

target_net.fc2.weight f4 [3, 64]
-0.052689604 0.0037901585 -0.04042951 -0.093614034 -0.033280708 -0.08782518 0.04841246 0.07971037
-0.096582055 0.11717066 0.0070057935 0.055568695 -0.038066883 0.08518342 -0.091331534 0.08586784
0.07143651 0.0069924914 -0.05175617 0.012360879 -0.06423904 0.10394599 -0.093783334 -0.049334385
-0.07224612 -0.042690594 0.091977626 0.0316877 0.0985438 -0.008687656 -0.096208245 0.058053363
-0.029750116 0.11982079 0.06525036 0.008031087 -0.052291773 -0.037160724 0.100498304 -0.021147372
0.07913001 -0.075559914 0.017185457 0.041576106 0.017042363 0.08059338 0.040811487 0.034067657
0.086106755 -0.06782196 -0.034760084 -0.087012604 -0.08781115 -0.09445849 0.01696471 0.08673217
0.03204996 0.07100223 0.09724253 -0.13477927 -0.04266441 0.049413703 -0.12180082 0.048075914
-0.05422702 -0.11902573 0.094091706 -0.039534822 0.08669989 -0.07840485 0.04411599 0.04338736
-0.011795118 -0.101371124 0.071117364 0.07503539 0.0036740159 0.038987815 0.047314066 -0.04353159
-0.02150883 0.1155427 0.050004534 0.010393668 0.063292556 0.026137145 -0.10477034 0.05611787
0.016464349 -0.11570933 0.037765704 0.092707604 -0.05584035 -0.01478177 -0.016014341 -0.017025232
0.11795206 -0.038313318 -0.042866174 0.0028190801 -0.02664834 -0.014733716 -0.08565935 -0.0064599407
0.023417579 0.08396363 -0.07349499 0.07832891 0.0687319 0.09066286 0.097856656 -0.021968976
0.008044124 0.07772738 -0.11779943 -0.012250559 -0.08290886 -0.06856983 -0.08823331 -0.03987192
-0.06873293 -0.07464545 -0.04988624 -0.023618685 -0.0109977 -0.07516301 -0.063335136 0.016012698
-0.07648671 -0.059601095 -0.061411165 0.04856165 -0.02928993 0.08233096 -0.06402475 -0.003657659
0.06380029 0.11431532 0.110081635 -0.015237036 -0.024594026 0.0687238 -0.04689722 -0.038396474
-0.025573544 -0.012871497 0.060882602 0.014050721 -0.10544173 -0.061525173 0.11294211 -0.07317494
0.014091661 0.076926276 0.09300544 0.027154777 -0.06404463 0.17268217 0.11265202 0.14855146
-0.089621946 0.014642688 0.11993583 -0.051307883 -0.0043514376 0.03342025 0.07239973 -0.08025218
-0.03887245 -0.09725617 -0.013821835 0.13781853 0.12743162 -0.07613778 -0.05436366 0.08513748
-0.00091736834 0.04591968 0.095746934 0.0010459884 -0.09741523 -0.03850171 0.05951529 0.11798416
-0.1315174 -0.12893027 0.10859444 0.11059108 -0.10659461 -0.112080336 0.096825026 0.008185938
00000000: 0ed1 57bd 4f64 783b 6a99 25bd b7b8 bfbd
00000010: 5a51 08bd b0dd b3bd 254c 463d 313f a33d
00000020: d0cc c5bd 2cf7 ef3d db90 e53b 009c 633d
00000030: 05ec 1bbd a574 ae3d 070c bbbd 7adb af3d
00000040: 4e4d 923d 4521 e53b 47fe 53bd 4985 4a3c
00000050: c28f 83bd a3e1 d43d 7a11 c0bd da12 4abd
00000060: c6f5 93bd 55dc 2ebd c45e bc3d f6ca 013d
00000070: 55d1 c93d ac56 0ebc d408 c5bd 5dc9 6d3d
00000080: 84b6 f3bc 9a64 f53d fba1 853d d294 033c
00000090: e62f 56bd d835 18bd 0ed2 cd3d 413d adbc
000000a0: ea0e a23d 28bf 9abd 84c8 8c3c b54b 2a3d
000000b0: 6d9c 8b3c 240e a53d f229 273d 878a 0b3d
000000c0: bd58 b03d 3de6 8abd 9760 0ebd aa33 b2bd
000000d0: 55d6 b3bd 7473 c1bd 93f9 8a3c a3a0 b13d
000000e0: d246 033d 9e69 913d 1727 c73d 9403 0abe
000000f0: e0c0 2ebd 0666 4a3d b572 f9bd 40eb 443d
00000100: 271d 5ebd c3c3 f3bd 27b3 c03d 44ef 21bd
00000110: b68f b13d b992 a0bd f8b2 343d f2b6 313d
00000120: 5040 41bc aa9b cfbd fba5 913d 28ac 993d
00000130: c2c7 703b b0b1 1f3d 65cc 413d 2e4e 32bd
00000140: 4933 b0bc a7a1 ec3d 8ed1 4c3d 344a 2a3c
00000150: 879f 813d 911d d63c d591 d6bd dadb 653d
00000160: 3ee0 863c 03f9 ecbd 36b0 1a3d 7cdd bd3d
00000170: dab8 64bd 3d2f 72bc 8230 83bc 8078 8bbc
00000180: da90 f13d 6dee 1cbd 7194 2fbd 51c0 383b
00000190: 9f4d dabc af65 71bc 2b6e afbd e9ad d3bb
000001a0: 39d6 bf3c 20f5 ab3d 8b84 96bd e86a a03d
000001b0: 4fc3 8c3d 73ad b93d 1269 c83d 48f8 b3bc
000001c0: 80cb 033c 882f 9f3d d440 f1bd 92b6 48bc
000001d0: 1fcc a9bd 576e 8cbd aab3 b4bd bd50 23bd
000001e0: dac3 8cbd b7df 98bd 8455 4cbd f97b c1bc
000001f0: b22f 34bc 10ef 99bd dab5 81bd 102d 833c
00000200: 10a5 9cbd 4720 74bd 468a 7bbd 95e8 463d
00000210: 6ff1 efbc 229d a83d 681f 83bd 56b5 6fbb
00000220: baa9 823d 271e ea3d 7b72 e13d c3a4 79bc
00000230: 6979 c9bc 10bf 8c3d 4d17 40bd 9f45 1dbd
00000240: 9c7f d1bc f9e2 52bc 0960 793d ff34 663c
00000250: d5f1 d7bd d201 7cbd 314e e73d bedc 95bd
00000260: b6e0 663c 868b 9d3d a379 be3d b273 de3c
00000270: d529 83bd 98d3 303e 1ab6 e63d e01d 183e
00000280: b68b b7bd e3e7 6f3c eba0 f53d 3728 52bd
00000290: 8196 8ebb ace3 083d 4f46 943d 415b a4bd
000002a0: b838 1fbd 3e2e c7bd fa74 62bc 4d20 0d3e
000002b0: 6f7d 023e 20ee 9bbd 6eac 5ebd 8f5c ae3d
000002c0: 8c7b 70ba 4616 3c3d f816 c43d 8c19 893a
000002d0: a381 c7bd f8b3 1dbd 4ec6 733d aea1 f13d
000002e0: 7fac 06be 4c06 04be c366 de3d 937d e23d
000002f0: 464e dabd 608a e5bd 334c c63d 501e 063c

target_net.fc2.bias f4 [3]
0.01971696 -0.0010723013 0.03226684
00000000: 7685 a13c 768c 8cba 3c2a 043d

tatic_net.fc1.weight f4 [64, 42]
0.14276306 -0.038523432 0.00734753 -0.12874524 0.032152805 -0.09841127 -0.043636393 -0.1052479
0.09197763 0.14039482 -0.060593978 0.006409805 -0.12502445 0.12490058 0.090758964 -0.115191035
-0.12690489 0.12571447 0.013895659 -0.10872714 0.15355667 -0.09411723 -0.047947895 0.14868613
-0.14694048 0.09200311 -0.07133638 -0.09893559 0.076542474 -0.06243518 0.032794572 0.12288213
-0.013307185 -0.14992556 0.102707066 0.105911575 -0.10950186 0.029379345 0.04385235 0.06818408
0.08521764 -0.041168418 -0.12344099 0.14629403 -0.05520601 0.12174356 -0.0017137333 0.054088283
0.13877587 -0.037424553 -0.009873945 -0.026678225 0.05769065 0.105488665 -0.08464855 -0.017580865
-0.082900554 -0.11644846 0.05484158 0.09111988 0.086168334 0.07161975 -0.03718276 0.033399235
0.15361205 -0.023452705 -0.0884824 0.11791259 0.08559491 0.009146741 -0.12984544 0.01137673
-0.09466194 0.04098852 -0.14761978 -0.119433805 -0.038289182 0.15244155 -0.1347696 -0.05649812
-0.0936781 0.101102926 -0.020729065 0.065173656 0.06397478 0.08703646 -0.12199925 -0.13033837
-0.11739023 0.16409293 0.048049927 0.08475616 0.06551939 0.04493681 -0.052289035 0.089708656
-0.14991151 -0.13429545 0.07463628 -0.0801129 0.130853 -0.1014737 0.073554434 -0.12033051
-0.08935073 -0.044566084 -0.12479303 -0.054814316 0.052266914 0.024746254 -0.061235838 0.100495026
-0.01747758 0.11940079 -0.13978359 0.0050900048 0.03985576 0.048469596 -0.13489807 0.037689198
0.03957728 -0.14609559 -0.1045041 0.09651603 -0.1448379 -0.0034170898 -0.14164926 -0.108337775
0.07042586 0.15945101 0.061161466 0.15485552 -0.14058527 -0.12242683 -0.12278455 0.13782178
-0.061188217 0.062127244 0.073937446 -0.14445597 0.091262296 -0.16333655 -0.027580341 0.118161194
0.07599103 0.15315768 0.013078156 0.07360465 -0.09392398 0.15299466 -0.06595017 -0.11136711
0.102948084 -0.07442682 0.14156245 -0.09103609 0.02351337 -0.034062464 0.078697026 -0.022156341
0.121487744 0.019901596 -0.14398436 -0.08005094 -0.13383716 0.099904455 -0.07277961 0.15422888
0.0513194 -0.1279188 -0.13547552 -0.114350975 0.040035408 -0.049584895 -0.10243244 -0.14856708
-0.036118202 -0.078199156 -0.070913635 0.13700467 -0.029758707 -0.07935573 -0.03631673 -0.12801346
0.02450351 0.16117367 -0.073246166 0.024711194 -0.10485875 0.045340266 -0.1043014 -0.15347773
0.10870723 0.10655381 0.09177182 0.049343236 -0.14184652 0.013149053 0.04788136 0.10127225
-0.011567499 -0.11585389 -0.009787473 0.086190835 -0.046858195 -0.010916299 0.005431102 -0.0071150432
0.031659234 0.15254293 0.07672785 -0.12091036 0.14610611 0.0003399067 -0.0187477 0.038708318
0.021130908 0.035879422 -0.0024340933 0.09595749 -0.060889456 0.09033188 0.061861247 0.08896386
0.043940675 0.021081347 -0.06604629 -0.12438897 0.10241548 -0.08708717 0.058720514 0.013090444
-0.1241163 -0.022964405 0.026957076 0.056574367 -0.006804822 0.037384786 -0.12415307 -0.05711955
0.15405107 0.13077119 -0.076598264 0.13668585 0.1375108 0.010755746 -0.09987151 0.11265005
-0.14285946 0.11688951 0.019788835 -0.13003097 0.096680544 0.12402311 0.08604662 -0.00012675137
00000000: 7b30 123e bfca 1dbd 8dc3 f03b cbd5 03be
00000010: a9b2 033d d98b c9bd 13bc 32bd 368c d7bd
00000020: c55e bc3d a9c3 0f3e 6431 78bd 5709 d23b
00000030: 6906 00be e0cb ff3d d6df b93d 47e9 ebbd
00000040: 5bf3 01be 4bbb 003e 9eaa 633c 56ac debd
00000050: f63d 1d3e 89c0 c0bd 0365 44bd 2d41 183e
00000060: 9177 16be 206c bc3d cf18 92bd be9e cabd
00000070: 4dc2 9c3d 08bc 7fbd 9a53 063d a0a9 fb3d
00000080: 6106 5abc 1686 19be 1558 d23d 2be8 d83d
00000090: 8342 e0bd f4ac f03c 869e 333d 18a4 8b3d
000000a0: 9686 ae3d 37a0 28bd a1ce fcbd 1ace 153e
000000b0: b21f 62bd b054 f93d 599f e0ba ad8b 5d3d
000000c0: 431b 0e3e 7d4a 19bd 54c6 21bc 4b8c dabc
000000d0: 084d 6c3d 710a d83d 385c adbd bf05 90bc
000000e0: c4c7 a9bd 887c eebd 91a1 603d 0f9d ba3d
000000f0: 0679 b03d 60ad 923d f34c 18bd a3cd 083d
00000100: 7a4c 1d3e e31f c0bc 4336 b5bd 287c f13d
00000110: 624c af3d 36dc 153c 34f6 04be 7765 3a3c
00000120: 1fde c1bd 94e3 273d a429 17be b699 f4bd
00000130: 1ed5 1cbd a319 1c3e 0b01 0abe 936a 67bd
00000140: 4eda bfbd 0d0f cf3d 00d0 a9bc c479 853d
00000150: 3605 833d 2c40 b23d beda f9bd 6c77 05be
00000160: 4a6a f0bd fa07 283e 00d0 443d a394 ad3d
00000170: 082f 863d a90f 383d 072d 56bd 2cb9 b73d
00000180: 6782 19be bf84 09be e8da 983d 3b12 a4bd
00000190: 54fe 053e 71d1 cfbd b5a3 963d d86f f6bd
000001a0: 84fd b6bd ed8a 36bd 7d93 ffbd fa84 60bd
000001b0: d515 563d a8b8 ca3c 6ed2 7abd 56d0 cd3d
000001c0: 242d 8fbc 6788 f43d 6e23 0fbe 0eca a63b
000001d0: cb3f 233d 0e88 463d b822 0abe fd5f 1a3d
000001e0: c91b 223d 159a 15be 3f06 d6bd 32aa c53d
000001f0: 6350 14be 41f1 5fbb 810c 11be 32e0 ddbd
00000200: 6f3b 903d 2047 233e 7284 7a3d 7292 1e3e
00000210: 96f5 0fbe ebba fabd 7776 fbbd 2721 0d3e
00000220: 7fa0 7abd 2379 7e3d 846c 973d 44ec 13be
00000230: bae7 ba3d b241 27be 2bf0 e1bc 7ffe f13d
00000240: 2fa1 9b3d 5ed5 1c3e c345 563c 09be 963d
00000250: 375b c0bd a2aa 1c3e e210 87bd 7014 e4bd
00000260: 72d6 d23d 176d 98bd bff5 103e 2171 babd
00000270: 1c9f c03c 1585 0bbd e82b a13d 3781 b5bc
00000280: 91ce f83d ac08 a33c a370 13be bff1 a3bd
00000290: 9c0c 09be b59a cc3d 7a0d 95bd 2dee 1d3e
000002a0: 4b34 523d 25fd 02be 18ba 0abe d830 eabd
000002b0: 2bfc 233d 8819 4bbd 19c8 d1bd f821 18be
000002c0: aef0 13bd e126 a0bd 2b3b 91bd f44a 0c3e
000002d0: 88c8 f3bc 4285 a2bd dac0 14bd f615 03be
000002e0: 96bb c83c b60a 253e 1602 96bd 216f ca3c
000002f0: 2fc0 d6bd b7b6 393d f99b d5bd 4429 1dbe
00000300: e5a1 de3d e238 da3d ddf2 bb3d 221c 4a3d
00000310: 3740 11be 206f 573c 3f1f 443d d367 cf3d
00000320: 9b85 3dbc ce44 edbd a35b 20bc d284 b03d
00000330: 61ee 3fbd 47da 32bc 63f7 b13b 4f25 e9bb
00000340: 1dad 013d 3734 1c3e 7e23 9d3d da9f f7bd
00000350: d79c 153e 8135 b239 c794 99bc 9d8c 1e3d
00000360: ba1a ad3c 4df6 123d 4f85 1fbb 5c85 c43d
00000370: 3967 79bd ecff b83d 3862 7d3d af32 b63d
00000380: 23fb 333d cab2 ac3c 4743 87bd a5bf febd
00000390: 35bf d13d c25a b2bd ec84 703d 4d79 563c
000003a0: b030 febd d91f bcbc 16d5 dc3c 86ba 673d
000003b0: fcfa debb ca20 193d f743 febd 30f6 69bd
000003c0: 90bf 1d3e e2e8 053e 8ddf 9cbd 60f7 0b3e
000003d0: a2cf 0c3e de38 303c 6f89 ccbd 12b5 e63d
000003e0: c049 12be c463 ef3d 321c a23c d726 05be
000003f0: 7300 c63d d4ff fd3d 3639 b03d 90e8 04b9

tatic_net.fc1.bias f4 [64]
0.10134802 -0.05735048 0.062179156 0.103771135 0.01753137 0.07714208 -0.048104 -0.08654718
-0.081728995 0.0017555668 0.065600954 0.093827695 -0.08752377 0.035334032 0.045938943 0.103404045
-0.08440599 0.09441743 0.13361268 0.09982265 0.05171838 0.11950093 -0.097816676 0.13595241
-0.08612125 -0.052207988 -0.04065642 0.016116757 -0.14578563 0.11426671 -0.092025764 -0.053128198
0.122196384 -0.07103924 0.0995551 -0.015447622 0.0164206 -0.03527113 0.03897951 0.07907573
-0.07773957 -0.09977229 0.054342825 0.12581013 0.06326417 0.17099304 -0.13062954 0.11384745
0.040924724 -0.13037948 -0.13739201 -0.026638733 -0.012366601 -0.0024510773 -0.026481744 0.012619184
0.14761119 0.04073044 0.06534164 0.100360066 0.0079321 -0.10068492 -0.14694355 -0.08127238
00000000: 8d8f cf3d 56e8 6abd 92af 7e3d f685 d43d
00000010: f39d 8f3c abfc 9d3d b308 45bd a63f b1bd
00000020: 8861 a7bd 0c1b e63a cb59 863d bc28 c03d
00000030: aa3f b3bd 6bba 103d 792a 3c3d 80c5 d33d
00000040: 0cdd acbd ed5d c13d c3d1 083e d16f cc3d
00000050: a7d6 533d e7bc f43d 1c54 c8bd 1c37 0b3e
00000060: 5760 b0bd 0bd8 55bd 5987 26bd 4a07 843c
00000070: d448 15be aa04 ea3d 0178 bcbd f49c 59bd
00000080: 1942 fa3d 057d 91bd 8be3 cb3d 0618 7dbc
00000090: 7e84 863c 7678 10bd fba8 1f3d 75f2 a13d
000000a0: ec35 9fbd 6a55 ccbd 9596 5e3d 5fd4 003e
000000b0: a590 813d cd18 2f3e c0c3 05be da28 e93d
000000c0: afa0 273d 3382 05be 7eb0 0cbe 7939 dabc
000000d0: 499d 4abc 41a2 20bb 3ef0 d8bc b2c0 4e3c
000000e0: 6327 173e f6d4 263d d6d1 853d 9489 cd3d
000000f0: a4f5 013c e533 cebd 5f78 16be 2272 a6bd

tatic_net.fc2.weight f4 [6, 64]
0.03327158 0.06379394 -0.060331732 0.070555836 -0.03693074 0.014486164 0.0007377714 0.096286744
0.08066735 -0.091799915 0.10596891 0.09436633 -0.081199035 0.026719213 -0.042753413 0.07638253
-0.11846371 -0.09943552 -0.0087329745 0.032337204 0.11515762 -0.10819121 0.07726784 -0.007641956
-0.012271345 -0.120940104 0.11206341 0.08709952 0.054344997 0.019704685 -0.033255264 -0.0949391
-0.10137758 0.043736026 -0.018960804 0.021045312 0.1176528 0.007873535 0.008558363 -0.1099616
-0.088159636 -0.100393355 -0.010185942 -0.11275542 -0.12141621 -0.050515592 0.012510881 0.059317872
0.04251325 0.062042177 -0.08137803 -0.09879908 -0.0878654 -0.08318259 0.008644283 -0.09719963
-0.015127808 -0.069511205 0.106656015 0.018717855 0.006589979 0.097510636 -0.06446552 0.09349193
-0.051414434 0.112915084 -0.056588035 0.045609802 -0.13334347 0.0013887973 -0.08371531 -0.13277872
-0.05814804 0.10476845 -0.12865508 0.09424794 0.040790737 -0.08300398 0.08092295 -0.0390797
0.03913811 -0.018286275 -0.024626557 -0.09333147 0.04295691 0.028535277 -0.11128812 -0.027752854
0.054956194 -0.032688707 -0.05956457 -0.058951624 -2.8066079e-06 0.04041542 -0.048314147 -0.08937825
0.04445625 -0.0032439549 0.107043445 0.054114606 0.059367433 0.062350824 -0.020118324 0.040440373
-0.050654948 0.049559448 0.08470044 0.006356165 -0.029323636 -0.09599226 0.009099386 -0.023460643
-0.1018389 0.0052825417 0.09025051 -0.11106639 0.055945415 0.058864377 -0.031483635 -0.12652566
-0.022767276 -0.069288 0.13723665 -0.010663926 0.10078247 -0.04289504 0.030926239 -0.016268006
-0.05677921 -0.05218341 -0.00070666877 0.06826709 0.076242045 -0.04411588 0.04498682 0.03832461
-0.016896388 -0.11116648 -0.012954619 -0.009322764 0.07597005 -0.037528545 -0.0468794 -0.031899277
-0.11768538 -0.07138415 -0.03940186 -0.08275435 0.084866226 0.123465754 0.041342746 -0.006412349
0.004339263 0.029141642 -0.044066846 0.008418202 0.1080478 0.013290902 -0.032278154 0.0275423
0.010347811 0.072417155 -0.0207961 0.080806926 -0.016601657 0.096210815 -0.071224 -0.13448523
0.09371729 0.13110673 -0.070155494 0.110935524 -0.022576742 0.019647796 0.08368965 0.112545066
-0.06326826 -0.08831237 0.016107935 0.09211497 -0.072897024 0.114077665 -0.0783917 -0.010171146
-0.13017099 -0.02619206 0.13052094 0.1483686 -0.054365702 0.059782766 0.034123357 0.09379152
-0.02384325 0.09177433 0.013318157 0.098116025 0.010521616 0.0025193268 0.022154747 -0.018910928
-0.03166776 -0.014742406 -0.09719423 -0.08835908 0.015606198 -0.08692912 -0.06554268 -0.00042161127
0.08344339 -0.11231871 0.034570664 -0.05335737 -0.043350797 -0.07270366 0.024937494 -0.015875425
0.015955325 -0.061459135 -0.034257974 0.026294686 -0.12254096 0.1204214 -0.047187474 -0.03311143
-0.13803641 0.061842434 0.08939965 -0.028442152 0.051031098 -0.04250604 -0.010837115 0.03903931
0.092077054 0.0090109445 -0.05729942 -0.063387886 -0.04599002 0.09872646 0.087975234 -0.03839674
-0.08460415 0.14265834 0.048168905 -0.08242013 -0.025006253 0.034731638 -0.08344713 -0.049272567
-0.11892826 0.09956079 0.1245945 -0.014772011 -0.08894315 -0.06630915 0.010103352 -0.043280713
00000000: c847 083d 66a6 823d 681e 77bd 947f 903d
00000010: b044 17bd 6057 6d3c 0067 413a fc31 c53d
00000020: ec34 a53d 9801 bcbd 3a06 d93d 2243 c13d
00000030: ae4b a6bd 40e2 da3c 341e 2fbd 726e 9c3d
00000040: 1a9d f2bd daa4 cbbd c014 0fbc 0474 043d
00000050: c2d7 eb3d 5a93 ddbd 9a3e 9e3d 6069 fabb
00000060: c00d 49bc 72af f7bd 8081 e53d 3c61 b23d
00000070: dc98 5e3d b86b a13c ac36 08bd 6e6f c2bd
00000080: 0c9f cfbd 8c24 333d b053 9bbc 3867 ac3c
00000090: f4f3 f03d 0000 013c 6038 0c3c 8c33 e1bd
000000a0: 0a8d b4bd 089b cdbd f0e2 26bc 50ec e6bd
000000b0: 10a9 f8bd 70e9 4ebd 70fa 4c3c 4cf7 723d
000000c0: 6022 2e3d f01f 7e3d 86a9 a6bd 2c57 cabd
000000d0: c6f2 b3bd a25b aabd c0a0 0d3c 9a10 c7bd
000000e0: a0da 77bc e45b 8ebd 786e da3d 3056 993c
000000f0: c0f0 d73b a8b3 c73d 8006 84bd b278 bf3d
00000100: f197 52bd 0640 e73d dbc8 67bd 58d1 3a3d
00000110: 318b 08be 4e08 b63a ef72 abbd 25f7 07be
00000120: a42c 6ebd d790 d63d 28be 03be 1005 c13d
00000130: 3014 273d fefd a9bd eeba a53d 0912 20bd
00000140: 484f 203d 19cd 95bc a2bd c9bc 9224 bfbd
00000150: 96f3 2f3d d0c2 e93c 07eb e3bd f459 e3bc
00000160: bf19 613d 98e4 05bd fbf9 73bd 4277 71bd
00000170: 2859 3cb6 a48a 253d 0ee5 45bd f20b b7bd
00000180: c217 363d 8898 54bb 9839 db3d 47a7 5d3d
00000190: 442b 733d 9463 7f3d 2fcf a4bc cea4 253d
000001a0: 907b 4fbd d9fe 4a3d 6d77 ad3d 6047 d03b
000001b0: 1f38 f0bc 9797 c4bd 9715 153c 8930 c0bc
000001c0: ea90 d0bd 2c19 ad3b 42d5 b83d c776 e3bd
000001d0: 0527 653d c61b 713d fcf4 00bd f18f 01be
000001e0: 7082 babc dee6 8dbd c487 0c3e bfb7 2ebc
000001f0: 0a67 ce3d b6b2 2fbd 0659 fd3c 7b44 85bc
00000200: 5191 68bd 45be 55bd bd3f 39ba 9ecf 8b3d
00000210: ca24 9c3d dab2 34bd 1a44 383d 44fa 1c3d
00000220: 4b6a 8abc 40ab e3bd 9c3f 54bc 82be 18bc
00000230: 3096 9b3d 88b7 19bd 9d04 40bd d1a8 02bd
00000240: 0805 f1bd da31 92bd d863 21bd 1d7b a9bd
00000250: 58ce ad3d 9ddb fc3d 0357 293d af1e d2bb
00000260: 6030 8e3b 74ba ee3c 707f 34bd 80ec 093c
00000270: 2a48 dd3d 15c2 593c 1936 04bd 64a0 e13c
00000280: dd89 293c 724f 943d 955c aabc 1a7e a53d
00000290: 3300 88bc 2d0a c53d e3dd 91bd 7fb6 09be
000002a0: daee bf3d d840 063e afad 8fbd 2a32 e33d
000002b0: dcf2 b8bc 6af4 a03c 7b65 ab3d 077e e63d
000002c0: ca92 81bd 1edd b4bd caf4 833c c6a6 bc3d
000002d0: 094b 95bd 8da1 e93d d48b a0bd e1a4 26bc
000002e0: 8b4b 05be bb90 d6bc 48a7 053e f0ed 173e
000002f0: 92ae 5ebd c6de 743d efc4 0b3d c515 c03d
00000300: eb52 c3bc 2ef4 bb3d 6634 5a3c 0ef1 c83d
00000310: db62 2c3c 4a1b 253b df7d b53c 17eb 9abc
00000320: 0eb6 01bd 228a 71bc c50d c7bd 9bf5 b4bd
00000330: 24b1 7f3c e507 b2bd 3e3b 86bd b50b ddb9
00000340: 5ee4 aa3d 5a07 e6bd f899 0d3d 428d 5abd
00000350: 9b90 31bd a8e5 94bd b749 cc3c 2e0d 82bc
00000360: beb4 823c 93bc 7bbd 1752 0cbd f467 d73c
00000370: c1f6 fabd 7f9f f63d a747 41bd da9f 07bd
00000380: 6b59 0dbe 7e4e 7d3d 2a17 b73d 84ff e8bc
00000390: fc05 513d d01a 2ebd 288e 31bc afe7 1f3d
000003a0: e592 bc3d a4a2 133c ccb2 6abd 82d1 81bd
000003b0: 0860 3cbd 1931 ca3d 5c2c b43d e645 1dbd
000003c0: f144 adbd 0715 123e c24c 453d e3cb a8bd
000003d0: ead9 ccbc c342 0e3d 54e6 aabd 08d2 49bd
000003e0: a990 f3bd 87e6 cb3d 672b ff3d 4e06 72bc
000003f0: d427 b6bd 17cd 87bd 8888 253c 1e47 31bd

tatic_net.fc2.bias f4 [6]
0.056085363 -0.09806828 0.032216772 0.02509659 0.03386128 -0.075123265
00000000: c4b9 653d 06d8 c8bd bcf5 033d 5d97 cd3c
00000010: 20b2 0a3d 3ada 99bd

tatic_net.fc3.weight f4 [6, 3]
-0.35377002 0.3725044 -0.41826627 0.1196726 0.3835828 -0.04327415 0.26716432 -0.14291707
-0.2448038 0.34664607 -0.19384211 -0.569533 -0.24778892 -0.51990813 0.5630061 0.5915378
0.46890378 -0.034544718
00000000: 5821 b5be e6b8 be3e ff26 d6be e816 f53d
00000010: f764 c43e 3c40 31bd c3c9 883e da58 12be
00000020: d9ad 7abe 987b b13e 8c7e 46be eacc 11bf
00000030: 61bc 7dbe b318 05bf 2b21 103f 056f 173f
00000040: 2814 f03e c37e 0dbd

tatic_net.fc3.bias f4 [6]
0.35867542 0.45354158 0.10288695 0.328505 -0.09128452 -0.05220631
00000000: 4ea4 b73e 9a36 e83e 65b6 d23d cf31 a83e
00000010: 61f3 babd 49d6 55bd

tatic_net.fc4.weight f4 [3, 9]
0.2507301 0.33167526 0.03521679 0.2192285 0.39651173 0.32410637 -0.16008298 0.31830782
-0.17490993 -0.017932842 -0.04154583 -0.17394726 0.18717694 -0.25734526 0.20219259 0.19972312
0.1413502 0.38696983 0.08609052 -0.039820917 0.29589638 -0.22550951 0.030236501 0.10709576
-0.08202115 0.11036121 0.07031425
00000000: b25f 803e 57d1 a93e 7b3f 103d 707d 603e
00000010: 9603 cb3e 45f1 a53e cbec 23be 3ef9 a23e
00000020: 971b 33be e5e7 92bc f62b 2abd 3b1f 32be
00000030: 50ab 3f3e c2c2 83be 930b 4f3e 3884 4c3e
00000040: 1bbe 103e e920 c63e 3a50 b03d 421b 23bd
00000050: bb7f 973e f7eb 66be 8ab2 f73c 0655 db3d
00000060: b4fa a7bd 0f05 e23d eb00 903d

tatic_net.fc4.bias f4 [3]
-0.22482152 -0.2393045 -0.056285888
00000000: 9d37 66be 3d0c 75be 088c 66bd

fc1.weight f4 [256, 108]
-0.00042612173 -0.01984344 0.07989095 0.07550603 -0.050256476 0.051901095 0.022610558 -0.036613613
0.07365626 0.02057299 -0.059284456 0.05563956 -0.040421683 -0.08867647 0.022289947 0.066474944
0.028586317 -0.08553514 -0.018666511 0.0076345736 -0.024029156 -0.083913274 0.06032764 0.06740382
0.056885216 0.08067247 -0.05639079 0.02611629 -0.03471761 0.059684627 -0.07923031 0.08814726
-0.0029472003 -0.08801551 0.015194861 0.08502066 -0.061632674 0.071926944 -0.08263041 -0.024994167
-0.083362706 -0.022819214 -0.02113127 -0.059526548 0.0040416177 0.07792165 -0.09268343 0.0674876
0.07134972 0.06724305 -0.003980558 -0.0029987032 -0.052298743 0.036902577 0.049536053 0.085349895
-0.07812788 0.012293568 0.045684073 -0.0133487275 -0.057143245 -0.036339127 0.050631743 0.06074805
0.050564237 -0.092349276 0.066310525 0.028116027 0.027005916 0.047767628 -0.003941614 -0.04047642
-0.094832785 -0.08239806 -0.06920416 -0.06328108 -0.07767414 0.003238812 -0.06363883 0.004543895
0.06691748 0.07724689 -0.059643723 -0.08750111 -0.018347312 -0.092620134 -0.039060764 -0.0768453
0.021289647 -0.049292445 -0.03925749 0.07645635 -0.039736606 0.09496803 0.062647246 -0.10628574
-0.02816978 -0.031411413 0.044199448 -0.093118034 -0.0031019545 0.060021546 0.05084124 0.028461244
-0.08383974 -0.0061199074 0.059629407 -0.0540789 -0.042392813 -0.046675906 -0.052631848 0.4555545
0.33185637 0.4076198 -0.0025123034 0.068354465 -0.0044646193 0.4843892 0.4243859 0.4700686
-0.04313078 -0.028361022 -0.07008427 0.3678224 0.4652788 0.34236172 0.0026656121 0.015274172
-0.047808003 -0.0610425 -0.049019117 0.25953215 -0.06960181 0.06199894 0.06647843 0.035610117
-0.004584261 0.4340453 0.06756273 -0.064389296 0.05157876 0.07199719 0.0028519917 0.46220097
-0.01614322 0.060192008 -0.05441828 0.43485117 0.4404624 0.35898402 0.0015772858 0.021445766
0.07773557 0.44675046 0.37213582 0.31961206 -0.0055269874 -0.014355339 0.03396781 0.37317264
0.4510345 0.2958884 -0.05871414 -0.060501024 -0.01770199 0.04424032 0.072930954 0.24813345
0.043342296 -0.09100493 -0.008046907 -0.06362606 -0.036676876 0.356112 -0.03142275 0.00087913126
0.09355853 -0.02837396 -0.09571153 0.41156295 0.0514245 -0.041746 -0.05204861 0.36071914
0.40709305 0.29198858 0.008407427 -0.016303595 0.061090298 0.5090959 0.42420042 0.3176284
-0.039795086 0.06502094 0.01960848 0.4509301 0.4510828 0.44279984 -0.058208685 -0.07189971
0.057267178 -7.9516416e-05 0.0427807 0.34073052 0.019218057 -0.017171174 0.004989896 0.086701244
-0.06603382 0.39435747 -0.011855368 0.031666137 0.035927698 0.029492857 0.071559094 0.35755524
0.063563265 0.018646656 -0.075109035 -0.035947584 -0.016096808 -0.03866457 0.06990374 -0.08302858
0.09367324 0.069755845 0.013194658 0.071265854 0.057192694 0.03257117 -0.036473166 0.05386621
0.06916889 0.030310942 -0.013161343 -0.07497658 -0.059882052 0.047985666 0.08734724 0.05254572
0.092453085 -0.036411542 0.050786622 0.040335387 0.010925133 -0.1057807 0.07150884 -0.003189661
-0.06139546 -0.05447557 -0.092409335 -0.08074751 0.06826465 0.016944876 0.07146597 -0.045292407
00000000: 1769 dfb9 b68e a2bc de9d a33d e8a2 9a3d
00000010: bcd9 4dbd 3e96 543d c739 b93c 28f8 15bd
00000020: 18d9 963d b088 a83c 42d4 72bd 4fe6 633d
00000030: 3591 25bd 029c b5bd 6899 b63c 0424 883d
00000040: da2d ea3c 0c2d afbd 83ea 98bc 722b fa3b
00000050: cbd8 c4bc b9da abbd 1e1a 773d 040b 8a3d
00000060: 7900 693d 9c37 a53d 07fa 66bd d4f1 d53c
00000070: 0d34 0ebd de77 743d 8043 a2bd 8d86 b43d
00000080: d125 41bb 7a41 b4bd def3 783c 501f ae3d
00000090: 8b72 7cbd 6f4e 933d 223a a9bd 91c0 ccbc
000000a0: 11ba aabd 5cef babc 7c1b adbc 1cd2 73bd
000000b0: 8c6f 843b 6395 9f3d cfd0 bdbd f036 8a3d
000000c0: cd1f 923d b9b6 893d 576f 82bb e485 44bb
000000d0: 3537 56bd 2827 173d 51e6 4a3d edcb ae3d
000000e0: 8301 a0bd f66a 493c 391f 3b3d 9fb4 5abc
000000f0: 090f 6abd 56d8 14bd 3b63 4f3d f3d2 783d
00000100: 721c 4f3d 9e21 bdbd d0cd 873d 9553 e63c
00000110: 833b dd3c fda7 433d a828 81bb 9aca 25bd
00000120: b137 c2bd 50c0 a8bd e9ba 8dbd 8399 81bd
00000130: 9f13 9fbd 4042 543b 1355 82bd f4e4 943b
00000140: 080c 893d 9e33 9e3d fa4c 74bd c833 b3bd
00000150: 1a4d 96bc a0af bdbd 2efe 1fbd 1261 9dbd
00000160: a067 ae3c e0e6 49bd 76cc 20bd 2695 9c3d
00000170: dac2 22bd 997e c23d 334d 803d 57ac d9bd
00000180: 4fc4 e6bc 41a9 00bd 7b0a 353d abb4 bebd
00000190: 294a 4bbb 27d9 753d e73e 503d 8e27 e93c
000001a0: 2bb4 abbd 8189 c8bb f73d 743d d681 5dbd
000001b0: 16a4 2dbd 3c2f 3fbd 7e94 57bd 703e e93e
000001c0: 14e9 a93e 8bb3 d03e 75a5 24bb 6dfd 8b3d
000001d0: f14b 92bb dc01 f83e 1c49 d93e d5ac f03e
000001e0: e7a9 30bd 6055 e8bc 5788 8fbd 3853 bc3e
000001f0: 0639 ee3e 094a af3e 8db1 2e3b 8540 7a3c
00000200: 53d2 43bd b307 7abd 45c8 48bd 66e1 843e
00000210: 658b 8ebd 9af2 7d3d d825 883d eadb 113d
00000220: 9237 96bb 303b de3e 545e 8a3d 89de 83bd
00000230: 4044 533d 4373 933d 7be8 3a3b 9ba5 ec3e
00000240: c93e 84bc e58b 763d b4e5 5ebd d0a4 de3e
00000250: 4a84 e13e c1cc b73e eebc ce3a 08af af3c
00000260: d433 9f3d 7abc e43e 9688 be3e 31a4 a33e
00000270: bb1b b5bb a832 6bbc d521 0b3d 7c10 bf3e
00000280: feed e63e af7e 973e 3d7e 70bd eccf 77bd
00000290: c403 91bc 5635 353d d35c 953d b216 7e3e
000002a0: b187 313d cb60 babd 2dd7 03bc 614e 82bd
000002b0: 7e3a 16bd 5054 b63e 24b5 00bd 8075 663a
000002c0: 9d9b bf3d 8270 e8bc 6804 c4bd 61b8 d23e
000002d0: 7fa2 523d dbfd 2abd ec30 55bd 2eb0 b83e
000002e0: 806e d03e 877f 953e 4ebf 093c 1e8f 85bc
000002f0: d239 7a3d 1c54 023f cc30 d93e 31a0 a23e
00000300: 2c00 23bd b329 853d f7a1 a03c 4fe0 e63e
00000310: 53f4 e63e a9b6 e23e 3b6c 6ebd 2840 93bd
00000320: fd90 6a3d 0dc2 a6b8 d13a 2f3d 3b74 ae3e
00000330: 306f 9d3c 90aa 8cbc 4882 a33b 6c90 b13d
00000340: bd3c 87bd 39e9 c93e 043d 42bc 5ab4 013d
00000350: ec28 133d 019b f13c 938d 923d 7b11 b73e
00000360: 752d 823d dfc0 983c c4d2 99bd c63d 13bd
00000370: 74dd 83bc bd5e 1ebd b129 8f3d e30a aabd
00000380: c1d7 bf3d 27dc 8e3d 682e 583c d5f3 913d
00000390: e342 6a3d 5969 053d e364 15bd d1a2 5c3d
000003a0: 6ba8 8d3d a74e f83c aca2 57bc 528d 99bd
000003b0: e246 75bd 9e8c 443d 1ce3 b23d 2e3a 573d
000003c0: 0b58 bd3d 4524 15bd a205 503d b836 253d
000003d0: 54ff 323c 8da3 d8bd 3a73 923d a209 51bb
000003e0: ce79 7bbd c621 5fbd 1b41 bdbd f35e a5bd
000003f0: 56ce 8b3d fbcf 8a3c c05c 923d 8884 39bd

fc1.bias f4 [256]
-0.10712076 0.43179235 -0.006738685 0.24883728 0.36900753 0.44967344 0.13249499 0.43478283
0.30935717 0.6627765 0.7191211 0.80644065 -0.015303809 0.48670912 0.6893079 0.8769319
0.70727974 0.50057006 0.90154713 -0.0063761035 0.76793224 -0.059141368 0.76335454 0.6747856
0.26283523 0.8237006 0.6937408 0.35054198 0.52283174 0.71429867 -0.0004123721 0.893041
-0.0088629145 0.7752684 -0.08485503 0.4223403 0.7648505 0.3796625 -0.016201146 0.6820957
0.3896413 0.72363615 -0.09240323 0.7105239 0.6121869 0.75409555 0.2934149 0.870237
-0.117316164 0.6638173 -0.0706272 -0.00025723537 0.7061326 0.36823097 0.76647896 0.7154703
0.44632846 0.7996511 0.7864305 -0.0032002816 0.8008936 0.78373617 0.88419706 0.71999615
0.36180708 0.7854655 -0.017549986 0.7747805 0.7648599 -0.05719874 0.04741122 0.14174277
0.7740871 0.74396414 -0.014414293 0.7845108 0.74979466 0.6428615 -0.0038855805 0.778614
0.7835658 -0.087805755 0.8669559 0.6800963 0.7235182 0.8244714 0.74011546 0.5907373
0.76718575 0.80052733 0.08611291 0.6232666 0.27840933 0.74852383 0.73208165 -0.00064596464
0.7396604 0.77681273 0.6819094 -0.091405176 0.88367707 -0.0029534062 0.79882824 0.23558192
-0.062925935 -0.00059380796 -0.0004969328 -0.001203616 0.780894 0.2463754 -0.031162284 -0.032985788
0.77293557 0.8110115 0.78814805 0.61792296 -0.08537103 0.69967943 0.81204456 0.6818316
0.82316417 -0.05744539 0.8861414 0.7060627 0.7677631 -0.02811564 0.83924437 0.71486753
0.85024804 -0.096836165 0.71438926 0.8060046 0.79247856 -0.009433038 -0.0740974 0.0047663124
-0.08843682 0.89995307 0.81051594 -0.09515549 0.63976216 -0.10182956 0.7442789 0.11424652
0.7585015 0.27569854 0.38102698 0.45167395 0.2987312 0.73580587 -0.00991383 0.7682297
0.8637552 -0.091757305 0.601014 0.7830497 0.74694514 0.7848162 -0.02513384 0.3695257
0.7295683 0.38139412 0.7181265 0.40348527 0.80661726 -0.00043911455 0.44484347 0.40584332
0.7454004 0.8753801 0.8075491 0.70479673 0.8760452 0.7973761 0.7801645 0.6823374
-0.054538835 -0.09423609 0.39439216 -0.06979802 0.72847193 0.7460177 0.15857036 -0.09229901
0.72138655 -0.06264338 0.70197046 0.83727455 0.7617753 -0.093536 0.33057618 -0.0700682
-0.078366876 0.7134829 -0.08907489 0.45415956 0.8058648 0.067913555 0.79107255 0.68726385
-0.021018796 0.7550641 0.80272657 -0.08963589 -0.08218085 0.36968148 0.71605027 0.66493654
0.72543633 0.75128895 -0.00026004788 0.2344351 0.6444718 0.6941032 0.88590235 0.80993044
0.70419604 0.30761266 0.73972374 0.75894886 0.6915508 0.7404144 -0.075411014 0.6520286
0.73633844 0.6636323 0.8388904 -0.0094567835 0.55423117 0.4379948 0.86505014 -0.0202004
-0.061455574 0.42942816 0.8287095 0.5173082 -0.05451793 -0.05612772 -0.00015594873 0.7186814
0.75121 0.17181861 0.71308994 0.46302858 0.7552914 0.89631164 0.81511015 0.8495262
0.77081406 0.754754 0.31675094 -0.08509216 -0.024188707 0.5117443 0.42551973 0.7904404
00000000: 2162 dbbd e313 dd3e 30d0 dcbb 33cf 7e3e
00000010: 8eee bc3e 993b e63e c4ac 073e db9b de3e
00000020: 1064 9e3e b9ab 293f 5218 383f e572 4e3f
00000030: d4bc 7abc f031 f93e 7c76 303f 9c7e 603f
00000040: 4910 353f 5c25 003f cbcb 663f a2ee d0bb
00000050: 3597 443f 383e 72bd 346b 433f c0be 2c3f
00000060: 5792 863e 0bde 523f ff98 313f 3d7a b33e
00000070: 4dd8 053f 47dc 363f a533 d8b9 569e 643f
00000080: c235 11bc fd77 463f 79c8 adbd fd3c d83e
00000090: 3ecd 433f 2063 c23e 44b8 84bc d39d 2e3f
000000a0: 117f c73e 3840 393f e83d bdbd e5e4 353f
000000b0: 48b8 1c3f 680c 413f 7a3a 963e dac7 5e3f
000000c0: 7543 f0bd eeef 293f fea4 90bd 8cdd 86b9
000000d0: 1bc5 343f c588 bc3e f737 443f 1029 373f
000000e0: 2a85 e43e efb5 4c3f 8253 493f d1bb 51bb
000000f0: 5d07 4d3f efa2 483f bd5a 623f ab51 383f
00000100: c73e b93e 4414 493f fdc4 8fbc 0458 463f
00000110: dccd 433f 3a49 6abd 4432 423d 0425 113e
00000120: 922a 463f 6f74 3e3f ed29 6cbc b3d5 483f
00000130: 8bf2 3f3f 9292 243f 39a5 7ebb 3f53 473f
00000140: c597 483f 81d3 b3bd d2f0 5d3f cb1a 2e3f
00000150: 7d38 393f 8f10 533f 3578 3d3f 8f3a 173f
00000160: 4966 443f 5cef 4c3f f75b b03d 668e 1f3f
00000170: ab8b 8e3e 429f 3f3f b469 3b3f f455 29ba
00000180: 625a 3d3f 33dd 463f 9d91 2e3f a332 bbbd
00000190: a938 623f ef8d 41bb 0280 4c3f 633c 713e
000001a0: 50df 80bd c7a9 1bba 9844 02ba a7c2 9dba
000001b0: abe8 473f d549 7c3e 0c48 ffbc 1b1c 07bd
000001c0: 1bdf 453f 739e 4f3f 12c4 493f 3330 1e3f
000001d0: 02d7 aebd 311e 333f 27e2 4f3f 848c 2e3f
000001e0: e3ba 523f db4b 6bbd 2ada 623f 86c0 343f
000001f0: 1f8c 443f c552 e6bc b8d8 563f 8f01 373f
00000200: dba9 593f 0a52 c6bd 37e2 363f 5156 4e3f
00000210: e0df 4a3f 078d 1abc 61c0 97bd ba2e 9c3b
00000220: 5d1e b5bd 5363 663f f97d 4f3f e2e0 c2bd
00000230: 74c7 233f 048c d0bd 1089 3e3f 14fa e93d
00000240: 282d 423f 5c28 8d3e f815 c33e cf41 e73e
00000250: 4cf3 983e c65d 3c3f 9e6d 22bc b4aa 443f
00000260: 101f 5d3f 41eb bbbd 0edc 193f f275 483f
00000270: cc37 3f3f b7e9 483f 7ce5 cdbc 7932 bd3e
00000280: fdc4 3a3f 1746 c33e 23d7 373f 9f95 ce3e
00000290: 787e 4e3f f538 e6b9 86c2 e33e b2ca cf3e
000002a0: 90d2 3e3f e918 603f 8abb 4e3f 8f6d 343f
000002b0: 8044 603f d720 4c3f dcb8 473f aaad 2e3f
000002c0: 1d64 5fbd dafe c0bd c5ed c93e 44f2 8ebd
000002d0: 237d 3a3f 04fb 3e3f 4560 223e 4307 bdbd
000002e0: caac 383f 2c4b 80bd 56b4 333f a057 563f
000002f0: b503 433f cd8f bfbd 4841 a93e eb7f 8fbd
00000300: d07e a0bd d1a6 363f e56c b6bd 9a87 e83e
00000310: 284d 4e3f 4316 8b3d bb83 4a3f 86f0 2f3f
00000320: 9c2f acbc e14b 413f 7d7f 4d3f 0693 b7bd
00000330: 6f4e a8bd e446 bd3e 124f 373f 4839 2a3f
00000340: 32b6 393f 7954 403f 0957 88b9 c10f 703e
00000350: 1bfc 243f bfb0 313f 7fca 623f 9a57 4f3f
00000360: 3146 343f 687f 9d3e 895e 3d3f 794a 423f
00000370: 7909 313f cc8b 3d3f 1771 9abd 59eb 263f
00000380: ad80 3c3f cee3 293f 85c1 563f a0f0 1abc
00000390: 18e2 0d3f db40 e03e ed73 5d3f 4f7b a5bc
000003a0: d7b8 7bbd 02de db3e 4e26 543f 4f6e 043f
000003b0: 314e 5fbd 2ee6 65bd 2b86 23b9 81fb 373f
000003c0: 4c4f 403f 38f1 2f3e 108d 363f 1512 ed3e
000003d0: c75a 413f ae74 653f 0fab 503f 8d7a 593f
000003e0: 1254 453f 8f37 413f 2e2d a23e cc44 aebd
000003f0: 6527 c6bc ad01 033f b9dd d93e 4d5a 4a3f

fc2.weight f4 [1, 256]
-0.0036479896 -0.5000599 -0.048761606 -0.34286067 0.5705271 -0.43248093 -0.19150642 -0.46496522
-0.41273504 0.8503888 0.83125144 0.7633597 -0.04603731 -0.5016277 0.8307623 0.7689275
0.86870885 -0.45472237 0.7750558 -0.032093775 0.8650346 -0.0413407 0.7671194 0.87780243
0.30835235 0.87732494 0.87120456 -0.38400835 0.52852017 0.78851974 -0.011043663 0.78336406
-0.035236895 0.8595679 -0.05334013 -0.4460459 0.8723744 -0.45277944 -0.04644881 0.8463925
-0.4216344 0.80842835 -0.003024075 0.74177 0.8436218 0.8145251 0.415151 0.774494
-0.046333417 0.8108977 -0.034178738 0.006370552 0.7897035 -0.5269015 0.882799 0.8161058
0.47818917 0.8489212 0.78753537 -0.0390421 0.8407649 0.7910172 0.8148174 0.79407626
-0.35005173 0.8306198 -0.018038893 0.8320594 0.7994515 -0.055539608 -0.19565834 -0.09089075
0.84239537 0.8964236 -0.047217723 0.8494624 0.8498008 0.8409082 0.047278993 0.8617116
0.83430755 0.037141673 0.7864418 0.8004458 0.7051793 0.79991573 0.82899684 0.59735656
0.84899104 0.88060117 -0.057824075 0.82987195 -0.3844638 0.86830646 0.8259267 -0.04682232
0.7835301 0.8733899 0.84329927 -0.019767417 0.8348591 0.04412234 0.84286875 -0.30837968
-0.051316097 -0.0033691323 -0.044918027 -0.028598957 0.84108746 0.2404653 -0.013318475 0.0017973408
0.81708395 0.7887329 0.80228585 0.8613738 -0.016974106 0.8138957 0.8002675 0.81013155
0.8578358 0.04906428 0.82136565 0.82045335 0.80068827 -0.015319116 0.85049987 0.81186646
0.76840264 -0.045669638 0.8974209 0.79280066 0.86078745 -0.02131157 0.048635818 0.005509758
-0.04710758 0.7696678 0.88945 -0.055640556 0.85707206 -0.04854974 0.7795837 -0.08745454
0.82596785 0.39929855 -0.39987653 0.5334811 -0.32905316 0.8539461 -0.021521598 0.8108037
0.78534275 0.042358987 0.57022715 0.84108454 0.8702752 0.79326 -0.023796426 -0.4808732
0.83564156 0.3898282 0.7821246 -0.39414954 0.78940237 -0.008554815 -0.4827028 -0.42913827
0.79059744 0.7987822 0.79266125 0.8114677 0.7822282 0.7726698 0.81928414 0.844081
-0.010848773 -0.038751453 -0.47327092 0.035051182 0.83207816 0.88494056 -0.2145944 -0.03810595
0.8130469 0.022019364 0.8845336 0.81365806 0.7601452 0.0075770244 -0.42233533 -0.014616561
-0.0115794875 0.8585847 -0.053608507 0.5231974 0.86288655 -0.048292153 0.8259085 0.7952514
-0.031345055 0.8570083 0.84539247 -0.0010519387 -0.03719915 -0.3501818 0.71730095 0.8712425
0.8034436 0.7833232 -0.020711156 -0.24408466 0.8165637 0.835067 0.792263 0.8164637
0.71800166 -0.4133472 0.8174715 0.78029263 0.85607606 0.7892838 -0.030025257 0.82318795
0.8381376 0.81610006 0.82749933 -0.022875628 0.5262296 -0.54955876 0.82491577 -0.04684032
0.043033145 -0.45733616 0.8027334 0.6700544 -0.0389395 -0.01836099 -0.03238494 0.84129506
0.83829963 0.16932385 0.84856194 -0.42465574 0.8454578 0.7680913 0.766075 0.83902824
0.87054676 0.8424918 0.3251556 -0.017167183 -0.034654014 -0.52211255 -0.44428563 0.86238605
00000000: 1c13 6fbb ed03 00bf 40ba 47bd 6f8b afbe
00000010: 100e 123f 246e ddbe 421a 44be ec0f eebe
00000020: 0252 d3be 15b3 593f e5cc 543f 8b6b 433f
00000030: 9e91 3cbd ac6a 00bf d7ac 543f 6fd8 443f
00000040: b463 5e3f 5fd1 e8be 0f6a 463f c374 03bd
00000050: e872 5d3f de54 29bd f061 443f a9b7 603f
00000060: 5ce0 9d3e 5e98 603f 4307 5f3f be9c c4be
00000070: 194d 073f 6edc 493f 7bf0 34bc 8c8a 483f
00000080: 9054 10bd a40c 5c3f 2e7b 5abd 2160 e4be
00000090: ee53 5f3f b5d2 e7be 1b41 3ebd 2ead 583f
000000a0: 77e0 d7be 29f5 4e3f 8f2f 46bb a4e4 3d3f
000000b0: 99f7 573f b884 503f ac8e d43e 3d45 463f
000000c0: 1cc8 3dbd fe96 4f3f 01ff 0bbd 10c0 d03b
000000d0: 022a 4a3f 04e3 06bf 1eff 613f 4fec 503f
000000e0: 36d5 f43e e652 593f eb9b 493f 9cea 1fbd
000000f0: 5e3c 573f 1a80 4a3f e097 503f 9548 4b3f
00000100: fb39 b3be 80a3 543f 4dc6 93bc d801 553f
00000110: daa8 4c3f 807d 63bd a95a 48be ee24 babd
00000120: 39a7 573f 047c 653f 5f67 41bd 5e76 593f
00000130: 8c8c 593f c345 573f 9ea7 413d 2299 5c3f
00000140: 2e95 553f de21 183d 4054 493f 04ea 4c3f
00000150: a186 343f 47c7 4c3f 2339 543f 5cec 183f
00000160: 7a57 593f 146f 613f f0d8 6cbd 7d72 543f
00000170: 70d8 c4be 5549 5e3f ef6f 533f c3c8 3fbd
00000180: 6e95 483f 7b96 5f3f 76e2 573f 47ef a1bc
00000190: 53b9 553f a0b9 343d 3fc6 573f f1e3 9dbe
000001a0: d430 52bd a9cc 5cbb f7fb 37bd 5c48 eabc
000001b0: 8251 573f 893c 763e bc35 5abc c094 eb3a
000001c0: 6a2c 513f 66ea 493f 9b62 4d3f fe82 5c3f
000001d0: 480d 8bbc 785b 503f 55de 4c3f c864 4f3f
000001e0: 219b 5b3f a0f7 483d 0545 523f 3b09 523f
000001f0: e8f9 4c3f 08fd 7abc 5cba 593f 7bd6 4f3f
00000200: 09b6 443f 1610 3bbd 60bd 653f fcf4 4a3f
00000210: 915c 5c3f 9a95 aebc 5a36 473d 338b b43b
00000220: e1f3 40bd f308 453f ffb2 633f 5ae7 63bd
00000230: 1369 5b3f 18dc 46bd cc92 473f 5e1b b3bd
00000240: a172 533f dc70 cc3e 9ebc ccbe 3892 083f
00000250: a879 a8be 369c 5a3f 104e b0bc d590 4f3f
00000260: 390c 493f 9e80 2d3d 68fa 113f 5151 573f
00000270: 5bca 5e3f 1613 4b3f b9f0 c2bc 0335 f6be
00000280: 9bec 553f 9097 c73e 5139 483f f8cd c9be
00000290: 4616 4a3f 7f29 0cbc d224 f7be 03b8 dbbe
000002a0: 9864 4a3f fe7c 4c3f d9eb 4a3f 59bc 4f3f
000002b0: 1b40 483f b0cd 453f 9bbc 513f b115 583f
000002c0: 0dbf 31bc d8b9 1ebd 9150 f2be d491 0f3d
000002d0: 1303 553f 778b 623f a2be 5bbe fc14 1cbd
000002e0: d723 503f f461 b43c cb70 623f e54b 503f
000002f0: e098 423f b048 f83b 563c d8be 4d7a 6fbc
00000300: e4b7 3dbc 35cc 5b3f 9894 5bbd 44f0 053f
00000310: 22e6 5c3f fecd 45bd bd6e 533f 9995 4b3f
00000320: ac63 00bd e564 5b3f a46b 583f 35e1 89ba
00000330: 235e 18bd 074b b3be 09a1 373f c009 5f3f
00000340: 7bae 4d3f df87 483f 71aa a9bc 54f1 79be
00000350: 520a 513f f3c6 553f bfd1 4a3f c403 513f
00000360: f5ce 373f 3fa2 d3be d045 513f 42c1 473f
00000370: cd27 5b3f 810e 4a3f 87f7 f5bc 72bc 523f
00000380: 3090 563f efeb 503f ffd6 533f ab65 bbbc
00000390: fcb6 063f e2af 0cbf ae2d 533f a3db 3fbd
000003a0: 8643 303d f727 eabe f07f 4d3f af88 2b3f
000003b0: 067f 1fbd c969 96bc 12a6 04bd 1d5f 573f
000003c0: ce9a 563f 3b63 2d3e 5b3b 593f 7a6c d9be
000003d0: ec6f 583f a2a1 443f 7e1d 443f 8eca 563f
000003e0: 27dc 5e3f 8bad 573f cb7a a63e 31a2 8cbc
000003f0: 5ef1 0dbd 2ba9 05bf 6879 e3be 55c5 5c3f
