model_epoch_1200.pth (torch, 141274 bytes, 15 tensors)

target_net.fc1.weight f4 [64, 36]
0	0x3dcced80	0.10006237
1	0x3d661bf0	0.056178987
2	0x3c3b51d6	0.011433085
3	0xbd119a42	-0.035547502
4	0x3d12e690	0.035864413
5	0x3c0cacff	0.008586167
6	0xbce7278b	-0.028217098
7	0x3de5ff2b	0.1123031
8	0x3d56d5db	0.052450042
9	0x3b04f0b7	0.0020285079
10	0xbdd51aa1	-0.1040547
11	0xbe0640a1	-0.13110591
12	0xbdf12b0b	-0.11775788
13	0x3db39e9b	0.08770486
14	0xbd4e9500	-0.050435066
15	0x3d50ce9e	0.050978296
16	0x3d26787a	0.04064224
17	0xbdfd43eb	-0.1236647
18	0xbd16d0e0	-0.036820292
19	0xbd8bccce	-0.06826173
20	0xbe272598	-0.16322935
21	0x3d192790	0.037391245
22	0x3dca698e	0.09883414
23	0xbd3e9488	-0.04652837
24	0x3cfe3700	0.031032085
25	0xbcecbea0	-0.02889949
26	0xbda3b086	-0.079926535
27	0x3c1a0f6b	0.00940309
28	0x3dfb2ff0	0.12265003
29	0xbe1847b7	-0.14871107
30	0x3e194b23	0.14970069
31	0xbd775b66	-0.0603899
32	0x3d0bf9b6	0.03417369
33	0x3c240300	0.010010481
34	0xbd56fc0b	-0.05248646
35	0x3bd73188	0.006567184
36	0x3e148888	0.14505208
37	0x3dc0cbd6	0.094138786
38	0xbd3cf636	-0.046133243
39	0xbd4d0d5b	-0.050061565
40	0xbd4a494e	-0.049386315
41	0x3e0343d3	0.12818842
42	0x3e06d8af	0.13168596
43	0x3e1f8c57	0.15580879
44	0x3d26070b	0.04053406
45	0x3c91d4d0	0.017801672
46	0xbcd056d6	-0.025432032
47	0x3c67b4d6	0.014142236
48	0x3dd5c0ee	0.10437189
49	0xbe0205d4	-0.12697536
50	0x3e01a986	0.12662324
51	0x3dba86e5	0.0910776
52	0x3d049da0	0.032376885
53	0x3e28445e	0.1643233
54	0xbd5c97f0	-0.053855836
55	0x3d2a6d16	0.04160794
56	0x3e2451fc	0.160469
57	0xbe276957	-0.16348778
58	0x3d8d97fe	0.06913756
59	0x3d93fcd0	0.072259545
60	0xbd747210	-0.05967909
61	0xbd08f410	-0.03343588
62	0x3e0fdfec	0.14050263
63	0x3dc70f18	0.09719676
64	0x3c901220	0.017586768
65	0xbd6f7ca3	-0.058468472
66	0xbc9c3b00	-0.019071102
67	0x3d66198b	0.056176703
68	0xbc4729d6	-0.012155971
69	0x3e1fda23	0.15610556
70	0xbdfb4efe	-0.12270926
71	0xbde2b1a9	-0.11069042
72	0x3e0b6216	0.13611636
73	0x3d372b90	0.04471928
74	0x3d154980	0.03644705
75	0x3ddcc604	0.10779956
76	0xbda8cfe9	-0.08242781
77	0xbce1d5ed	-0.027567828
78	0x3ceeeb60	0.02916497
79	0x3e23faaa	0.1601359
80	0xbd3d89ab	-0.04627387
81	0x3d924e5c	0.07143852
82	0x3d6dc66f	0.05805057
83	0xbdd37bae	-0.103263244
84	0x3beb74ab	0.0071855388
85	0xbdb20d98	-0.08693999
86	0xbddedcf3	-0.108819865
87	0x3d770c25	0.060314316
88	0x3d97076d	0.07374463
89	0x3d9243df	0.07141852
90	0x3d16fa6b	0.03685991
91	0xbda8dad6	-0.08244865
92	0x3e1fd65a	0.15609112
93	0x3c45992b	0.012060444
94	0x3cba45a0	0.022738278
95	0xbd949b12	-0.0725614
96	0x3df9ceab	0.12197622
97	0xbd9c5133	-0.07632675
98	0x3da1d648	0.07902199
99	0xbd64f046	-0.055893205
100	0xbe00cda8	-0.12578452
101	0xba6fedd6	-0.0009152567
102	0xbe170a63	-0.14750056
103	0xbdb2d9a8	-0.08732921
104	0x3c5ee300	0.013603926
105	0x3d284aa0	0.041086793
106	0xbe0af793	-0.13571005
107	0xbdd607e2	-0.10450722
108	0x3d941528	0.07230598
109	0xbdc40a13	-0.09572234
110	0xbe1dc824	-0.15408379
111	0xbd953cf5	-0.07287017
112	0x3d20e818	0.03928384
113	0xbdc20a92	-0.094746724
114	0x3e102fca	0.1408073
115	0xbd397d20	-0.045285344
116	0x3d118c5b	0.035534244
117	0x3d9f8206	0.07788472
118	0xbdc19cb3	-0.09453716
119	0x3e4660a4	0.19372803
120	0xbcb0f28b	-0.021600028
121	0xbe284f30	-0.16436458
122	0x3e09f5ac	0.13472623
123	0x3cf0fc40	0.029417157
124	0x3e01052a	0.12599626
125	0x3d6b9bb5	0.05752154
126	0x3de83566	0.1133831
127	0x3c287056	0.010280689
128	0xbb8d8f2b	-0.0043200455
129	0x3b32ae00	0.0027264357
130	0x3e017a44	0.12644297
131	0x3973a4f3	0.00023235734
132	0x3d2f1996	0.04274901
133	0x3dbd7a46	0.092518374
134	0x3e1ce8af	0.15323137
135	0x3e161aa3	0.14658599
136	0xbdb5a4c6	-0.08869319
137	0xbd0be40a	-0.034153022
138	0xbcfa72f6	-0.030572396
139	0xbe18283a	-0.14859095
140	0xbd839fa6	-0.06426935
141	0xbc8e3236	-0.017357927
142	0xbda8bb16	-0.08238809
143	0xbdbbe8b3	-0.09175243
144	0xbd56c386	-0.05243256
145	0xbcc104c0	-0.023561835
146	0xbd51f246	-0.05125644
147	0xbdb9a77c	-0.09065148
148	0x3da7e792	0.081984654
149	0x3dcbf046	0.09957938
150	0xbca6c856	-0.0203592
151	0xbc4e9596	-0.012608906
152	0xbd1d90a0	-0.038468003
153	0xbdcdd50c	-0.10050401
154	0x3def79d9	0.116931625
155	0xbd99f144	-0.07516721
156	0xbe07dd36	-0.13267979
157	0xbd4e9506	-0.05043509
158	0x3e168bff	0.14701842
159	0xbe5ce872	-0.21573046
160	0x3ca7b05b	0.020469835
161	0xbe1b4314	-0.15162307
162	0x3e199617	0.14998661
163	0x3d828620	0.063732386
164	0xbd9b7aae	-0.07591759
165	0xbd4857e0	-0.04891193
166	0xbd2a4610	-0.041570723
167	0x3df643c5	0.12024645
168	0x3c8bce40	0.017066121
169	0x3c9a3700	0.018825054
170	0xbd975d73	-0.07390871
171	0x3dd5fb8e	0.10448371
172	0xb95ae000	-0.00020873547
173	0x3e180965	0.14847334
174	0x3e1e4c90	0.15458894
175	0x3e070c0f	0.13188194
176	0x3d0ac070	0.03387493
177	0xbd2852b0	-0.041094482
178	0x3dfd60f0	0.12372005
179	0xbde7cef6	-0.113187715
180	0xbcc1adf6	-0.023642521
181	0xbdd5cb43	-0.1043916
182	0x3c5cba96	0.01347222
183	0xbd399876	-0.045311414
184	0xbd6939d6	-0.056939922
185	0x3d461d4d	0.048367787
186	0xbb6c96ab	-0.0036100547
187	0x3e01a8c0	0.1266203
188	0xbdea497e	-0.11439799
189	0x3d667250	0.05626136
190	0x3de46462	0.11151959
191	0x3da0d53a	0.0785317
192	0x3e11738e	0.14204237
193	0x3e1b0b44	0.15141016
194	0xbde44d53	-0.11147561
195	0xbd722642	-0.059118517
196	0x3e452a8e	0.19254515
197	0xbd024d67	-0.031812098
198	0xbe1ba5eb	-0.15200011
199	0xbdf38a6e	-0.11891638
200	0x3d5f18e6	0.054467104
201	0x3b1ee800	0.002424717
202	0xbd25b466	-0.040455244
203	0x3d8dfd4d	0.06933079
204	0xbdb2ff8b	-0.08740147
205	0x3dd797e0	0.10527015
206	0xbcd4770b	-0.02593567
207	0x3d86608e	0.06561385
208	0xbe161002	-0.14654544
209	0xbdae6622	-0.08515574
210	0x3d17570b	0.036948245
211	0x3c2c72c0	0.010525405
212	0xbd96d0d6	-0.07364051
213	0x3dd5f2e8	0.10446721
214	0x3c86f360	0.016473472
215	0xbe48cc34	-0.19609147
216	0xbc3eb156	-0.01163896
217	0x3e02d607	0.12776957
218	0xbdb6e39b	-0.08930131
219	0xbb843497	-0.0040345895
220	0xbe0d8b9d	-0.1382279
221	0x3e49d99c	0.19711918
222	0xbdfc8908	-0.12330824
223	0x3dd4d3f3	0.103919886
224	0xbddc6c8b	-0.107628904
225	0x3df53943	0.119738124
226	0x3da02c92	0.07821001
227	0x3d47bc72	0.0487637
228	0xbe208f52	-0.15679672
229	0xbdc3d9c8	-0.09563023
230	0x3d345026	0.044021748
231	0x3dc83fdd	0.09777806
232	0xbe21cec2	-0.15801528
233	0x3d4c8457	0.049930897
234	0xbcd7a8f6	-0.026325684
235	0xbba76dab	-0.005109509
236	0x3d22a760	0.039710402
237	0x3d94eafb	0.072713815
238	0xbda0992b	-0.078417145
239	0x3cf7635e	0.03019875
240	0xbde9b463	-0.11411359
241	0xbdbdd49e	-0.09269069
242	0xbbe2ca00	-0.006921053
243	0xbe1727ee	-0.14761326
244	0xbd64f630	-0.055898845
245	0xbe0fc04e	-0.14038202
246	0x3dca4aa3	0.09877517
247	0xbd48bf70	-0.049010694
248	0x3e0d5dc2	0.13805297
249	0x3d6fa9f6	0.058511697
250	0xbc332100	-0.010933161
251	0xbdcc8bd5	-0.09987608
252	0x3df1d1d8	0.11807603
253	0x3ddf190b	0.108934484
254	0xbe10465c	-0.1408934
255	0x3e02ba64	0.12766415

target_net.fc1.bias f4 [64]
0	0x3b742277	0.0037251988
1	0x3daabdfe	0.083370194
2	0xbe00838e	-0.12550184
3	0xbd3171bd	-0.04332136
4	0xbd3fd5c0	-0.046834707
5	0xbe35e5bb	-0.17763416
6	0xbc7b329a	-0.015331889
7	0x3d6baf38	0.05754015
8	0xbe12f4d8	-0.14351213
9	0x3e0cb502	0.13740924
10	0x3d674867	0.056465533
11	0x3e05f470	0.13081527
12	0x3dc586bd	0.0964484
13	0xbdb6deaf	-0.08929192
14	0x3e09f835	0.1347359
15	0xbd89d124	-0.067293435
16	0xbe14b983	-0.14523892
17	0xbe3e11eb	-0.18561523
18	0x3df2a775	0.11848346
19	0xbddb9458	-0.10721654
20	0xbe18f45f	-0.1493697
21	0xbe29e014	-0.16589385
22	0x3df6d2f3	0.12051954
23	0xbdc5fb4d	-0.096670724
24	0xbd5a204b	-0.053253453
25	0xbd65b88a	-0.056084193
26	0x3e12d4b5	0.14338954
27	0xbd2a1043	-0.041519415
28	0xbe09f6e6	-0.1347309
29	0x3e59f9cc	0.21286696
30	0x3d838b6d	0.06423078
31	0xbe169015	-0.147034
32	0xbd819619	-0.06327457
33	0xbce0299b	-0.027363589
34	0x3cb54e45	0.022132048
35	0xbd8b60e7	-0.06805592
36	0x3dc0286d	0.093827106
37	0x3dce7d82	0.100825325
38	0xbe4f4de9	-0.20244564
39	0x3c8d6ded	0.01726433
40	0xbe29bf6f	-0.16576932
41	0xbb0a2899	-0.0021081327
42	0xbe0943f4	-0.13404828
43	0xbdeca6d5	-0.11555258
44	0x3e26ef55	0.16302235
45	0x3cb14ca8	0.021642998
46	0xbd92964a	-0.071575716
47	0xbe09e108	-0.13464749
48	0x3cafd141	0.021462085
49	0xbe16e133	-0.14734344
50	0xbe1990a0	-0.14996576
51	0xbd2e5a19	-0.042566393
52	0x3d563b9d	0.052302945
53	0xbc9f8962	-0.019474689
54	0x3d78057e	0.060552113
55	0x3d7af40c	0.061267897
56	0xbe2af443	-0.16694741
57	0xb9eb4e43	-0.00044881002
58	0xbb2c7a53	-0.0026318028
59	0xbc612571	-0.013741837
60	0xbe05cec5	-0.13067158
61	0xbd6c8e7e	-0.05775308
62	0x3e2e1e84	0.17003828
63	0xbdae074e	-0.08497487

target_net.fc2.weight f4 [3, 64]
0	0xbd374eea	-0.044752993
1	0xbcceef97	-0.02526073
2	0xbd381a9f	-0.044947263
3	0xbd5e184a	-0.054222383
4	0xbbb363fd	-0.005474566
5	0xbd9b0518	-0.07569331
6	0x3dac602a	0.08416779
7	0xbcb6ec55	-0.022329489
8	0xbdc5ccd0	-0.096582055
9	0x3e0cf13f	0.13763903
10	0xbd303317	-0.043017473
11	0x3ca4f428	0.020135954
12	0xbd87ae55	-0.06625048
13	0x3d4ee7d6	0.050514065
14	0xbdabbb95	-0.08385388
15	0x3d87cc21	0.066307314
16	0x3dd831cd	0.10556374
17	0x3b03057b	0.001999228
18	0xbd0ba57d	-0.03409337
19	0x3c783819	0.0151500935
20	0xbcabfa90	-0.020993501
21	0x3dd4e1a3	0.10394599
22	0xbdad38f0	-0.084581256
23	0xbd06c0fb	-0.032898884
24	0xbd5c1035	-0.053726394
25	0xbd2edc55	-0.042690594
26	0x3c1a0b26	0.009402072
27	0x3d5b96c0	0.053610563
28	0x3d94d71e	0.07267593
29	0xbda5c4c0	-0.08094168
30	0xbd84a85a	-0.06477423
31	0x3d8c4491	0.068490155
32	0xbcf3b684	-0.029750116
33	0x3daf47e1	0.08558632
34	0x3d206efa	0.039168335
35	0xbc4a22b3	-0.0123373745
36	0xbd576be2	-0.05259312
37	0xbdaa5cc9	-0.083184786
38	0x3dfb1907	0.12260633
39	0x3ccfa153	0.02534548
40	0x3d6f3116	0.05839642
41	0xbd9abf28	-0.075559914
42	0x3cea50cf	0.028602986
43	0x3d8b1777	0.06791585
44	0xbd57fcbc	-0.05273126
45	0x3d6b282a	0.05741135
46	0x3d114ddb	0.03547464
47	0x3c8f6822	0.01750571
48	0x3d0f8546	0.03503921
49	0xbd23a81c	-0.039955243
50	0xbce151a0	-0.027504742
51	0xbda522cc	-0.080632776
52	0xbe02a13c	-0.12756819
53	0xbdf4f828	-0.119613945
54	0xbd4fadc6	-0.050702833
55	0x3d933585	0.071879424
56	0x3ce4b63a	0.027918924
57	0x3cdff729	0.027339535
58	0x3da423d6	0.08014648
59	0xbe084d0e	-0.13310644
60	0xbd2ec0e0	-0.04266441
61	0x3cf5b308	0.029992595
62	0xbe482084	-0.19543654
63	0x3d44eb40	0.048075914
64	0xbda1ef6a	-0.07906993
65	0xbdce97c7	-0.10087543
66	0x3db2446d	0.087044574
67	0xbd6cb50f	-0.05778986
68	0x3d88cbb8	0.06679481
69	0xbdd6f4fc	-0.10495946
70	0x3d3e86d5	0.046515305
71	0x3e0616c0	0.13094616
72	0xbc414050	-0.011795118
73	0xbdd85231	-0.10562552
74	0x3ddb77b7	0.10716193
75	0x3e0f1b05	0.13975151
76	0x3ceb8c64	0.028753467
77	0x3d1011ab	0.0351731
78	0x3d83e9b9	0.064410634
79	0xbd279681	-0.040915016
80	0xbd204815	-0.039131243
81	0x3dc05e31	0.093929656
82	0x3d40d935	0.047082145
83	0x3cbcd44c	0.02305045
84	0x3d5bd328	0.05366817
85	0x3cd61d91	0.026137145
86	0xbda47805	-0.080307044
87	0x3cbf8cc0	0.023382545
88	0x3d45829a	0.048220254
89	0xbdecf903	-0.11570933
90	0x3da71567	0.08158379
91	0x3de01543	0.10941555
92	0xbcff0d76	-0.031134348
93	0x3cd5aa2c	0.02608212
94	0xbd113667	-0.035452273
95	0x3c16094c	0.00915749
96	0x3df190da	0.11795206
97	0xbc37d7eb	-0.011220912
98	0xbc9e10df	-0.019295154
99	0x3cd6ed50	0.026236206
100	0xbcf0a603	-0.029376036
101	0x3cefe44c	0.029283665
102	0xbd858a87	-0.065205626
103	0xbd7ff1e0	-0.06248653
104	0x3cd9867d	0.026553387
105	0x3dabf520	0.08396363
106	0xbd6c22f7	-0.057650533
107	0x3dbaaa97	0.09114569
108	0x3e15678e	0.14590284
109	0x3da9e536	0.08295672
110	0x3de19b67	0.11015969
111	0xbc667304	-0.014065508
112	0x3ccfef6e	0.025382724
113	0x3d9294cd	0.07157288
114	0xbdf140d4	-0.11779943
115	0x3c589584	0.013219241
116	0xbd1c6f65	-0.03819217
117	0xbcf532bd	-0.02993142
118	0xbd4a683c	-0.049415812
119	0xbcc6ac64	-0.024252124
120	0xbd8cc3da	-0.06873293
121	0xbceaf175	-0.028679589
122	0xbcb0606c	-0.021530353
123	0x3d200c99	0.039074514
124	0xbc342fb2	-0.0109977
125	0xbda46fe7	-0.08029156
126	0xbcac3334	-0.02102051
127	0x3c832d10	0.016012698
128	0xbd734999	-0.05939636
129	0xbd2ef77d	-0.042716492
130	0xbd46e30a	-0.048556365
131	0x3c887eff	0.016662119
132	0xbd3b334e	-0.045703225
133	0x3db7cc84	0.08974555
134	0xbdc9c508	-0.09852034
135	0xbca1b238	-0.019738302
136	0x3d82a9ba	0.06380029
137	0x3db7c949	0.08973939
138	0x3e0f8237	0.14014517
139	0xbd48f835	-0.049064834
140	0xbbe8caa3	-0.0071042343
141	0x3db4f6fe	0.088361725
142	0xbd87d4b8	-0.0663237
143	0xbc779454	-0.015111048
144	0xbd5f2450	-0.05447799
145	0x3c3fcf5c	0.011707153
146	0x3d491a30	0.04909724
147	0x3bbe6b68	0.0058111437
148	0xbe07c93d	-0.1326036
149	0xbd7c01d2	-0.061525173
150	0x3dad58e6	0.08464222
151	0xbd9528d7	-0.0728318
152	0xbcc63a3a	-0.024197686
153	0x3d9d8b86	0.076926276
154	0x3dc8136f	0.09769332
155	0x3c7442ed	0.0149085345
156	0xbd726092	-0.059174128
157	0x3e2da6c6	0.1695815
158	0x3dc2c514	0.09510246
159	0x3df354fe	0.11881445
160	0xbdb78bb6	-0.089621946
161	0x3d10df4d	0.035369206
162	0x3e03c40f	0.12867759
163	0xbd44a512	-0.048008986
164	0xbba90a6f	-0.0051587145
165	0xbae549b5	-0.001749328
166	0x3d29da37	0.04146787
167	0xbda4533c	-0.08023688
168	0xbcc0c2c5	-0.023530373
169	0xbdc72e3e	-0.09725617
170	0xbd08b77c	-0.03337811
171	0x3dd4a96c	0.10383877
172	0x3da37f7c	0.079833
173	0xbd0b781a	-0.034050085
174	0xbd54b1b0	-0.05192727
175	0x3de44c9f	0.11147427
176	0x3d0aefb6	0.033920012
177	0x3ce63901	0.028103353
178	0x3db506c5	0.08839182
179	0xbcc609ae	-0.024174538
180	0xbdba1261	-0.09085537
181	0xbd289884	-0.041161075
182	0x3d713441	0.058887724
183	0x3df6b950	0.12047064
184	0xbe028616	-0.12746462
185	0xbdd4dd10	-0.10393727
186	0x3daa811d	0.08325408
187	0x3dc8cb11	0.09804357
188	0xbdda4e46	-0.10659461
189	0xbdc33a8c	-0.09532651
190	0x3dbec9c5	0.09315828
191	0x3c061e50	0.008185938

target_net.fc2.bias f4 [3]
0	0xbbbee9b0	-0.0058261976
1	0x3c0d90ba	0.0086404625
2	0x3d54b49a	0.051930048

tatic_net.fc1.weight f4 [64, 42]
0	0x3e12307b	0.14276306
1	0xbd1dcabf	-0.038523432
2	0x3bf0c38d	0.00734753
3	0xbe0ae76e	-0.13564846
4	0x3d46c50b	0.04852776
5	0xbe03f2fe	-0.12885663
6	0xbd32bc13	-0.043636393
7	0xbdd78c36	-0.1052479
8	0x3dbc5ec5	0.09197763
9	0x3e014c42	0.12626746
10	0xbda32ab0	-0.07967126
11	0x3cf6c042	0.030120973
12	0xbe000669	-0.12502445
13	0x3dffcbe0	0.12490058
14	0x3db9dfd6	0.090758964
15	0xbdf91c19	-0.12163562
16	0xbe16e073	-0.14734058
17	0x3ddc0621	0.107433565
18	0x3c63aa9e	0.013895659
19	0xbddeac56	-0.10872714
20	0x3e1d3df6	0.15355667
21	0xbdc0c089	-0.09411723
22	0xbd446503	-0.047947895
23	0x3e22b248	0.15888321
24	0xbe167791	-0.14694048
25	0x3dbc6c20	0.09200311
26	0xbd9218cf	-0.07133638
27	0xbdca9ebe	-0.09893559
28	0x3d9cc24d	0.076542474
29	0xbd4100fa	-0.047120072
30	0x3d06539a	0.032794572
31	0x3dfba9a0	0.12288213
32	0xbc5a0661	-0.013307185
33	0xbe198616	-0.14992556
34	0x3dd25815	0.102707066
35	0x3df7b2b4	0.12094632
36	0xbdda6b05	-0.106649436
37	0x3d0e42c7	0.034731653
38	0x3d264717	0.04059514
39	0x3d8ba418	0.06818408
40	0x3dae8696	0.08521764
41	0xbd28a037	-0.041168418
42	0xbdfccea1	-0.12344099
43	0x3e15ce1a	0.14629403
44	0xbd621fb2	-0.05520601
45	0x3df2eb3e	0.11861275
46	0xbcaaa28a	-0.020829458
47	0x3da539bd	0.08067653
48	0x3e0e1b43	0.13877587
49	0xbd194a7d	-0.037424553
50	0xbc21c654	-0.009873945
51	0xbc82d871	-0.015972348
52	0x3d863cb5	0.06554548
53	0x3da12ceb	0.078698955
54	0xbdad5c38	-0.08464855
55	0xbc9005bf	-0.017580865
56	0xbda9c7c4	-0.082900554
57	0xbdf32ea5	-0.11874131
58	0x3d83b075	0.06430141
59	0x3dc7054b	0.097178064
60	0x3db07906	0.086168334
61	0x3d92ad60	0.07161975
62	0xbd184cf3	-0.03718276
63	0x3d08cda3	0.033399235
64	0x3e1d4c7a	0.15361205
65	0xbd05fbba	-0.03271077
66	0xbdb53643	-0.0884824
67	0x3df17c28	0.11791259
68	0x3daf4c62	0.08559491
69	0x3c15dc36	0.009146741
70	0xbe04f634	-0.12984544
71	0xba928cda	-0.0011180893
72	0xbdc1de1f	-0.09466194
73	0x3d27e394	0.04098852
74	0xbe1729a4	-0.14761978
75	0xbdf499b6	-0.119433805
76	0xbd1cd51e	-0.038289182
77	0x3dffe1a0	0.124942064
78	0xbe034be9	-0.12821926
79	0xbd60ef4c	-0.05491571
80	0xbe029fbe	-0.1275625
81	0x3dcf0f0d	0.101102926
82	0xbca9d000	-0.020729065
83	0x3d8579c4	0.065173656
84	0x3d830536	0.06397478
85	0x3db2402c	0.08703646
86	0xbdf9dabe	-0.12199925
87	0xbe047d30	-0.1293838
88	0xbe1200ca	-0.14258114
89	0x3e4e3644	0.20137888
90	0x3d44d000	0.048049927
91	0x3dad94a3	0.08475616
92	0x3d862f08	0.06551939
93	0x3d5bdfe7	0.053680327
94	0xbd63a2fe	-0.055575363
95	0x3d751f6e	0.059844427
96	0xbe198267	-0.14991151
97	0xbe0984bf	-0.13429545
98	0x3d98dae8	0.07463628
99	0xbd9d7b4b	-0.07689532
100	0x3e1c28ef	0.1524999
101	0xbda8a34e	-0.08234273
102	0x3d96a3b5	0.073554434
103	0xbdf66fd8	-0.12033051
104	0xbdb6fd84	-0.08935073
105	0xbd368aed	-0.044566084
106	0xbdff937d	-0.12479303
107	0xbd2037e1	-0.03911579
108	0x3d5615d5	0.052266914
109	0x3ccab8a8	0.024746254
110	0xbd7ad26e	-0.061235838
111	0x3dcdd056	0.100495026
112	0xbc8f2d24	-0.01747758
113	0x3dc686f0	0.09693706
114	0xbe0f236e	-0.13978359
115	0x3ba6ca0e	0.0050900048
116	0x3d233fcb	0.03985576
117	0x3d46880e	0.048469596
118	0xbe0a22b8	-0.13489807
119	0x3cd37e05	0.025816927
120	0x3d3c006d	0.045898844
121	0xbe18a8a9	-0.14908089
122	0xbe063622	-0.13106588
123	0x3dc5aa32	0.09651603
124	0xbe145063	-0.1448379
125	0xbb5ff141	-0.0034170898
126	0xbe110c81	-0.14164926
127	0xbddde032	-0.108337775
128	0x3d903b6f	0.07042586
129	0x3e21245e	0.15736529
130	0x3d2fe98b	0.042947333
131	0x3e39ee5c	0.18157333
132	0xbe0ff596	-0.14058527
133	0xbdfabaeb	-0.12242683
134	0xbdfb7677	-0.12278455
135	0x3e1a763c	0.15084165
136	0xbd50f744	-0.05101706
137	0x3d108b9d	0.035289396
138	0x3d976c84	0.073937446
139	0xbe13ec44	-0.14445597
140	0x3dbae7ba	0.091262296
141	0xbe28979a	-0.16464081
142	0xbc80f824	-0.015743323
143	0x3e018bd6	0.12651
144	0x3d9ba12f	0.07599103
145	0x3e1cd55e	0.15315768
146	0x3c5645c3	0.013078156
147	0x3d96be09	0.07360465
148	0xbdc05b37	-0.09392398
149	0x3e12dfbf	0.14343165
150	0xbd8710e2	-0.06595017
151	0xbde41470	-0.11136711
152	0x3dd2d672	0.102948084
153	0xbd986d17	-0.07442682
154	0x3e10f5bf	0.14156245
155	0xbdd355ec	-0.10319123
156	0x3cc09f1c	0.02351337
157	0xbd0b8515	-0.034062464
158	0x3da12be8	0.078697026
159	0xbcb58137	-0.022156341
160	0x3df8ce91	0.121487744
161	0xbba65da2	-0.00507708
162	0xbe0c9c43	-0.13731484
163	0xbda3dca9	-0.08001072
164	0xbe2727df	-0.16323803
165	0x3dcc9ab5	0.099904455
166	0xbd950d7a	-0.07277961
167	0x3e1dee2d	0.15422888
168	0x3d52344b	0.0513194
169	0xbe02fd25	-0.1279188
170	0xbe0aba18	-0.13547552
171	0xbdea45f3	-0.11439123
172	0x3d8b483d	0.06800888
173	0xbdb00676	-0.08594982
174	0xbdd1c819	-0.10243244
175	0xbe1821f8	-0.14856708
176	0xbd13f0ae	-0.036118202
177	0xbda2e9ef	-0.079547755
178	0xbd9b7b4d	-0.07591877
179	0x3e257a5e	0.1615996
180	0xbcf3c888	-0.029758707
181	0xbda28542	-0.07935573
182	0xbd14c0da	-0.03631673
183	0xbdf38f24	-0.11892536
184	0x3c0fced7	0.008777342
185	0x3e19ad27	0.15007459
186	0xbd960216	-0.073246166
187	0x3cca6f21	0.024711194
188	0xbdd6c02f	-0.10485875
189	0x3d39b6b7	0.045340266
190	0xbdd59bf9	-0.1043014
191	0xbe2bee27	-0.16790067
192	0x3ddea1e5	0.10870723
193	0x3dda38e2	0.10655381
194	0x3dbbf2dd	0.09177182
195	0x3d4a1c22	0.049343236
196	0xbe114037	-0.14184652
197	0x3d09cf62	0.03364504
198	0x3d441f3f	0.04788136
199	0x3dcf67d3	0.10127225
200	0xbc3d859b	-0.011567499
201	0xbded44ce	-0.11585389
202	0xbc205ba3	-0.009787473
203	0x3dba3281	0.09091664
204	0xbd523f00	-0.051329613
205	0xbc22475d	-0.00990471
206	0x3bec7999	0.007216644
207	0xbbe9254f	-0.0071150432
208	0x3d01ad1d	0.031659234
209	0x3e1c3437	0.15254293
210	0x3d9d237e	0.07672785
211	0xbdf79fda	-0.12091036
212	0x3e159cd7	0.14610611
213	0x3c884ff6	0.01663969
214	0xbcf56507	-0.0299554
215	0x3d2818d4	0.041039303
216	0x3cad1aba	0.021130908
217	0x3d12f64d	0.035879422
218	0xbb1f854f	-0.0024340933
219	0x3dbf649c	0.093453616
220	0xbd92734d	-0.07150898
221	0x3dee6810	0.11640942
222	0x3d7d6238	0.061861247
223	0x3db632af	0.08896386
224	0x3d33fb23	0.043940675
225	0x3d0c38db	0.03423391
226	0xbd745e89	-0.05966047
227	0xbe090d26	-0.13383922
228	0x3dd1bf35	0.10241548
229	0xbdb25ac2	-0.08708717
230	0x3d7084ec	0.058720514
231	0x3c56794d	0.013090444
232	0xbdfe30b0	-0.1241163
233	0xbc7e8ea0	-0.015536934
234	0x3cdcd516	0.026957076
235	0x3d67ba86	0.056574367
236	0xbbdefafc	-0.006804822
237	0x3d1920ca	0.037384786
238	0xbdfe43f7	-0.12415307
239	0xbcf1fae1	-0.029538574
240	0x3e1dbf90	0.15405107
241	0x3e05e8e2	0.13077119
242	0xbd9cdf8d	-0.076598264
243	0x3e0bf760	0.13668585
244	0x3e0ccfa2	0.1375108
245	0x3cac9d99	0.021071242
246	0xbdef53ed	-0.116859294
247	0x3db9216e	0.09039579
248	0xbdc45511	-0.09586538
249	0x3def63c4	0.11688951
250	0x3ca21c32	0.019788835
251	0xbe0526d7	-0.13003097
252	0x3dc60073	0.096680544
253	0x3dfdffd4	0.12402311
254	0x3db03936	0.08604662
255	0x3b2421a6	0.002504447

tatic_net.fc1.bias f4 [64]
0	0x3dd809a8	0.10548717
1	0xbd954650	-0.07288802
2	0x3d53e44e	0.0517314
3	0x3db92d8e	0.09041892
4	0x3cddf36a	0.027093608
5	0x3dc673df	0.096900694
6	0xbd1f9e4e	-0.03896933
7	0xbd970646	-0.073742434
8	0xbd90a92b	-0.07063516
9	0x3ae4854b	0.0017434744
10	0x3d3f7733	0.046744537
11	0x3ddaa52f	0.106760375
12	0xbd97e716	-0.07417123
13	0x3d35b7a4	0.044364586
14	0x3d66818a	0.05627588
15	0x3debbc02	0.11510469
16	0xbd9c803d	-0.07641647
17	0x3dd72d0f	0.10506641
18	0x3e07e0b6	0.13269314
19	0x3dddbf1c	0.10827467
20	0x3d1e2190	0.038606226
21	0x3df3c27f	0.119023316
22	0xbdc49cfb	-0.09600254
23	0x3e0b371c	0.13595241
24	0xbd7ac9d5	-0.06122764
25	0xbd688c3a	-0.056774355
26	0xbd785c54	-0.060634926
27	0xbb02675e	-0.0019898037
28	0xbe0fb56a	-0.14034048
29	0x3e0019d8	0.12509859
30	0xbdbc7814	-0.092025906
31	0xbd9fc50c	-0.078012556
32	0x3e0ab01c	0.13543743
33	0xbdab36bc	-0.08360049
34	0x3db4c824	0.08827236
35	0xbd5e5ac1	-0.05428577
36	0x3be42d1f	0.0069633867
37	0xbd3c74d1	-0.046009842
38	0x3d4d5f2e	0.0501396
39	0x3d8c6021	0.06854273
40	0xbdb3515b	-0.08755752
41	0xbdbc3c29	-0.09191162
42	0x3d744122	0.059632428
43	0x3e0d3ee4	0.13793522
44	0x3d7c1c56	0.06155046
45	0x3e21ef9f	0.15814064
46	0xbdf00ec5	-0.11721567
47	0x3df09325	0.117468156
48	0x3d3d2d50	0.04618579
49	0xbdf0e4ca	-0.11762388
50	0xbe07131e	-0.13190886
51	0xbd3d728b	-0.046251815
52	0xbcf13f73	-0.0294492
53	0x3c2c9973	0.010534632
54	0xbcd8f03e	-0.026481744
55	0x3c943647	0.018092288
56	0x3e1c7f35	0.152829
57	0x3d3c4eb4	0.045973495
58	0x3d80f9b0	0.06297624
59	0x3daa2f90	0.08309853
60	0x3c6aacd7	0.014323435
61	0xbdce33e5	-0.10068492
62	0xbdfac519	-0.12244625
63	0xbda95d2c	-0.08269724

tatic_net.fc2.weight f4 [6, 64]
0	0x3d0847c8	0.03327158
1	0x3d82a666	0.06379394
2	0xbd771e68	-0.060331732
3	0x3d907f94	0.070555836
4	0xbd1744b0	-0.03693074
5	0x3c6d5760	0.014486164
6	0x3a416700	0.0007377714
7	0x3dc531fc	0.096286744
8	0x3da534ec	0.08066735
9	0xbdbc0198	-0.091799915
10	0x3dd9063a	0.10596891
11	0x3dc14322	0.09436633
12	0xbda64bae	-0.081199035
13	0x3cdae240	0.026719213
14	0xbd2f1e34	-0.042753413
15	0x3d9c6e72	0.07638253
16	0xbdf29d1a	-0.11846371
17	0xbdcba4da	-0.09943552
18	0xbc0f14c0	-0.0087329745
19	0x3d047404	0.032337204
20	0x3debd7c2	0.11515762
21	0xbddd935a	-0.10819121
22	0x3d9e3e9a	0.07726784
23	0xbbfa6960	-0.007641956
24	0xbc490dc0	-0.012271345
25	0xbdf7af72	-0.120940104
26	0x3de58180	0.11206341
27	0x3db2613c	0.08709952
28	0x3d5e98dc	0.054344997
29	0x3ca16bb8	0.019704685
30	0xbd0836ac	-0.033255264
31	0xbdc26f6e	-0.0949391
32	0xbdcf9f0c	-0.10137758
33	0x3d33248c	0.043736026
34	0xbc9b53b0	-0.018960804
35	0x3cac6738	0.021045312
36	0x3df0f3f4	0.1176528
37	0x3c010000	0.007873535
38	0x3c0c3860	0.008558363
39	0xbde1338c	-0.1099616
40	0xbdb48d0a	-0.088159636
41	0xbdcd9b08	-0.100393355
42	0xbc26e2f0	-0.010185942
43	0xbde6ec50	-0.11275542
44	0xbdf8a910	-0.12141621
45	0xbd4ee970	-0.050515592
46	0x3c4cfa70	0.012510881
47	0x3d72f74c	0.059317872
48	0x3d2e2260	0.04251325
49	0x3d7e1ff0	0.062042177
50	0xbda6a986	-0.08137803
51	0xbdca572c	-0.09879908
52	0xbdb3f2c6	-0.0878654
53	0xbdaa5ba2	-0.08318259
54	0x3c0da0c0	0.008644283
55	0xbdc7109a	-0.09719963
56	0xbc77daa0	-0.015127808
57	0xbd8e5be4	-0.069511205
58	0x3dda6e78	0.106656015
59	0x3c995630	0.018717855
60	0x3bd7f0c0	0.006589979
61	0x3dc7b3a8	0.097510636
62	0xbd840680	-0.06446552
63	0x3dbf78b2	0.09349193
64	0xbd6c394a	-0.057671823
65	0x3dded0aa	0.10879643
66	0xbd1b6436	-0.037937365
67	0x3d2f5e42	0.0428145
68	0xbe0ca9d1	-0.13736655
69	0x3c16d093	0.009205001
70	0xbd909da6	-0.07061319
71	0xbe0a8043	-0.1352549
72	0xbd37428c	-0.0447412
73	0x3dd693b9	0.104773946
74	0xbe09025c	-0.13379806
75	0x3dd65077	0.10464566
76	0x3d52df05	0.05148222
77	0xbda6d10e	-0.08145343
78	0x3da6b9e1	0.08140922
79	0xbcc6ebc0	-0.024282336
80	0x3d1d9b3d	0.038478125
81	0xbc4ef7d2	-0.012632327
82	0xbce68c64	-0.028143115
83	0xbdb78cc6	-0.08962397
84	0x3c88e575	0.016710976
85	0x3d04ab6b	0.03239004
86	0xbdbcab94	-0.092124134
87	0xbce359f4	-0.027752854
88	0x3db59635	0.0886654
89	0xbcda5bd7	-0.02665512
90	0xbd64fd21	-0.055905465
91	0xbd877f20	-0.06616044
92	0x3c08cee9	0.0083501125
93	0x3d25814d	0.040406514
94	0xbd45e518	-0.048314184
95	0xbdba12c6	-0.09085612
96	0x3d2d4c26	0.04230895
97	0x3d0b2c3b	0.03397773
98	0x3e03de4e	0.12877771
99	0x3d7b2996	0.061318956
100	0x3d91d4fe	0.07120703
101	0x3d655091	0.055985037
102	0xbca35dc9	-0.019942181
103	0x3d07d18b	0.03315882
104	0xbd33de5a	-0.043913223
105	0x3d9d154e	0.07670079
106	0x3dbc81fa	0.092044786
107	0x3bbe9999	0.00581665
108	0xbcdd9af5	-0.027051428
109	0xbdb25fff	-0.08709716
110	0x3ca5c212	0.020234141
111	0xbc2dee7c	-0.010615941
112	0xbddda5b6	-0.108226225
113	0x3cee0dc6	0.029059302
114	0x3dcfe69f	0.10151409
115	0xbde329b0	-0.11091936
116	0x3d665f54	0.056243256
117	0x3d9abad4	0.07555166
118	0xbd00f4fc	-0.031483635
119	0xbe06dc54	-0.13169986
120	0xbcd645a3	-0.026156252
121	0xbd95fe3f	-0.07323884
122	0x3e1bbad0	0.15207982
123	0x3ce62d64	0.028097816
124	0x3dc82d3f	0.09774255
125	0xbd2fb2b6	-0.04289504
126	0x3d02d942	0.031945474
127	0xbc738d49	-0.014865228
128	0xbd78dd9a	-0.06075821
129	0xbd5baa1a	-0.05362902
130	0x3cc25cc8	0.023725882
131	0x3d8c1274	0.06839457
132	0x3da35f8d	0.07977209
133	0xbd11a588	-0.035558254
134	0x3d68f7b2	0.056876846
135	0x3d23f2f8	0.040026635
136	0xbb975e6e	-0.004619411
137	0xbde3a5b3	-0.11115589
138	0xbc916499	-0.017748164
139	0xb89d05ba	-7.48741e-05
140	0x3daf407a	0.0855722
141	0xbd11f7e6	-0.035636805
142	0xbd33a2d4	-0.043856457
143	0xbc918d63	-0.017767614
144	0xbdec4547	-0.11536651
145	0xbd8721ff	-0.06598281
146	0xbd2399a8	-0.03994146
147	0xbd9d3bdb	-0.07677432
148	0x3d75ed5e	0.060040824
149	0x3e06348a	0.1310598
150	0x3d7a5184	0.061112896
151	0xbbd21eb9	-0.006412354
152	0x3d19a634	0.03751202
153	0x3d184b8f	0.037181433
154	0xbd1944de	-0.037419192
155	0x39145d0a	0.0001414904
156	0x3def687b	0.1168985
157	0x3c52b3d8	0.012860261
158	0xbd04362e	-0.032278232
159	0x3ccd3204	0.025048263
160	0x3c093c9e	0.008376269
161	0x3ded0643	0.1157346
162	0x3a90d370	0.0011049341
163	0x3db1c545	0.08680204
164	0xbb5bb9d9	-0.0033527522
165	0x3db7b8c9	0.08970792
166	0xbd905b5c	-0.070486754
167	0xbe1109d1	-0.14163901
168	0x3dc8c46d	0.0980309
169	0x3e249768	0.16073382
170	0xbd831ef5	-0.06402389
171	0x3de6fee1	0.11279083
172	0xbca364dd	-0.019945556
173	0x3cffb751	0.031215342
174	0x3dbfe54c	0.09369907
175	0x3dfef615	0.1244928
176	0xbd87d53e	-0.066324696
177	0xbd8091fe	-0.06277846
178	0x3cd8f57f	0.02648425
179	0x3dbe03f2	0.09278096
180	0xbd9216ba	-0.07133241
181	0x3e04c442	0.12965491
182	0xbda08bd4	-0.0783917
183	0xbc810c1e	-0.015752848
184	0xbe064d14	-0.1311534
185	0xbcfc0db6	-0.030768257
186	0x3e184802	0.14871219
187	0x3e4584f4	0.19288999
188	0xbd627bed	-0.055293966
189	0x3d74dec6	0.059782766
190	0x3d0c60db	0.034272056
191	0x3dc1b415	0.09458176
192	0xbce7c067	-0.028289987
193	0x3db758ad	0.089524604
194	0x3d1578e4	0.036492243
195	0x3dc78d79	0.09743781
196	0x3c50225e	0.012703506
197	0x3c3417fd	0.010992047
198	0x3d0c6839	0.034279082
199	0xbc94c76c	-0.018161498
200	0xbc9ce4ca	-0.019152064
201	0xbc715435	-0.014729549
202	0xbdd17f6a	-0.102293804
203	0xbda17f66	-0.078856274
204	0x3cd0859f	0.02545434
205	0xbdaee0da	-0.08538981
206	0xbd813c05	-0.06310276
207	0x3c63319e	0.01386681
208	0x3dae2ff3	0.08505239
209	0xbddb4791	-0.107070096
210	0x3d091d18	0.03347501
211	0xbd44e49b	-0.048069578
212	0xbd8c887b	-0.06861969
213	0xbd873cad	-0.0660337
214	0x3d35feec	0.044432566
215	0xbc820d2e	-0.015875425
216	0x3d4930a7	0.049118664
217	0xbd5d8718	-0.054083914
218	0xbce91735	-0.028453449
219	0x3c9598d5	0.018261353
220	0xbde96e6b	-0.11398014
221	0x3df584fe	0.11988257
222	0xbd4147c2	-0.047187574
223	0xbd1186f0	-0.035529077
224	0xbe0f8a01	-0.14017488
225	0x3dd5c6ee	0.104383335
226	0x3de380b6	0.11108534
227	0xbcb6f586	-0.022333872
228	0x3d82f943	0.06395199
229	0xbd4808d5	-0.048836548
230	0xbc29a2da	-0.010353768
231	0x3d00d5ba	0.031453826
232	0x3dc5f6e8	0.09666234
233	0x3d1c30f4	0.038132623
234	0xbd50a61a	-0.050939657
235	0xbd7e28b7	-0.062050547
236	0xbd321c63	-0.043484103
237	0x3de0bbf0	0.10973346
238	0x3dc92f5a	0.09823485
239	0xbcd70cb2	-0.02625117
240	0xbdb518de	-0.08842634
241	0x3e2bdf42	0.16784385
242	0x3d70cec5	0.05879094
243	0xbda8934b	-0.08231219
244	0xbcc1d2dc	-0.023660116
245	0x3d4ef91e	0.050530545
246	0xbdaae654	-0.08344713
247	0xbd615644	-0.05501391
248	0xbdf6761d	-0.12034247
249	0x3dc30353	0.095221184
250	0x3e113fd8	0.1418451
251	0x3cedf081	0.029045345
252	0xbdb97965	-0.09056357
253	0xbd87cd17	-0.06630915
254	0x3c2c3caf	0.010512515
255	0xbd2f3569	-0.042775545

tatic_net.fc2.bias f4 [6]
0	0x3d65b9c4	0.056085363
1	0xbde3fb63	-0.111319326
2	0x3cad4216	0.021149676
3	0x3c59376c	0.0132578425
4	0x3d0ab220	0.03386128
5	0xbdb1e5c8	-0.086864054

tatic_net.fc3.weight f4 [6, 3]
0	0xbeb52158	-0.35377002
1	0x3ebeb8e6	0.3725044
2	0xbed626ff	-0.41826627
3	0x3dcf0e3f	0.10110139
4	0x3ec68018	0.38769603
5	0xbd8ddd07	-0.06926923
6	0x3e8aefcd	0.27136078
7	0xbe04d760	-0.12972784
8	0xbe7c046a	-0.24611059
9	0x3ea9dc24	0.33175766
10	0xbe48a822	-0.19595388
11	0xbf17665a	-0.5914055
12	0xbe7dbc61	-0.24778892
13	0xbf0518b3	-0.51990813
14	0x3f10212b	0.5630061
15	0x3f1b7e68	0.60739756
16	0x3ef0c2c3	0.4702359
17	0xbc0d5d0a	-0.008628139

tatic_net.fc3.bias f4 [6]
0	0x3eb7a44e	0.35867542
1	0x3ef7299c	0.48273933
2	0x3e03bc37	0.12864767
3	0x3eb01580	0.34391403
4	0xbdbaf361	-0.09128452
5	0xbd9406e1	-0.072278745

tatic_net.fc4.weight f4 [3, 9]
0	0x3e925cca	0.28586417
1	0x3ebe3565	0.37150112
2	0x3d99afb7	0.07504218
3	0x3e852280	0.26002884
4	0x3edf66bf	0.43633077
5	0x3eba52eb	0.36391386
6	0xbdeceee2	-0.11569001
7	0x3eb75c67	0.35812685
8	0xbe0a587f	-0.13510321
9	0x3cf83a65	0.030301282
10	0x38cc9e60	9.756978e-05
11	0xbe077b0a	-0.1323053
12	0x3e5eaf17	0.21746479
13	0xbe5ce35a	-0.21571103
14	0x3e79a8f7	0.24380861
15	0x3e6a5af8	0.22886264
16	0x3e3b6051	0.1829846
17	0x3edb6f95	0.42858568
18	0x3db0503a	0.08609052
19	0xbd231b42	-0.039820917
20	0x3e977fbb	0.29589638
21	0xbe66ebf7	-0.22550951
22	0x3cf7b28a	0.030236501
23	0x3ddb5506	0.10709576
24	0xbda7fab4	-0.08202115
25	0x3de2050f	0.11036121
26	0x3d9000eb	0.07031425

tatic_net.fc4.bias f4 [3]
0	0xbe3d6e7c	-0.18499178
1	0xbe4a66a1	-0.19765712
2	0xbd668c08	-0.056285888

fc1.weight f4 [256, 108]
0	0xb9df6917	-0.00042612173
1	0xbca28eb6	-0.01984344
2	0x3da39dde	0.07989095
3	0x3d98e9b4	0.0746645
4	0xbd51564a	-0.051107682
5	0x3d54963e	0.051901095
6	0x3cb939c7	0.022610558
7	0xbd15f828	-0.036613613
8	0x3d96d918	0.07365626
9	0x3ca7423b	0.020417323
10	0xbd7650d0	-0.060135663
11	0x3d814f53	0.06313958
12	0xbd259135	-0.040421683
13	0xbdb59c02	-0.08867647
14	0x3cb69968	0.022289947
15	0x3d8203f7	0.063484125
16	0x3cedec8c	0.029043458
17	0xbdb89679	-0.090130754
18	0xbc98ea83	-0.018666511
19	0x3bfa2b72	0.0076345736
20	0xbcc4d8cb	-0.024029156
21	0xbdabdab9	-0.083913274
22	0x3d771a1e	0.06032764
23	0x3d80a197	0.06280821
24	0x3d690079	0.056885216
25	0x3da5379c	0.08067247
26	0xbd66fa07	-0.05639079
27	0x3cd5f1d4	0.02611629
28	0xbd0e340d	-0.03471761
29	0x3d80e006	0.06292729
30	0xbda24380	-0.07923031
31	0x3db4868d	0.08814726
32	0xbb4125d1	-0.0029472003
33	0xbdb4417a	-0.08801551
34	0x3c78f3de	0.015194861
35	0x3dae1f50	0.08502066
36	0xbd7c728b	-0.061632674
37	0x3d934e6f	0.071926944
38	0xbda93a22	-0.08263041
39	0xbcd3a573	-0.025835728
40	0xbdac785c	-0.08421394
41	0xbcbaef5c	-0.022819214
42	0xbcad1b7c	-0.02113127
43	0xbd73d21c	-0.059526548
44	0x3b846f8c	0.0040416177
45	0x3d9f43cb	0.07776602
46	0xbdbf8f1a	-0.09353466
47	0x3d99931b	0.07498761
48	0x3d921fcd	0.07134972
49	0x3d89b6b9	0.06724305
50	0xbb826f57	-0.003980558
51	0xbbc443df	-0.005989536
52	0xbd5457d7	-0.051841583
53	0x3d04544b	0.03230695
54	0x3d4ae651	0.049536053
55	0x3daecbed	0.085349895
56	0xbda00183	-0.07812788
57	0x3c496af6	0.012293568
58	0x3d3b1f39	0.045684073
59	0xbc93000e	-0.017944362
60	0xbd6a0f09	-0.057143245
61	0xbd14d856	-0.036339127
62	0x3d4f633b	0.050631743
63	0x3d78d2f3	0.06074805
64	0x3d4f1c72	0.050564237
65	0xbdb67d88	-0.08910662
66	0x3d87cdd0	0.066310525
67	0x3ce65395	0.028116027
68	0x3cdd3b83	0.027005916
69	0x3d43a7fd	0.047767628
70	0xbb8128a8	-0.003941614
71	0xbd25ca9a	-0.04047642
72	0xbdc237b1	-0.094832785
73	0xbda8c050	-0.08239806
74	0xbd8dbae9	-0.06920416
75	0xbd8352b8	-0.06412262
76	0xbda0d1ea	-0.07852538
77	0x3b544240	0.003238812
78	0xbd825513	-0.06363883
79	0x3b94e4f4	0.004543895
80	0x3d890c08	0.06691748
81	0x3d9de206	0.07709126
82	0xbd77c988	-0.06049493
83	0xbda3d79d	-0.08000109
84	0xbc964d1a	-0.018347312
85	0xbdbdafa0	-0.092620134
86	0xbd1ffe2e	-0.039060764
87	0xbda3811f	-0.07983612
88	0x3cb22655	0.021746794
89	0xbd5cb9bd	-0.05388807
90	0xbd20cc76	-0.03925749
91	0x3d9c9526	0.07645635
92	0xbd22c2da	-0.039736606
93	0x3dc27e99	0.09496803
94	0x3d804d33	0.062647246
95	0xbde315c4	-0.11088136
96	0xbce6c44f	-0.02816978
97	0xbd00a941	-0.031411413
98	0x3d350a7b	0.044199448
99	0xbdbeb4ab	-0.093118034
100	0xbb4b4a29	-0.0031019545
101	0x3d8190aa	0.063264206
102	0x3d503ee7	0.05084124
103	0x3ce9278e	0.028461244
104	0xbdabb42b	-0.08383974
105	0xbbc88981	-0.0061199074
106	0x3d743df7	0.059629407
107	0xbd5d81d6	-0.0540789
108	0xbd2da416	-0.042392813
109	0xbd3f2f3c	-0.046675906
110	0xbd57947e	-0.052631848
111	0x3ecc3f2f	0.39891955
112	0x3e852186	0.2600214
113	0x3e88a037	0.26684734
114	0xbb24a575	-0.0025123034
115	0x3d8bfd6d	0.068354465
116	0xbb924bf1	-0.0044646193
117	0x3ede4d48	0.43418336
118	0x3ea441a2	0.32081324
119	0x3ea33785	0.31878296
120	0xbd30a9e7	-0.04313078
121	0xbce85560	-0.028361022
122	0xbd8f8857	-0.07008427
123	0x3ea0a23a	0.3137377
124	0x3eacc135	0.33741155
125	0x3e457d15	0.19285996
126	0x3b2eb18d	0.0026656121
127	0x3c7a4085	0.015274172
128	0xbd43d253	-0.047808003
129	0xbd7a07b3	-0.0610425
130	0xbd48c845	-0.049019117
131	0x3d9e6e8a	0.077359274
132	0xbd8e8b65	-0.06960181
133	0x3d7df29a	0.06199894
134	0x3d8825d8	0.06647843
135	0x3d11dbea	0.035610117
136	0xbb963792	-0.004584261
137	0x3e82caa6	0.25545233
138	0x3d8a5e54	0.06756273
139	0xbd83de89	-0.064389296
140	0x3d534440	0.05157876
141	0x3d937343	0.07199719
142	0x3b3ae87b	0.0028519917
143	0x3e92018b	0.28516802
144	0xbc843ec9	-0.01614322
145	0x3d768be5	0.060192008
146	0xbd5ee5b4	-0.05441828
147	0x3ec1a59e	0.37821668
148	0x3ebcbca6	0.36862677
149	0x3e5f72fb	0.21821205
150	0x3acebcee	0.0015772858
151	0x3cafaf08	0.021445766
152	0x3d9f33d4	0.07773557
153	0x3ecb07b5	0.39654317
154	0x3e898122	0.26856333
155	0x3e2c5d9f	0.16832589
156	0xbbb51bbb	-0.0055269874
157	0xbc6b32a8	-0.014355339
158	0x3d0b21d5	0.03396781
159	0x3ea35f84	0.3190881
160	0x3ea57639	0.3231676
161	0x3e15e675	0.14638694
162	0xbd707e3d	-0.05871414
163	0xbd77cfec	-0.060501024
164	0xbc9103c4	-0.01770199
165	0x3d353556	0.04424032
166	0x3d955cd3	0.072930954
167	0x3d8715c6	0.0659595
168	0x3d3187b1	0.043342296
169	0xbdba60cb	-0.09100493
170	0xbc03d72d	-0.008046907
171	0xbd824e61	-0.06362606
172	0xbd163a7e	-0.036676876
173	0x3e35c7f0	0.17752051
174	0xbd00b524	-0.03142275
175	0x3a667580	0.00087913126
176	0x3dbf9b9d	0.09355853
177	0xbce87082	-0.02837396
178	0xbdc40468	-0.09571153
179	0x3e70287a	0.2345294
180	0x3d52a27f	0.0514245
181	0xbd2afddb	-0.041746
182	0xbd5530ec	-0.05204861
183	0x3e9bb103	0.30408487
184	0x3eaba6ce	0.335257
185	0x3e1ad8ae	0.15121719
186	0x3c09bf4e	0.008407427
187	0xbc858f1e	-0.016303595
188	0x3d7a39d2	0.061090298
189	0x3eeaf386	0.4588892
190	0x3ea42950	0.3206277
191	0x3e2a5591	0.16634203
192	0xbd23002c	-0.039795086
193	0x3d8529b3	0.06502094
194	0x3ca0a1f7	0.01960848
195	0x3ecb2f14	0.39684355
196	0x3ea57c8d	0.32321587
197	0x3e962b36	0.29329842
198	0xbd6e6c3b	-0.058208685
199	0xbd934028	-0.07189971
200	0x3d6a90fd	0.057267178
201	0xb8a6c20d	-7.9516416e-05
202	0x3d2f3ad1	0.0427807
203	0x3e225c82	0.15855601
204	0x3c9d6f30	0.019218057
205	0xbc8caa90	-0.017171174
206	0x3ba38248	0.004989896
207	0x3db1906c	0.086701244
208	0xbd873cbd	-0.06603382
209	0x3e5cf1c4	0.21576601
210	0xbc423d04	-0.011855368
211	0x3d01b45a	0.031666137
212	0x3d1328ec	0.035927698
213	0x3cf19b01	0.029492857
214	0x3d928d93	0.071559094
215	0x3e38da4f	0.18052028
216	0x3d822d75	0.063563265
217	0x3c98c0df	0.018646656
218	0xbd99d2c4	-0.075109035
219	0xbd133dc6	-0.035947584
220	0xbc83dd74	-0.016096808
221	0xbd1e5ebd	-0.03866457
222	0x3d8f29b1	0.06990374
223	0xbdaa0ae3	-0.08302858
224	0x3dbfd7c1	0.09367324
225	0x3d8edc27	0.069755845
226	0x3c582e68	0.013194658
227	0x3d91f3d5	0.071265854
228	0x3d6a42e3	0.057192694
229	0x3d056959	0.03257117
230	0xbd1564e3	-0.036473166
231	0x3d5ca2d1	0.05386621
232	0x3d8da86b	0.06916889
233	0x3cf84ea7	0.030310942
234	0xbc57a2ac	-0.013161343
235	0xbd998d52	-0.07497658
236	0xbd7546e2	-0.059882052
237	0x3d448c9e	0.047985666
238	0x3db2e31c	0.08734724
239	0x3d573a2e	0.05254572
240	0x3dbd580b	0.092453085
241	0xbd152445	-0.036411542
242	0x3d5005a2	0.050786622
243	0x3d2536b8	0.040335387
244	0x3c32ff54	0.010925133
245	0xbdd8a38d	-0.1057807
246	0x3d92733a	0.07150884
247	0xbb5109a2	-0.003189661
248	0xbd7b79ce	-0.06139546
249	0xbd5f21c6	-0.05447557
250	0xbdbd411b	-0.092409335
251	0xbda55ef3	-0.08074751
252	0x3d8bce56	0.06826465
253	0x3c8acffb	0.016944876
254	0x3d925cc0	0.07146597
255	0xbd398488	-0.045292407

fc1.bias f4 [256]
0	0xbddd206c	-0.107971996
1	0x3eae75f7	0.34074375
2	0xbbdcd030	-0.006738685
3	0x3e32b8a3	0.17453246
4	0x3f10ea8c	0.5660789
5	0x3ebaafc0	0.36462212
6	0x3db9d223	0.090732835
7	0x3eb17f4e	0.34667438
8	0x3e67bf7b	0.22631638
9	0x3f56ba0c	0.83877635
10	0x3f6570e4	0.8962538
11	0x3f7ce257	0.9878287
12	0xbc7abcd4	-0.015303809
13	0x3eca8058	0.39551044
14	0x3f5dd2ed	0.8664997
15	0x3f876b6e	1.057966
16	0x3f61e13f	0.88234323
17	0x3ed3a3c9	0.41335896
18	0x3f8a86da	1.0822403
19	0xbbd0eea2	-0.0063761035
20	0x3f71744a	0.9431807
21	0xbd81b570	-0.063334346
22	0x3f71c936	0.9444765
23	0x3f59772f	0.84947485
24	0x3eee5f7c	0.46557224
25	0x3f7f98ef	0.99842733
26	0x3f5e6777	0.86876625
27	0x3e8aa995	0.27082506
28	0x3f43b615	0.7644971
29	0x3f64d295	0.8938382
30	0xb9d833a5	-0.0004123721
31	0x3f895bec	1.0731177
32	0xbc1135c2	-0.0088629145
33	0x3f736947	0.95082515
34	0xbdadc879	-0.08485503
35	0x3eabf9a7	0.33588907
36	0x3f7094f6	0.93977296
37	0x3e95d390	0.29262972
38	0xbc967ee9	-0.018371062
39	0x3f5bc042	0.8584024
40	0x3e9c82d9	0.3056858
41	0x3f66eaea	0.902022
42	0xbdbd3de8	-0.09240323
43	0x3f64b57b	0.8933942
44	0x3f49dd28	0.7885308
45	0x3f6ea269	0.9321657
46	0x3f038ed5	0.5138982
47	0x3f8682e4	1.0508695
48	0xbe003b9f	-0.12522744
49	0x3f578f0a	0.84202635
50	0xbd1a3fbf	-0.03765845
51	0xb986dd8c	-0.00025723537
52	0x3f62b6e2	0.8856031
53	0x3e8cd98f	0.27509734
54	0x3f70e713	0.9410259
55	0x3f64be2d	0.89352685
56	0x3f279021	0.654543
57	0x3f79d8e7	0.9759659
58	0x3f775179	0.9660869
59	0xbb51bbd1	-0.0032002816
60	0x3f7a3a99	0.9774566
61	0x3f769ce2	0.96333134
62	0x3f87f8fd	1.062286
63	0x3f663b78	0.8993449
64	0x3e92b629	0.28654602
65	0x3f766f3c	0.9626348
66	0xbca13cb8	-0.019682273
67	0x3f73ae5c	0.95187926
68	0x3f719988	0.94374895
69	0xbd6a493a	-0.05719874
70	0x3b99db05	0.0046952986
71	0x3e121a18	0.14267766
72	0x3f735683	0.9505388
73	0x3f6af6d8	0.91782904
74	0xbc6c29ed	-0.014414293
75	0x3f75ebdb	0.9606301
76	0x3f6d045e	0.9258479
77	0x3f51c2be	0.8193778
78	0xbbb82560	-0.00561969
79	0x3f743ae5	0.95402366
80	0x3f75e14b	0.96046895
81	0xbdb3d381	-0.087805755
82	0x3f85fe3f	1.0468215
83	0x3f5be88a	0.859017
84	0x3f689a8f	0.9086084
85	0x3f80737e	1.0035245
86	0x3f6ad85f	0.91736406
87	0x3f48771a	0.78306735
88	0x3f717dc5	0.94332534
89	0x3f799bbc	0.97503257
90	0x3e92986c	0.28631914
91	0x3f4ce588	0.80037737
92	0x3e4b667b	0.19863312
93	0x3f6c7e38	0.92380095
94	0x3f68dee6	0.90965116
95	0xba2955f4	-0.00064596464
96	0x3f6b6c75	0.9196237
97	0x3f739df0	0.9516287
98	0x3f5bbace	0.85831916
99	0xbdc2d67a	-0.095135644
100	0x3f87c2b8	1.0606298
101	0xbb418def	-0.0029534062
102	0x3f79b709	0.97544914
103	0x3e2ada40	0.16684818
104	0xbd80df50	-0.062925935
105	0xba1ba9c7	-0.00059380796
106	0xbb579ba6	-0.003289917
107	0xbab8b809	-0.0014092933
108	0x3f7518d0	0.95740986
109	0x3f3ffde6	0.74996793
110	0xbcff480c	-0.031162284
111	0xbd071c1b	-0.032985788
112	0x3f737307	0.9509739
113	0x3f7d9e63	0.99069804
114	0x3f7793ed	0.9671009
115	0x3f4b17fd	0.7933348
116	0xbdaed702	-0.08537103
117	0x3f60b93a	0.87782633
118	0x3f7daad9	0.9908882
119	0x3f5c2bbd	0.8600424
120	0x3f7fb450	0.9988451
121	0xbd6b4bdb	-0.05744539
122	0x3f882fe4	1.0639615
123	0x3f624474	0.883857
124	0x3f725c1e	0.9467181
125	0xbce652c5	-0.02811564
126	0x3f81f532	1.0152953
127	0x3f64a52c	0.8931453
128	0x3f8401eb	1.0313085
129	0xbdc6520a	-0.096836165
130	0x3f6361f7	0.8882136
131	0x3f7c47dd	0.98547155
132	0x3f77cdce	0.9679841
133	0xbc1a8d07	-0.009433038
134	0xbd97c061	-0.0740974
135	0xb8f84ab4	-0.00011839476
136	0xbdb51e5d	-0.08843682
137	0x3f8a5c57	1.080943
138	0x3f7c10d8	0.984632
139	0xbdc2e0e2	-0.09515549
140	0x3f50c100	0.81544495
141	0xbdd08c04	-0.10182956
142	0x3f6cacd9	0.92451245
143	0x3e2ec332	0.17066649
144	0x3f6f983d	0.9359167
145	0x3ef9aab5	0.48763052
146	0x3e9953e9	0.2994683
147	0x3f170ea1	0.59006697
148	0x3e6822d1	0.22669531
149	0x3f696649	0.911717
150	0xbc226d9e	-0.00991383
151	0x3f724ade	0.9464549
152	0x3f85991c	1.043735
153	0xbdbbeb41	-0.091757305
154	0x3f4ca76b	0.7994296
155	0x3f75a936	0.9596132
156	0x3f6c02a2	0.9219152
157	0x3f76d800	0.9642334
158	0xbccde57c	-0.02513384
159	0x3e8f564c	0.27995527
160	0x3f680b26	0.9064201
161	0x3f1bf606	0.60922277
162	0x3f65f436	0.8982576
163	0x3ea52384	0.3225366
164	0x3f7c7d3e	0.98628604
165	0xb9e638f5	-0.00043911455
166	0x3eb5da2c	0.35518014
167	0x3ea46ae6	0.32112807
168	0x3f6cceee	0.9250325
169	0x3f86f928	1.0544786
170	0x3f7ca173	0.9868385
171	0x3f62114a	0.8830763
172	0x3f8730bb	1.0561746
173	0x3f7a6adb	0.978193
174	0x3f753d07	0.95796245
175	0x3f5bd527	0.8587212
176	0xbd6fe359	-0.058566425
177	0xbdc0feda	-0.09423609
178	0x3e9c7145	0.30555168
179	0xbd8ef244	-0.06979802
180	0x3f67d228	0.9055505
181	0x3f6b99a5	0.9203132
182	0x3de17824	0.11009243
183	0xbdbd0743	-0.09229901
184	0x3f6643cf	0.8994722
185	0xbd804b2c	-0.06264338
186	0x3f60577a	0.8763348
187	0x3f81f9dc	1.0154376
188	0x3f718272	0.9433967
189	0xbdbf8fcd	-0.093536
190	0x3e7c776d	0.24654932
191	0xbdabe2f5	-0.08392898
192	0xbda07ed0	-0.078366876
193	0x3f639b37	0.88908714
194	0xbdb66ce5	-0.08907489
195	0x3f308ee0	0.6896801
196	0x3f7b3652	0.9812976
197	0x3eba6fa4	0.364133
198	0x3f77eac5	0.96842605
199	0x3f5dd096	0.866464
200	0xbcac2f9c	-0.021018796
201	0x3f6e493a	0.93080485
202	0x3f7aa59f	0.9790897
203	0xbdb79306	-0.08963589
204	0xbdbc9703	-0.09208491
205	0x3e96ba54	0.29439032
206	0x3f667d4c	0.9003494
207	0x3f570784	0.8399584
208	0x3f67776a	0.90416586
209	0x3f6e7010	0.93139744
210	0xbbaa9bbc	-0.0052065533
211	0x3e36a123	0.17834906
212	0x3f528856	0.8223928
213	0x3f5efb1c	0.8710191
214	0x3f886061	1.0654413
215	0x3f7cec11	0.9879771
216	0x3f637144	0.88844705
217	0x3e65ea03	0.2245255
218	0x3f6aec3f	0.9176673
219	0x3f706f15	0.939195
220	0x3f5e07e7	0.8673081
221	0x3f6b8946	0.9200634
222	0xbda889d1	-0.082294114
223	0x3f545d9a	0.82955325
224	0x3f69b7a8	0.9129586
225	0x3f576f20	0.8415394
226	0x3f82182b	1.0163625
227	0xbc1af0a0	-0.0094567835
228	0x3f4238d0	0.7586794
229	0x3eafc3ec	0.34329164
230	0x3f8574d9	1.0426284
231	0xbca57b4f	-0.0202004
232	0xbd7bb8d7	-0.061455574
233	0x3eaf0e34	0.34190524
234	0x3f80f757	1.0075482
235	0x3f347503	0.70491046
236	0xbd5f4e31	-0.05451793
237	0xbd65e62e	-0.05612772
238	0xbb89cdf0	-0.004205458
239	0x3f652cb5	0.8952134
240	0x3f6d9687	0.9280781
241	0x3f12519e	0.5715579
242	0x3f639ecc	0.8891418
243	0x3ec1f410	0.37881517
244	0x3f6e7dae	0.9316052
245	0x3f89e8d7	1.0774182
246	0x3f7f0af6	0.996261
247	0x3f836084	1.0263829
248	0x3f721c7e	0.94574726
249	0x3f6e67d7	0.931272
250	0x3f3a4256	0.7275747
251	0xbd7b4ad4	-0.06135066
252	0xbcf7d091	-0.03025082
253	0x3ed685e5	0.41899028
254	0x3eadad35	0.3392121
255	0x3f77427f	0.9658584
