model_epoch_1900.pth (torch, 141274 bytes, 15 tensors)

target_net.fc1.weight f4 [64, 36]
0.10006237 0.056178987 0.011433085 -0.047554687 0.02672379 -0.00249553 -0.028217098 0.1123031
0.052450042 -0.010319449 -0.113716096 -0.119489424 -0.11775788 0.08770486 -0.050435066 0.052021533
-0.0037859068 -0.17667247 -0.036820292 -0.06826173 -0.16322935 0.037391245 0.09883414 -0.044713642
0.031032085 -0.02889949 -0.079926535 0.00940309 0.12265003 -0.14066997 0.14970069 -0.0603899
0.03417369 0.010010481 -0.05248646 -0.024542315 0.14505208 0.094138786 -0.046133243 -0.087738976
-0.057119258 0.159798 0.13168596 0.15580879 0.04053406 -0.036909472 -0.05371497 -0.025242325
0.10437189 -0.12697536 0.12662324 0.033797525 0.0110569345 0.11337566 -0.053855836 0.04160794
0.160469 -0.16348778 0.06913756 0.07767578 -0.05967909 -0.03343588 0.14050263 0.09719676
0.017586768 -0.08295654 -0.019071102 0.056176703 -0.012155971 0.15610556 -0.12270926 -0.12641422
0.13611636 0.04471928 0.03644705 0.075196184 -0.086703666 0.017628696 0.02916497 0.1601359
-0.04627387 0.035554294 0.062458012 -0.12741496 0.0071855388 -0.08693999 -0.108819865 0.06671205
0.07979757 0.11158907 0.03685991 -0.08244865 0.15609112 0.012060444 0.022738278 0.010592287
0.12197622 -0.07632675 0.07902199 -0.055893205 -0.12578452 -0.020840444 -0.14750056 -0.08732921
0.013603926 0.041086793 -0.13571005 -0.08116478 0.07230598 -0.09572234 -0.15408379 -0.09690302
0.03022935 -0.10465124 0.1408073 -0.045285344 0.035534244 0.05892722 -0.12789313 0.19653621
-0.021600028 -0.16436458 0.13472623 0.005732584 0.09874092 0.04440471 0.1133831 0.010280689
-0.0043200455 0.0027264357 0.12644297 -0.08992257 0.04274901 0.092518374 0.15323137 0.14658599
-0.08869319 0.006494394 -0.030572396 -0.14859095 -0.06426935 -0.017357927 -0.08238809 -0.081438586
-0.05243256 -0.023561835 -0.05125644 -0.058393225 0.12512003 0.13750945 -0.0203592 -0.012608906
-0.038468003 -0.06908075 0.1661263 -0.10829278 -0.13267979 -0.05043509 0.14701842 -0.18470941
0.077235706 -0.06121305 0.14998661 0.063732386 -0.07591759 -0.04891193 -0.041570723 0.20551148
0.017066121 0.018825054 -0.07390871 0.10448371 -0.00020873547 0.19120415 0.15458894 0.13188194
0.03387493 -0.041094482 0.12372005 -0.111324444 -0.023642521 -0.1043916 0.01347222 -0.096438065
-0.09805466 -0.017533079 -0.0036100547 0.1266203 -0.11439799 0.024616092 0.056910697 0.0040165936
0.14204237 0.15141016 -0.11147561 -0.06566098 0.16433206 -0.11439489 -0.15200011 -0.11891638
0.054467104 0.002424717 -0.040455244 -0.01825252 -0.08740147 0.10527015 -0.02593567 0.06561385
-0.14654544 -0.11114731 0.036948245 0.010525405 -0.07364051 0.10446721 0.016473472 -0.21850613
-0.01163896 0.12776957 -0.08930131 -0.010793389 -0.14771241 0.19911326 -0.12330824 0.103919886
-0.107628904 0.098200426 0.07871068 0.0054386775 -0.15679672 -0.09563023 0.044021748 0.104734704
-0.1568752 -0.015463169 -0.026325684 -0.005109509 0.039710402 0.072713815 -0.078417145 0.10053755
-0.11411359 -0.09269069 -0.006921053 -0.14761326 -0.055898845 -0.19228978 0.09877517 -0.049010694
0.13805297 0.058511697 -0.010933161 -0.062530614 0.11807603 0.108934484 -0.1408934 0.064846255
00000000: 80ed cc3d f01b 663d d651 3b3c b4c8 42bd
00000010: daeb da3c 0c8c 23bb 8b27 e7bc 2bff e53d
00000020: dbd5 563d e812 29bc fce3 e8bd dfb6 f4bd
00000030: 0b2b f1bd 9b9e b33d 0095 4ebd 8814 553d
00000040: fa1c 78bb a1e9 34be e0d0 16bd cecc 8bbd
00000050: 9825 27be 9027 193d 8e69 ca3d a725 37bd
00000060: 0037 fe3c a0be ecbc 86b0 a3bd 6b0f 1a3c
00000070: f02f fb3d ca0b 10be 234b 193e 665b 77bd
00000080: b6f9 0b3d 0003 243c 0bfc 56bd f70c c9bc
00000090: 8888 143e d6cb c03d 36f6 3cbd 7eb0 b3bd
000000a0: e2f5 69bd 16a2 233e afd8 063e 578c 1f3e
000000b0: 0b07 263d 632e 17bd 3a04 5cbd fec8 cebc
000000c0: eec0 d53d d405 02be 86a9 013e 466f 0a3d
000000d0: 2528 353c 7f31 e83d f097 5cbd 166d 2a3d
000000e0: fc51 243e 5769 27be fe97 8d3d 7b14 9f3d
000000f0: 1072 74bd 10f4 08bd ecdf 0f3e 180f c73d
00000100: 2012 903c 1ee5 a9bd 003b 9cbc 8b19 663d
00000110: d629 47bc 23da 1f3e fe4e fbbd bb72 01be
00000120: 1662 0b3e 902b 373d 8049 153d 7500 9a3d
00000130: b191 b1bd 0e6a 903c 60eb ee3c aafa 233e
00000140: ab89 3dbd 61a1 113d f9d3 7f3d 1179 02be
00000150: ab74 eb3b 980d b2bd f3dc debd 54a0 883d
00000160: e96c a33d cf88 e43d 6bfa 163d d6da a8bd
00000170: 5ad6 1f3e 2b99 453c a045 ba3c 468b 2d3c
00000180: abce f93d 3351 9cbd 48d6 a13d 46f0 64bd
00000190: a8cd 00be 94b9 aabc 630a 17be a8d9 b2bd
000001a0: 00e3 5e3c a04a 283d 93f7 0abe b839 a6bd
000001b0: 2815 943d 130a c4bd 24c8 1dbe 1775 c6bd
000001c0: 8ba3 f73c 6453 d6bd ca2f 103e 207d 39bd
000001d0: 5b8c 113d ab5d 713d 6bf6 02be ca40 493e
000001e0: 8bf2 b0bc 304f 28be acf5 093e 66d8 bb3b
000001f0: ae38 ca3d b7e1 353d 6635 e83d 5670 283c
00000200: 2b8f 8dbb 00ae 323b 447a 013e 5329 b8bd
00000210: 9619 2f3d 467a bd3d afe8 1c3e a31a 163e
00000220: c6a4 b5bd edce d43b f672 fabc 3a28 18be
00000230: a69f 83bd 3632 8ebc 16bb a8bd 46c9 a6bd
00000240: 86c3 56bd c004 c1bc 46f2 51bd bc2d 6fbd
00000250: 771f 003e 47cf 0c3e 56c8 a6bc 9695 4ebc
00000260: a090 1dbd 357a 8dbd 031d 2a3e 9bc8 ddbd
00000270: 36dd 07be 0695 4ebd ff8b 163e 7724 3dbe
00000280: c12d 9e3d 89ba 7abd 1796 193e 2086 823d
00000290: ae7a 9bbd e057 48bd 1046 2abd 9a71 523e
000002a0: 40ce 8b3c 0037 9a3c 735d 97bd 8efb d53d
000002b0: 00e0 5ab9 05cb 433e 904c 1e3e 0f0c 073e
000002c0: 70c0 0a3d b052 28bd f060 fd3d 12fe e3bd
000002d0: f6ad c1bc 43cb d5bd 96ba 5c3c 5281 c5bd
000002e0: e2d0 c8bd 88a1 8fbc ab96 6cbb c0a8 013e
000002f0: 7e49 eabd b0a7 c93c 311b 693d a19d 833b
00000300: 8e73 113e 440b 1b3e 534d e4bd 4479 86bd
00000310: aa46 283e de47 eabd eba5 1bbe 6e8a f3bd
00000320: e618 5f3d 00e8 1e3b 66b4 25bd 4f86 95bc
00000330: 8bff b2bd e097 d73d 0b77 d4bc 8e60 863d
00000340: 0210 16be 33a1 e3bd 0b57 173d c072 2c3c
00000350: d6d0 96bd e8f2 d53d 60f3 863c 12c0 5fbe
00000360: 56b1 3ebc 07d6 023e 9be3 b6bd c1d6 30bc
00000370: ec41 17be 59e4 4b3e 0889 fcbd f3d3 d43d
00000380: 8b6c dcbd 4e1d c93d 1133 a13d ef36 b23b
00000390: 528f 20be c8d9 c3bd 2650 343d 267f d63d
000003a0: e4a3 20be 3b59 7dbc f6a8 d7bc ab6d a7bb
000003b0: 60a7 223d fbea 943d 2b99 a0bd a2e6 cd3d
000003c0: 63b4 e9bd 9ed4 bdbd 00ca e2bb ee27 17be
000003d0: 30f6 64bd 9de7 44be a34a ca3d 70bf 48bd
000003e0: c25d 0d3e f6a9 6f3d 0021 33bc 0d10 80bd
000003f0: d8d1 f13d 0b19 df3d 5c46 10be 1dce 843d

target_net.fc1.bias f4 [64]
-0.009389381 0.017789427 -0.15256004 -0.055680912 -0.024131667 -0.19921388 -0.037713107 0.076269165
-0.14351213 0.106463514 0.12403912 0.14589721 0.16560389 -0.056686066 0.15534282 -0.10598106
-0.16922888 -0.16258553 0.14831969 -0.10721654 -0.14561196 -0.16589385 0.12196932 -0.109113656
-0.10906657 -0.05926037 0.24525724 -0.0269267 -0.15583508 0.28847903 0.118589476 -0.1335661
-0.06327457 -0.027363589 -0.006870346 -0.10282739 0.16818039 0.11227132 -0.20244893 -0.017195178
-0.16576932 -0.0021081327 -0.12412543 -0.10496238 0.18174821 -0.03043105 -0.071575716 -0.1451111
0.07529462 -0.17624709 -0.14996576 -0.092965156 0.032724645 -0.061103757 0.116708994 0.036256284
-0.16694741 -0.006561104 -0.0026318028 0.02993947 -0.13067158 -0.021983692 0.26077563 -0.08497487
00000000: ebd5 19bc 22bb 913c b338 1cbe ab11 64bd
00000010: c6af c5bc b9fe 4bbe 0f79 1abd 0233 9c3d
00000020: d8f4 12be 8b09 da3d 3908 fe3d 1466 153e
00000030: 1194 293e a62f 68bd 3012 1f3e 990c d9bd
00000040: 564a 2dbe d27c 26be 1ee1 173e 5894 dbbd
00000050: 4d1b 15be 14e0 29be 0dcb f93d fb76 dfbd
00000060: 4b5e dfbd 00bb 72bd b724 7b3e 6295 dcbc
00000070: 3b93 1fbe 86b3 933e 0adf f23d 8dc5 08be
00000080: 1996 81bd 9b29 e0bc a420 e1bb 2b97 d2bd
00000090: 7b37 2c3e 81ee e53d c64e 4fbe e7dc 8cbc
000000a0: 6fbf 29be 9928 0abb 7935 febd 84f6 d6bd
000000b0: 341c 3a3e 8a4a f9bc 4a96 92bd 0198 14be
000000c0: 1134 9a3d 1e7a 34be a090 19be 8464 bebd
000000d0: 470a 063d ef47 7abd 2005 ef3d 7881 143d
000000e0: 43f4 2abe 88fe d6bb 537a 2cbb 9f43 f53c
000000f0: c5ce 05be 2517 b4bc 6284 853e 4e07 aebd

target_net.fc2.weight f4 [3, 64]
-0.038612925 -0.06354134 -0.03521771 -0.011345524 0.0027467087 -0.062010422 0.08419639 -0.06283808
-0.096582055 0.12902059 -0.15789719 0.013751812 -0.15780392 0.0020491893 -0.11368101 0.032445185
0.047694296 -0.02884441 -0.057390943 0.0151500935 -0.09159391 0.10394599 -0.05422525 0.010837112
-0.025550347 -0.039540634 -0.09892296 0.050633773 0.069083646 -0.18793236 -0.07652703 0.037685294
-0.029750116 0.08558632 0.017430678 -0.0059861206 -0.15488875 -0.11716986 0.12260442 0.021987978
0.05839642 -0.075559914 0.033541948 0.14027779 -0.0577092 0.06496589 0.03547464 0.023869917
-0.03094078 -0.03321198 -0.027504742 -0.069886714 -0.113991134 -0.037263747 -0.16259764 0.07526267
0.027918924 0.022557106 0.08014648 -0.11320599 -0.04266441 0.03349858 -0.3026706 0.048075914
-0.06553905 -0.04527378 0.07337999 -0.06742192 0.14782102 -0.06834645 0.07356923 0.16205435
-0.011795118 -0.07565256 0.18195008 0.14994653 0.10567555 0.02883702 0.055675708 0.00676901
-0.0016988296 0.13827544 0.058775976 0.02305045 0.11813304 0.026137145 -0.09265741 0.05183618
0.0038007912 -0.11570933 0.15991558 0.17020053 -0.030621724 0.10355593 -0.034003977 0.005392674
0.11795206 -0.011220912 0.028520344 0.033525914 0.083583966 0.04248793 -0.065205626 -0.04586794
0.026553387 0.08396363 -0.06359723 -0.006229756 0.13859951 0.066356316 0.11015969 -0.014065508
0.102883905 0.064775266 -0.11779943 -0.013489952 -0.06620106 -0.10155481 0.03245871 -0.0042606797
-0.06873293 -0.044680074 -0.021530353 0.038865827 -0.0109977 -0.060012605 0.05650433 0.016012698
-0.07973785 -0.059853587 -0.041660115 -0.02410695 -0.103228115 0.04983119 -0.11514037 -0.018576369
0.06380029 0.07049875 0.16451 -0.057133604 -0.0018244752 0.1362329 -0.028665988 -0.03819623
-0.023030184 0.036089383 0.06619748 0.0058111437 -0.09648815 -0.061525173 0.068152085 -0.14662983
-0.008563733 0.073776305 0.09816401 -0.053538665 -0.04949665 0.17041908 0.10774669 0.14009374
-0.089621946 0.035369206 0.11266538 -0.056374315 -0.011935706 0.0444885 0.0414698 -0.09690809
-0.023530373 -0.09725617 -0.024326824 0.11202339 0.09981896 -0.0138435075 -0.05192727 0.10512328
0.028372614 0.028401515 0.08839182 0.0003522714 -0.06945408 -0.054304324 0.06098465 0.10190196
-0.12746462 -0.09736218 0.08325408 0.08239906 -0.10659461 -0.10869009 0.09415023 0.008185938
00000000: 9628 1ebd f621 82bd 7240 10bd 94e2 39bc
00000010: 2002 343b a4fe 7dbd 286f ac3d 40b1 80bd
00000020: d0cc c5bd f91d 043e cdaf 21be 484f 613c
00000030: 5a97 21be b14b 063b 97d1 e8bd 3ee5 043d
00000040: 185b 433d 1d4b ecbc c412 6bbd 1938 783c
00000050: 9695 bbbd a3e1 d43d 4c1b 5ebd 248e 313c
00000060: f64e d1bc 5cf5 21bd 1f98 cabd 5c65 4f3d
00000070: ba7b 8d3d 5771 40be 34ba 9cbd e55b 1a3d
00000080: 84b6 f3bc e147 af3d c8ca 8e3c 3827 c4bb
00000090: 289b 1ebe c0f6 efbd 0718 fb3d 2220 b43c
000000a0: 1631 6f3d 28bf 9abd 4863 093d fba4 0f3e
000000b0: 7b60 6cbd d60c 853d db4d 113d d88a c33c
000000c0: 8577 fdbc 4909 08bd a051 e1bc c420 8fbd
000000d0: 2f74 e9bd dfa1 18bd ff7f 26be 5123 9a3d
000000e0: 3ab6 e43c aec9 b83c d623 a43d 8bd8 e7bd
000000f0: e0c0 2ebd cf35 093d a4f7 9abe 40eb 443d
00000100: 5639 86bd 0071 39bd 4048 963d 8114 8abd
00000110: 655e 173e 39f9 8bbd 77ab 963d 93f1 253e
00000120: 5040 41bc bbef 9abd 1f51 3a3e 958b 193e
00000130: 6c6c d83d 9d3b ec3c 360c 643d 92ce dd3b
00000140: 43ab deba 1498 0d3e 14bf 703d 4cd4 bc3c
00000150: bcef f13d 911d d63c 2bc3 bdbd 2d52 543d
00000160: b216 793b 03f9 ecbd e9c0 233e 0c49 2e3e
00000170: 69da fabc 2215 d43d c147 0bbd 07b5 b03b
00000180: da90 f13d ebd7 37bc 7fa3 e93c 7852 093d
00000190: 122e ab3d d307 2e3d 878a 85bd 05e0 3bbd
000001a0: 7d86 d93c 20f5 ab3d 443f 82bd fb22 ccbb
000001b0: 08ed 0d3e d2e5 873d 679b e13d 0473 66bc
000001c0: ccb4 d23d e5a8 843d d440 f1bd f604 5dbc
000001d0: 6c94 87bd f8fb cfbd 6df3 043d 2c9d 8bbb
000001e0: dac3 8cbd 7402 37bd 6c60 b0bc c631 1f3d
000001f0: b22f 34bc c7cf 75bd 1671 673d 102d 833c
00000200: 994d a3bd 0929 75bd cca3 2abd f07b c5bc
00000210: 4369 d3bd ca1b 4c3d b7ce ebbd 782d 98bc
00000220: baa9 823d a661 903d 4f75 283e ed04 6abd
00000230: 3b23 efba a380 0b3e efd4 eabc a673 1cbd
00000240: cca9 bcbc 76d2 133d 8b92 873d 686b be3b
00000250: 949b c5bd d201 7cbd 5293 8b3d 2126 16be
00000260: e64e 0cbc 0818 973d 360a c93d 5c4b 5bbd
00000270: 00bd 4abd 5782 2e3e 4caa dc3d bc74 0f3e
00000280: b68b b7bd 4ddf 103d 1bbd e63d c1e8 66bd
00000290: fb8d 43bc 9339 363d 3ddc 293d c077 c6bd
000002a0: c5c2 c0bc 3e2e c7bd 0c49 c7bc 856c e53d
000002b0: e26d cc3d e1cf 62bc b0b1 54bd e04a d73d
000002c0: af6d e83c 4baa e83c c506 b53d 11b1 b839
000002d0: f13d 8ebd 366e 5ebd 0acb 793d fab1 d03d
000002e0: 1686 02be d365 c7bd 1d81 aa3d d7c0 a83d
000002f0: 464e dabd e998 debd d6d1 c03d 501e 063c

target_net.fc2.bias f4 [3]
-0.020371178 0.015118856 0.06655294
00000000: 75e1 a6bc 14b5 773c e84c 883d

tatic_net.fc1.weight f4 [64, 42]
0.14276306 -0.038523432 0.00734753 -0.14613704 0.03314035 -0.17190477 -0.043636393 -0.1052479
0.09197763 0.12146624 -0.11327011 0.017631944 -0.12502445 0.12490058 0.090758964 -0.124069534
-0.17171252 0.088981554 0.013895659 -0.10872714 0.15355667 -0.09411723 -0.047947895 0.16132456
-0.14694048 0.09200311 -0.07133638 -0.09893559 0.076542474 -0.048257444 0.032794572 0.12288213
-0.013307185 -0.14992556 0.102707066 0.11936851 -0.10204578 0.02688143 0.04401959 0.06818408
0.08521764 -0.041168418 -0.12344099 0.14629403 -0.05520601 0.12472285 -0.01132409 0.09998382
0.13877587 -0.037424553 -0.009873945 -0.013250591 0.09002534 0.092903845 -0.08464855 -0.017580865
-0.082900554 -0.122235976 0.07532225 0.107431054 0.086168334 0.07161975 -0.03718276 0.033399235
0.15361205 -0.036323283 -0.0884824 0.11791259 0.08559491 0.009146741 -0.12984544 0.002783365
-0.09466194 0.04098852 -0.14761978 -0.119433805 -0.038289182 0.12179793 -0.13191694 -0.05364287
-0.14862098 0.101102926 -0.020729065 0.065173656 0.06397478 0.08703646 -0.12199925 -0.13138896
-0.1443968 0.2206471 0.048049927 0.08475616 0.06551939 0.04820756 -0.042093072 0.07344066
-0.14991151 -0.13429545 0.07463628 -0.083032474 0.15219624 -0.09253553 0.073554434 -0.12033051
-0.08935073 -0.044566084 -0.12479303 -0.027471622 0.052266914 0.024746254 -0.061235838 0.100495026
-0.01747758 0.0838544 -0.13978359 0.0050900048 0.03985576 0.048469596 -0.13489807 0.013991517
0.053127605 -0.14286691 -0.15449871 0.09651603 -0.1448379 -0.0034170898 -0.14164926 -0.108337775
0.07042586 0.1633403 0.052459054 0.20081279 -0.14058527 -0.12242683 -0.12278455 0.1535157
-0.026592944 0.0496983 0.073937446 -0.14445597 0.091262296 -0.16814178 -0.004837223 0.13672066
0.07599103 0.15315768 0.013078156 0.07360465 -0.09392398 0.13970578 -0.06595017 -0.11136711
0.102948084 -0.07442682 0.14156245 -0.09929132 0.02351337 -0.034062464 0.078697026 -0.022156341
0.121487744 -0.008251125 -0.14089854 -0.078746766 -0.18431966 0.099904455 -0.07277961 0.15422888
0.0513194 -0.1279188 -0.13547552 -0.12446609 0.05935566 -0.104648136 -0.10243244 -0.14856708
-0.036118202 -0.08566839 -0.10855199 0.15655203 -0.029758707 -0.07935573 -0.03631673 -0.13338046
-0.009565705 0.1473309 -0.073246166 0.024711194 -0.10485875 0.045340266 -0.1043014 -0.16984983
0.10870723 0.10655381 0.09177182 0.049343236 -0.14184652 0.030429803 0.04788136 0.10127225
-0.011567499 -0.11585389 -0.009787473 0.08743187 -0.047443535 -0.013535626 0.009990812 -0.0071150432
0.031659234 0.15254293 0.07672785 -0.12091036 0.14610611 -0.00075136195 -0.04512024 0.034005836
0.021130908 0.035879422 -0.0024340933 0.077891156 -0.1040013 0.11693467 0.061861247 0.08896386
0.043940675 0.029513696 -0.08172311 -0.16815868 0.10241548 -0.08708717 0.058720514 0.013090444
-0.1241163 -0.013677032 0.026957076 0.056574367 -0.006804822 0.037384786 -0.12415307 -0.04656887
0.15405107 0.13077119 -0.076598264 0.13668585 0.1375108 0.010095029 -0.102455266 0.097853966
-0.13976708 0.11688951 0.019788835 -0.13003097 0.096680544 0.12402311 0.08604662 -0.004127775
00000000: 7b30 123e bfca 1dbd 8dc3 f03b f3a4 15be
00000010: 2dbe 073d ce07 30be 13bc 32bd 368c d7bd
00000020: c55e bc3d 4bc3 f83d 29fa e7bd de70 903c
00000030: 6906 00be e0cb ff3d d6df b93d 2b18 febd
00000040: 68d5 2fbe f63b b63d 9eaa 633c 56ac debd
00000050: f63d 1d3e 89c0 c0bd 0365 44bd 4432 253e
00000060: 9177 16be 206c bc3d cf18 92bd be9e cabd
00000070: 4dc2 9c3d 99a9 45bd 9a53 063d a0a9 fb3d
00000080: 6106 5abc 1686 19be 1558 d23d 7a77 f43d
00000090: 61fd d0bd 7236 dc3c e34d 343d 18a4 8b3d
000000a0: 9686 ae3d 37a0 28bd a1ce fcbd 1ace 153e
000000b0: b21f 62bd b26e ff3d ad88 39bc 51c4 cc3d
000000c0: 431b 0e3e 7d4a 19bd 54c6 21bc 0219 59bc
000000d0: 355f b83d 5f44 be3d 385c adbd bf05 90bc
000000e0: c4c7 a9bd db56 fabd 8d42 9a3d d004 dc3d
000000f0: 0679 b03d 60ad 923d f34c 18bd a3cd 083d
00000100: 7a4c 1d3e b9c7 14bd 4336 b5bd 287c f13d
00000110: 624c af3d 36dc 153c 34f6 04be 1e69 363b
00000120: 1fde c1bd 94e3 273d a429 17be b699 f4bd
00000130: 1ed5 1cbd 3171 f93d 3c15 07be a0b8 5bbd
00000140: 1930 18be 0d0f cf3d 00d0 a9bc c479 853d
00000150: 3605 833d 2c40 b23d beda f9bd d48a 06be
00000160: c1dc 13be 50f1 613e 00d0 443d a394 ad3d
00000170: 082f 863d 4a75 453d c969 2cbd 0f68 963d
00000180: 6782 19be bf84 09be e8da 983d ee0c aabd
00000190: 55d9 1b3e 4583 bdbd b5a3 963d d86f f6bd
000001a0: 84fd b6bd ed8a 36bd 7d93 ffbd 2b0c e1bc
000001b0: d515 563d a8b8 ca3c 6ed2 7abd 56d0 cd3d
000001c0: 242d 8fbc dbbb ab3d 6e23 0fbe 0eca a63b
000001d0: cb3f 233d 0e88 463d b822 0abe ad3c 653c
000001e0: 559c 593d b44b 12be e934 1ebe 32aa c53d
000001f0: 6350 14be 41f1 5fbb 810c 11be 32e0 ddbd
00000200: 6f3b 903d ae42 273e 4edf 563d dea1 4d3e
00000210: 96f5 0fbe ebba fabd 7776 fbbd 3833 1d3e
00000220: 72d9 d9bc 7290 4b3d 846c 973d 44ec 13be
00000230: bae7 ba3d 5c2d 2cbe 9181 9ebb 8000 0c3e
00000240: 2fa1 9b3d 5ed5 1c3e c345 563c 09be 963d
00000250: 375b c0bd 080f 0f3e e210 87bd 7014 e4bd
00000260: 72d6 d23d 176d 98bd bff5 103e 3f59 cbbd
00000270: 1c9f c03c 1585 0bbd e82b a13d 3781 b5bc
00000280: 91ce f83d ba2f 07bc b547 10be fc45 a1bd
00000290: 4bbe 3cbe b59a cc3d 7a0d 95bd 2dee 1d3e
000002a0: 4b34 523d 25fd 02be 18ba 0abe 14e8 febd
000002b0: ec1e 733d c351 d6bd 19c8 d1bd f821 18be
000002c0: aef0 13bd e972 afbd 8150 debd 2d4f 203e
000002d0: 88c8 f3bc 4285 a2bd dac0 14bd e394 08be
000002e0: 7ab9 1cbc e9dd 163e 1602 96bd 216f ca3c
000002f0: 2fc0 d6bd b7b6 393d f99b d5bd 1ded 2dbe
00000300: e5a1 de3d e238 da3d ddf2 bb3d 221c 4a3d
00000310: 3740 11be ec47 f93c 3f1f 443d d367 cf3d
00000320: 9b85 3dbc ce44 edbd a35b 20bc 7b0f b33d
00000330: 2754 42bd 88c4 5dbc 81b0 233c 4f25 e9bb
00000340: 1dad 013d 3734 1c3e 7e23 9d3d da9f f7bd
00000350: d79c 153e 0cf7 44ba 00d0 38bd b449 0b3d
00000360: ba1a ad3c 4df6 123d 4f85 1fbb 6685 9f3d
00000370: a2fe d4bd 727b ef3d 3862 7d3d af32 b63d
00000380: 23fb 333d b5c6 f13c 725e a7bd ca31 2cbe
00000390: 35bf d13d c25a b2bd ec84 703d 4d79 563c
000003a0: b030 febd a115 60bc 16d5 dc3c 86ba 673d
000003b0: fcfa debb ca20 193d f743 febd 00bf 3ebd
000003c0: 90bf 1d3e e2e8 053e 8ddf 9cbd 60f7 0b3e
000003d0: a2cf 0c3e 9f65 253c 11d4 d1bd a967 c83d
000003e0: 1a1f 0fbe c463 ef3d 321c a23c d726 05be
000003f0: 7300 c63d d4ff fd3d 3639 b03d 4942 87bb

tatic_net.fc1.bias f4 [64]
0.10045666 -0.07615475 0.039194804 0.08708899 0.021934222 0.084969215 -0.039619226 -0.069322444
-0.08164601 3.7901485e-05 0.04934613 0.102364585 -0.076725684 0.038295314 0.04215939 0.1106357
-0.073242836 0.10572099 0.13757001 0.10701458 0.029744921 0.11896061 -0.09693456 0.13595241
-0.06546772 -0.05864968 -0.06793598 -0.010057333 -0.14198385 0.12653571 -0.092025906 -0.06148644
0.1368731 -0.100936696 0.083764076 -0.050387327 0.0073298262 -0.046017326 0.05368264 0.058737084
-0.09125974 -0.09965171 0.04899854 0.13826644 0.071892634 0.1474323 -0.12654705 0.09874777
0.04662264 -0.11253068 -0.12782091 -0.04122867 -0.045329124 0.01671161 -0.026481744 0.018092288
0.14160483 0.047986843 0.060436003 0.07658566 0.01657221 -0.10068492 -0.11101682 -0.08269724
00000000: 39bc cd3d 06f7 9bbd bb8a 203d b65b b23d
00000010: 66af b33c 5704 ae3d c547 22bd edf8 8dbd
00000020: 0636 a7bd 69f8 1e38 2b1f 4a3d 86a4 d13d
00000030: 5b22 9dbd 8cdb 1c3d 53af 2c3d f894 e23d
00000040: 5700 96bd 3f84 d83d 27df 0c3e 762a db3d
00000050: 9fab f33c 9fa1 f33d a085 c6bd 1c37 0b3e
00000060: f113 86bd a63a 70bd 0522 8bbd 83c7 24bc
00000070: 3764 11be 9492 013e 1478 bcbd 35d9 7bbd
00000080: 7628 0c3e e6b7 cebd 808c ab3d f162 4ebd
00000090: 0a2f f03b aa7c 3cbd 54e2 5b3d 4c96 703d
000000a0: 63e6 babd 3216 ccbd b1b2 483d b895 0d3e
000000b0: 723c 933d 7ef8 163e 8d95 01be 453c ca3d
000000c0: 62f7 3e3d 7c76 e6bd 7ce3 02be 65df 28bd
000000d0: 08ab 39bd c9e6 883c 3ef0 d8bc 4736 943c
000000e0: db00 113e da8d 443d be8b 773d f1d8 9c3d
000000f0: 71c2 873c e533 cebd c95c e3bd 2c5d a9bd

tatic_net.fc2.weight f4 [6, 64]
0.03327158 0.06379394 -0.060331732 0.070555836 -0.03693074 0.014486164 0.0007377714 0.096286744
0.08066735 -0.091799915 0.10596891 0.09436633 -0.081199035 0.026719213 -0.042753413 0.07638253
-0.11846371 -0.09943552 -0.0087329745 0.032337204 0.11515762 -0.10819121 0.07726784 -0.007641956
-0.012271345 -0.120940104 0.11206341 0.08709952 0.054344997 0.019704685 -0.033255264 -0.0949391
-0.10137758 0.043736026 -0.018960804 0.021045312 0.1176528 0.007873535 0.008558363 -0.1099616
-0.088159636 -0.100393355 -0.010185942 -0.11275542 -0.12141621 -0.050515592 0.012510881 0.059317872
0.04251325 0.062042177 -0.08137803 -0.09879908 -0.0878654 -0.08318259 0.008644283 -0.09719963
-0.015127808 -0.069511205 0.106656015 0.018717855 0.006589979 0.097510636 -0.06446552 0.09349193
-0.05720725 0.116948895 -0.05009493 0.047099035 -0.1444101 0.0073300917 -0.07127856 -0.14305942
-0.04565483 0.106021 -0.12882568 0.10296636 0.04976487 -0.060313124 0.080916494 -0.023652958
0.036421757 0.001041389 -0.044595357 -0.095105566 0.016411966 0.026163189 -0.089141816 -0.027752854
0.09491131 -0.019244963 -0.050792657 -0.066769935 0.021636238 0.06317418 -0.048314184 -0.11294132
0.058429662 0.036651663 0.15311015 0.06400245 0.05778892 0.055988107 -0.014441923 0.043575957
-0.044624 0.08876839 0.077694714 0.0053830803 -0.033398814 -0.103954405 0.018607916 -0.01104329
-0.11565566 0.049511064 0.10436343 -0.12346064 0.05657689 0.07687433 -0.031483635 -0.13169986
-0.030126087 -0.085436426 0.15191856 0.032582756 0.09801183 -0.04289504 0.028309584 -0.014865228
-0.060976036 -0.045483004 0.015495689 0.072423965 0.0765018 -0.03854738 0.056095857 0.03388103
-0.0055835405 -0.10943336 -0.014753957 -0.0018347461 0.08380333 -0.015170093 -0.042610087 -0.017201921
-0.116297305 -0.053535268 -0.05329226 -0.080015756 0.059475254 0.12757938 0.06481449 -0.006412354
0.043768574 0.045376625 -0.032013163 -0.0008601895 0.12995395 0.033894747 -0.032278232 0.0034300855
0.023916185 0.1192233 0.023250503 0.08851254 -0.017407369 0.08971363 -0.06569277 -0.13152315
0.094648995 0.17093211 -0.077994816 0.112670854 -0.025411846 0.0165982 0.091998465 0.124048755
-0.072302096 -0.041789822 0.028908797 0.08231563 -0.07011257 0.13088608 -0.0783917 -0.015752848
-0.13506053 -0.04322978 0.14887446 0.20051089 -0.054892134 0.059782766 0.029319989 0.09458176
-0.02827078 0.097633116 0.027074572 0.101502694 0.008470963 0.008249679 0.033869427 -0.024629822
-0.019735435 -0.012876185 -0.09880289 -0.08022475 0.024069 -0.064797156 -0.062282443 0.014804969
0.084075116 -0.09412167 0.019764395 -0.05166974 -0.069072545 -0.07025184 0.04803938 -0.015875425
0.05573318 -0.046237316 -0.023092063 0.017720502 -0.10072382 0.14194022 -0.047187574 -0.056778446
-0.12433809 0.10731397 0.13399379 -0.020052737 0.050453924 -0.04882971 -0.005164644 0.042060155
0.09444463 0.04919763 -0.06457862 -0.062000554 -0.048730366 0.09493683 0.09692138 -0.02631578
-0.094535686 0.18875025 0.06161909 -0.093006484 -0.022424862 0.052142143 -0.08344713 -0.05501391
-0.12407043 0.08319526 0.1418888 0.035909906 -0.090132356 -0.06630915 0.006329784 -0.042775545
00000000: c847 083d 66a6 823d 681e 77bd 947f 903d
00000010: b044 17bd 6057 6d3c 0067 413a fc31 c53d
00000020: ec34 a53d 9801 bcbd 3a06 d93d 2243 c13d
00000030: ae4b a6bd 40e2 da3c 341e 2fbd 726e 9c3d
00000040: 1a9d f2bd daa4 cbbd c014 0fbc 0474 043d
00000050: c2d7 eb3d 5a93 ddbd 9a3e 9e3d 6069 fabb
00000060: c00d 49bc 72af f7bd 8081 e53d 3c61 b23d
00000070: dc98 5e3d b86b a13c ac36 08bd 6e6f c2bd
00000080: 0c9f cfbd 8c24 333d b053 9bbc 3867 ac3c
00000090: f4f3 f03d 0000 013c 6038 0c3c 8c33 e1bd
000000a0: 0a8d b4bd 089b cdbd f0e2 26bc 50ec e6bd
000000b0: 10a9 f8bd 70e9 4ebd 70fa 4c3c 4cf7 723d
000000c0: 6022 2e3d f01f 7e3d 86a9 a6bd 2c57 cabd
000000d0: c6f2 b3bd a25b aabd c0a0 0d3c 9a10 c7bd
000000e0: a0da 77bc e45b 8ebd 786e da3d 3056 993c
000000f0: c0f0 d73b a8b3 c73d 8006 84bd b278 bf3d
00000100: 2652 6abd e782 ef3d 5730 4dbd ebea 403d
00000110: 3ee0 13be 4431 f03b 7efa 91bd 2b7e 12be
00000120: 8f00 3bbd 8a21 d93d e1ea 03be 07e0 d23d
00000130: 40d6 4b3d e50a 77bd 8cb7 a53d d9c3 c1bc
00000140: fb2e 153d 377f 883a 9fa9 36bd b5c6 c2bd
00000150: 6372 863c 2f54 d63c fc8f b6bd f459 e3bc
00000160: dc60 c23d 9da7 9dbc f60b 50bd adbe 88bd
00000170: 7b3e b13c 7761 813d 18e5 45bd c74d e7bd
00000180: f153 6f3d 0e20 163d e8c8 1c3e b713 833d
00000190: 13b4 6c3d c953 653d d19d 6cbc b47c 323d
000001a0: a8c7 36bd 34cc b53d 681e 9f3d 8d64 b03b
000001b0: 32cd 08bd 0ce6 d4bd a16f 983c eaee 34bc
000001c0: e0dc ecbd 1dcc 4a3d 7ebc d53d efd8 fcbd
000001d0: 2bbd 673d 4a70 9d3d fcf4 00bd 54dc 06be
000001e0: fcca f6bc 4bf9 aebd 8a90 1b3e 7f75 053d
000001f0: 6dba c83d b6b2 2fbd 80e9 e73c 498d 73bc
00000200: 02c2 79bd 634c 3abd a1e1 7d3c 0453 943d
00000210: faac 9c3d dce3 1dbd c5c4 653d d6c6 0a3d
00000220: 22f6 b6bb 991e e0bd 95ba 71bc dd7b f0ba
00000230: 15a1 ab3d fb8b 78bc ea87 2ebd 0beb 8cbc
00000240: 482d eebd cc47 5bbd fc48 5abd 4ddf a3bd
00000250: 539c 733d 2ba4 023e 76bd 843d b91e d2bb
00000260: ad46 333d d7dc 393d 3c20 03bd 577e 61ba
00000270: a612 053e 38d5 0a3d 2e36 04bd 49cb 603b
00000280: e0eb c33c 582b f43d d777 be3c 1046 b53d
00000290: e699 8ebc c8bb b73d ee89 86bd 01ae 06be
000002a0: 55d7 c13d d408 2f3e bfbb 9fbd fabf e63d
000002b0: 812c d0bc f3f8 873c b169 bc3d 460d fe3d
000002c0: 1f13 94bd ce2b 2bbd 24d2 ec3c 1995 a83d
000002d0: 2e97 8fbd 0007 063e d48b a0bd 1e0c 81bc
000002e0: 4f4d 0abe b611 31bd 8c72 183e ba52 4d3e
000002f0: 93d6 60bd c6de 743d 7930 f03c 15b4 c13d
00000300: 1f98 e7bc dff3 c73d 7ecb dd3c a5e0 cf3d
00000310: cbc9 0a3c a929 073c abba 0a3d 7bc4 c9bc
00000320: 35ac a1bc a2f6 52bc 2b59 cabd e04c a4bd
00000330: 5a2c c53c 5fb4 84bd e01b 7fbd 8a90 723c
00000340: 932f ac3d ddc2 c0bd f1e8 a13c a6a3 53bd
00000350: e875 8dbd 32e0 8fbd f1c4 443d 2e0d 82bc
00000360: 7a48 643d 5763 3dbd 912b bdbc 962a 913c
00000370: 4a48 cebd c758 113e c247 41bd 8490 68bd
00000380: f8a4 febd 6dc7 db3d ab35 093e a345 a4bc
00000390: c6a8 4e3d a901 48bd 2d3c a9bb 4547 2c3d
000003a0: 306c c13d 7483 493d cc41 84bd 4bf4 7dbd
000003b0: 7e99 47bd 3e6e c23d b77e c63d 3194 d7bc
000003c0: ed9b c1bd bf47 413e 4d64 7c3d 2f7a bebd
000003d0: 58b4 b7bc 0093 553d 54e6 aabd 4456 61bd
000003e0: a318 febd 4762 aa3d 4c4b 113e 4416 133d
000003f0: 5097 b8bd 17cd 87bd 146a cf3b 6935 2fbd

tatic_net.fc2.bias f4 [6]
0.056085363 -0.11506026 0.016870264 0.009309486 0.03386128 -0.09172169
00000000: c4b9 653d b7a4 ebbd 8233 8a3c d086 183c
00000010: 20b2 0a3d 95d8 bbbd

tatic_net.fc3.weight f4 [6, 3]
-0.35377002 0.3725044 -0.41826627 0.11060215 0.41404164 -0.06674661 0.2713418 -0.13177496
-0.2525283 0.3110938 -0.21274357 -0.6121743 -0.24778892 -0.51990813 0.5630061 0.61860895
0.47630253 0.0097283125
00000000: 5821 b5be e6b8 be3e ff26 d6be 6183 e23d
00000010: 44fd d33e 72b2 88bd 50ed 8a3e 04f0 06be
00000020: 644b 81be b047 9f3e 73d9 59be 74b7 1cbf
00000030: 61bc 7dbe b318 05bf 2b21 103f 285d 1e3f
00000040: eddd f33e 8063 1f3c

tatic_net.fc3.bias f4 [6]
0.35867542 0.5264546 0.13052513 0.33271724 -0.09128452 -0.07936635
00000000: 4ea4 b73e bbc5 063f 61a8 053e ea59 aa3e
00000010: 61f3 babd d38a a2bd

tatic_net.fc4.weight f4 [3, 9]
0.2838001 0.37579045 0.07933054 0.26647496 0.4406245 0.36821443 -0.10849475 0.3624206
-0.1308025 0.05127089 0.0155669395 -0.11683577 0.22805703 -0.20024958 0.25925547 0.2386493
0.19844605 0.44403338 0.08609052 -0.039820917 0.29589638 -0.22550951 0.030236501 0.10709576
-0.08202115 0.11036121 0.07031425
00000000: 3f4e 913e 9b67 c03e 0d78 a23d 686f 883e
00000010: 8999 e13e 9a86 bc3e 7f32 debd 318f b93e
00000020: 17f1 05be 6d01 523d 7a0c 7f3c 9847 efbd
00000030: c887 693e 3a0e 4dbe 22bd 843e 7b60 743e
00000040: 7135 4b3e 5858 e33e 3a50 b03d 421b 23bd
00000050: bb7f 973e f7eb 66be 8ab2 f73c 0655 db3d
00000060: b4fa a7bd 0f05 e23d eb00 903d

tatic_net.fc4.bias f4 [3]
-0.18070507 -0.18218409 -0.056285888
00000000: c00a 39be 778e 3abe 088c 66bd

fc1.weight f4 [256, 108]
-0.00042612173 -0.01984344 0.07989095 0.07142171 -0.05286574 0.051901095 0.022610558 -0.036613613
0.07365626 0.01725603 -0.06189372 0.061341684 -0.040421683 -0.08867647 0.022289947 0.0618226
0.027318312 -0.090130754 -0.018666511 0.0076345736 -0.024029156 -0.083913274 0.06032764 0.06280821
0.056885216 0.08067247 -0.05639079 0.02611629 -0.03471761 0.06113028 -0.07923031 0.08814726
-0.0029472003 -0.08801551 0.015194861 0.08502066 -0.061632674 0.071926944 -0.08263041 -0.029078491
-0.08597196 -0.022819214 -0.02113127 -0.059526548 0.0040416177 0.07460475 -0.09529268 0.07318973
0.07134972 0.06724305 -0.003980558 -0.007651078 -0.05356671 0.03230695 0.049536053 0.085349895
-0.07812788 0.012293568 0.045684073 -0.017944362 -0.057143245 -0.036339127 0.050631743 0.06074805
0.050564237 -0.09090362 0.066310525 0.028116027 0.027005916 0.047767628 -0.003941614 -0.04047642
-0.094832785 -0.08239806 -0.06920416 -0.06736541 -0.080283396 0.003238812 -0.06363883 0.004543895
0.06691748 0.07392999 -0.062252987 -0.08179898 -0.018347312 -0.092620134 -0.039060764 -0.08149765
0.020021647 -0.05388807 -0.03925749 0.07645635 -0.039736606 0.09496803 0.062647246 -0.11088136
-0.02816978 -0.031411413 0.044199448 -0.093118034 -0.0031019545 0.0614672 0.05084124 0.028461244
-0.08383974 -0.0061199074 0.059629407 -0.0540789 -0.042392813 -0.046675906 -0.052631848 0.92049396
0.7859538 0.5712401 -0.0025123034 0.068354465 -0.0044646193 0.9597543 0.794113 0.6750956
-0.04313078 -0.028361022 -0.07008427 0.834358 0.77603877 0.5861542 0.0026656121 0.015274172
-0.047808003 -0.0610425 -0.049019117 0.34132507 -0.06960181 0.06199894 0.06647843 0.035610117
-0.004584261 0.6215822 0.06756273 -0.064389296 0.05157876 0.07199719 0.0028519917 0.64070547
-0.01614322 0.060192008 -0.05441828 0.89979064 0.8945591 0.52260405 0.0015772858 0.021445766
0.07773557 0.92211455 0.7418641 0.52463764 -0.0055269874 -0.014355339 0.03396781 0.8397082
0.76179445 0.5396825 -0.05871414 -0.060501024 -0.01770199 0.04424032 0.072930954 0.32992497
0.043342296 -0.09100493 -0.008046907 -0.06362606 -0.036676876 0.5436489 -0.03142275 0.00087913126
0.09355853 -0.02837396 -0.09571153 0.59006584 0.0514245 -0.041746 -0.05204861 0.8256591
0.8611892 0.4556087 0.008407427 -0.016303595 0.061090298 0.9844597 0.7939274 0.5226537
-0.039795086 0.06502094 0.01960848 0.9174634 0.76184285 0.6865939 -0.058208685 -0.07189971
0.057267178 -7.9516416e-05 0.0427807 0.42252198 0.019218057 -0.017171174 0.004989896 0.086701244
-0.06603382 0.58189577 -0.011855368 0.031666137 0.035927698 0.029492857 0.071559094 0.53605527
0.063563265 0.018646656 -0.075109035 -0.035947584 -0.016096808 -0.03866457 0.06990374 -0.08302858
0.09367324 0.069755845 0.013194658 0.071265854 0.057192694 0.03257117 -0.036473166 0.05386621
0.06916889 0.030310942 -0.013161343 -0.07497658 -0.059882052 0.047985666 0.08734724 0.05254572
0.092453085 -0.036411542 0.050786622 0.040335387 0.010925133 -0.1057807 0.07150884 -0.003189661
-0.06139546 -0.05447557 -0.092409335 -0.08074751 0.06826465 0.016944876 0.07146597 -0.045292407
00000000: 1769 dfb9 b68e a2bc de9d a33d 8c45 923d
00000010: bf89 58bd 3e96 543d c739 b93c 28f8 15bd
00000020: 18d9 963d 855c 8d3c 4584 7dbd 6b41 7b3d
00000030: 3591 25bd 029c b5bd 6899 b63c b239 7d3d
00000040: a7ca df3c 7996 b8bd 83ea 98bc 722b fa3b
00000050: cbd8 c4bc b9da abbd 1e1a 773d 97a1 803d
00000060: 7900 693d 9c37 a53d 07fa 66bd d4f1 d53c
00000070: 0d34 0ebd bf63 7a3d 8043 a2bd 8d86 b43d
00000080: d125 41bb 7a41 b4bd def3 783c 501f ae3d
00000090: 8b72 7cbd 6f4e 933d 223a a9bd 0436 eebc
000000a0: 1112 b0bd 5cef babc 7c1b adbc 1cd2 73bd
000000b0: 8c6f 843b 60ca 983d cf28 c3bd 7fe4 953d
000000c0: cd1f 923d b9b6 893d 576f 82bb e5b5 fabb
000000d0: c468 5bbd 4b54 043d 51e6 4a3d edcb ae3d
000000e0: 8301 a0bd f66a 493c 391f 3b3d 0e00 93bc
000000f0: 090f 6abd 56d8 14bd 3b63 4f3d f3d2 783d
00000100: 721c 4f3d ad2b babd d0cd 873d 9553 e63c
00000110: 833b dd3c fda7 433d a828 81bb 9aca 25bd
00000120: b137 c2bd 50c0 a8bd e9ba 8dbd e0f6 89bd
00000130: 9f6b a4bd 4042 543b 1355 82bd f4e4 943b
00000140: 080c 893d 9b68 973d fdfc 7ebd 3986 a7bd
00000150: 1a4d 96bc a0af bdbd 2efe 1fbd 3de8 a6bd
00000160: 7004 a43c bdb9 5cbd 76cc 20bd 2695 9c3d
00000170: dac2 22bd 997e c23d 334d 803d c415 e3bd
00000180: 4fc4 e6bc 41a9 00bd 7b0a 353d abb4 bebd
00000190: 294a 4bbb 08c5 7b3d e73e 503d 8e27 e93c
000001a0: 2bb4 abbd 8189 c8bb f73d 743d d681 5dbd
000001b0: 16a4 2dbd 3c2f 3fbd 7e94 57bd 7ea5 6b3f
000001c0: 4534 493f cb3c 123f 75a5 24bb 6dfd 8b3d
000001d0: f14b 92bb 75b2 753f fd4a 4b3f 11d3 2c3f
000001e0: e7a9 30bd 6055 e8bc 5788 8fbd 7c98 553f
000001f0: 7aaa 463f 340e 163f 8db1 2e3b 8540 7a3c
00000200: 53d2 43bd b307 7abd 45c8 48bd 29c2 ae3e
00000210: 658b 8ebd 9af2 7d3d d825 883d eadb 113d
00000220: 9237 96bb 0320 1f3f 545e 8a3d 89de 83bd
00000230: 4044 533d 4373 933d 7be8 3a3b 4605 243f
00000240: c93e 84bc e58b 763d b4e5 5ebd ae58 663f
00000250: d301 653f 61c9 053f eebc ce3a 08af af3c
00000260: d433 9f3d b30f 6c3f ceea 3d3f a74e 063f
00000270: bb1b b5bb a832 6bbc d521 0b3d 1ef7 563f
00000280: f604 433f a228 0a3f 3d7e 70bd eccf 77bd
00000290: c403 91bc 5635 353d d35c 953d edeb a83e
000002a0: b187 313d cb60 babd 2dd7 03bc 614e 82bd
000002b0: 7e3a 16bd 932c 0b3f 24b5 00bd 8075 663a
000002c0: 9d9b bf3d 8270 e8bc 6804 c4bd 8e0e 173f
000002d0: 7fa2 523d dbfd 2abd ec30 55bd 655e 533f
000002e0: e576 5c3f 8b45 e93e 4ebf 093c 1e8f 85bc
000002f0: d239 7a3d 8d05 7c3f d33e 4b3f a2cc 053f
00000300: 2c00 23bd b329 853d f7a1 a03c e2de 6a3f
00000310: 2208 433f 9ec4 2f3f 3b6c 6ebd 2840 93bd
00000320: fd90 6a3d 0dc2 a6b8 d13a 2f3d cd54 d83e
00000330: 306f 9d3c 90aa 8cbc 4882 a33b 6c90 b13d
00000340: bd3c 87bd 1ff7 143f 043d 42bc 5ab4 013d
00000350: ec28 133d 019b f13c 938d 923d eb3a 093f
00000360: 752d 823d dfc0 983c c4d2 99bd c63d 13bd
00000370: 74dd 83bc bd5e 1ebd b129 8f3d e30a aabd
00000380: c1d7 bf3d 27dc 8e3d 682e 583c d5f3 913d
00000390: e342 6a3d 5969 053d e364 15bd d1a2 5c3d
000003a0: 6ba8 8d3d a74e f83c aca2 57bc 528d 99bd
000003b0: e246 75bd 9e8c 443d 1ce3 b23d 2e3a 573d
000003c0: 0b58 bd3d 4524 15bd a205 503d b836 253d
000003d0: 54ff 323c 8da3 d8bd 3a73 923d a209 51bb
000003e0: ce79 7bbd c621 5fbd 1b41 bdbd f35e a5bd
000003f0: 56ce 8b3d fbcf 8a3c c05c 923d 8884 39bd

fc1.bias f4 [256]
-0.10973001 0.8337921 -0.006738685 0.6764376 0.12036045 0.8609601 0.6063128 0.84130037
0.72346544 0.3872851 0.44529685 0.53857136 -0.015303809 0.8885084 0.4156261 0.6086312
0.4305218 0.90868556 0.63279635 -0.0063761035 0.49140415 -0.063334346 0.4951354 0.39754316
0.44813508 0.54649585 0.4169893 0.77016693 0.31496933 0.44372103 -0.0004123721 0.6233717
-0.0088629145 0.4991851 -0.08485503 0.83142567 0.48789954 0.78777844 -0.018371062 0.40710053
0.80271226 0.4514874 -0.09361748 0.44466525 0.33720538 0.4815647 0.071641594 0.60134
-0.12522744 0.3913818 0.51843685 -0.00025723537 0.4355151 0.76699454 0.4890798 0.44297186
0.21010068 0.52480894 0.51599413 -0.0032002816 0.52622294 0.51342887 0.61174184 0.44930083
0.7883389 0.5116873 -0.019682273 0.50091493 0.49342385 -0.05719874 0.5191971 0.6875178
0.49923345 0.46565047 -0.017168589 0.5092733 0.4743876 0.3680637 -0.00561969 0.50231445
0.5093601 -0.087805755 0.5969675 0.40875155 0.46020916 0.5533573 0.46640548 0.33505353
0.49187535 0.52297664 0.14452511 0.349304 0.6976201 0.472162 0.4590214 -0.00064596464
0.46976304 0.49963492 0.4070338 -0.095135644 0.6095722 -0.0029534062 0.52439845 0.67011386
-0.062925935 -0.00059380796 -0.003289917 -0.0042350693 0.5061303 0.3360531 -0.031162284 -0.032985788
0.50044227 0.54082143 0.51695323 0.34162614 -0.08537103 0.427238 0.5405382 0.40942475
0.54726887 -0.05744539 0.6133586 0.43319336 0.49649328 -0.02811564 0.563847 0.44267648
0.5819235 -0.103623986 0.43600383 0.5354737 0.5163079 -0.009433038 -0.0740974 -0.00011839476
-0.093695946 0.631558 0.5324941 -0.09515549 0.3638366 -0.10182956 0.47477445 0.15613858
0.4850966 0.4691987 0.79754853 0.22516479 0.72828615 0.46031764 -0.00991383 0.49583584
0.5939265 -0.091757305 0.35473636 0.50844085 0.4700121 0.5141569 -0.02513384 0.7738148
0.45537782 0.16809736 0.4484753 0.8212848 0.5363865 -0.00043911455 0.8490868 0.8178288
0.47513998 0.60435945 0.5366016 0.43256706 0.6064514 0.52880526 0.50720996 0.40744528
-0.058566425 -0.09423609 0.80006075 -0.06979802 0.45454058 0.46818683 0.61965996 -0.09229901
0.44880104 -0.06264338 0.42428988 0.5649199 0.49421978 -0.093536 0.74370706 -0.08392898
-0.078366876 0.4374792 -0.08907489 0.2617718 0.5295856 0.09243215 0.5174274 0.4162767
0.6003208 0.47927085 0.52778304 -0.08963589 -0.09208491 0.79569936 0.45182472 0.38815516
0.4537868 0.48172906 0.38761896 0.6865941 0.3716909 0.41998726 0.6154965 0.5374509
0.43987155 0.72211325 0.46708268 0.48943156 0.41576508 0.47008064 -0.082294114 0.37868837
0.4616499 0.39077654 0.56565285 -0.0094567835 0.3155079 0.8342436 0.5918784 -0.0202004
-0.061455574 0.8366291 0.5573334 0.2569998 -0.05451793 -0.05612772 -0.004205458 0.4439799
0.4771068 0.14608485 0.4376222 0.8759279 0.480296 0.62805086 0.5468467 0.57546484
0.49379063 0.4800929 0.280044 0.50504583 -0.03025082 0.9111223 0.8343689 0.51416886
00000000: 21ba e0bd 6673 553f 30d0 dcbb 042b 2d3f
00000010: 8a7f f63d e267 5c3f 5137 1b3f 765f 573f
00000020: 0835 393f 3c4a c63e f3fd e33e d0df 093f
00000030: d4bc 7abc 4975 633f f2cc d43e 41cf 1b3f
00000040: 5a6d dc3e 9e9f 683f f1fe 213f a2ee d0bb
00000050: 5399 fb3e 70b5 81bd 6382 fd3e c78a cb3e
00000060: f671 e53e 27e7 0b3f 9f7f d53e a929 453f
00000070: a943 a13e 672f e33e a533 d8b9 4a95 1f3f
00000080: c235 11bc 3095 ff3e 79c8 adbd 50d8 543f
00000090: f8cd f93e d9ab 493f e97e 96bc 7b6f d03e
000000a0: 8d7e 4d3f 5b29 e73e 85ba bfbd 2aab e33e
000000b0: 2fa6 ac3e a68f f63e d4b8 923d 6bf1 193f
000000c0: 9f3b 00be 3263 c83e 47b8 043f 8cdd 86b9
000000d0: d6fb de3e c159 443f ab68 fa3e 35cd e23e
000000e0: a224 573e e159 063f 3118 043f d1bb 51bb
000000f0: 8cb6 063f 1370 033f 1d9b 1c3f c20a e63e
00000100: 94d0 493f f0fd 023f b83c a1bc f63b 003f
00000110: 0da2 fc3e 3a49 6abd 1aea 043f 2b01 303f
00000120: 879b ff3e bd69 ee3e 24a5 8cbc bc5f 023f
00000130: eee2 f23e d872 bc3e 6025 b8bb ae97 003f
00000140: 6c65 023f 81d3 b3bd ddd2 183f e247 d13e
00000150: 89a0 eb3e d3a8 0d3f b3cc ee3e 238c ab3e
00000160: 16d7 fb3e cce1 053f 64fe 133e f9d7 b23e
00000170: 3b97 323f 38bf f13e da04 eb3e f455 29ba
00000180: c884 f03e 26d0 ff3e bc66 d03e 7ad6 c2bd
00000190: ec0c 1c3f ef8d 41bb fa3e 063f 958c 2b3f
000001a0: 50df 80bd c7a9 1bba a69b 57bb 56c6 8abb
000001b0: c191 013f 270f ac3e 0c48 ffbc 1b1c 07bd
000001c0: fc1c 003f 4673 0a3f 0c57 043f 9fe9 ae3e
000001d0: 02d7 aebd f0be da3e b660 0a3f 1fa0 d13e
000001e0: d019 0c3f db4b 6bbd 1205 1d3f 85cb dd3e
000001f0: 5e34 fe3e c552 e6bc 4758 103f 7ea6 e23e
00000200: f0f8 143f d038 d4bd e53b df3e ce14 093f
00000210: c12c 043f 078d 1abc 61c0 97bd b44a f8b8
00000220: a9e3 bfbd c9ad 213f 8951 083f e2e0 c2bd
00000230: ca48 ba3e 048c d0bd a315 f33e cbe2 1f3e
00000240: 955e f83e d03a f03e 242c 4c3f 9991 663e
00000250: f670 3a3f c1ae eb3e 9e6d 22bc 32de fd3e
00000260: 910b 183f 41eb bbbd 01a0 b53e 2e29 023f
00000270: 6da5 f03e c99f 033f 7ce5 cdbc ba18 463f
00000280: 4827 e93e b721 2c3e 8e9e e53e b83f 523f
00000290: a050 093f f538 e6b9 c15d 593f 3a5d 513f
000002a0: 8c45 f33e 4db7 1a3f b95e 093f 6e79 dd3e
000002b0: 6640 1b3f c85f 073f 83d8 013f ab9c d03e
000002c0: 59e3 6fbd dafe c0bd c8d0 4c3f 44f2 8ebd
000002d0: 8bb9 e83e 2fb6 ef3e 09a2 1e3f 4307 bdbd
000002e0: 40c9 e53e 2c4b 80bd 863c d93e 979e 103f
000002f0: 600a fd3e cd8f bfbd 9663 3e3f f5e2 abbd
00000300: d07e a0bd 46fd df3e e56c b6bd f406 863e
00000310: ec92 073f 114d bd3d 1f76 043f 3822 d53e
00000320: a0ae 193f fd62 f53e ca1c 073f 0693 b7bd
00000330: 0397 bcbd f4b2 4b3f 9255 e73e 46bc c63e
00000340: be56 e83e 31a5 f63e fe75 c63e a2c4 2f3f
00000350: 454e be3e 9208 d73e 2e91 1d3f 6296 093f
00000360: d836 e13e 6adc 383f 7625 ef3e c696 fa3e
00000370: 29df d43e 69ae f03e d189 a8bd 71e3 c13e
00000380: 605d ec3e dd13 c83e a0ce 103f a0f0 1abc
00000390: 408a a13e fd90 553f 5885 173f 4f7b a5bc
000003a0: d7b8 7bbd 532d 563f 67ad 0e3f 7a95 833e
000003b0: 314e 5fbd 2ee6 65bd f0cd 89bb 5551 e33e
000003c0: 5847 f43e 4497 153e 0410 e03e d03c 603f
000003d0: 5be9 f53e f1c7 203f 25fe 0b3f aa51 133f
000003e0: 20d2 fc3e bdce f53e ed61 8f3e af4a 013f
000003f0: 91d0 f7bc 503f 693f 3399 553f 92a0 033f

fc2.weight f4 [1, 256]
0.00074936583 -0.9144161 -0.048761606 -0.7888071 0.38365045 -0.8563825 -0.7019433 -0.885494
-0.849281 0.6076326 0.5823005 0.5090679 -0.04603731 -0.9154064 0.5792727 0.51275086
0.62530684 -0.8708618 0.5173419 -0.032093775 0.6225441 -0.03880699 0.51267433 0.6319641
0.4818886 0.6312085 0.6239789 -0.81412834 0.49815795 0.5430097 -0.011043663 0.5288763
-0.035236895 0.61569357 -0.05334013 -0.8718382 0.62823975 -0.87870353 -0.04625152 0.5990411
-0.84577256 0.5619699 -0.0014193146 0.48864138 0.5996369 0.5657164 0.30120087 0.5202382
-0.03959903 0.56649625 -0.7631987 0.006370552 0.5421793 -0.9411738 0.63335633 0.5641735
0.34776592 0.59373635 0.54180104 -0.0390421 0.59542286 0.5359483 0.56376684 0.5413266
-0.7861419 0.5819461 -0.017513676 0.58276796 0.55267674 -0.055539608 -0.7510791 -0.7594837
0.5982992 0.6467062 -0.046028137 0.6020044 0.6061204 0.5984228 0.047252093 0.6190392
0.5890537 0.037141673 0.5332925 0.550601 0.47263315 0.54691565 0.58190036 0.44803923
0.60519487 0.6377048 0.2071188 0.5867309 -0.8223596 0.6175208 0.5690683 -0.04682232
0.53318465 0.633512 0.5979281 -0.017672503 0.5871622 0.04412234 0.58840096 -0.7859515
-0.051316097 -0.0033691323 -0.04317356 -0.06845464 0.59712327 0.45811826 -0.013318475 0.0017973408
0.5636492 0.5347021 0.54670304 0.6191035 -0.016974106 0.56496096 0.55357933 0.5654714
0.6124342 0.04906428 0.5671399 0.5691189 0.5490866 -0.015319116 0.6056746 0.56017953
0.51421547 -0.053087365 0.6484121 0.5395467 0.61732066 -0.02131157 0.048635818 0.0015586297
-0.042698402 0.5144462 0.64347464 -0.055640556 0.6138856 -0.04854974 0.5282075 0.110917166
0.57651 0.5800025 -0.83346385 0.5040343 -0.80385107 0.6047255 -0.021521598 0.56568146
0.53127503 0.042358987 0.35971826 0.59298813 0.6291 0.5423128 -0.023796426 -0.90141094
0.5868352 0.28039908 0.5298839 -0.8212256 0.53562057 -0.008554815 -0.8968256 -0.84853756
0.535576 0.5450501 0.5481632 0.56148666 0.52806073 0.5151781 0.57237136 0.5977219
-0.007566928 -0.038751453 -0.88269806 0.035051182 0.58448046 0.6420068 -0.7496318 -0.03810595
0.5678971 0.022019364 0.6383176 0.56247056 0.5059044 0.0075770244 -0.84124875 -0.06947311
-0.0115794875 0.61414903 -0.053608507 0.5139911 0.6191343 0.15666886 0.58294874 0.5467729
-0.6603076 0.610695 0.5988967 -0.0010519387 -0.07984661 -0.7954132 0.47842914 0.62499034
0.5551452 0.52652144 -0.43829027 -0.7499401 0.56980103 0.5861894 0.5375399 0.5633702
0.47999385 -0.83618164 0.5656739 0.5289335 0.6109181 0.5383194 -0.024160432 0.57742125
0.59772694 0.57194465 0.57235295 -0.022875628 0.32441407 -0.9650456 0.5732989 -0.04684032
0.043033145 -0.8902244 0.54921395 0.4529322 -0.0389395 -0.01836099 -0.029630471 0.5955513
0.5842841 0.25998715 0.608407 -0.8400511 0.5990615 0.5136188 0.5147677 0.5827988
0.63137114 0.59343886 0.42834783 -0.71359277 -0.029547067 -0.934226 -0.88707495 0.6182964
00000000: 1771 443a 2c17 6abf 40ba 47bd 43ef 49bf
00000010: d56d c43e e23b 5bbf 8eb2 33bf bcaf 62bf
00000020: 7b6a 59bf cf8d 1b3f a511 153f 4652 023f
00000030: 9e91 3cbd 1358 6abf 374b 143f a443 033f
00000040: 1c14 203f cdf0 5ebf 8570 043f c374 03bd
00000050: 0d5f 1f3f 14f4 1ebd a03e 033f 66c8 213f
00000060: 1aba f63e e196 213f 15bd 1f3f b76a 50bf
00000070: 8f0e ff3e af02 0b3f 7bf0 34bc 7064 073f
00000080: 9054 10bd 189e 1d3f 2e7b 5abd ca30 5fbf
00000090: 52d4 203f b7f2 60bf 3c72 3dbd c25a 193f
000000a0: 8d84 58bf 42dd 0f3f 4c08 baba 342f fa3e
000000b0: ce81 193f cad2 103f 0037 9a3e 552e 053f
000000c0: 9832 22bd e605 113f fd60 43bf 10c0 d03b
000000d0: 43cc 0a3f c4f0 70bf a423 223f ad6d 103f
000000e0: 600e b23e 1bff 173f 79b3 0a3f 9cea 1fbd
000000f0: a26d 183f e833 093f 0653 103f 6194 0a3f
00000100: 9840 49bf 6bfa 143f d778 8fbc 4830 153f
00000110: 397c 0d3f 807d 63bd b846 40bf 866d 42bf
00000120: 232a 193f 8a8e 253f 0088 3cbd f61c 1a3f
00000130: b52a 1b3f 3d32 193f 698b 413d 5a79 1e3f
00000140: 39cc 163f de21 183d db85 083f 30f4 0c3f
00000150: f9fc f13e aa02 0c3f 6cf7 143f 6665 e53e
00000160: 0dee 1a3f 9f40 233f f316 543e ff33 163f
00000170: 2986 52bf d815 1e3f 76ae 113f c3c8 3fbd
00000180: ca7e 083f d82d 223f d111 193f edc5 90bc
00000190: 4350 163f a0b9 343d 72a1 163f 1e34 49bf
000001a0: d430 52bd a9cc 5cbb c2d6 30bd f231 8cbd
000001b0: 12dd 183f 7a8e ea3e bc35 5abc c094 eb3a
000001c0: 504b 103f 3de2 083f bbf4 0b3f 917d 1e3f
000001d0: 480d 8bbc 48a1 103f 60b7 0d3f bcc2 103f
000001e0: 7dc8 1c3f a0f7 483d 1530 113f c7b1 113f
000001f0: f090 0c3f 08fd 7abc 7e0d 1b3f ed67 0f3f
00000200: a0a3 033f 2372 59bd 56fe 253f bc1f 0a3f
00000210: ba08 1e3f 9a95 aebc 5a36 473d ef4a cc3a
00000220: 85e4 2ebd bfb2 033f c1ba 243f 5ae7 63bd
00000230: 9b27 1d3f 18dc 46bd 9b38 073f 8a28 e33d
00000240: 2996 133f 0b7b 143f e35d 55bf 6408 013f
00000250: 2fc9 4dbf 4acf 1a3f 104e b0bc 80d0 103f
00000260: a401 083f 9e80 2d3d fe2c b83e 12ce 173f
00000270: b30c 213f 03d5 0a3f b9f0 c2bc dec2 66bf
00000280: d53a 163f 7890 8f3e 79a6 073f d73b 52bf
00000290: 6e1e 093f 7f29 0cbc 5d96 65bf c239 59bf
000002a0: 821b 093f 6788 0b3f 6c54 0c3f 97bd 0f3f
000002b0: fd2e 073f b6e2 033f ee86 123f 4d04 193f
000002c0: fef3 f7bb d8b9 1ebd 80f8 61bf d491 0f3d
000002d0: 83a0 153f 8f5a 243f dfe7 3fbf fc14 1cbd
000002e0: b461 113f f461 b43c c868 233f 12fe 0f3f
000002f0: f382 013f b048 f83b 145c 57bf eb47 8ebd
00000300: e4b7 3dbc df38 1d3f 9894 5bbd ec94 033f
00000310: 967f 1e3f cd6d 203e 213c 153f 4ff9 0b3f
00000320: eb09 29bf 8256 1c3f 4b51 193f 35e1 89ba
00000330: 9f86 a3bd 33a0 4bbf aaf4 f43e 5eff 1f3f
00000340: ff1d 0e3f 1cca 063f 9567 e0be 13fc 3fbf
00000350: 7bde 113f 8210 163f 379c 093f 0839 103f
00000360: c1c1 f53e 0010 56bf 01d0 103f 3068 073f
00000370: 2165 1c3f 4dcf 093f 19ec c5bc e1d1 133f
00000380: a204 193f f76a 123f b985 123f ab65 bbbc
00000390: 9a19 a63e 3a0d 77bf b7c3 123f a3db 3fbd
000003a0: 8643 303d bfe5 63bf 4999 0c3f bbe6 e73e
000003b0: 067f 1fbd c969 96bc 9abb f2bc 0d76 183f
000003c0: a593 153f 091d 853e 90c0 1b3f 970d 57bf
000003d0: 185c 193f 867c 033f d1c7 033f 4d32 153f
000003e0: 8aa1 213f 9ceb 173f 6850 db3e 04ae 36bf
000003f0: b10c f2bc 6f29 6fbf 5817 63bf ac48 1e3f
