model_epoch_600.pth (torch, 141254 bytes, 15 tensors)

target_net.fc1.weight f4 [64, 36]
00000000: 80ed cc3d f01b 663d d651 3b3c 016c 153c
00000010: 6453 4d3d 8611 89b8 8b27 e7bc 2bff e53d
00000020: dbd5 563d 5929 8b3d a714 6ebd db76 e3bd
00000030: 0b2b f1bd 9b9e b33d 0095 4ebd eb6d ce3d
00000040: 2076 9e3d 6b02 b1bd e0d0 16bd cecc 8bbd
00000050: 9825 27be 9027 193d 8e69 ca3d 1ba3 8cbd
00000060: 0037 fe3c a0be ecbc 86b0 a3bd 6b0f 1a3c
00000070: f02f fb3d 7e94 34be 234b 193e 665b 77bd
00000080: b6f9 0b3d 0003 243c 0bfc 56bd 16c8 a03d
00000090: 8888 143e d6cb c03d 36f6 3cbd da6e 06bd
000000a0: 3ec2 9abd 23ef 533d afd8 063e 578c 1f3e
000000b0: 0b07 263d f6f8 b63c 609b 1cbd 7e83 913c
000000c0: eec0 d53d d405 02be 86a9 013e 5195 d53d
000000d0: edcb 4a3c 69a2 e93d f097 5cbd 166d 2a3d
000000e0: fc51 243e 5769 27be fe97 8d3d 5a08 28bc
000000f0: 1072 74bd 10f4 08bd ecdf 0f3e 180f c73d
00000100: 2012 903c 3c9c 3abd 003b 9cbc 8b19 663d
00000110: d629 47bc 23da 1f3e fe4e fbbd 124b 00be
00000120: 1662 0b3e 902b 373d 8049 153d 6f35 de3d
00000130: 2944 92bd f0c2 89bc 60eb ee3c aafa 233e
00000140: ab89 3dbd 3f4d b63d 78f4 a73d 06e7 aebd
00000150: ab74 eb3b 980d b2bd f3dc debd 8fa6 963d
00000160: f464 d83d 216f 013e 6bfa 163d d6da a8bd
00000170: 5ad6 1f3e 2b99 453c a045 ba3c 4eee ccbc
00000180: abce f93d 3351 9cbd 48d6 a13d 46f0 64bd
00000190: a8cd 00be e2f6 d53a 630a 17be a8d9 b2bd
000001a0: 00e3 5e3c a04a 283d 93f7 0abe 1c33 bfbd
000001b0: 2815 943d 130a c4bd 24c8 1dbe cbf8 93bd
000001c0: 7749 6c3d 8b04 18be ca2f 103e 207d 39bd
000001d0: 5b8c 113d 8223 d83d 2168 c9bd e148 1b3e
000001e0: 8bf2 b0bc 304f 28be acf5 093e 061c 573d
000001f0: 53f9 fc3d 05fa 7e3d 6635 e83d 5670 283c
00000200: 2b8f 8dbb 00ae 323b 447a 013e 5896 16bd
00000210: 9619 2f3d 467a bd3d afe8 1c3e a31a 163e
00000220: c6a4 b5bd 6afa e8bc f672 fabc 3a28 18be
00000230: a69f 83bd 3632 8ebc 16bb a8bd 4f2d 82bd
00000240: 86c3 56bd c004 c1bc 46f2 51bd 04ff c9bd
00000250: 4440 b73d c6c7 b13d 56c8 a6bc 9695 4ebc
00000260: a090 1dbd a77c 9fbd 0a90 f43d 38a1 a3bd
00000270: 36dd 07be 0695 4ebd ff8b 163e 9dc6 38be
00000280: 5543 073d 7a4f 24be 1796 193e 2086 823d
00000290: ae7a 9bbd e057 48bd 1046 2abd 6239 143e
000002a0: 40ce 8b3c 0037 9a3c 735d 97bd 8efb d53d
000002b0: 00e0 5ab9 4389 063e 904c 1e3e 0f0c 073e
000002c0: 70c0 0a3d b052 28bd f060 fd3d f538 17be
000002d0: f6ad c1bc 43cb d5bd 96ba 5c3c 197d 49bd
000002e0: 55a4 22bd 17e2 cfbb ab96 6cbb c0a8 013e
000002f0: 7e49 eabd 1743 863d f7f2 af3d ee2f 2b3d
00000300: 8e73 113e 440b 1b3e 534d e4bd b727 9ebd
00000310: b855 313e f635 56bd eba5 1bbe 6e8a f3bd
00000320: e618 5f3d 00e8 1e3b 66b4 25bd c403 0c3d
00000330: 8bff b2bd e097 d73d 0b77 d4bc 8e60 863d
00000340: 0210 16be 5a83 c6bd 0b57 173d c072 2c3c
00000350: d6d0 96bd e8f2 d53d 60f3 863c 04a7 2fbe
00000360: 56b1 3ebc 07d6 023e 9be3 b6bd aec7 2cbd
00000370: 35e5 11be 4d09 3c3e 0889 fcbd f3d3 d43d
00000380: 8b6c dcbd 9adc e93d a8dd bf3d 00b8 a43d
00000390: 528f 20be c8d9 c3bd 2650 343d d666 b33d
000003a0: f8e4 1fbe 725b 6d3d f6a8 d7bc ab6d a7bb
000003b0: 60a7 223d fbea 943d 2b99 a0bd 9ca6 b43c
000003c0: 63b4 e9bd 9ed4 bdbd 00ca e2bb ee27 17be
000003d0: 30f6 64bd de57 d1bd a34a ca3d 70bf 48bd
000003e0: c25d 0d3e f6a9 6f3d 0021 33bc 4f8a f9bd
000003f0: d8d1 f13d 0b19 df3d 5c46 10be fee8 b13d
0.10006237 0.056178987 0.011433085 0.009119988 0.050128356 -6.535933e-05 -0.028217098 0.1123031
0.052450042 0.06794996 -0.058125164 -0.11106654 -0.11775788 0.08770486 -0.050435066 0.10079559
0.07737374 -0.08643039 -0.036820292 -0.06826173 -0.16322935 0.037391245 0.09883414 -0.068670474
0.031032085 -0.02889949 -0.079926535 0.00940309 0.12265003 -0.1763477 0.14970069 -0.0603899
0.03417369 0.010010481 -0.05248646 0.07850663 0.14505208 0.094138786 -0.046133243 -0.03282056
-0.0755658 0.05174173 0.13168596 0.15580879 0.04053406 0.02233551 -0.038234115 0.017762896
0.10437189 -0.12697536 0.12662324 0.104288705 0.012377721 0.114079304 -0.053855836 0.04160794
0.160469 -0.16348778 0.06913756 -0.010255897 -0.05967909 -0.03343588 0.14050263 0.09719676
0.017586768 -0.045559153 -0.019071102 0.056176703 -0.012155971 0.15610556 -0.12270926 -0.12528637
0.13611636 0.04471928 0.03644705 0.108500354 -0.07141907 -0.016816586 0.02916497 0.1601359
-0.04627387 0.08901452 0.082009256 -0.08540158 0.0071855388 -0.08693999 -0.108819865 0.07355987
0.1056613 0.12640049 0.03685991 -0.08244865 0.15609112 0.012060444 0.022738278 -0.025015976
0.12197622 -0.07632675 0.07902199 -0.055893205 -0.12578452 0.0016324187 -0.14750056 -0.08732921
0.013603926 0.041086793 -0.13571005 -0.0933592 0.07230598 -0.09572234 -0.15408379 -0.07225188
0.05768725 -0.14845483 0.1408073 -0.045285344 0.035534244 0.105536476 -0.09834314 0.1516452
-0.021600028 -0.16436458 0.13472623 0.05251696 0.12352242 0.062250156 0.1133831 0.010280689
-0.0043200455 0.0027264357 0.12644297 -0.036764473 0.04274901 0.092518374 0.15323137 0.14658599
-0.08869319 -0.02843972 -0.030572396 -0.14859095 -0.06426935 -0.017357927 -0.08238809 -0.06356298
-0.05243256 -0.023561835 -0.05125644 -0.098630935 0.089478046 0.08680682 -0.0203592 -0.012608906
-0.038468003 -0.077874474 0.11941536 -0.079897344 -0.13267979 -0.05043509 0.14701842 -0.18044515
0.033023197 -0.16045943 0.14998661 0.063732386 -0.07591759 -0.04891193 -0.041570723 0.14475015
0.017066121 0.018825054 -0.07390871 0.10448371 -0.00020873547 0.13138299 0.15458894 0.13188194
0.03387493 -0.041094482 0.12372005 -0.14767821 -0.023642521 -0.1043916 0.01347222 -0.049191568
-0.0397075 -0.0063440907 -0.0036100547 0.1266203 -0.11439799 0.06555765 0.08591264 0.041793756
0.14204237 0.15141016 -0.11147561 -0.07722419 0.17317855 -0.052297555 -0.15200011 -0.11891638
0.054467104 0.002424717 -0.040455244 0.03418328 -0.08740147 0.10527015 -0.02593567 0.06561385
-0.14654544 -0.09693022 0.036948245 0.010525405 -0.07364051 0.10446721 0.016473472 -0.17153555
-0.01163896 0.12776957 -0.08930131 -0.042182617 -0.14247592 0.18362923 -0.12330824 0.103919886
-0.107628904 0.114190295 0.093684494 0.08042908 -0.15679672 -0.09563023 0.044021748 0.08759849
-0.15614688 0.057948537 -0.026325684 -0.005109509 0.039710402 0.072713815 -0.078417145 0.022052102
-0.11411359 -0.09269069 -0.006921053 -0.14761326 -0.055898845 -0.102218375 0.09877517 -0.049010694
0.13805297 0.058511697 -0.010933161 -0.121845834 0.11807603 0.108934484 -0.1408934 0.08687018

target_net.fc1.bias f4 [64]
00000000: 243f 7a3d 08bd ce3d 4a4c c2bd 4fdc 27bd
00000010: e68d 8bbc 35bd 37be 979f e6bc 27ab 8f3c
00000020: d8f4 12be 9cc9 263e ed5b 5d3d 52d5 fa3d
00000030: a817 a23d 35f0 1dbd 44d5 103e 95ea 85bd
00000040: 5b51 18be dab9 24be a373 e33d a640 a6bd
00000050: 6831 11be 14e0 29be 2975 b43d cfb6 ddbd
00000060: 5888 13bd 8ab8 65bd 396d 293e b486 223c
00000070: 0e56 e0bd 815a 593e a1ae 873d 063d e9bd
00000080: 1996 81bd 9864 9e3d 8c4e 5e3c a7de 9bbb
00000090: b2c1 033e 0e0c 673d efd2 39be b2b5 d33c
000000a0: c69c 19be 9928 0abb f3fa f6bd 34b0 ebbd
000000b0: ecde c03d fce9 833d 726f 11bd 855a d7bd
000000c0: fc50 a03d 3a6d 03be a090 19be f4ed e9bc
000000d0: 5e8d 2abc cda9 d7bc 59f3 d63d 4468 9b3d
000000e0: 43f4 2abe 0433 e73c d5f3 7f3d 21a6 23bd
000000f0: c5ce 05be 799f 22bd 4ac1 0a3e 4e07 aebd
0.06109537 0.100946486 -0.09487207 -0.040981587 -0.017035436 -0.1794327 -0.02815227 0.017537666
-0.14351213 0.16287845 0.054042745 0.12247719 0.07914668 -0.038559157 0.14143854 -0.065388836
-0.14874785 -0.16086522 0.1110604 -0.081177995 -0.14179003 -0.16589385 0.08811409 -0.108258836
-0.0360187 -0.056084193 0.16545571 0.009919811 -0.10953914 0.21225931 0.06625105 -0.113885924
-0.06327457 0.077340305 0.013568532 -0.004756767 0.12866858 0.05640798 -0.18146871 0.025843475
-0.1500121 -0.0021081327 -0.120595835 -0.115082175 0.09417519 0.06441113 -0.035506673 -0.10515312
0.078279465 -0.12834635 -0.14996576 -0.028555848 -0.010409681 -0.026326085 0.10495634 0.075882465
-0.16694741 0.028222568 0.062488396 -0.039953355 -0.13067158 -0.039702866 0.13550296 -0.08497487

target_net.fc2.weight f4 [3, 64]
00000000: 7f7c 86bd 9c1d 00bc d3ad 3bbd f980 c9bd
00000010: 7c19 18bc 6696 c2bd c336 493d e8f8 ab3d
00000020: d0cc c5bd 2342 143e 1c01 f3ba 1001 683d
00000030: 3b83 21bd df10 b43d 1ca4 c7bd 825a a53d
00000040: b435 bb3d 7a08 3e3c abb9 2ebd 55ba d73c
00000050: 7d06 5cbd a3e1 d43d de2d d6bd 6896 3abd
00000060: 27a9 97bd 55dc 2ebd 043d be3d 6110 a43d
00000070: b71c b93d 13cc 743b b646 bdbd 5d01 843d
00000080: 84b6 f3bc fd0f 013e 1410 763d 712f 923b
00000090: 21d5 52bd dfab bbbc 2194 aa3d e3bf f8bc
000000a0: f0e9 983d 28bf 9abd e3e9 cd3c 0f98 223d
000000b0: 18bb 283d 8446 993d 8bde 2b3d 96bc 0f3d
000000c0: 3245 a53d 00c6 85bd a051 e1bc 94a5 b4bd
000000d0: 8183 b3bd 02d0 bebd 753f ee3c 5524 a83d
000000e0: 3ab6 e43c bfae 243d d32d df3d c4bc e5bd
000000f0: e0c0 2ebd adf7 ba3c 77c7 dfbd 40eb 443d
00000100: 954a 2fbd 3210 d4bd 0a8f df3d 8a69 d1bc
00000110: 6af6 5e3d 4830 7ebd 5c7d a03d 6d1f f33c
00000120: 5040 41bc 0b76 dbbd abf0 483d 0788 c03d
00000130: 6dca 6aba a643 0f3d 800e 603d fb7c 0ebd
00000140: 9195 23bd 9bf1 cd3d b88d 723d 9625 b93c
00000150: 4bfb 8e3d 911d d63c 141a acbd 1574 3f3d
00000160: 11a6 d13c 03f9 ecbd 16ff 713c 6cfb df3d
00000170: 8710 1ebd 1034 0fbd e533 31bc 5d7b bf3a
00000180: da90 f13d e11d 80bd af2a c2bc e57f 833c
00000190: 4c25 6fbc 289b 15bd b892 8cbd f086 6b3c
000001a0: 8086 013d 20f5 ab3d 05c6 8ebd acf2 bf3d
000001b0: 0719 4b3d 5a25 d13d 2cb3 e53d 05cc 81bd
000001c0: 7192 a33c d8e2 b33d d440 f1bd 9188 49b9
000001d0: 1c18 8cbd 22c0 82bd 1927 dfbd ac06 cfbc
000001e0: dac3 8cbd 40c5 9dbd 7bed 91bd 931b c0bc
000001f0: b22f 34bc 4fab 72bd 306e aabd 102d 833c
00000200: 6134 97bd c908 79bd 60b0 8fbd eb1c 273d
00000210: 9d66 0ebd 8d3e 973d ac19 bbbd f6c2 8a3b
00000220: baa9 823d 5a93 b83d 89f3 0e3e a10a 09bd
00000230: 0aad 9bbc 765e 8b3d cd6c 47bd a818 2bbd
00000240: 1da5 0dbd a30a 4bbb 489d 303d f4a5 b2bb
00000250: e578 f1bd d201 7cbd 24dd dd3d 47c5 8bbd
00000260: 5239 c93b 868b 9d3d 429f e43d c9f3 99bc
00000270: 28fe 94bd 35f1 373e 801c cf3d 1384 063e
00000280: b68b b7bd e46e 7b3c 5a46 dd3d 44d9 7cbd
00000290: 2e01 8bbc 2e2e 253d 608b 9b3d 3ca8 c3bd
000002a0: 382e 2bbd 3e2e c7bd f87f c0bc be4b 043e
000002b0: b7e3 f03d bd06 a8bd af00 9bbd 7e20 ea3d
000002c0: f1dc d6bb ca21 0b3d c506 b53d 147e 1ebc
000002d0: 2e5f e9bd 4671 38bd 2892 883d 022b de3d
000002e0: 1686 02be 8dfc c4bd d859 ed3d 9f5e b53d
000002f0: 464e dabd 19d2 cfbd aa65 d43d 501e 063c
-0.065667145 -0.007819559 -0.04582007 -0.09839053 -0.00928342 -0.095013425 0.04912449 0.083970845
-0.096582055 0.14478354 -0.0018539759 0.05664164 -0.03943179 0.087922804 -0.09748098 0.080739036
0.091411024 0.011598701 -0.042657536 0.026333967 -0.053717125 0.10394599 -0.10457967 -0.045553595
-0.0740531 -0.042690594 0.092889816 0.080109365 0.0903868 0.0037353083 -0.09242003 0.064455725
-0.029750116 0.12603755 0.060073927 0.004461222 -0.051472787 -0.022909103 0.083290346 -0.030364936
0.07466495 -0.075559914 0.02513594 0.039695796 0.04119405 0.07484153 0.04196028 0.03509196
0.080698386 -0.06531906 -0.027504742 -0.08820644 -0.08765317 -0.09317018 0.029082993 0.08210055
0.027918924 0.040205713 0.10897412 -0.11217645 -0.04266441 0.02282318 -0.10926717 0.048075914
-0.042795736 -0.103546515 0.109159544 -0.02556302 0.054434218 -0.062057763 0.078364104 0.02967807
-0.011795118 -0.10715874 0.049057644 0.09400945 -0.00089565554 0.034976624 0.05470133 -0.03478716
-0.03993756 0.10055848 0.059217185 0.02260093 0.06981524 0.026137145 -0.084034115 0.046741564
0.025591882 -0.11570933 0.01477029 0.10936627 -0.03858998 -0.03496176 -0.010815595 0.0014608909
0.11795206 -0.06255699 -0.023701994 0.016052196 -0.014596295 -0.03652492 -0.06863922 0.014375433
0.03162241 0.08396363 -0.06971363 0.09372458 0.049584415 0.10212202 0.11215815 -0.06337742
0.01996729 0.087835014 -0.11779943 -0.00019219729 -0.06840536 -0.06384303 -0.10896129 -0.025271736
-0.06873293 -0.07703638 -0.07125374 -0.023450648 -0.0109977 -0.059245404 -0.08321798 0.016012698
-0.07383037 -0.060799394 -0.07016063 0.040799063 -0.03476583 0.073849775 -0.09135756 0.004234667
0.06380029 0.0901248 0.13960089 -0.033457402 -0.01900341 0.06805126 -0.048687745 -0.04177156
-0.034581292 -0.0030981682 0.043118745 -0.005451912 -0.11790637 -0.061525173 0.10833195 -0.06824737
0.0061408663 0.076926276 0.111631885 -0.018793004 -0.07275039 0.17963107 0.10112858 0.1313632
-0.089621946 0.015346263 0.10804434 -0.06173064 -0.016968336 0.040327244 0.07594943 -0.095535725
-0.041792125 -0.09725617 -0.02349852 0.12919518 0.11762183 -0.0820441 -0.0756849 0.11431979
-0.0065571 0.03396777 0.08839182 -0.009673614 -0.11395107 -0.0450299 0.06668502 0.10848047
-0.12746462 -0.09618483 0.11589402 0.08855938 -0.10659461 -0.10147495 0.103709534 0.008185938

target_net.fc2.bias f4 [3]
00000000: 92a4 853c 02d0 cf3b b1f2 f03c
0.016313825 0.006341935 0.0294126

tatic_net.fc1.weight f4 [64, 42]
00000000: 7b30 123e bfca 1dbd 8dc3 f03b 7115 0cbe
00000010: 2d7b eb3c 90fa cdbd 13bc 32bd 368c d7bd
00000020: c55e bc3d 0c3b 0b3e c5e2 8bbd 41ad 5d3b
00000030: 6906 00be e0cb ff3d d6df b93d 572b fabd
00000040: 7429 04be 6082 ff3d 9eaa 633c 56ac debd
00000050: f63d 1d3e 89c0 c0bd 0365 44bd 47aa 133e
00000060: 9177 16be 206c bc3d cf18 92bd be9e cabd
00000070: 4dc2 9c3d 5fc6 81bd 9a53 063d a0a9 fb3d
00000080: 6106 5abc 1686 19be 1558 d23d 22e6 ca3d
00000090: 86fc d7bd e538 fd3c 1858 383d 18a4 8b3d
000000a0: 9686 ae3d 37a0 28bd a1ce fcbd 1ace 153e
000000b0: b21f 62bd 980c 023e c844 ed39 83da 5d3d
000000c0: 431b 0e3e 7d4a 19bd 54c6 21bc fe02 bfbc
000000d0: f1e5 883d c70e e03d 385c adbd bf05 90bc
000000e0: c4c7 a9bd 0cf0 e1bd 34f2 693d f0df b73d
000000f0: 0679 b03d 60ad 923d f34c 18bd a3cd 083d
00000100: 7a4c 1d3e 29c3 aabc 4336 b5bd 287c f13d
00000110: 624c af3d 36dc 153c 34f6 04be a3cc 693c
00000120: 1fde c1bd 94e3 273d a429 17be b699 f4bd
00000130: 1ed5 1cbd 6f28 243e 0460 0dbe c2da 66bd
00000140: 586a d0bd 0d0f cf3d 00d0 a9bc c479 853d
00000150: 3605 833d 2c40 b23d beda f9bd 07e7 f7bd
00000160: 8ab1 ebbd 21c5 283e 00d0 443d a394 ad3d
00000170: 082f 863d 7aef 4e3d 9ec7 2cbd 5dc3 c13d
00000180: 6782 19be bf84 09be e8da 983d afd8 94bd
00000190: 7c59 0c3e 3e76 c8bd b5a3 963d d86f f6bd
000001a0: 84fd b6bd ed8a 36bd 7d93 ffbd 7cd1 3ebd
000001b0: d515 563d a8b8 ca3c 6ed2 7abd 56d0 cd3d
000001c0: 242d 8fbc a183 f53d 6e23 0fbe 0eca a63b
000001d0: cb3f 233d 0e88 463d b822 0abe 7b4d 4d3d
000001e0: 0c94 133d 7e41 17be c4ba d3bd 32aa c53d
000001f0: 6350 14be 41f1 5fbb 810c 11be 32e0 ddbd
00000200: 6f3b 903d c69b 283e 6dac 813d c2b5 1e3e
00000210: 96f5 0fbe ebba fabd 7776 fbbd 8d82 103e
00000220: 0e58 55bd dc0f 873d 846c 973d 44ec 13be
00000230: bae7 ba3d 520d 21be e490 cfbc 5e48 ef3d
00000240: 2fa1 9b3d 5ed5 1c3e c345 563c 09be 963d
00000250: 375b c0bd c245 1f3e e210 87bd 7014 e4bd
00000260: 72d6 d23d 176d 98bd bff5 103e cf81 b4bd
00000270: 1c9f c03c 1585 0bbd e82b a13d 3781 b5bc
00000280: 91ce f83d 1453 e33c 48ca 16be 409b a3bd
00000290: 859e 11be b59a cc3d 7a0d 95bd 2dee 1d3e
000002a0: 4b34 523d 25fd 02be 18ba 0abe 8895 fabd
000002b0: 97ef 1b3d 2774 4ebd 19c8 d1bd f821 18be
000002c0: aef0 13bd d3da a7bd 1e7c a7bd a44e 053e
000002d0: 88c8 f3bc 4285 a2bd dac0 14bd 8611 09be
000002e0: 7b1b a13c dd6b 233e 1602 96bd 216f ca3c
000002f0: 2fc0 d6bd b7b6 393d f99b d5bd 35c7 20be
00000300: e5a1 de3d e238 da3d ddf2 bb3d 221c 4a3d
00000310: 3740 11be c244 383c 3f1f 443d d367 cf3d
00000320: 9b85 3dbc ce44 edbd a35b 20bc d1cb 9a3d
00000330: 5363 2fbd a6d5 2abc 9c57 6dba 4f25 e9bb
00000340: 1dad 013d 3734 1c3e 7e23 9d3d da9f f7bd
00000350: d79c 153e 2f82 2dbc d2cb eabc 77bf 2a3d
00000360: ba1a ad3c 4df6 123d 4f85 1fbb 36f3 a63d
00000370: a130 96bd 591b aa3d 3862 7d3d af32 b63d
00000380: 23fb 333d d902 003c 769c 96bd f466 08be
00000390: 35bf d13d c25a b2bd ec84 703d 4d79 563c
000003a0: b030 febd 5c0b f1bc 16d5 dc3c 86ba 673d
000003b0: fcfa debb ca20 193d f743 febd 6bc6 85bd
000003c0: 90bf 1d3e e2e8 053e 8ddf 9cbd 60f7 0b3e
000003d0: a2cf 0c3e adec 9d3b 877a b9bd 6c8d f33d
000003e0: 9516 0bbe c463 ef3d 321c a23c d726 05be
000003f0: 7300 c63d d4ff fd3d 3639 b03d 782f 94ba
0.14276306 -0.038523432 0.00734753 -0.13680054 0.028745258 -0.10057557 -0.043636393 -0.1052479
0.09197763 0.13596743 -0.06830362 0.0033825191 -0.12502445 0.12490058 0.090758964 -0.12215298
-0.12906438 0.12476039 0.013895659 -0.10872714 0.15355667 -0.09411723 -0.047947895 0.14420424
-0.14694048 0.09200311 -0.07133638 -0.09893559 0.076542474 -0.063366644 0.032794572 0.12288213
-0.013307185 -0.14992556 0.102707066 0.099071756 -0.10546212 0.030910918 0.045005888 0.06818408
0.08521764 -0.041168418 -0.12344099 0.14629403 -0.05520601 0.12700117 0.0004525541 0.054163467
0.13877587 -0.037424553 -0.009873945 -0.023316856 0.06684483 0.109403186 -0.08464855 -0.017580865
-0.082900554 -0.110321134 0.05711575 0.089782596 0.086168334 0.07161975 -0.03718276 0.033399235
0.15361205 -0.020845013 -0.0884824 0.11791259 0.08559491 0.009146741 -0.12984544 0.014269981
-0.09466194 0.04098852 -0.14761978 -0.119433805 -0.038289182 0.16031049 -0.13806158 -0.056360967
-0.101765335 0.101102926 -0.020729065 0.065173656 0.06397478 0.08703646 -0.12199925 -0.12104612
-0.11508472 0.16481449 0.048049927 0.08475616 0.06551939 0.05052135 -0.042182557 0.09461091
-0.14991151 -0.13429545 0.07463628 -0.072678916 0.1370601 -0.09788178 0.073554434 -0.12033051
-0.08935073 -0.044566084 -0.12479303 -0.0465865 0.052266914 0.024746254 -0.061235838 0.100495026
-0.01747758 0.11987997 -0.13978359 0.0050900048 0.03985576 0.048469596 -0.13489807 0.05012272
0.03602986 -0.14771077 -0.10338357 0.09651603 -0.1448379 -0.0034170898 -0.14164926 -0.108337775
0.07042586 0.16465673 0.06331716 0.15499023 -0.14058527 -0.12242683 -0.12278455 0.14112301
-0.05208593 0.06594822 0.073937446 -0.14445597 0.091262296 -0.15727738 -0.025337644 0.11683725
0.07599103 0.15315768 0.013078156 0.07360465 -0.09392398 0.15553954 -0.06595017 -0.11136711
0.102948084 -0.07442682 0.14156245 -0.088138215 0.02351337 -0.034062464 0.078697026 -0.022156341
0.121487744 0.027749576 -0.14725602 -0.07988596 -0.14220627 0.099904455 -0.07277961 0.15422888
0.0513194 -0.1279188 -0.13547552 -0.12235552 0.038070288 -0.05040374 -0.10243244 -0.14856708
-0.036118202 -0.08196034 -0.0817797 0.1301828 -0.029758707 -0.07935573 -0.03631673 -0.13385591
0.019666424 0.15959115 -0.073246166 0.024711194 -0.10485875 0.045340266 -0.1043014 -0.15700991
0.10870723 0.10655381 0.09177182 0.049343236 -0.14184652 0.011246862 0.04788136 0.10127225
-0.011567499 -0.11585389 -0.009787473 0.07558406 -0.042819332 -0.010426914 -0.00090538873 -0.0071150432
0.031659234 0.15254293 0.07672785 -0.12091036 0.14610611 -0.01059012 -0.028661642 0.0416865
0.021130908 0.035879422 -0.0024340933 0.081518576 -0.07333494 0.083059974 0.061861247 0.08896386
0.043940675 0.007813179 -0.07354061 -0.13320524 0.10241548 -0.08708717 0.058720514 0.013090444
-0.1241163 -0.029424362 0.026957076 0.056574367 -0.006804822 0.037384786 -0.12415307 -0.06531986
0.15405107 0.13077119 -0.076598264 0.13668585 0.1375108 0.0048194737 -0.09056573 0.118922085
-0.13582833 0.11688951 0.019788835 -0.13003097 0.096680544 0.12402311 0.08604662 -0.0011305651

tatic_net.fc1.bias f4 [64]
00000000: 3403 c53d 45d7 57bd 3930 8e3d 5502 de3d
00000010: 6a7b 373c 39b5 873d 06eb 49bd 0a0d bbbd
00000020: 33a8 adbd 0c1b e63a 5f40 8e3d 6080 ba3d
00000030: 7ca2 b8bd 827c f73c 5bfa 363d bcd4 cd3d
00000040: 271c b7bd 3a18 b83d 0491 043e e99a c23d
00000050: 9881 733d 3b80 ff3d ecb3 b9bd 1c37 0b3e
00000060: 3405 b1bd 7661 35bd e441 15bd 3ce5 923c
00000070: 7b69 1abe dcb7 0e3e 0178 bcbd 404a 78bd
00000080: 4433 f33d 79bf 9cbd e513 d63d 6c28 bdbc
00000090: b317 8e3c adbd 1abd 6ec7 0c3d 4366 ab3d
000000a0: 10d5 96bd 6dcf ccbd 94c4 833d 55e5 fa3d
000000b0: f0d6 7c3d 3ed6 2d3e c069 08be 314e da3d
000000c0: 073e 123d 4373 07be 96ec 0abe 8b1e 0cbd
000000d0: 7518 fdbc b63e a6bb 3ef0 d8bc 4736 943c
000000e0: 5930 123e c01b 2e3d f860 983d c3a1 c53d
000000f0: 3aef 3c3b e533 cebd 3a9c 05be 865d a9bd
0.096197516 -0.05269553 0.069427915 0.108402885 0.011198858 0.06626362 -0.0492964 -0.091333464
-0.08479347 0.0017555668 0.069458716 0.09106517 -0.090153664 0.030210737 0.04467235 0.100503415
-0.089409165 0.08988996 0.12945944 0.09502203 0.059449762 0.1247563 -0.090675205 0.13595241
-0.086435705 -0.0442824 -0.03643979 0.017931573 -0.150793 0.13937324 -0.092025764 -0.060617685
0.118750125 -0.07653708 0.10453013 -0.023090564 0.017345285 -0.037778545 0.03436988 0.08369114
-0.07364857 -0.10000501 0.06433979 0.12250773 0.061728418 0.16976258 -0.1332159 0.10659445
0.035703685 -0.13227563 -0.13566813 -0.034208816 -0.030895451 -0.0050733937 -0.026481744 0.018092288
0.14276256 0.042506933 0.0744037 0.09649994 0.0028829114 -0.10068492 -0.13047877 -0.08269791

tatic_net.fc2.weight f4 [6, 64]
00000000: c847 083d 66a6 823d 681e 77bd 947f 903d
00000010: b044 17bd 6057 6d3c 0067 413a fc31 c53d
00000020: ec34 a53d 9801 bcbd 3a06 d93d 2243 c13d
00000030: ae4b a6bd 40e2 da3c 341e 2fbd 726e 9c3d
00000040: 1a9d f2bd daa4 cbbd c014 0fbc 0474 043d
00000050: c2d7 eb3d 5a93 ddbd 9a3e 9e3d 6069 fabb
00000060: c00d 49bc 72af f7bd 8081 e53d 3c61 b23d
00000070: dc98 5e3d b86b a13c ac36 08bd 6e6f c2bd
00000080: 0c9f cfbd 8c24 333d b053 9bbc 3867 ac3c
00000090: f4f3 f03d 0000 013c 6038 0c3c 8c33 e1bd
000000a0: 0a8d b4bd 089b cdbd f0e2 26bc 50ec e6bd
000000b0: 10a9 f8bd 70e9 4ebd 70fa 4c3c 4cf7 723d
000000c0: 6022 2e3d f01f 7e3d 86a9 a6bd 2c57 cabd
000000d0: c6f2 b3bd a25b aabd c0a0 0d3c 9a10 c7bd
000000e0: a0da 77bc e45b 8ebd 786e da3d 3056 993c
000000f0: c0f0 d73b a8b3 c73d 8006 84bd b278 bf3d
00000100: 6e2c 4cbd 70cf ee3d 9db3 71bd 944e 453d
00000110: 80ee 07be 37b5 5f3c 84f8 abbd dce7 09be
00000120: 62f4 6dbd d790 d63d 3fd9 fbbd 29a9 c03d
00000130: 5213 273d fe87 98bd a1ea a83d 8160 19bd
00000140: 29d5 1d3d 2b7a 66bc 53ce efbc 1cc2 bdbd
00000150: 70f3 403d 867c e53c 1f74 d1bd f459 e3bc
00000160: d661 683d 7ba5 e9bc 68e3 68bd 8af9 74bd
00000170: 5143 cf3a 3aed 643d 0ee5 45bd 7c33 bebd
00000180: 50a0 4c3d 8867 063c aed8 f43d d3a3 633d
00000190: bf21 663d 3f84 823d e38a 93bc a3d3 363d
000001a0: a93f 3bbd 4bd9 653d 6893 b03d f89b ae3b
000001b0: c271 f5bc 9d22 cebd 6850 103c 4027 c4bc
000001c0: 8516 d2bd 6bf0 233c 725b b83d 7489 e0bd
000001d0: 4c17 603d 2063 763d fcf4 00bd 54dc 06be
000001e0: 7b9e c3bc c762 90bd 9884 103e bc6e f0bb
000001f0: fdd3 d23d b6b2 2fbd 2842 f83c 098d 73bc
00000200: af49 62bd e8fe 44bd 040b 14bb 16d3 913d
00000210: 4586 9f3d 26c3 02bd 6887 363d 6e38 173d
00000220: ec4d 8bbc 40ab e3bd 9790 f1bb 7e66 1ebc
00000230: b73d 9b3d 7f81 ecbc 312c 38bd 3321 f9bc
00000240: 66fd f1bd 423a 8abd 5645 33bd 3dd5 a7bd
00000250: 0cc9 b63d 50c2 fc3d e3c0 4e3d af1e d2bb
00000260: e180 c73b e938 093d 3cc6 27bd 2e17 ed3b
00000270: ad20 e03d 8973 ee3c 1936 04bd 648f c23c
00000280: 4e57 843c 0d7a ac3d 240e 08bc 6021 a83d
00000290: 57f3 a2bc 96f9 c73d 35e1 8dbd 9148 05be
000002a0: 9461 ca3d 7e57 0d3e 9087 8dbd 432e e13d
000002b0: 9eb1 bebc a171 763c 3c75 aa3d c740 e53d
000002c0: 4377 82bd aa5a abbd a7f3 803c dcb3 c03d
000002d0: 3ad5 97bd 9bf5 eb3d d48b a0bd 1e0c 81bc
000002e0: 2c5c 06be 5edc e1bc 734d 0a3e a49b 1b3e
000002f0: 312a 55bd c6de 743d 20a1 083d 21b4 c13d
00000300: b9cf b6bc a814 c43d a4f1 3d3c 26b9 ce3d
00000310: 0f25 443c b6a9 703c 119b b23c bd51 a7bc
00000320: bedd 01bd 228a 71bc e2aa bbbd d685 b5bd
00000330: a019 7e3c 7364 a0bd a488 82bd e25f 943a
00000340: 08de a93d bffc ddbd fcb6 f73c 4366 57bd
00000350: 0fe3 1fbd 3e28 95bd d33f 0b3d 2e0d 82bc
00000360: 4e54 913c bd20 6abd 9514 00bd 7265 ce3c
00000370: d10e f8bd b762 0b3e a747 41bd e5d2 16bd
00000380: 277f 07be 4baf 963d d084 d03d 5949 debc
00000390: 6ba4 433d 0b3d 28bd 755d 11bc 335e 313d
000003a0: 0dee c63d edc7 813c 52ef 65bd 65d6 83bd
000003b0: 6c1d 3fbd b2ca c03d a662 b33d 2e75 1fbd
000003c0: 844b aebd 0cdd 163e 3a07 443d d2f1 a4bd
000003d0: 2cd7 d6bc 2026 133d 54e6 aabd 4456 61bd
000003e0: d9b2 f5bd 2936 c93d 5f14 043e 76a6 38bc
000003f0: c587 b1bd 17cd 87bd 2522 1a3c 4935 2fbd
0.03327158 0.06379394 -0.060331732 0.070555836 -0.03693074 0.014486164 0.0007377714 0.096286744
0.08066735 -0.091799915 0.10596891 0.09436633 -0.081199035 0.026719213 -0.042753413 0.07638253
-0.11846371 -0.09943552 -0.0087329745 0.032337204 0.11515762 -0.10819121 0.07726784 -0.007641956
-0.012271345 -0.120940104 0.11206341 0.08709952 0.054344997 0.019704685 -0.033255264 -0.0949391
-0.10137758 0.043736026 -0.018960804 0.021045312 0.1176528 0.007873535 0.008558363 -0.1099616
-0.088159636 -0.100393355 -0.010185942 -0.11275542 -0.12141621 -0.050515592 0.012510881 0.059317872
0.04251325 0.062042177 -0.08137803 -0.09879908 -0.0878654 -0.08318259 0.008644283 -0.09719963
-0.015127808 -0.069511205 0.106656015 0.018717855 0.006589979 0.097510636 -0.06446552 0.09349193
-0.04984706 0.11660659 -0.059009183 0.04817064 -0.13274574 0.013654045 -0.0839701 -0.13467354
-0.05809439 0.10476845 -0.12297296 0.09407265 0.04078991 -0.074478135 0.08247877 -0.03744555
0.038533363 -0.014067213 -0.029273188 -0.09265539 0.04710716 0.028013479 -0.102272265 -0.027752854
0.05673393 -0.02852129 -0.056857497 -0.05980829 0.0015812909 0.0558903 -0.048314147 -0.092871636
0.049957573 0.008203395 0.11955391 0.055576157 0.056184527 0.0637288 -0.018010562 0.044635426
-0.045715008 0.05611543 0.086218655 0.0053286515 -0.02996147 -0.10065196 0.008808233 -0.023944497
-0.102582015 0.010006051 0.09001817 -0.10963717 0.054709718 0.060153127 -0.031483635 -0.13169986
-0.02387928 -0.0705009 0.1411308 -0.0073374193 0.1029434 -0.04289504 0.030304983 -0.014865168
-0.05524605 -0.04809466 -0.0022589574 0.071203396 0.07789282 -0.03192439 0.044562727 0.03691905
-0.01700493 -0.11116648 -0.007371973 -0.009667991 0.075801305 -0.028870342 -0.04496402 -0.030411338
-0.1181591 -0.06749393 -0.043767296 -0.08194969 0.089250654 0.1234175 0.05047692 -0.006412349
0.0060883616 0.03350154 -0.040960535 0.0072354292 0.109437324 0.029107826 -0.032278154 0.023750015
0.016154911 0.08421717 -0.008304153 0.08209491 -0.019891424 0.097644016 -0.069277205 -0.13015963
0.09881893 0.13802907 -0.06910622 0.10995152 -0.023278054 0.01504174 0.08323142 0.11193996
-0.063704036 -0.08366902 0.015741182 0.094093055 -0.074137166 0.11521455 -0.0783917 -0.015752848
-0.13121098 -0.0275709 0.13506107 0.15196091 -0.05204219 0.059782766 0.033356786 0.09458185
-0.022315847 0.09574252 0.011593256 0.10093908 0.011971726 0.0146889 0.021802457 -0.020424718
-0.03170561 -0.014742406 -0.09163453 -0.08863418 0.015509039 -0.07831659 -0.063737184 0.0011320079
0.08294302 -0.10839223 0.030238621 -0.05258776 -0.0390349 -0.07283066 0.033996414 -0.015875425
0.017740395 -0.057160128 -0.03126963 0.025194857 -0.12112201 0.13611875 -0.047187474 -0.03682222
-0.13232099 0.07357653 0.10181582 -0.027134584 0.047764223 -0.04107384 -0.00887238 0.043302726
0.09713373 0.015842402 -0.056136437 -0.06437377 -0.04665892 0.09413661 0.0875905 -0.03893011
-0.08510497 0.1473276 0.047858454 -0.08053936 -0.026225649 0.03592503 -0.08344713 -0.05501391
-0.11997003 0.09824783 0.12898396 -0.011270156 -0.08668474 -0.06630915 0.009407555 -0.042775426

tatic_net.fc2.bias f4 [6]
00000000: c4b9 653d 09e9 c0bd 31c6 153d e51c f03c
00000010: 20b2 0a3d 08ef 90bd
0.056085363 -0.09419448 0.036565963 0.029310653 0.03386128 -0.070768416

tatic_net.fc3.weight f4 [6, 3]
00000000: 5821 b5be e6b8 be3e ff26 d6be 8bb6 f63d
00000010: 9b05 c63e 7ec8 37bd 8d66 863e ba4a 17be
00000020: 9e03 80be fc9d af3e 6509 4abe 361b 13bf
00000030: 61bc 7dbe b318 05bf 2b21 103f 6696 183f
00000040: e72e f23e 9541 e5bc
-0.35377002 0.3725044 -0.41826627 0.12046536 0.38676152 -0.04486894 0.26250115 -0.147746
-0.2500276 0.3430022 -0.19730146 -0.57463396 -0.24778892 -0.51990813 0.5630061 0.5960449
0.4730141 -0.027985374

tatic_net.fc3.bias f4 [6]
00000000: 4ea4 b73e 18fb eb3e 3d18 ca3d 743d a73e
00000010: 61f3 babd e32f 4ebd
0.35867542 0.46090007 0.09867904 0.32664073 -0.09128452 -0.050338637

tatic_net.fc4.weight f4 [3, 9]
00000000: c4cc 833e b9f3 ad3e a452 313d 6379 693e
00000010: da25 cf3e 5a13 aa3e cbe3 1abe 821b a73e
00000020: 8fd7 2abe 0c43 09bc e9c2 0bbd 0285 2abe
00000030: 29d9 443e 7ceb 7fbe e9a4 563e dc5b 513e
00000040: 1358 183e 94ed c93e 3a50 b03d 421b 23bd
00000050: bb7f 973e f7eb 66be 8ab2 f73c 0655 db3d
00000060: b4fa a7bd 0f05 e23d eb00 903d
0.2574216 0.33975008 0.043291703 0.22800212 0.40458566 0.3321789 -0.15125959 0.32638174
-0.16683792 -0.008377802 -0.034121428 -0.16652301 0.19223465 -0.24992174 0.20961346 0.20445198
0.14877348 0.3943907 0.08609052 -0.039820917 0.29589638 -0.22550951 0.030236501 0.10709576
-0.08202115 0.11036121 0.07031425

tatic_net.fc4.bias f4 [3]
00000000: bbf2 5dbe c971 6dbe 088c 66bd
-0.21674626 -0.23187937 -0.056285888

fc1.weight f4 [256, 108]
00000000: 1769 dfb9 b68e a2bc de9d a33d e8a2 9a3d
00000010: bcd9 4dbd 3e96 543d c739 b93c 28f8 15bd
00000020: 18d9 963d b088 a83c 42d4 72bd 4fe6 633d
00000030: 3591 25bd 029c b5bd 6899 b63c 0424 883d
00000040: da2d ea3c 0c2d afbd 83ea 98bc 722b fa3b
00000050: cbd8 c4bc b9da abbd 1e1a 773d 040b 8a3d
00000060: 7900 693d 9c37 a53d 07fa 66bd d4f1 d53c
00000070: 0d34 0ebd de77 743d 8043 a2bd 8d86 b43d
00000080: d125 41bb 7a41 b4bd def3 783c 501f ae3d
00000090: 8b72 7cbd 6f4e 933d 223a a9bd 91c0 ccbc
000000a0: 11ba aabd 5cef babc 7c1b adbc 1cd2 73bd
000000b0: 8c6f 843b 6395 9f3d cfd0 bdbd f036 8a3d
000000c0: cd1f 923d b9b6 893d 576f 82bb e485 44bb
000000d0: 3537 56bd 2827 173d 51e6 4a3d edcb ae3d
000000e0: 8301 a0bd f66a 493c 391f 3b3d 9fb4 5abc
000000f0: 090f 6abd 56d8 14bd 3b63 4f3d f3d2 783d
00000100: 721c 4f3d 9e21 bdbd d0cd 873d 9553 e63c
00000110: 833b dd3c fda7 433d a828 81bb 9aca 25bd
00000120: b137 c2bd 50c0 a8bd e9ba 8dbd 8399 81bd
00000130: 9f13 9fbd 4042 543b 1355 82bd f4e4 943b
00000140: 080c 893d 9e33 9e3d fa4c 74bd c833 b3bd
00000150: 1a4d 96bc a0af bdbd 2efe 1fbd 1261 9dbd
00000160: a067 ae3c e0e6 49bd 76cc 20bd 2695 9c3d
00000170: dac2 22bd 997e c23d 334d 803d 57ac d9bd
00000180: 4fc4 e6bc 41a9 00bd 7b0a 353d abb4 bebd
00000190: 294a 4bbb 27d9 753d e73e 503d 8e27 e93c
000001a0: 2bb4 abbd 8189 c8bb f73d 743d d681 5dbd
000001b0: 16a4 2dbd 3c2f 3fbd 7e94 57bd 878e 2d3f
000001c0: e20a 0d3f f38e 0e3f 75a5 24bb 6dfd 8b3d
000001d0: f14b 92bb c8a5 353f 99a2 233f eb17 2c3f
000001e0: e7a9 30bd 6055 e8bc 5788 8fbd 814a 173f
000001f0: 9bab 2d3f 9bc0 0c3f 8db1 2e3b 8540 7a3c
00000200: 53d2 43bd b307 7abd 45c8 48bd 0bfb d43e
00000210: 658b 8ebd 9af2 7d3d d825 883d eadb 113d
00000220: 9237 96bb 39f0 223f 545e 8a3d 89de 83bd
00000230: 4044 533d 4373 933d 7be8 3a3b 0df0 293f
00000240: c93e 84bc e58b 763d b4e5 5ebd bd41 283f
00000250: 79d8 283f a11b 023f eebc ce3a 08af af3c
00000260: d433 9f3d 1603 2c3f 5f42 163f 9093 053f
00000270: bb1b b5bb a832 6bbc d521 0b3d 21a9 183f
00000280: 1b06 2a3f e1da 003f 3d7e 70bd eccf 77bd
00000290: c403 91bc 5635 353d d35c 953d fa24 cf3e
000002a0: b187 313d cb60 babd 2dd7 03bc 614e 82bd
000002b0: 7e3a 16bd cefc 0e3f 24b5 00bd 8075 663a
000002c0: 9d9b bf3d 8270 e8bc 6804 c4bd 72f9 1c3f
000002d0: 7fa2 523d dbfd 2abd ec30 55bd 7747 153f
000002e0: 904d 203f 0dea e13e 4ebf 093c 1e8f 85bc
000002f0: d239 7a3d f2f8 3b3f 7196 233f 8e11 053f
00000300: 2c00 23bd b329 853d f7a1 a03c 0791 2c3f
00000310: 4509 2a3f f276 263f 3b6c 6ebd 2840 93bd
00000320: fd90 6a3d 0dc2 a6b8 d13a 2f3d e08d fe3e
00000330: 306f 9d3c 90aa 8cbc 4882 a33b 6c90 b13d
00000340: bd3c 87bd 4fc7 183f 043d 42bc 5ab4 013d
00000350: ec28 133d 019b f13c 938d 923d f025 0f3f
00000360: 752d 823d dfc0 983c c4d2 99bd c63d 13bd
00000370: 74dd 83bc bd5e 1ebd b129 8f3d e30a aabd
00000380: c1d7 bf3d 27dc 8e3d 682e 583c d5f3 913d
00000390: e342 6a3d 5969 053d e364 15bd d1a2 5c3d
000003a0: 6ba8 8d3d a74e f83c aca2 57bc 528d 99bd
000003b0: e246 75bd 9e8c 443d 1ce3 b23d 2e3a 573d
000003c0: 0b58 bd3d 4524 15bd a205 503d b836 253d
000003d0: 54ff 323c 8da3 d8bd 3a73 923d a209 51bb
000003e0: ce79 7bbd c621 5fbd 1b41 bdbd f35e a5bd
000003f0: 56ce 8b3d fbcf 8a3c c05c 923d 8884 39bd
-0.00042612173 -0.01984344 0.07989095 0.07550603 -0.050256476 0.051901095 0.022610558 -0.036613613
0.07365626 0.02057299 -0.059284456 0.05563956 -0.040421683 -0.08867647 0.022289947 0.066474944
0.028586317 -0.08553514 -0.018666511 0.0076345736 -0.024029156 -0.083913274 0.06032764 0.06740382
0.056885216 0.08067247 -0.05639079 0.02611629 -0.03471761 0.059684627 -0.07923031 0.08814726
-0.0029472003 -0.08801551 0.015194861 0.08502066 -0.061632674 0.071926944 -0.08263041 -0.024994167
-0.083362706 -0.022819214 -0.02113127 -0.059526548 0.0040416177 0.07792165 -0.09268343 0.0674876
0.07134972 0.06724305 -0.003980558 -0.0029987032 -0.052298743 0.036902577 0.049536053 0.085349895
-0.07812788 0.012293568 0.045684073 -0.0133487275 -0.057143245 -0.036339127 0.050631743 0.06074805
0.050564237 -0.092349276 0.066310525 0.028116027 0.027005916 0.047767628 -0.003941614 -0.04047642
-0.094832785 -0.08239806 -0.06920416 -0.06328108 -0.07767414 0.003238812 -0.06363883 0.004543895
0.06691748 0.07724689 -0.059643723 -0.08750111 -0.018347312 -0.092620134 -0.039060764 -0.0768453
0.021289647 -0.049292445 -0.03925749 0.07645635 -0.039736606 0.09496803 0.062647246 -0.10628574
-0.02816978 -0.031411413 0.044199448 -0.093118034 -0.0031019545 0.060021546 0.05084124 0.028461244
-0.08383974 -0.0061199074 0.059629407 -0.0540789 -0.042392813 -0.046675906 -0.052631848 0.67795604
0.5509473 0.55686873 -0.0025123034 0.068354465 -0.0044646193 0.7095609 0.6391998 0.67223996
-0.04313078 -0.028361022 -0.07008427 0.5909806 0.67839974 0.5498139 0.0026656121 0.015274172
-0.047808003 -0.0610425 -0.049019117 0.4159778 -0.06960181 0.06199894 0.06647843 0.035610117
-0.004584261 0.636478 0.06756273 -0.064389296 0.05157876 0.07199719 0.0028519917 0.66381913
-0.01614322 0.060192008 -0.05441828 0.6572531 0.6595531 0.5082341 0.0015772858 0.021445766
0.07773557 0.6719221 0.58695024 0.5217829 -0.0055269874 -0.014355339 0.03396781 0.5963307
0.66415566 0.5033398 -0.05871414 -0.060501024 -0.01770199 0.04424032 0.072930954 0.40457898
0.043342296 -0.09100493 -0.008046907 -0.06362606 -0.036676876 0.558545 -0.03142275 0.00087913126
0.09355853 -0.02837396 -0.09571153 0.61318123 0.0514245 -0.041746 -0.05204861 0.5831217
0.6261835 0.4412388 0.008407427 -0.016303595 0.061090298 0.73426735 0.6390143 0.5197991
-0.039795086 0.06502094 0.01960848 0.67408794 0.66420394 0.65025246 -0.058208685 -0.07189971
0.057267178 -7.9516416e-05 0.0427807 0.49717617 0.019218057 -0.017171174 0.004989896 0.086701244
-0.06603382 0.5967912 -0.011855368 0.031666137 0.035927698 0.029492857 0.071559094 0.55917263
0.063563265 0.018646656 -0.075109035 -0.035947584 -0.016096808 -0.03866457 0.06990374 -0.08302858
0.09367324 0.069755845 0.013194658 0.071265854 0.057192694 0.03257117 -0.036473166 0.05386621
0.06916889 0.030310942 -0.013161343 -0.07497658 -0.059882052 0.047985666 0.08734724 0.05254572
0.092453085 -0.036411542 0.050786622 0.040335387 0.010925133 -0.1057807 0.07150884 -0.003189661
-0.06139546 -0.05447557 -0.092409335 -0.08074751 0.06826465 0.016944876 0.07146597 -0.045292407

fc1.bias f4 [256]
00000000: 2162 dbbd 7894 263f 30d0 dcbb ece9 f33e
00000010: 5b8f 3f3e 68e8 2b3f 21ca c23e 56b8 273f
00000020: c250 083f d342 f33e 2926 083f 1ad4 1e3f
00000030: d4bc 7abc 8f9c 343f 1c86 003f e9d9 303f
00000040: d3f3 043f 969e 383f 4321 373f a2ee d0bb
00000050: 4e7e 143f 383e 72bd 52c7 133f 3938 f93e
00000060: b9b3 843e 50bc 223f 4c7d 013f d531 133f
00000070: 727f ae3e e816 073f a533 d8b9 b8e6 343f
00000080: c235 11bc d765 163f 79c8 adbd 78be 243f
00000090: 9cae 133f 11c4 193f e97e 96bc c436 fd3e
000000a0: 1aa8 1c3f 9965 093f e83d bdbd 7d61 063f
000000b0: 0b6a d93e 652c 113f eea5 f13d e21a 2f3f
000000c0: 7543 f0bd 4522 f43e 2ed6 783e 8cdd 86b9
000000d0: 9cfe 043f 4f0f 163f 3814 143f 094a 073f
000000e0: d1f3 883e 70b6 1c3f 2291 193f d1bb 51bb
000000f0: 4809 1d3f 0de2 183f bb7b 323f 1a8b 083f
00000100: 9aaa 163f d722 193f fdc4 8fbc 5265 163f
00000110: 4afc 133f 3a49 6abd 7d28 983e a648 dc3e
00000120: 002a 163f d842 0e3f ed29 6cbc 77cf 183f
00000130: d1e9 0f3f 4925 e93e 6025 b8bb 523d 173f
00000140: 19a0 183f 81d3 b3bd e934 2e3f c096 fc3e
00000150: 3fd7 093f 5b45 233f 0288 0d3f e5a2 d03e
00000160: d25f 143f 16c8 1c3f 96e0 ce3d 3d34 df3e
00000170: 4ecc 003f 7d8a 0f3f f382 0b3f f455 29ba
00000180: 2b9f 0d3f 2cbb 163f 9f20 fd3e a332 bbbd
00000190: 3e43 323f ef8d 41bb 4486 1c3f 1545 ef3e
000001a0: 50df 80bd c7a9 1bba 9844 02ba a7c2 9dba
000001b0: 24e9 173f 06b7 6f3e 0c48 ffbc 1b1c 07bd
000001c0: a500 163f b1de 1f3f c2f7 193f 8034 dc3e
000001d0: 02d7 aebd 3940 033f f10f 203f 715a fd3e
000001e0: 81ab 223f db4b 6bbd 8ff7 323f 36dc 043f
000001f0: 32be 143f c552 e6bc 98d0 263f 7e26 073f
00000200: 4205 2a3f 0a52 c6bd e4af 063f a092 1e3f
00000210: 9ecc 1a3f 078d 1abc 61c0 97bd b44a f8b8
00000220: 5d1e b5bd 8bbd 363f 1550 1f3f e2e0 c2bd
00000230: 376f e73e 048c d0bd 1ed3 0e3f 597c 033e
00000240: 9040 123f 3776 8c3e a6d2 1a3f d76b 893e
00000250: 8d58 073f ce53 0c3f 9e6d 22bc 97cc 143f
00000260: ee65 2d3f 41eb bbbd 59c7 d63e 6d78 183f
00000270: 2519 0f3f a024 193f 7ce5 cdbc d9d3 163f
00000280: 15cd 0a3f 63ca 543e 0520 083f ae91 203f
00000290: e5be 1e3f f538 e6b9 d210 2a3f daae 203f
000002a0: b312 0f3f 744e 303f 75f1 1e3f 0c92 043f
000002b0: 8e8d 303f 1b78 1c3f 51d3 173f 3458 fd3e
000002c0: 59e3 6fbd dafe c0bd 6335 1d3f 44f2 8ebd
000002d0: b789 0a3f c6cf 0e3f cbbf ce3e 4307 bdbd
000002e0: b3cb 083f 2c4b 80bd 768b 033f 427a 263f
000002f0: b669 133f cd8f bfbd a37b 0d3f a41e 303c
00000300: d07e a0bd 5695 063f e56c b6bd 47bd 8a3e
00000310: e738 1e3f 6c84 aa3d 9194 1a3f d025 003f
00000320: 9c2f acbc 263e 113f 197e 1d3f 0693 b7bd
00000330: 3eb8 abbd c3c7 183f 30e1 073f 8f3a f43e
00000340: d8e2 093f 509e 103f 0957 88b9 52bc f23e
00000350: 1f31 ea3e 76ba 013f 1809 333f be78 1f3f
00000360: 55d7 043f f6be 073f ea7c 0d3f 9995 123f
00000370: 66fb 003f 40cb 0d3f 1771 9abd b4ff ed3e
00000380: 2582 0c3f 9afe f33e 71d8 263f a0f0 1abc
00000390: 059d bf3e 46c1 273f 0f8c 2d3f 4f7b a5bc
000003a0: d7b8 7bbd 097d 263f 6656 243f aa6c aa3e
000003b0: 314e 5fbd 2ee6 65bd 2b86 23b9 9efc 073f
000003c0: 4c5a 103f ce5a 8e3d 1083 063f 095a 2f3f
000003d0: ec57 113f 4ed1 353f c006 213f ee85 293f
000003e0: 1734 153f 8139 113f 9b52 3e3e 6176 543e
000003f0: 91d0 f7bc 76d5 3a3f 4fb3 253f 3145 1a3f
-0.10712076 0.65070295 -0.006738685 0.47639406 0.1870703 0.671515 0.38044837 0.6551565
0.53248227 0.4751192 0.5318323 0.6204239 -0.015303809 0.7055139 0.50204635 0.69082505
0.51934546 0.7211698 0.7153513 -0.0063761035 0.58005226 -0.059141368 0.57726014 0.48675707
0.25918368 0.6356859 0.5058181 0.5749791 0.34081608 0.5276933 -0.0004123721 0.7066455
-0.0088629145 0.58749145 -0.08485503 0.6435313 0.5768831 0.600648 -0.018371062 0.49455845
0.61194 0.5367065 -0.09240323 0.52492505 0.42463717 0.56708366 0.11799227 0.68400395
-0.117316164 0.47682396 0.24300453 -0.00025723537 0.51951003 0.5861711 0.5784335 0.52847344
0.26748517 0.6121588 0.5998708 -0.0032002816 0.6134229 0.59719926 0.6972005 0.5333725
0.5885407 0.59818786 -0.017549986 0.5874835 0.5780684 -0.05719874 0.2971839 0.43024176
0.58657837 0.55570745 -0.014414293 0.59691566 0.5621615 0.4553626 -0.00561969 0.5907794
0.5961929 -0.087805755 0.68049484 0.49333763 0.53844064 0.63777703 0.55285656 0.4074928
0.5795871 0.61242807 0.1010143 0.43594542 0.50311744 0.5607069 0.5449669 -0.00064596464
0.55320996 0.5887935 0.4943895 -0.091405176 0.69633853 -0.0029534062 0.61142373 0.46732393
-0.062925935 -0.00059380796 -0.0004969328 -0.001203616 0.5934012 0.23409662 -0.031162284 -0.032985788
0.58594733 0.62449175 0.60143673 0.43008804 -0.08537103 0.5126987 0.62524325 0.49483064
0.63542944 -0.05744539 0.69908994 0.51898515 0.58102715 -0.02811564 0.6516204 0.5279311
0.6641427 -0.096836165 0.5261214 0.6194248 0.6046847 -0.009433038 -0.0740974 -0.00011839476
-0.08843682 0.7138297 0.6223157 -0.09515549 0.45202038 -0.10182956 0.5579089 0.12840404
0.57129765 0.2743394 0.60477674 0.26840088 0.5286949 0.54815376 -0.00991383 0.5812468
0.6773366 -0.091757305 0.41948965 0.59558755 0.5589774 0.5982151 -0.02513384 0.58917004
0.5421918 0.2078033 0.5317386 0.6272229 0.6201003 -0.00043911455 0.66431916 0.627668
0.5588791 0.6886971 0.62087184 0.5178535 0.68965995 0.61120766 0.5930682 0.49481356
-0.058566425 -0.09423609 0.61409587 -0.06979802 0.54116386 0.5578579 0.403807 -0.09229901
0.5343582 -0.06264338 0.51384676 0.650303 0.5758318 -0.093536 0.5526678 0.010749493
-0.078366876 0.5257162 -0.08907489 0.27097532 0.61805576 0.08326039 0.60382944 0.500577
-0.021018796 0.56735456 0.61520535 -0.08963589 -0.08384751 0.5967981 0.53077984 0.47700927
0.5386176 0.56491566 -0.00026004788 0.47409302 0.457406 0.5067514 0.6993575 0.6229361
0.5189107 0.5302576 0.5526873 0.5725952 0.50383604 0.5538826 -0.075411014 0.46484149
0.54886085 0.47655183 0.65174013 -0.0094567835 0.37424484 0.65529287 0.6779184 -0.0202004
-0.061455574 0.6503454 0.64194334 0.3328603 -0.05451793 -0.05612772 -0.00015594873 0.5311984
0.5638778 0.06950913 0.52543736 0.6849676 0.56774783 0.710225 0.62900925 0.66219985
0.5828261 0.5672837 0.18586199 0.20748283 -0.03025082 0.72981966 0.6472673 0.6026183

fc2.weight f4 [1, 256]
00000000: 1c13 6fbb 0d9f 38bf 40ba 47bd 1390 12bf
00000010: 789f ca3e 3b05 28bf 9db4 e2be bf0e 30bf
00000020: 4fa5 23bf df90 2a3f 7b64 253f 71bf 133f
00000030: 9e91 3cbd c7e8 38bf 6631 253f b61a 153f
00000040: 3d4c 2f3f 8518 2dbf a394 163f c374 03bd
00000050: ae58 2e3f de54 29bd ffba 143f de78 313f
00000060: 07d1 9d3e cc4f 313f fcb9 2f3f be0a 1cbf
00000070: 8d1d be3e 16a1 1a3f 7bf0 34bc 82db 183f
00000080: 9054 10bd a1d9 2c3f 2e7b 5abd e45c 2bbf
00000090: be23 303f e131 2dbf 3c72 3dbd 724f 293f
000000a0: 902e 25bf 4da1 1f3f 8f2f 46bb 6147 0e3f
000000b0: 99d3 283f 7d1a 213f 6716 803e fe9b 163f
000000c0: 1cc8 3dbd 0455 203f f30c bfbe 10c0 d03b
000000d0: d4e7 1a3f 1f3f 3fbf e085 323f a659 213f
000000e0: b22c 9f3e 4d9f 293f ad41 1a3f 9cea 1fbd
000000f0: 1bf4 273f 54d4 1a3f 641b 213f efbb 1b3f
00000100: ebd7 13bf 373b 253f 4dc6 93bc da97 253f
00000110: d863 1d3f 807d 63bd 20da e8be 6650 cebe
00000120: b76f 283f 391c 363f 5f67 41bd 0826 2a3f
00000130: 175c 2a3f 1519 283f 698b 413d dc81 2d3f
00000140: 3654 263f de21 183d 7fb1 193f a672 1d3f
00000150: 4dd5 053f 5c1d 1d3f 84d8 243f c4d5 da3e
00000160: 2a11 2a3f c450 323f f68e 93bd 5e44 253f
00000170: a2a1 1cbf 15b8 2e3f dbaf 233f c3c8 3fbd
00000180: be19 193f fa91 303f 88a6 283f 47ef a1bc
00000190: f94a 263f a0b9 343d ce17 283f ece8 0bbf
000001a0: d430 52bd a9cc 5cbb f7fb 37bd 5c48 eabc
000001b0: 5f1c 283f ada6 693e bc35 5abc c094 eb3a
000001c0: 3882 213f e454 1a3f d0a0 1d3f 4a76 2d3f
000001d0: 480d 8bbc 68dd 203f 4f95 1d3f 863a 203f
000001e0: 1658 2c3f a0f7 483d 0b90 223f dc7d 223f
000001f0: f16b 1d3f 08fd 7abc 0976 2a3f 134f 203f
00000200: 5d01 153f 1610 3bbd 6559 363f 8c55 1b3f
00000210: 9427 2d3f 9a95 aebc 5a36 473d ef4a cc3a
00000220: e1f3 40bd a24e 153f 347f 343f 5ae7 63bd
00000230: 9b38 2c3f 18dc 46bd f510 183f 4e72 cfbd
00000240: cc0c 243f 8066 cc3e 6b50 20bf f96f c73e
00000250: fcec 10bf 513e 2b3f 104e b0bc 6b48 203f
00000260: 2953 193f 9e80 2d3d 814b c83e 22fd 273f
00000270: 93be 2f3f 3480 1b3f b9f0 c2bc 88de 33bf
00000280: 8397 263f 118d 663e 4a9a 183f db5c 1ebf
00000290: 7c73 1a3f 7f29 0cbc 191b 34bf 8eda 26bf
000002a0: bab1 1a3f 88dc 1c3f 93ac 1b3f e341 203f
000002b0: 429e 183f 2b09 163f 7258 223f bcce 283f
000002c0: fef3 f7bb d8b9 1ebd 6c6d 31bf d491 0f3d
000002d0: 64a3 253f d86c 333f 6fa6 efbe fc14 1cbd
000002e0: 87e2 203f f461 b43c 2232 333f bdca 203f
000002f0: c0e2 123f b048 f83b 7f0a 25bf a861 d3bd
00000300: e4b7 3dbc 799e 2c3f 9894 5bbd fae2 c33e
00000310: 94a3 2d3f 92e1 80bd c231 243f 0a34 1c3f
00000320: ac63 00bd 9716 2c3f 670d 293f 35e1 89ba
00000330: 8077 07bd 4a74 14bf a2ac 083f 28c3 2f3f
00000340: 8a40 1e3f 23c7 183f 71aa a9bc f731 fbbe
00000350: 6db5 213f 4c62 263f a618 1b3f 446b 213f
00000360: e2d9 083f 7801 23bf adc3 213f d122 183f
00000370: e1ec 2b3f 157c 1a3f 87f7 f5bc 8472 233f
00000380: 867a 273f f9ab 213f e521 243f ab65 bbbc
00000390: 22b1 b23e 1a1e 45bf 448f 233f a3db 3fbd
000003a0: 8643 303d a79a 2ebf 5dea 1d3f 9506 fb3e
000003b0: 067f 1fbd c969 96bc 12a6 04bd 311a 283f
000003c0: 41ee 263f 07d7 f03d 6634 2a3f 0e89 25bf
000003d0: 8a28 293f 24e1 143f 298d 143f aa0d 273f
000003e0: f4e0 2f3f 6d4a 283f ae60 853e 46ec a3be
000003f0: b10c f2bc a6fc 3dbf bace 2bbf 8197 2d3f
-0.0036479896 -0.7211769 -0.048761606 -0.5725109 0.3957479 -0.6563298 -0.44278422 -0.687725
-0.63924116 0.66627306 0.64606446 0.5771399 -0.04603731 -0.7223019 0.645285 0.5824388
0.68475705 -0.6761554 0.5882055 -0.032093775 0.68104064 -0.0413407 0.58097833 0.69325054
0.30823538 0.69262385 0.68643165 -0.6095389 0.3713192 0.6040205 -0.011043663 0.5970994
-0.035236895 0.67519575 -0.05334013 -0.66938615 0.6880454 -0.67654234 -0.04625152 0.6613685
-0.64524174 0.623555 -0.003024075 0.55577666 0.6594787 0.6293104 0.25017092 0.58831775
-0.046333417 0.62629724 -0.37314567 0.006370552 0.6050999 -0.7470569 0.6973553 0.6302742
0.31088787 0.662587 0.60256463 -0.0390421 0.6560685 0.60480237 0.6293242 0.6083364
-0.5775134 0.6454348 -0.018038893 0.6468483 0.61480474 -0.055539608 -0.45478916 -0.40295714
0.65795463 0.71136814 -0.047217723 0.6646428 0.6654677 0.6566327 0.047252093 0.67776275
0.64972246 0.037141673 0.6003646 0.61503065 0.52278596 0.61372924 0.64392877 0.42741215
0.6643244 0.6965449 -0.07205002 0.64557445 -0.6118413 0.68249637 0.6394021 -0.04682232
0.59804904 0.6897274 0.65879107 -0.019767417 0.6495815 0.04412234 0.65661323 -0.54652286
-0.051316097 -0.0033691323 -0.044918027 -0.028598957 0.6566829 0.22817488 -0.013318475 0.0017973408
0.63089323 0.6028578 0.61573505 0.6775862 -0.016974106 0.6283784 0.6155595 0.625893
0.6732191 0.04906428 0.6350104 0.63473296 0.6149283 -0.015319116 0.6658636 0.6262066
0.58205205 -0.045669638 0.71230155 0.6067741 0.67638516 -0.02131157 0.048635818 0.0015586297
-0.04710758 0.5832311 0.70506597 -0.055640556 0.67273873 -0.04854974 0.59400874 -0.10129224
0.64082026 0.3992195 -0.6262271 0.38952616 -0.5661161 0.6689196 -0.021521598 0.626105
0.5989252 0.042358987 0.39120105 0.65620625 0.6865017 0.607425 -0.023796426 -0.7026143
0.6507494 0.2251475 0.59610426 -0.61860436 0.60332465 -0.008554815 -0.7035385 -0.6517724
0.6042744 0.61274004 0.608102 0.62600535 0.5961648 0.5860774 0.63416207 0.6594045
-0.007566928 -0.038751453 -0.6930759 0.035051182 0.6470244 0.7008796 -0.46806666 -0.03810595
0.62845653 0.022019364 0.6999837 0.62809354 0.57377243 0.0075770244 -0.6446914 -0.10321361
-0.0115794875 0.6742931 -0.053608507 0.38259107 0.67827725 -0.06293024 0.64138424 0.61016905
-0.031345055 0.6722197 0.66036075 -0.0010519387 -0.03307295 -0.57989943 0.53388417 0.6865716
0.6181723 0.5967886 -0.020711156 -0.49061558 0.6316746 0.6499374 0.60584486 0.630543
0.5345746 -0.63674116 0.631892 0.59428126 0.67158324 0.60345584 -0.030025257 0.6384661
0.6542133 0.63153034 0.6411422 -0.022875628 0.34900767 -0.76999056 0.6389048 -0.04684032
0.043033145 -0.6820473 0.61685735 0.4902846 -0.0389395 -0.01836099 -0.03238494 0.65664965
0.65207297 0.11759763 0.66486204 -0.64662254 0.6607748 0.5815604 0.58027893 0.65255225
0.68702626 0.65738565 0.26050323 -0.320162 -0.029547067 -0.74213636 -0.67112315 0.678093
