model_epoch_1100.pth (torch, 141274 bytes, 15 tensors)

target_net.fc1.weight f4 [64, 36]
0	0x3dcced80	0.10006237
1	0x3d661bf0	0.056178987
2	0x3c3b51d6	0.011433085
3	0xbd3284e3	-0.043583762
4	0x3c5f9902	0.01364732
5	0xbd177e2e	-0.03698557
6	0xbce7278b	-0.028217098
7	0x3de5ff2b	0.1123031
8	0x3d56d5db	0.052450042
9	0xbc1b5134	-0.00947981
10	0xbdef0b03	-0.11672022
11	0xbdf815b4	-0.121135145
12	0xbdf12b0b	-0.11775788
13	0x3db39e9b	0.08770486
14	0xbd4e9500	-0.050435066
15	0x3d35aa51	0.04435188
16	0x3cc5d796	0.024150651
17	0xbdf78e4d	-0.120876886
18	0xbd16d0e0	-0.036820292
19	0xbd8bccce	-0.06826173
20	0xbe272598	-0.16322935
21	0x3d192790	0.037391245
22	0x3dca698e	0.09883414
23	0xbd881675	-0.06644908
24	0x3cfe3700	0.031032085
25	0xbcecbea0	-0.02889949
26	0xbda3b086	-0.079926535
27	0x3c1a0f6b	0.00940309
28	0x3dfb2ff0	0.12265003
29	0xbe1d9e84	-0.153925
30	0x3e194b23	0.14970069
31	0xbd775b66	-0.0603899
32	0x3d0bf9b6	0.03417369
33	0x3c240300	0.010010481
34	0xbd56fc0b	-0.05248646
35	0x3c0bacaf	0.008525058
36	0x3e148888	0.14505208
37	0x3dc0cbd6	0.094138786
38	0xbd3cf636	-0.046133243
39	0xbd55560e	-0.05208402
40	0xbd5b3167	-0.05351391
41	0x3dc908f4	0.09816161
42	0x3e06d8af	0.13168596
43	0x3e1f8c57	0.15580879
44	0x3d26070b	0.04053406
45	0x3cbb3c0f	0.022855787
46	0xbcf8c377	-0.030366642
47	0xbb9724f3	-0.004612559
48	0x3dd5c0ee	0.10437189
49	0xbe0205d4	-0.12697536
50	0x3e01a986	0.12662324
51	0x3dc769f0	0.09737003
52	0x3c6aa106	0.014320618
53	0x3e1e89cd	0.15482254
54	0xbd5c97f0	-0.053855836
55	0x3d2a6d16	0.04160794
56	0x3e2451fc	0.160469
57	0xbe276957	-0.16348778
58	0x3d8d97fe	0.06913756
59	0x3cf0d8f6	0.02940033
60	0xbd747210	-0.05967909
61	0xbd08f410	-0.03343588
62	0x3e0fdfec	0.14050263
63	0x3dc70f18	0.09719676
64	0x3c901220	0.017586768
65	0xbd58453e	-0.05280041
66	0xbc9c3b00	-0.019071102
67	0x3d66198b	0.056176703
68	0xbc4729d6	-0.012155971
69	0x3e1fda23	0.15610556
70	0xbdfb4efe	-0.12270926
71	0xbde09da4	-0.109675676
72	0x3e0b6216	0.13611636
73	0x3d372b90	0.04471928
74	0x3d154980	0.03644705
75	0x3ddc234c	0.1074892
76	0xbdb17324	-0.086645395
77	0xbd10194b	-0.03518037
78	0x3ceeeb60	0.02916497
79	0x3e23faaa	0.1601359
80	0xbd3d89ab	-0.04627387
81	0x3d8c1aa2	0.06841017
82	0x3d8a1d83	0.0674391
83	0xbdc2d78c	-0.095137686
84	0x3beb74ab	0.0071855388
85	0xbdb20d98	-0.08693999
86	0xbddedcf3	-0.108819865
87	0x3d87719e	0.06613468
88	0x3db4bb7e	0.08824824
89	0x3db20f8f	0.08694374
90	0x3d16fa6b	0.03685991
91	0xbda8dad6	-0.08244865
92	0x3e1fd65a	0.15609112
93	0x3c45992b	0.012060444
94	0x3cba45a0	0.022738278
95	0xbd1bbbd1	-0.038020913
96	0x3df9ceab	0.12197622
97	0xbd9c5133	-0.07632675
98	0x3da1d648	0.07902199
99	0xbd64f046	-0.055893205
100	0xbe00cda8	-0.12578452
101	0x3c4d4ddd	0.012530771
102	0xbe170a63	-0.14750056
103	0xbdb2d9a8	-0.08732921
104	0x3c5ee300	0.013603926
105	0x3d284aa0	0.041086793
106	0xbe0af793	-0.13571005
107	0xbde37193	-0.11105647
108	0x3d941528	0.07230598
109	0xbdc40a13	-0.09572234
110	0xbe1dc824	-0.15408379
111	0xbd960381	-0.07324887
112	0x3ce92c79	0.028463589
113	0xbdd8c41d	-0.10584281
114	0x3e102fca	0.1408073
115	0xbd397d20	-0.045285344
116	0x3d118c5b	0.035534244
117	0x3d94183b	0.07231184
118	0xbdebf73b	-0.11521765
119	0x3e4460a4	0.1917749
120	0xbcb0f28b	-0.021600028
121	0xbe284f30	-0.16436458
122	0x3e09f5ac	0.13472623
123	0x3ca243eb	0.019807776
124	0x3df0021f	0.117191546
125	0x3d32e901	0.04367924
126	0x3de83566	0.1133831
127	0x3c287056	0.010280689
128	0xbb8d8f2b	-0.0043200455
129	0x3b32ae00	0.0027264357
130	0x3e017a44	0.12644297
131	0xbd0adee3	-0.033903968
132	0x3d2f1996	0.04274901
133	0x3dbd7a46	0.092518374
134	0x3e1ce8af	0.15323137
135	0x3e161aa3	0.14658599
136	0xbdb5a4c6	-0.08869319
137	0xbd314c10	-0.04328543
138	0xbcfa72f6	-0.030572396
139	0xbe18283a	-0.14859095
140	0xbd839fa6	-0.06426935
141	0xbc8e3236	-0.017357927
142	0xbda8bb16	-0.08238809
143	0xbdbf6c14	-0.09346786
144	0xbd56c386	-0.05243256
145	0xbcc104c0	-0.023561835
146	0xbd51f246	-0.05125644
147	0xbda4ea37	-0.080524854
148	0x3dbc7667	0.09202271
149	0x3dc1bdda	0.094600394
150	0xbca6c856	-0.0203592
151	0xbc4e9596	-0.012608906
152	0xbd1d90a0	-0.038468003
153	0xbdb01ac1	-0.08598853
154	0x3e05022c	0.1298911
155	0xbd8e1b70	-0.06938827
156	0xbe07dd36	-0.13267979
157	0xbd4e9506	-0.05043509
158	0x3e168bff	0.14701842
159	0xbe53baa4	-0.20676666
160	0x3d09fc3b	0.03368781
161	0xbe11725c	-0.14203781
162	0x3e199617	0.14998661
163	0x3d828620	0.063732386
164	0xbd9b7aae	-0.07591759
165	0xbd4857e0	-0.04891193
166	0xbd2a4610	-0.041570723
167	0x3df643c5	0.12024645
168	0x3c8bce40	0.017066121
169	0x3c9a3700	0.018825054
170	0xbd975d73	-0.07390871
171	0x3dd5fb8e	0.10448371
172	0xb95ae000	-0.00020873547
173	0x3e1f5966	0.15561447
174	0x3e1e4c90	0.15458894
175	0x3e070c0f	0.13188194
176	0x3d0ac070	0.03387493
177	0xbd2852b0	-0.041094482
178	0x3dfd60f0	0.12372005
179	0xbde003b1	-0.10938204
180	0xbcc1adf6	-0.023642521
181	0xbdd5cb43	-0.1043916
182	0x3c5cba96	0.01347222
183	0xbd308dc9	-0.043103967
184	0xbd696e2d	-0.056989837
185	0x3d79b7d0	0.060966313
186	0xbb6c96ab	-0.0036100547
187	0x3e01a8c0	0.1266203
188	0xbdea497e	-0.11439799
189	0x3d5e3a0d	0.05425458
190	0x3dc1aa94	0.09456363
191	0x3d9856b7	0.074384145
192	0x3e11738e	0.14204237
193	0x3e1b0b44	0.15141016
194	0xbde44d53	-0.11147561
195	0xbd862646	-0.06550269
196	0x3e3fd62a	0.18734041
197	0xbd3542f3	-0.0442533
198	0xbe1ba5eb	-0.15200011
199	0xbdf38a6e	-0.11891638
200	0x3d5f18e6	0.054467104
201	0x3b1ee800	0.002424717
202	0xbd25b466	-0.040455244
203	0x3d057ebf	0.032591578
204	0xbdb2ff8b	-0.08740147
205	0x3dd797e0	0.10527015
206	0xbcd4770b	-0.02593567
207	0x3d86608e	0.06561385
208	0xbe161002	-0.14654544
209	0xbdb4327a	-0.0879869
210	0x3d17570b	0.036948245
211	0x3c2c72c0	0.010525405
212	0xbd96d0d6	-0.07364051
213	0x3dd5f2e8	0.10446721
214	0x3c86f360	0.016473472
215	0xbe39f430	-0.18159556
216	0xbc3eb156	-0.01163896
217	0x3e02d607	0.12776957
218	0xbdb6e39b	-0.08930131
219	0x3bbc31fc	0.0057432633
220	0xbe02ab15	-0.12760575
221	0x3e300953	0.17191057
222	0xbdfc8908	-0.12330824
223	0x3dd4d3f3	0.103919886
224	0xbddc6c8b	-0.107628904
225	0x3e057913	0.13034467
226	0x3dd4bc17	0.10387438
227	0x3d805acb	0.062673174
228	0xbe208f52	-0.15679672
229	0xbdc3d9c8	-0.09563023
230	0x3d345026	0.044021748
231	0x3de4830f	0.1115781
232	0xbe14742d	-0.14497443
233	0x3d8d962b	0.06913408
234	0xbcd7a8f6	-0.026325684
235	0xbba76dab	-0.005109509
236	0x3d22a760	0.039710402
237	0x3d94eafb	0.072713815
238	0xbda0992b	-0.078417145
239	0x3d83ded8	0.064389884
240	0xbde9b463	-0.11411359
241	0xbdbdd49e	-0.09269069
242	0xbbe2ca00	-0.006921053
243	0xbe1727ee	-0.14761326
244	0xbd64f630	-0.055898845
245	0xbe04effc	-0.12982172
246	0x3dca4aa3	0.09877517
247	0xbd48bf70	-0.049010694
248	0x3e0d5dc2	0.13805297
249	0x3d6fa9f6	0.058511697
250	0xbc332100	-0.010933161
251	0xbde2cc95	-0.11074177
252	0x3df1d1d8	0.11807603
253	0x3ddf190b	0.108934484
254	0xbe10465c	-0.1408934
255	0x3dee6ba2	0.11641623

target_net.fc1.bias f4 [64]
0	0xbadb08c9	-0.0016710992
1	0x3d9e2444	0.07721761
2	0xbdf70016	-0.12060563
3	0xbd321c1d	-0.043483842
4	0xbd0ad555	-0.033894856
5	0xbe321d3a	-0.17393962
6	0xbc03acf0	-0.008036837
7	0x3d65ad46	0.05607345
8	0xbe12f4d8	-0.14351213
9	0x3df1cb25	0.11806325
10	0x3d8105e3	0.06299951
11	0x3e0b39c4	0.13596255
12	0x3dd61d93	0.104548596
13	0xbd8e30f3	-0.0694293
14	0x3e05e910	0.13077188
15	0xbd76c570	-0.060246885
16	0xbe15330e	-0.14570257
17	0xbe3e11eb	-0.18561523
18	0x3dfb1b82	0.12261106
19	0xbddb9458	-0.10721654
20	0xbdf3a088	-0.11895853
21	0xbe29e014	-0.16589385
22	0x3de8fb35	0.11376039
23	0xbdc30fd0	-0.095245
24	0xbd8788ff	-0.06617927
25	0xbd65b88a	-0.056084193
26	0x3e1222a6	0.1427103
27	0xbce62fba	-0.02809893
28	0xbe02336a	-0.12714925
29	0x3e4fa1be	0.20276543
30	0x3d7c81ec	0.06164734
31	0xbe1879c5	-0.14890201
32	0xbd819619	-0.06327457
33	0xbc1cbe2a	-0.009566823
34	0x3b6f0eef	0.0036477407
35	0xbd825345	-0.06363539
36	0x3de335af	0.11094224
37	0x3dd8bd21	0.105829485
38	0xbe423eb9	-0.1896924
39	0xbc52a252	-0.012856083
40	0xbe29bf6f	-0.16576932
41	0xbb0a2899	-0.0021081327
42	0xbdeb956a	-0.11503108
43	0xbe0181fe	-0.12647244
44	0x3e1f3c09	0.15550245
45	0x3d49650c	0.04916863
46	0xbd92964a	-0.071575716
47	0xbe0dd0a0	-0.13849115
48	0x3cd8372d	0.026393497
49	0xbe0a7c79	-0.13524045
50	0xbe1990a0	-0.14996576
51	0xbd119355	-0.035540897
52	0x3d42aac8	0.04752615
53	0xbcd6aa13	-0.026204145
54	0x3d3faba2	0.04679454
55	0x3d68f9b7	0.05687877
56	0xbe2af443	-0.16694741
57	0xb9eb4e43	-0.00044881002
58	0xbb2c7a53	-0.0026318028
59	0xbc8f4f81	-0.017493965
60	0xbe05cec5	-0.13067158
61	0xbd241dcf	-0.04006749
62	0x3e2650ea	0.16241804
63	0xbdae074e	-0.08497487

target_net.fc2.weight f4 [3, 64]
0	0xbd6d6a71	-0.05796284
1	0xbc955c38	-0.01823245
2	0xbd061cda	-0.03274236
3	0xbd7b04f5	-0.061284024
4	0xbbbb6d5a	-0.005719823
5	0xbdaea9ce	-0.085284814
6	0x3dcfb9e1	0.101428755
7	0x3b527fc8	0.003211962
8	0xbdc5ccd0	-0.096582055
9	0x3dfbfd9c	0.123042315
10	0xbd342b4e	-0.04398661
11	0xbca8efac	-0.020622097
12	0xbd74f4c1	-0.059803728
13	0x3ce70425	0.028200218
14	0xbde8e293	-0.113713406
15	0x3d9d62bc	0.07684848
16	0x3df2caf4	0.118551165
17	0x3b03057b	0.001999228
18	0xbd093de1	-0.033506278
19	0x3c783819	0.0151500935
20	0xbc96dd9f	-0.018416224
21	0x3dd4e1a3	0.10394599
22	0xbd9f4ebd	-0.0777869
23	0xbd43c8da	-0.04779897
24	0xbd276ed4	-0.04087718
25	0xbd2edc55	-0.042690594
26	0x3c435742	0.011922659
27	0x3d4ff639	0.050771926
28	0x3dbad7ba	0.09123178
29	0xbd9fdcbf	-0.07805776
30	0xbda1611d	-0.07879851
31	0x3da1dd68	0.07903558
32	0xbcf3b684	-0.029750116
33	0x3dcae6e4	0.0990732
34	0x3cf3c170	0.029755324
35	0xbbb66470	-0.0055661723
36	0xbd4a96d0	-0.049460232
37	0xbdc88066	-0.09790115
38	0x3dfb6034	0.12274209
39	0xbd15ea48	-0.03660038
40	0x3d6f3116	0.05839642
41	0xbd9abf28	-0.075559914
42	0x3d524fa5	0.051345486
43	0x3d7275b1	0.05919427
44	0xbd45961a	-0.04823885
45	0x3d739681	0.059469704
46	0x3d114ddb	0.03547464
47	0x3ca0022e	0.01953229
48	0x3d16a8b2	0.036781974
49	0xbcff47c3	-0.031162148
50	0xbce151a0	-0.027504742
51	0xbd8cbb0f	-0.06871616
52	0xbdecf1cb	-0.11569556
53	0xbddabdb0	-0.10680711
54	0xbd40a3fb	-0.047031384
55	0x3daa361b	0.08311101
56	0x3ce4b63a	0.027918924
57	0x3cdff729	0.027339535
58	0x3da423d6	0.08014648
59	0xbdf991bb	-0.12185999
60	0xbd2ec0e0	-0.04266441
61	0x3c820d78	0.015875563
62	0xbe454f3e	-0.1926851
63	0x3d44eb40	0.048075914
64	0xbd863611	-0.06553281
65	0xbdb571bb	-0.08859583
66	0x3dbf9c19	0.09355945
67	0xbd37252e	-0.04471319
68	0x3d951e8d	0.07281218
69	0xbd946d53	-0.072474144
70	0x3d4115b6	0.047139846
71	0x3de4f1d2	0.11178936
72	0xbc414050	-0.011795118
73	0xbda2b064	-0.079438
74	0x3dde3140	0.108492374
75	0x3e224756	0.15847525
76	0x3d304967	0.043038752
77	0x3d2bae79	0.041914437
78	0x3dbeb01e	0.093109354
79	0xbd1e69fd	-0.038675297
80	0xbd2e1905	-0.04250433
81	0x3dc05e31	0.093929656
82	0x3d3dfa0b	0.046381038
83	0x3cbcd44c	0.02305045
84	0x3d973151	0.07382453
85	0x3cd61d91	0.026137145
86	0xbda01e6c	-0.078183025
87	0x3d184d19	0.0371829
88	0x3c9fb759	0.019496607
89	0xbdecf903	-0.11570933
90	0x3dc3e709	0.09565551
91	0x3de95afa	0.113943055
92	0xbd140a35	-0.036142547
93	0x3d249965	0.04018535
94	0xbcbb6a70	-0.022877902
95	0x3c16094c	0.00915749
96	0x3df190da	0.11795206
97	0xbc37d7eb	-0.011220912
98	0x3c1b1cdb	0.009467329
99	0x3cf8b0d8	0.030357763
100	0xbbc6c491	-0.006065913
101	0x3d11cbe3	0.035594832
102	0xbd94bd48	-0.07262665
103	0xb920cbd1	-0.00015334717
104	0x3cd9867d	0.026553387
105	0x3dabf520	0.08396363
106	0xbd841309	-0.06448943
107	0x3dbe6917	0.09297388
108	0x3e12ef4b	0.14349096
109	0x3dacf939	0.08445973
110	0x3de19b67	0.11015969
111	0xbc948a89	-0.018132465
112	0x3d26dba9	0.040736828
113	0x3da1c22e	0.07898365
114	0xbdf140d4	-0.11779943
115	0x3c20fc6d	0.009825808
116	0xbd1cbbdb	-0.03826509
117	0xbd816f83	-0.06320097
118	0xbd0fdd57	-0.035123195
119	0xbcaa626a	-0.02079888
120	0xbd8cc3da	-0.06873293
121	0xbceaf175	-0.028679589
122	0xbcb0606c	-0.021530353
123	0x3d23f2a3	0.04002632
124	0xbc342fb2	-0.0109977
125	0xbd7a5d32	-0.061124034
126	0xbbe17e87	-0.0068815383
127	0x3c832d10	0.016012698
128	0xbd6dd3f7	-0.058063474
129	0xbd748e0c	-0.05970578
130	0xbd895281	-0.067051895
131	0x3c8511ec	0.016243897
132	0xbd41730e	-0.047228865
133	0x3d97a134	0.07403794
134	0xbdeefd44	-0.116694
135	0xbd034c87	-0.032055404
136	0x3d82a9ba	0.06380029
137	0x3dbafcc4	0.091302425
138	0x3e0e5ea7	0.13903295
139	0xbc82c9e5	-0.015965411
140	0xbcc833cd	-0.024438763
141	0x3de252a4	0.11050919
142	0xbd89d136	-0.06729357
143	0xbcff43de	-0.031160291
144	0xbd85a7fc	-0.06526181
145	0x3c3fcf5c	0.011707153
146	0x3d42e910	0.047585547
147	0x3bbe6b68	0.0058111437
148	0xbe1bfc6d	-0.15233012
149	0xbd7c01d2	-0.061525173
150	0x3d9eab4c	0.07747516
151	0xbd8f84a4	-0.07007721
152	0xbc614431	-0.013749168
153	0x3d9d8b86	0.076926276
154	0x3da597ca	0.08085592
155	0x3c687ce5	0.014189933
156	0xbd967240	-0.0734601
157	0x3e1c3ed9	0.1525835
158	0x3dca980e	0.098922834
159	0x3ddd1d19	0.107965656
160	0xbdb78bb6	-0.089621946
161	0x3cb3440a	0.02188303
162	0x3dea6fa4	0.11447075
163	0xbd766aa7	-0.060160305
164	0xbccc59f8	-0.024945244
165	0x3c087176	0.008327832
166	0x3d31a510	0.043370306
167	0xbda341de	-0.079715475
168	0xbcc0c2c5	-0.023530373
169	0xbdc72e3e	-0.09725617
170	0xbd4840cc	-0.04888992
171	0x3de37219	0.11105747
172	0x3da44689	0.08021266
173	0xbd1e03c7	-0.03857782
174	0xbd54b1b0	-0.05192727
175	0x3dd8b06a	0.10580523
176	0x3cd56c6a	0.026052672
177	0x3c449782	0.011999013
178	0x3db506c5	0.08839182
179	0xbd09256e	-0.03348296
180	0xbde10312	-0.10986914
181	0xbcf5315b	-0.029930761
182	0x3d2cd37b	0.04219387
183	0x3dd7d7d6	0.10539214
184	0xbe028616	-0.12746462
185	0xbdd4dd10	-0.10393727
186	0x3daa811d	0.08325408
187	0x3daa9169	0.08328516
188	0xbdda4e46	-0.10659461
189	0xbdc9d4c4	-0.09855035
190	0x3d9c1436	0.076210424
191	0x3c061e50	0.008185938

target_net.fc2.bias f4 [3]
0	0xbb28de30	-0.00257672
1	0x3c7453a1	0.014912517
2	0x3d306e79	0.043074105

tatic_net.fc1.weight f4 [64, 42]
0	0x3e12307b	0.14276306
1	0xbd1dcabf	-0.038523432
2	0x3bf0c38d	0.00734753
3	0xbe0dd16f	-0.13849424
4	0x3d35bf02	0.044371612
5	0xbdf1667d	-0.11787126
6	0xbd32bc13	-0.043636393
7	0xbdd78c36	-0.1052479
8	0x3dbc5ec5	0.09197763
9	0x3dfaba4d	0.12242565
10	0xbda647d4	-0.08119169
11	0x3cdaeb7a	0.026723612
12	0xbe000669	-0.12502445
13	0x3dffcbe0	0.12490058
14	0x3db9dfd6	0.090758964
15	0xbdfb9fdf	-0.12286352
16	0xbe1aed26	-0.15129527
17	0x3dd77a9b	0.10521432
18	0x3c63aa9e	0.013895659
19	0xbddeac56	-0.10872714
20	0x3e1d3df6	0.15355667
21	0xbdc0c089	-0.09411723
22	0xbd446503	-0.047947895
23	0x3e20bf63	0.15698008
24	0xbe167791	-0.14694048
25	0x3dbc6c20	0.09200311
26	0xbd9218cf	-0.07133638
27	0xbdca9ebe	-0.09893559
28	0x3d9cc24d	0.076542474
29	0xbd6b23b3	-0.057407092
30	0x3d06539a	0.032794572
31	0x3dfba9a0	0.12288213
32	0xbc5a0661	-0.013307185
33	0xbe198616	-0.14992556
34	0x3dd25815	0.102707066
35	0x3df1bc9f	0.11803555
36	0xbddcbafe	-0.107778534
37	0x3cfe288a	0.03102519
38	0x3d15e8df	0.036599036
39	0x3d8ba418	0.06818408
40	0x3dae8696	0.08521764
41	0xbd28a037	-0.041168418
42	0xbdfccea1	-0.12344099
43	0x3e15ce1a	0.14629403
44	0xbd621fb2	-0.05520601
45	0x3dfdb7d3	0.12388577
46	0xbc875814	-0.016521491
47	0x3d8e7940	0.0695672
48	0x3e0e1b43	0.13877587
49	0xbd194a7d	-0.037424553
50	0xbc21c654	-0.009873945
51	0xbc407208	-0.011745937
52	0x3d889f22	0.06670977
53	0x3da5ac47	0.080895
54	0xbdad5c38	-0.08464855
55	0xbc9005bf	-0.017580865
56	0xbda9c7c4	-0.082900554
57	0xbdeb8aee	-0.11501108
58	0x3d8c21f9	0.06842417
59	0x3dd02295	0.10162846
60	0x3db07906	0.086168334
61	0x3d92ad60	0.07161975
62	0xbd184cf3	-0.03718276
63	0x3d08cda3	0.033399235
64	0x3e1d4c7a	0.15361205
65	0xbcfeee6e	-0.031119552
66	0xbdb53643	-0.0884824
67	0x3df17c28	0.11791259
68	0x3daf4c62	0.08559491
69	0x3c15dc36	0.009146741
70	0xbe04f634	-0.12984544
71	0x3be3b7be	0.006949394
72	0xbdc1de1f	-0.09466194
73	0x3d27e394	0.04098852
74	0xbe1729a4	-0.14761978
75	0xbdf499b6	-0.119433805
76	0xbd1cd51e	-0.038289182
77	0x3e01fa13	0.12693052
78	0xbe0403a3	-0.12892012
79	0xbd49f216	-0.049303137
80	0xbdf9742d	-0.12180362
81	0x3dcf0f0d	0.101102926
82	0xbca9d000	-0.020729065
83	0x3d8579c4	0.065173656
84	0x3d830536	0.06397478
85	0x3db2402c	0.08703646
86	0xbdf9dabe	-0.12199925
87	0xbe0e1de0	-0.13878584
88	0xbe18b373	-0.14912204
89	0x3e4078b9	0.18796052
90	0x3d44d000	0.048049927
91	0x3dad94a3	0.08475616
92	0x3d862f08	0.06551939
93	0x3d3c1266	0.045915984
94	0xbd78108e	-0.060562663
95	0x3d702677	0.058630433
96	0xbe198267	-0.14991151
97	0xbe0984bf	-0.13429545
98	0x3d98dae8	0.07463628
99	0xbdb1bcd5	-0.08678595
100	0x3e13e95b	0.14444487
101	0xbdb4368d	-0.08799467
102	0x3d96a3b5	0.073554434
103	0xbdf66fd8	-0.12033051
104	0xbdb6fd84	-0.08935073
105	0xbd368aed	-0.044566084
106	0xbdff937d	-0.12479303
107	0xbd539853	-0.05165894
108	0x3d5615d5	0.052266914
109	0x3ccab8a8	0.024746254
110	0xbd7ad26e	-0.061235838
111	0x3dcdd056	0.100495026
112	0xbc8f2d24	-0.01747758
113	0x3dca0b9a	0.09865494
114	0xbe0f236e	-0.13978359
115	0x3ba6ca0e	0.0050900048
116	0x3d233fcb	0.03985576
117	0x3d46880e	0.048469596
118	0xbe0a22b8	-0.13489807
119	0x3ccb50d4	0.024818815
120	0x3d535769	0.051597033
121	0xbe0e8c43	-0.13920693
122	0xbe0a7897	-0.13522564
123	0x3dc5aa32	0.09651603
124	0xbe145063	-0.1448379
125	0xbb5ff141	-0.0034170898
126	0xbe110c81	-0.14164926
127	0xbddde032	-0.108337775
128	0x3d903b6f	0.07042586
129	0x3e269bf3	0.16270427
130	0x3d419670	0.04726261
131	0x3e2e7be3	0.17039447
132	0xbe0ff596	-0.14058527
133	0xbdfabaeb	-0.12242683
134	0xbdfb7677	-0.12278455
135	0x3e1ed31d	0.15510221
136	0xbd4bdc9d	-0.04977094
137	0x3d19a5ad	0.037511516
138	0x3d976c84	0.073937446
139	0xbe13ec44	-0.14445597
140	0x3dbae7ba	0.091262296
141	0xbe24b812	-0.16085842
142	0xbc3dc072	-0.011581527
143	0x3e06201f	0.1309819
144	0x3d9ba12f	0.07599103
145	0x3e1cd55e	0.15315768
146	0x3c5645c3	0.013078156
147	0x3d96be09	0.07360465
148	0xbdc05b37	-0.09392398
149	0x3e147cf2	0.14500788
150	0xbd8710e2	-0.06595017
151	0xbde41470	-0.11136711
152	0x3dd2d672	0.102948084
153	0xbd986d17	-0.07442682
154	0x3e10f5bf	0.14156245
155	0xbdc2dd0d	-0.09514818
156	0x3cc09f1c	0.02351337
157	0xbd0b8515	-0.034062464
158	0x3da12be8	0.078697026
159	0xbcb58137	-0.022156341
160	0x3df8ce91	0.121487744
161	0xbb477685	-0.0030435633
162	0xbe0d656b	-0.13808219
163	0xbd98639e	-0.074408755
164	0xbe214179	-0.15747632
165	0x3dcc9ab5	0.099904455
166	0xbd950d7a	-0.07277961
167	0x3e1dee2d	0.15422888
168	0x3d52344b	0.0513194
169	0xbe02fd25	-0.1279188
170	0xbe0aba18	-0.13547552
171	0xbdee53f6	-0.11637108
172	0x3d8423a5	0.06452111
173	0xbd9c8945	-0.076433696
174	0xbdd1c819	-0.10243244
175	0xbe1821f8	-0.14856708
176	0xbd13f0ae	-0.036118202
177	0xbda1b120	-0.07895112
178	0xbd97660e	-0.07392512
179	0x3e2837b1	0.16427495
180	0xbcf3c888	-0.029758707
181	0xbda28542	-0.07935573
182	0xbd14c0da	-0.03631673
183	0xbdf26b60	-0.118368864
184	0x3c1af35a	0.009457434
185	0x3e1bfb9c	0.152327
186	0xbd960216	-0.073246166
187	0x3cca6f21	0.024711194
188	0xbdd6c02f	-0.10485875
189	0x3d39b6b7	0.045340266
190	0xbdd59bf9	-0.1043014
191	0xbe289976	-0.1646479
192	0x3ddea1e5	0.10870723
193	0x3dda38e2	0.10655381
194	0x3dbbf2dd	0.09177182
195	0x3d4a1c22	0.049343236
196	0xbe114037	-0.14184652
197	0x3ce6d05f	0.028175531
198	0x3d441f3f	0.04788136
199	0x3dcf67d3	0.10127225
200	0xbc3d859b	-0.011567499
201	0xbded44ce	-0.11585389
202	0xbc205ba3	-0.009787473
203	0x3dbd0d50	0.09231055
204	0xbd5d658e	-0.05405193
205	0xbc839b83	-0.016065365
206	0x3bcc43d5	0.006233672
207	0xbbe9254f	-0.0071150432
208	0x3d01ad1d	0.031659234
209	0x3e1c3437	0.15254293
210	0x3d9d237e	0.07672785
211	0xbdf79fda	-0.12091036
212	0x3e159cd7	0.14610611
213	0x3bf5937a	0.007494387
214	0xbd230907	-0.03980353
215	0x3d16e26a	0.03683702
216	0x3cad1aba	0.021130908
217	0x3d12f64d	0.035879422
218	0xbb1f854f	-0.0024340933
219	0x3daedb0b	0.08537873
220	0xbd936e15	-0.07198731
221	0x3df60295	0.12012211
222	0x3d7d6238	0.061861247
223	0x3db632af	0.08896386
224	0x3d33fb23	0.043940675
225	0x3cdce40a	0.026964206
226	0xbd825346	-0.063635394
227	0xbe071ea3	-0.1319528
228	0x3dd1bf35	0.10241548
229	0xbdb25ac2	-0.08708717
230	0x3d7084ec	0.058720514
231	0x3c56794d	0.013090444
232	0xbdfe30b0	-0.1241163
233	0xbc77f30b	-0.01513363
234	0x3cdcd516	0.026957076
235	0x3d67ba86	0.056574367
236	0xbbdefafc	-0.006804822
237	0x3d1920ca	0.037384786
238	0xbdfe43f7	-0.12415307
239	0xbd26f055	-0.040756542
240	0x3e1dbf90	0.15405107
241	0x3e05e8e2	0.13077119
242	0xbd9cdf8d	-0.076598264
243	0x3e0bf760	0.13668585
244	0x3e0ccfa2	0.1375108
245	0x3cad8893	0.021183288
246	0xbde5dd54	-0.112238556
247	0x3dbc6ae4	0.09200075
248	0xbdc41fcf	-0.095763795
249	0x3def63c4	0.11688951
250	0x3ca21c32	0.019788835
251	0xbe0526d7	-0.13003097
252	0x3dc60073	0.096680544
253	0x3dfdffd4	0.12402311
254	0x3db03936	0.08604662
255	0x3b890df2	0.0041825706

tatic_net.fc1.bias f4 [64]
0	0x3dcf6cf3	0.10128202
1	0xbd8c13da	-0.06839724
2	0x3d3ee02d	0.04660051
3	0x3dc27703	0.09495356
4	0x3cdbaefe	0.026816841
5	0x3db8d501	0.09025002
6	0xbd154e62	-0.036451705
7	0xbd9d64c7	-0.076852374
8	0xbd90dfa4	-0.07073906
9	0x3ae4854b	0.0017434744
10	0x3d4d2879	0.050087426
11	0x3dda37b1	0.106551535
12	0xbd989744	-0.07450727
13	0x3d231360	0.0398134
14	0x3d4e53cb	0.05037288
15	0x3deb64cd	0.114938356
16	0xbda2c58c	-0.07947835
17	0x3dcefea6	0.10107164
18	0x3e0cdd64	0.13756329
19	0x3dd8494d	0.10560856
20	0x3d2fde91	0.042936865
21	0x3de038da	0.109483436
22	0xbdcbc76e	-0.099501476
23	0x3e0b371c	0.13595241
24	0xbd7b7bf0	-0.061397493
25	0xbd58fd0f	-0.05297571
26	0xbd62a0cd	-0.055329133
27	0x3bc26835	0.0059328326
28	0xbe120317	-0.14258991
29	0x3e0113ff	0.12605284
30	0xbdbc7814	-0.092025906
31	0xbd83a4c8	-0.06427914
32	0x3e05766a	0.13033453
33	0xbdb3a53d	-0.08771751
34	0x3dbe860c	0.09302911
35	0xbd5b00ef	-0.053467687
36	0x3bffbcc4	0.007804485
37	0xbd3c74d1	-0.046009842
38	0x3d3d0626	0.04614844
39	0x3d9796ce	0.074018106
40	0xbd9922a0	-0.07477307
41	0xbda3f411	-0.08005536
42	0x3d5b39c4	0.053521886
43	0x3e0a2477	0.13490473
44	0x3d742b55	0.059611637
45	0x3e25762c	0.1615836
46	0xbdf0bee8	-0.117551625
47	0x3defe7de	0.11714147
48	0x3d33b488	0.04387334
49	0xbdf707d8	-0.12062043
50	0xbe07640b	-0.13221757
51	0xbd1d0fa6	-0.038345
52	0xbce59763	-0.028026288
53	0x3c267d81	0.010161758
54	0xbcd8f03e	-0.026481744
55	0x3c943647	0.018092288
56	0x3e19fe27	0.15038358
57	0x3d350487	0.04419377
58	0x3d89a213	0.06720366
59	0x3da02e38	0.078213155
60	0x3c3bd636	0.011464646
61	0xbdce33e5	-0.10068492
62	0xbe039d3f	-0.12852953
63	0xbda95d2c	-0.08269724

tatic_net.fc2.weight f4 [6, 64]
0	0x3d0847c8	0.03327158
1	0x3d82a666	0.06379394
2	0xbd771e68	-0.060331732
3	0x3d907f94	0.070555836
4	0xbd1744b0	-0.03693074
5	0x3c6d5760	0.014486164
6	0x3a416700	0.0007377714
7	0x3dc531fc	0.096286744
8	0x3da534ec	0.08066735
9	0xbdbc0198	-0.091799915
10	0x3dd9063a	0.10596891
11	0x3dc14322	0.09436633
12	0xbda64bae	-0.081199035
13	0x3cdae240	0.026719213
14	0xbd2f1e34	-0.042753413
15	0x3d9c6e72	0.07638253
16	0xbdf29d1a	-0.11846371
17	0xbdcba4da	-0.09943552
18	0xbc0f14c0	-0.0087329745
19	0x3d047404	0.032337204
20	0x3debd7c2	0.11515762
21	0xbddd935a	-0.10819121
22	0x3d9e3e9a	0.07726784
23	0xbbfa6960	-0.007641956
24	0xbc490dc0	-0.012271345
25	0xbdf7af72	-0.120940104
26	0x3de58180	0.11206341
27	0x3db2613c	0.08709952
28	0x3d5e98dc	0.054344997
29	0x3ca16bb8	0.019704685
30	0xbd0836ac	-0.033255264
31	0xbdc26f6e	-0.0949391
32	0xbdcf9f0c	-0.10137758
33	0x3d33248c	0.043736026
34	0xbc9b53b0	-0.018960804
35	0x3cac6738	0.021045312
36	0x3df0f3f4	0.1176528
37	0x3c010000	0.007873535
38	0x3c0c3860	0.008558363
39	0xbde1338c	-0.1099616
40	0xbdb48d0a	-0.088159636
41	0xbdcd9b08	-0.100393355
42	0xbc26e2f0	-0.010185942
43	0xbde6ec50	-0.11275542
44	0xbdf8a910	-0.12141621
45	0xbd4ee970	-0.050515592
46	0x3c4cfa70	0.012510881
47	0x3d72f74c	0.059317872
48	0x3d2e2260	0.04251325
49	0x3d7e1ff0	0.062042177
50	0xbda6a986	-0.08137803
51	0xbdca572c	-0.09879908
52	0xbdb3f2c6	-0.0878654
53	0xbdaa5ba2	-0.08318259
54	0x3c0da0c0	0.008644283
55	0xbdc7109a	-0.09719963
56	0xbc77daa0	-0.015127808
57	0xbd8e5be4	-0.069511205
58	0x3dda6e78	0.106656015
59	0x3c995630	0.018717855
60	0x3bd7f0c0	0.006589979
61	0x3dc7b3a8	0.097510636
62	0xbd840680	-0.06446552
63	0x3dbf78b2	0.09349193
64	0xbd6c0258	-0.057619423
65	0x3ddbf225	0.10739545
66	0xbd43a005	-0.04776003
67	0x3d26e81d	0.040748704
68	0xbe1230a1	-0.14276363
69	0x3c7ae6a6	0.01531378
70	0xbd8fc90c	-0.070207685
71	0xbe0f3bf4	-0.13987714
72	0xbd36f0e0	-0.04466331
73	0x3dd693b9	0.104773946
74	0xbe0bc965	-0.13651045
75	0x3dd6c61c	0.10487005
76	0x3d53b694	0.051687792
77	0xbdab964c	-0.08378276
78	0x3da8fe6e	0.082516536
79	0xbcccc16a	-0.02499457
80	0x3d1a9614	0.037740782
81	0xbc17d557	-0.009267173
82	0xbd10b802	-0.035331734
83	0xbdc2c40b	-0.095100485
84	0x3ca0bf70	0.019622535
85	0x3ca43e23	0.02004916
86	0xbdcb1d4f	-0.099176995
87	0xbce359f4	-0.027752854
88	0x3db27067	0.08712845
89	0xbd0a09a5	-0.033700604
90	0xbd718452	-0.05896408
91	0xbd88c70d	-0.06678591
92	0x3c065003	0.008197787
93	0x3d506deb	0.050886076
94	0xbd45e518	-0.048314184
95	0xbdc73943	-0.09727719
96	0x3d4bd7b0	0.049766243
97	0x3cf86ce1	0.030325355
98	0x3e06aff6	0.13153061
99	0x3d83465c	0.06409904
100	0x3d87c5a0	0.06629491
101	0x3d655091	0.055985037
102	0xbc89d5df	-0.016825614
103	0x3d0d3fe9	0.034484778
104	0xbcf31b4a	-0.029676098
105	0x3dabdc5b	0.08391639
106	0x3dbaf901	0.09129525
107	0x3b59fff0	0.0033264123
108	0xbccdbb1e	-0.025113638
109	0xbdb7b03a	-0.089691594
110	0x3ca74203	0.020417219
111	0xbc334f94	-0.010944266
112	0xbde3425b	-0.11096641
113	0x3ce100ba	0.027466167
114	0x3dcf7c85	0.10131172
115	0xbde918ce	-0.11381684
116	0x3d4886c4	0.048956648
117	0x3d9a3f4b	0.075316034
118	0xbd00f4fc	-0.031483635
119	0xbe06dc54	-0.13169986
120	0xbcd5eee3	-0.026114887
121	0xbd91b8e8	-0.07115346
122	0x3e1884a3	0.14894347
123	0x3c8f4d1b	0.017492821
124	0x3dc04df1	0.09389866
125	0xbd2fb2b6	-0.04289504
126	0x3d10b778	0.03533122
127	0xbc738d49	-0.014865228
128	0xbd790b1c	-0.06080161
129	0xbd60cf8f	-0.054885443
130	0x3c589ed1	0.0132214585
131	0x3d87c7bd	0.06629894
132	0x3d979dee	0.074031696
133	0xbce8e363	-0.028428739
134	0x3d6a2b93	0.057170462
135	0x3d10522f	0.035234626
136	0xbb98275b	-0.0046433634
137	0xbde3a5b3	-0.11115589
138	0xbca31002	-0.019905094
139	0x385b03d2	5.2217227e-05
140	0x3daf7838	0.08567852
141	0xbd199eb0	-0.03750485
142	0xbd2b09ca	-0.041757382
143	0xbc98a012	-0.018631015
144	0xbdeefca8	-0.11669284
145	0xbd7f08bb	-0.062264185
146	0xbd4493d8	-0.047992557
147	0xbda9356d	-0.08262143
148	0x3d826741	0.0636735
149	0x3df16e31	0.117885955
150	0x3d5e069c	0.054205522
151	0xbbd21eb9	-0.006412354
152	0x3d12b825	0.035820145
153	0x3cf9f2cc	0.030511282
154	0xbd263c48	-0.040584832
155	0x38fd109a	0.000120670724
156	0x3def725c	0.11691734
157	0x3cbe84e7	0.023256732
158	0xbd04362e	-0.032278232
159	0x3c95f330	0.018304437
160	0x3c885faf	0.016647188
161	0x3de5388f	0.11192428
162	0x3b9528f6	0.004552002
163	0x3db71de4	0.08941248
164	0xbc124320	-0.008927137
165	0x3db7b8c9	0.08970792
166	0xbd898cc7	-0.06716304
167	0xbe10311e	-0.14081237
168	0x3de814b1	0.113320716
169	0x3e2c9cff	0.16856764
170	0xbd84df5b	-0.06487914
171	0x3de204db	0.11036082
172	0xbc989026	-0.018623423
173	0x3ce3fe7f	0.027831314
174	0x3dc010a2	0.093781725
175	0x3dfe0e86	0.12405114
176	0xbd8dcef2	-0.06924237
177	0xbd84694d	-0.06465397
178	0x3cd65bb3	0.026166772
179	0x3db779cd	0.089587785
180	0xbda20dc1	-0.079127796
181	0x3e046a50	0.1293118
182	0xbda08bd4	-0.0783917
183	0xbc810c1e	-0.015752848
184	0xbe062808	-0.13101208
185	0xbceaa8c8	-0.028644934
186	0x3e14e12d	0.14539023
187	0x3e39b134	0.18134004
188	0xbd7273f6	-0.05919262
189	0x3d74dec6	0.059782766
190	0x3d19976d	0.037497927
191	0x3dc1b415	0.09458176
192	0xbce7e3dd	-0.028306896
193	0x3db4f15e	0.088351
194	0x3cd66c63	0.02617473
195	0x3dc37380	0.09543514
196	0x3be8e21c	0.0071070325
197	0x3c93f446	0.018060815
198	0x3d0d5d51	0.03451282
199	0xbcbb392c	-0.02285441
200	0xbc9d9332	-0.019235227
201	0xbc715435	-0.014729549
202	0xbdd5ed24	-0.104456216
203	0xbda15bce	-0.078788385
204	0x3cd0e98f	0.025501994
205	0xbdb2a2ce	-0.08722459
206	0xbd79e4e8	-0.061009318
207	0x3c545dac	0.012961786
208	0x3daba360	0.08380771
209	0xbdd3afcd	-0.10336266
210	0x3cd0f050	0.025505215
211	0xbd5c797d	-0.053826798
212	0xbd851e08	-0.06499869
213	0xbda1e3dc	-0.07904789
214	0x3d19a1c6	0.037507795
215	0xbc820d2e	-0.015875425
216	0x3d421878	0.047386616
217	0xbd78a2f4	-0.06070228
218	0xbd011889	-0.03151754
219	0x3c946f6d	0.018119538
220	0xbde95d0e	-0.11394702
221	0x3e0566ee	0.13027546
222	0xbd4147c2	-0.047187574
223	0xbd2d2450	-0.04227096
224	0xbe07199e	-0.13193366
225	0x3dce2b7d	0.100668885
226	0x3dea874c	0.11451587
227	0xbca1e845	-0.019764075
228	0x3d6f690b	0.058449786
229	0xbd4808d5	-0.048836548
230	0xbbe65ca6	-0.0070300875
231	0x3d04ab0b	0.03238968
232	0x3de523dd	0.11188481
233	0x3d3c18bb	0.045922022
234	0xbd545db9	-0.051847193
235	0xbd83fdbd	-0.06444881
236	0xbd2c9adf	-0.042139884
237	0x3dd9fa8f	0.106434934
238	0x3dc93bd7	0.09825867
239	0xbcdb26c6	-0.026751887
240	0xbdbaeb82	-0.09126951
241	0x3e2a0bf9	0.1660613
242	0x3d6f45e2	0.058416255
243	0xbdaefca1	-0.08544279
244	0xbd00aa09	-0.03141216
245	0x3d4d533e	0.050128214
246	0xbdaae654	-0.08344713
247	0xbd615644	-0.05501391
248	0xbdf62efc	-0.1202068
249	0x3dc73716	0.09727304
250	0x3e0df244	0.13861948
251	0x3c90f8ae	0.017696705
252	0xbdc14b0b	-0.094381414
253	0xbd87cd17	-0.06630915
254	0x3c603dea	0.013686636
255	0xbd2f3569	-0.042775545

tatic_net.fc2.bias f4 [6]
0	0x3d65b9c4	0.056085363
1	0xbddc0a54	-0.107441574
2	0x3ccc208b	0.024917861
3	0x3c8c3a28	0.017117575
4	0x3d0ab220	0.03386128
5	0xbdaa0213	-0.08301177

tatic_net.fc3.weight f4 [6, 3]
0	0xbeb52158	-0.35377002
1	0x3ebeb8e6	0.3725044
2	0xbed626ff	-0.41826627
3	0x3de85a85	0.1134539
4	0x3ecb5b15	0.39717928
5	0xbd641f15	-0.055693705
6	0x3e8cde2a	0.27513248
7	0xbe02f8d3	-0.12790231
8	0xbe767244	-0.24067026
9	0x3ead2549	0.3381751
10	0xbe40d1a1	-0.18829967
11	0xbf14da4b	-0.5814559
12	0xbe7dbc61	-0.24778892
13	0xbf0518b3	-0.51990813
14	0x3f10212b	0.5630061
15	0x3f1954d5	0.5989507
16	0x3eec36cd	0.4613556
17	0xbca69a97	-0.020337386

tatic_net.fc3.bias f4 [6]
0	0x3eb7a44e	0.35867542
1	0x3ef9e025	0.4880382
2	0x3e022cbb	0.12712376
3	0x3eb24ff8	0.34826636
4	0xbdbaf361	-0.09128452
5	0xbd9e81a0	-0.07739568

tatic_net.fc4.weight f4 [3, 9]
0	0x3e913ee9	0.2836831
1	0x3ebc2ed6	0.36754483
2	0x3d9195ef	0.07108676
3	0x3e82da08	0.2555697
4	0x3edd6041	0.43237498
5	0x3eb84c83	0.35995874
6	0xbdf6806f	-0.120362155
7	0x3eb555e9	0.35417107
8	0xbe0e651d	-0.13905759
9	0x3cba4bce	0.022741225
10	0xbbe64316	-0.0070270402
11	0xbe0ec6ab	-0.13942973
12	0x3e581807	0.21102916
13	0xbe642e61	-0.22283317
14	0x3e725f34	0.2366913
15	0x3e65520f	0.22394584
16	0x3e34154a	0.17586246
17	0x3ed7cac4	0.42146885
18	0x3db0503a	0.08609052
19	0xbd231b42	-0.039820917
20	0x3e977fbb	0.29589638
21	0xbe66ebf7	-0.22550951
22	0x3cf7b28a	0.030236501
23	0x3ddb5506	0.10709576
24	0xbda7fab4	-0.08202115
25	0x3de2050f	0.11036121
26	0x3d9000eb	0.07031425

tatic_net.fc4.bias f4 [3]
0	0xbe417b8a	-0.18894783
1	0xbe51b296	-0.20478281
2	0xbd668c08	-0.056285888

fc1.weight f4 [256, 108]
0	0xb9df6917	-0.00042612173
1	0xbca28eb6	-0.01984344
2	0x3da39dde	0.07989095
3	0x3d98e9b4	0.0746645
4	0xbd51564a	-0.051107682
5	0x3d54963e	0.051901095
6	0x3cb939c7	0.022610558
7	0xbd15f828	-0.036613613
8	0x3d96d918	0.07365626
9	0x3ca7423b	0.020417323
10	0xbd7650d0	-0.060135663
11	0x3d814f53	0.06313958
12	0xbd259135	-0.040421683
13	0xbdb59c02	-0.08867647
14	0x3cb69968	0.022289947
15	0x3d8203f7	0.063484125
16	0x3cedec8c	0.029043458
17	0xbdb89679	-0.090130754
18	0xbc98ea83	-0.018666511
19	0x3bfa2b72	0.0076345736
20	0xbcc4d8cb	-0.024029156
21	0xbdabdab9	-0.083913274
22	0x3d771a1e	0.06032764
23	0x3d80a197	0.06280821
24	0x3d690079	0.056885216
25	0x3da5379c	0.08067247
26	0xbd66fa07	-0.05639079
27	0x3cd5f1d4	0.02611629
28	0xbd0e340d	-0.03471761
29	0x3d80e006	0.06292729
30	0xbda24380	-0.07923031
31	0x3db4868d	0.08814726
32	0xbb4125d1	-0.0029472003
33	0xbdb4417a	-0.08801551
34	0x3c78f3de	0.015194861
35	0x3dae1f50	0.08502066
36	0xbd7c728b	-0.061632674
37	0x3d934e6f	0.071926944
38	0xbda93a22	-0.08263041
39	0xbcd3a573	-0.025835728
40	0xbdac785c	-0.08421394
41	0xbcbaef5c	-0.022819214
42	0xbcad1b7c	-0.02113127
43	0xbd73d21c	-0.059526548
44	0x3b846f8c	0.0040416177
45	0x3d9f43cb	0.07776602
46	0xbdbf8f1a	-0.09353466
47	0x3d99931b	0.07498761
48	0x3d921fcd	0.07134972
49	0x3d89b6b9	0.06724305
50	0xbb826f57	-0.003980558
51	0xbbc443df	-0.005989536
52	0xbd5457d7	-0.051841583
53	0x3d04544b	0.03230695
54	0x3d4ae651	0.049536053
55	0x3daecbed	0.085349895
56	0xbda00183	-0.07812788
57	0x3c496af6	0.012293568
58	0x3d3b1f39	0.045684073
59	0xbc93000e	-0.017944362
60	0xbd6a0f09	-0.057143245
61	0xbd14d856	-0.036339127
62	0x3d4f633b	0.050631743
63	0x3d78d2f3	0.06074805
64	0x3d4f1c72	0.050564237
65	0xbdb67d88	-0.08910662
66	0x3d87cdd0	0.066310525
67	0x3ce65395	0.028116027
68	0x3cdd3b83	0.027005916
69	0x3d43a7fd	0.047767628
70	0xbb8128a8	-0.003941614
71	0xbd25ca9a	-0.04047642
72	0xbdc237b1	-0.094832785
73	0xbda8c050	-0.08239806
74	0xbd8dbae9	-0.06920416
75	0xbd8352b8	-0.06412262
76	0xbda0d1ea	-0.07852538
77	0x3b544240	0.003238812
78	0xbd825513	-0.06363883
79	0x3b94e4f4	0.004543895
80	0x3d890c08	0.06691748
81	0x3d9de206	0.07709126
82	0xbd77c988	-0.06049493
83	0xbda3d79d	-0.08000109
84	0xbc964d1a	-0.018347312
85	0xbdbdafa0	-0.092620134
86	0xbd1ffe2e	-0.039060764
87	0xbda3811f	-0.07983612
88	0x3cb22655	0.021746794
89	0xbd5cb9bd	-0.05388807
90	0xbd20cc76	-0.03925749
91	0x3d9c9526	0.07645635
92	0xbd22c2da	-0.039736606
93	0x3dc27e99	0.09496803
94	0x3d804d33	0.062647246
95	0xbde315c4	-0.11088136
96	0xbce6c44f	-0.02816978
97	0xbd00a941	-0.031411413
98	0x3d350a7b	0.044199448
99	0xbdbeb4ab	-0.093118034
100	0xbb4b4a29	-0.0031019545
101	0x3d8190aa	0.063264206
102	0x3d503ee7	0.05084124
103	0x3ce9278e	0.028461244
104	0xbdabb42b	-0.08383974
105	0xbbc88981	-0.0061199074
106	0x3d743df7	0.059629407
107	0xbd5d81d6	-0.0540789
108	0xbd2da416	-0.042392813
109	0xbd3f2f3c	-0.046675906
110	0xbd57947e	-0.052631848
111	0x3f000834	0.50012517
112	0x3eb78d02	0.35849768
113	0x3eb859b4	0.36005938
114	0xbb24a575	-0.0025123034
115	0x3d8bfd6d	0.068354465
116	0xbb924bf1	-0.0044646193
117	0x3f082e6a	0.5319582
118	0x3ed8e1fa	0.42359906
119	0x3ed65410	0.4186101
120	0xbd30a9e7	-0.04313078
121	0xbce85560	-0.028361022
122	0xbd8f8857	-0.07008427
123	0x3ed3241d	0.4123849
124	0x3ee2b6a2	0.44279963
125	0x3e9728e0	0.29523373
126	0x3b2eb18d	0.0026656121
127	0x3c7a4085	0.015274172
128	0xbd43d253	-0.047808003
129	0xbd7a07b3	-0.0610425
130	0xbd48c845	-0.049019117
131	0x3e2a52d9	0.16633166
132	0xbd8e8b65	-0.06960181
133	0x3d7df29a	0.06199894
134	0x3d8825d8	0.06647843
135	0x3d11dbea	0.035610117
136	0xbb963792	-0.004584261
137	0x3eb8aa61	0.3606749
138	0x3d8a5e54	0.06756273
139	0xbd83de89	-0.064389296
140	0x3d534440	0.05157876
141	0x3d937343	0.07199719
142	0x3b3ae87b	0.0028519917
143	0x3ec9c94e	0.39411396
144	0xbc843ec9	-0.01614322
145	0x3d768be5	0.060192008
146	0xbd5ee5b4	-0.05441828
147	0x3ef576d7	0.4794223
148	0x3eef2822	0.46710306
149	0x3e9f7304	0.31142437
150	0x3acebcee	0.0015772858
151	0x3cafaf08	0.021445766
152	0x3d9f33d4	0.07773557
153	0x3efd1765	0.4943191
154	0x3ebe2179	0.37134913
155	0x3e894b4e	0.26815265
156	0xbbb51bbb	-0.0055269874
157	0xbc6b32a8	-0.014355339
158	0x3d0b21d5	0.03396781
159	0x3ed5e167	0.4177353
160	0x3edb6ba6	0.42855567
161	0x3e7ebb02	0.24876025
162	0xbd707e3d	-0.05871414
163	0xbd77cfec	-0.060501024
164	0xbc9103c4	-0.01770199
165	0x3d353556	0.04424032
166	0x3d955cd3	0.072930954
167	0x3e1ea67f	0.154932
168	0x3d3187b1	0.043342296
169	0xbdba60cb	-0.09100493
170	0xbc03d72d	-0.008046907
171	0xbd824e61	-0.06362606
172	0xbd163a7e	-0.036676876
173	0x3e90c3a5	0.28274265
174	0xbd00b524	-0.03142275
175	0x3a667580	0.00087913126
176	0x3dbf9b9d	0.09355853
177	0xbce87082	-0.02837396
178	0xbdc40468	-0.09571153
179	0x3eafdbfc	0.34347522
180	0x3d52a27f	0.0514245
181	0xbd2afddb	-0.041746
182	0xbd5530ec	-0.05204861
183	0x3ecf823c	0.40529048
184	0x3ede124a	0.43373328
185	0x3e7a4bcf	0.24442981
186	0x3c09bf4e	0.008407427
187	0xbc858f1e	-0.016303595
188	0x3d7a39d2	0.061090298
189	0x3f0e8194	0.5566647
190	0x3ed8c9a8	0.42341352
191	0x3e884749	0.26616886
192	0xbd23002c	-0.039795086
193	0x3d8529b3	0.06502094
194	0x3ca0a1f7	0.01960848
195	0x3efdb0f7	0.49549076
196	0x3edb71fa	0.42860395
197	0x3eca9581	0.39567187
198	0xbd6e6c3b	-0.058208685
199	0xbd934028	-0.07189971
200	0x3d6a90fd	0.057267178
201	0xb8a6c20d	-7.9516416e-05
202	0x3d2f3ad1	0.0427807
203	0x3e7d7822	0.24752858
204	0x3c9d6f30	0.019218057
205	0xbc8caa90	-0.017171174
206	0x3ba38248	0.004989896
207	0x3db1906c	0.086701244
208	0xbd873cbd	-0.06603382
209	0x3ea4589f	0.32098863
210	0xbc423d04	-0.011855368
211	0x3d01b45a	0.031666137
212	0x3d1328ec	0.035927698
213	0x3cf19b01	0.029492857
214	0x3d928d93	0.071559094
215	0x3e9434f2	0.28946644
216	0x3d822d75	0.063563265
217	0x3c98c0df	0.018646656
218	0xbd99d2c4	-0.075109035
219	0xbd133dc6	-0.035947584
220	0xbc83dd74	-0.016096808
221	0xbd1e5ebd	-0.03866457
222	0x3d8f29b1	0.06990374
223	0xbdaa0ae3	-0.08302858
224	0x3dbfd7c1	0.09367324
225	0x3d8edc27	0.069755845
226	0x3c582e68	0.013194658
227	0x3d91f3d5	0.071265854
228	0x3d6a42e3	0.057192694
229	0x3d056959	0.03257117
230	0xbd1564e3	-0.036473166
231	0x3d5ca2d1	0.05386621
232	0x3d8da86b	0.06916889
233	0x3cf84ea7	0.030310942
234	0xbc57a2ac	-0.013161343
235	0xbd998d52	-0.07497658
236	0xbd7546e2	-0.059882052
237	0x3d448c9e	0.047985666
238	0x3db2e31c	0.08734724
239	0x3d573a2e	0.05254572
240	0x3dbd580b	0.092453085
241	0xbd152445	-0.036411542
242	0x3d5005a2	0.050786622
243	0x3d2536b8	0.040335387
244	0x3c32ff54	0.010925133
245	0xbdd8a38d	-0.1057807
246	0x3d92733a	0.07150884
247	0xbb5109a2	-0.003189661
248	0xbd7b79ce	-0.06139546
249	0xbd5f21c6	-0.05447557
250	0xbdbd411b	-0.092409335
251	0xbda55ef3	-0.08074751
252	0x3d8bce56	0.06826465
253	0x3c8acffb	0.016944876
254	0x3d925cc0	0.07146597
255	0xbd398488	-0.045292407

fc1.bias f4 [256]
0	0xbddd206c	-0.107971996
1	0x3ee36d6d	0.44419423
2	0xbbdcd030	-0.006738685
3	0x3e8cfabd	0.27535048
4	0x3ee67ec7	0.45018598
5	0x3eef27ca	0.46710044
6	0x3e3faf70	0.18719268
7	0x3ee63bcf	0.44967505
8	0x3ea84008	0.32861352
9	0x3f396e05	0.724335
10	0x3f481f15	0.7817243
11	0x3f5f7b8c	0.8729789
12	0xbc7abcd4	-0.015303809
13	0x3eff786d	0.49896565
14	0x3f4080d1	0.7519656
15	0x3f7171d3	0.94314307
16	0x3f4499fd	0.7679747
17	0x3f041f06	0.5160984
18	0x3f77aa5d	0.9674433
19	0xbbd0eea2	-0.0063761035
20	0x3f542c3b	0.8287999
21	0xbd81b570	-0.063334346
22	0x3f5463a5	0.82964545
23	0x3f3c3230	0.7351408
24	0x3eda149c	0.4259385
25	0x3f6253c7	0.88409084
26	0x3f4120b3	0.7544052
27	0x3ebea967	0.3723862
28	0x3f262d5e	0.64912975
29	0x3f477447	0.779118
30	0xb9d833a5	-0.0004123721
31	0x3f755748	0.95836306
32	0xbc1135c2	-0.0088629145
33	0x3f561fc3	0.83642215
34	0xbdadc879	-0.08485503
35	0x3ee09237	0.43861553
36	0x3f534ec6	0.82542074
37	0x3eca7e64	0.39549553
38	0xbc967ee9	-0.018371062
39	0x3f3e72f3	0.7439415
40	0x3ed0de08	0.40794396
41	0x3f4992bc	0.78739524
42	0xbdbd3de8	-0.09240323
43	0x3f474734	0.7784302
44	0x3f2c8f33	0.67406005
45	0x3f514bd8	0.81756353
46	0x3ecb4cb6	0.39706963
47	0x3f6fa2aa	0.9360758
48	0xbe003b9f	-0.12522744
49	0x3f3a37c0	0.7274132
50	0x3d60f4f5	0.05492111
51	0xb986dd8c	-0.00025723537
52	0x3f4558b8	0.770885
53	0x3ec1fdf5	0.37889066
54	0x3f53a34a	0.82671034
55	0x3f4767ce	0.7789277
56	0x3f09c60a	0.5381781
57	0x3f5c8bf1	0.86151034
58	0x3f59f2f4	0.8513634
59	0xbb51bbd1	-0.0032002816
60	0x3f5cebd7	0.86297363
61	0x3f593ec9	0.8486143
62	0x3f729b45	0.9476817
63	0x3f48de59	0.78464276
64	0x3ec65473	0.38736305
65	0x3f591d40	0.84810257
66	0xbc8fc4fd	-0.017549986
67	0x3f565cc2	0.8373529
68	0x3f543e72	0.82907784
69	0xbd6a493a	-0.05719874
70	0x3dd239b7	0.102649145
71	0x3e756d39	0.23967446
72	0x3f56084f	0.8360643
73	0x3f4db66e	0.8035649
74	0xbc6c29ed	-0.014414293
75	0x3f589f63	0.84618205
76	0x3f4fb808	0.81140184
77	0x3f34740f	0.7048959
78	0xbbb82560	-0.00561969
79	0x3f56f1ef	0.8396291
80	0x3f5890ae	0.84595764
81	0xbdb3d381	-0.087805755
82	0x3f6e9d17	0.9320845
83	0x3f3e8d9f	0.74434847
84	0x3f4b2131	0.7934752
85	0x3f638bbb	0.88885087
86	0x3f4d861b	0.80282754
87	0x3f2ae17d	0.6675032
88	0x3f543151	0.8288775
89	0x3f5c5791	0.86071116
90	0x3e198025	0.1499029
91	0x3f2f93ac	0.68584704
92	0x3e99c92e	0.300363
93	0x3f4f36b8	0.8094287
94	0x3f4b8b5e	0.7950953
95	0xba2955f4	-0.00064596464
96	0x3f4e0c7d	0.80487806
97	0x3f565833	0.8372833
98	0x3f3e6ca6	0.74384534
99	0xbdc2d67a	-0.095135644
100	0x3f7234c0	0.9461174
101	0xbb418def	-0.0029534062
102	0x3f5c6877	0.860969
103	0x3e88e86b	0.2673982
104	0xbd80df50	-0.062925935
105	0xba1ba9c7	-0.00059380796
106	0xbb579ba6	-0.003289917
107	0xb83579d3	-4.326722e-05
108	0x3f57ca24	0.8429282
109	0x3f2236cb	0.6336486
110	0xbcff480c	-0.031162284
111	0xbd071c1b	-0.032985788
112	0x3f561d1a	0.83638155
113	0x3f603fb0	0.8759718
114	0x3f5a395b	0.8524377
115	0x3f2dcee4	0.67893815
116	0xbdaed702	-0.08537103
117	0x3f436291	0.76322275
118	0x3f60501f	0.87622255
119	0x3f3ed421	0.74542433
120	0x3f626a18	0.88443136
121	0xbd6b4bdb	-0.05744539
122	0x3f730ad9	0.9493843
123	0x3f44ef97	0.76928085
124	0x3f550128	0.8320489
125	0xbce652c5	-0.02811564
126	0x3f669e4e	0.90085304
127	0x3f474dbc	0.7785299
128	0x3f6a9eb5	0.9164842
129	0xbdc6520a	-0.096836165
130	0x3f4621f2	0.77395546
131	0x3f5eea69	0.8707643
132	0x3f5a848f	0.8535852
133	0xbc1a8d07	-0.009433038
134	0xbd97c061	-0.0740974
135	0xb8f84ab4	-0.00011839476
136	0xbdb51e5d	-0.08843682
137	0x3f7753c9	0.9661222
138	0x3f5ecede	0.87034404
139	0xbdc2e0e2	-0.09515549
140	0x3f3376cd	0.7010315
141	0xbdd08c04	-0.10182956
142	0x3f4f4b60	0.8097439
143	0x3dfd0065	0.12353591
144	0x3f52450c	0.8213661
145	0x3ee4aebc	0.44664562
146	0x3ecd8ba9	0.40145615
147	0x3ef24ef6	0.47325867
148	0x3ea7d339	0.32778338
149	0x3f4c1ac8	0.79728365
150	0xbc226d9e	-0.00991383
151	0x3f54f381	0.8318406
152	0x3f6dd27b	0.9289929
153	0xbdbbeb41	-0.091757305
154	0x3f2ef633	0.6834442
155	0x3f585a59	0.8451286
156	0x3f4ebbe1	0.8075543
157	0x3f597aed	0.84953195
158	0xbccde57c	-0.02513384
159	0x3ec42f6f	0.3831744
160	0x3f4abab9	0.79191166
161	0x3efbfd6e	0.4921679
162	0x3f489394	0.78350186
163	0x3ed93868	0.42425847
164	0x3f5f1edf	0.8715648
165	0xb9e638f5	-0.00043911455
166	0x3eeaad12	0.45835167
167	0x3ed8cfdb	0.4234608
168	0x3f4f70ce	0.810315
169	0x3f7096d2	0.93980134
170	0x3f5f448d	0.87213975
171	0x3f44b9da	0.76846087
172	0x3f71008c	0.9414146
173	0x3f5d06c6	0.8633846
174	0x3f57e812	0.84338486
175	0x3f3e8734	0.74425054
176	0xbd6fe359	-0.058566425
177	0xbdc0feda	-0.09423609
178	0x3ed127e2	0.4085074
179	0xbd8ef244	-0.06979802
180	0x3f4a809e	0.79102504
181	0x3f4e56b2	0.80601037
182	0x3e55667b	0.20839874
183	0xbdbd0743	-0.09229901
184	0x3f48ed0c	0.78486705
185	0xbd804b2c	-0.06264338
186	0x3f43142c	0.76202655
187	0x3f669ccf	0.9008302
188	0x3f541a9c	0.828531
189	0xbdbf8fcd	-0.093536
190	0x3eb28c9f	0.3487291
191	0xbda88717	-0.08228891
192	0xbda07ed0	-0.078366876
193	0x3f465147	0.7746777
194	0xbdb66ce5	-0.08907489
195	0x3f12f29e	0.57401454
196	0x3f5ded9f	0.86690706
197	0x3e706ffe	0.23480222
198	0x3f5a9807	0.85388225
199	0x3f40741c	0.7517717
200	0xbcac2f9c	-0.021018796
201	0x3f50feaf	0.81638616
202	0x3f5d5827	0.86462635
203	0xbdb79306	-0.08963589
204	0xbdbc9703	-0.09208491
205	0x3eca7455	0.3954188
206	0x3f4907be	0.7852744
207	0x3f39c0c5	0.7255977
208	0x3f4a1d8f	0.7895135
209	0x3f510f90	0.8166437
210	0xbbaa9bbc	-0.0052065533
211	0x3e8df723	0.27727613
212	0x3f353282	0.70780194
213	0x3f41aa84	0.7565081
214	0x3f736343	0.95073336
215	0x3f5f95ba	0.8733784
216	0x3f45fbfa	0.7733761
217	0x3ea7372f	0.3265929
218	0x3f4d9674	0.803077
219	0x3f530df6	0.8244318
220	0x3f40bd18	0.75288534
221	0x3f4e2b08	0.8053441
222	0xbda889d1	-0.082294114
223	0x3f3709e4	0.71499467
224	0x3f4c687e	0.7984694
225	0x3f3a1965	0.72695
226	0x3f66dd2f	0.9018125
227	0xbc1af0a0	-0.0094567835
228	0x3f247233	0.64236754
229	0x3ee50f96	0.44738454
230	0x3f6d9636	0.9280733
231	0xbca57b4f	-0.0202004
232	0xbd7bb8d7	-0.061455574
233	0x3ee3cdf1	0.44493058
234	0x3f64945b	0.8928887
235	0x3f16efd4	0.589597
236	0xbd5f4e31	-0.05451793
237	0xbd65e62e	-0.05612772
238	0xbb89cdf0	-0.004205458
239	0x3f47ddf6	0.7807306
240	0x3f50467e	0.8135756
241	0x3ee83b4c	0.4535774
242	0x3f465268	0.7746949
243	0x3ef644ae	0.48099273
244	0x3f513027	0.817141
245	0x3f766c8a	0.9625937
246	0x3f61a53b	0.88142747
247	0x3f697122	0.9118825
248	0x3f54d605	0.8313907
249	0x3f511947	0.81679195
250	0x3f1c9990	0.6117182
251	0x3cd97876	0.026546698
252	0xbcf7d091	-0.03025082
253	0x3f05cfc5	0.52270156
254	0x3ee2625b	0.44215664
255	0x3f59f991	0.85146433
