model_epoch_900.pth (torch, 141254 bytes, 15 tensors)

target_net.fc1.weight f4 [64, 36]
000000 80 ed cc 3d f0 1b 66 3d d6 51 3b 3c 51 66 04 bd
       0.10006237 0.056178987 0.011433085 -0.03232414
000010 9b 2e f6 3c a3 80 30 bd 8b 27 e7 bc 2b ff e5 3d
       0.03005152 -0.043091428 -0.028217098 0.1123031
000020 db d5 56 3d b8 9e 01 3c dd 93 b9 bd b8 0e ee bd
       0.052450042 0.007911377 -0.09061406 -0.11623901
000030 0b 2b f1 bd 9b 9e b3 3d 00 95 4e bd 36 f5 80 3d
       -0.11775788 0.08770486 -0.050435066 0.0629677
000040 97 7a 56 3d bb 14 e1 bd e0 d0 16 bd ce cc 8b bd
       0.052363005 -0.10990282 -0.036820292 -0.06826173
000050 98 25 27 be 90 27 19 3d 8e 69 ca 3d f9 47 8b bd
       -0.16322935 0.037391245 0.09883414 -0.06800837
000060 00 37 fe 3c a0 be ec bc 86 b0 a3 bd 6b 0f 1a 3c
       0.031032085 -0.02889949 -0.079926535 0.00940309
000070 f0 2f fb 3d 2a 2e 2d be 23 4b 19 3e 66 5b 77 bd
       0.12265003 -0.16912141 0.14970069 -0.0603899
000080 b6 f9 0b 3d 00 03 24 3c 0b fc 56 bd 40 57 37 3d
       0.03417369 0.010010481 -0.05248646 0.044760942
000090 88 88 14 3e d6 cb c0 3d 36 f6 3c bd 03 bd 2d bd
       0.14505208 0.094138786 -0.046133243 -0.042416584
0000a0 33 10 31 bd ba f8 c0 3d af d8 06 3e 57 8c 1f 3e
       -0.04322834 0.09422441 0.13168596 0.15580879
0000b0 0b 07 26 3d 40 e0 f9 3c 73 c6 df bc 04 0e ef 3b
       0.04053406 0.030502439 -0.027316308 0.007295372
0000c0 ee c0 d5 3d d4 05 02 be 86 a9 01 3e 4d 2e dc 3d
       0.10437189 -0.12697536 0.12662324 0.10751019
0000d0 9d bf ca 3c 29 5c 22 3e f0 97 5c bd 16 6d 2a 3d
       0.024749571 0.15855469 -0.053855836 0.04160794
0000e0 fc 51 24 3e 57 69 27 be fe 97 8d 3d 12 fd a1 3c
       0.160469 -0.16348778 0.06913756 0.019773994
0000f0 10 72 74 bd 10 f4 08 bd ec df 0f 3e 18 0f c7 3d
       -0.05967909 -0.03343588 0.14050263 0.09719676
000100 20 12 90 3c 8c 74 78 bd 00 3b 9c bc 8b 19 66 3d
       0.017586768 -0.060658023 -0.019071102 0.056176703
000110 d6 29 47 bc 23 da 1f 3e fe 4e fb bd ee 8e d7 bd
       -0.012155971 0.15610556 -0.12270926 -0.105253085
000120 16 62 0b 3e 90 2b 37 3d 80 49 15 3d b9 22 d4 3d
       0.13611636 0.04471928 0.03644705 0.10358185
000130 c9 81 bb bd 20 d9 ab bc 60 eb ee 3c aa fa 23 3e
       -0.09155614 -0.020977557 0.02916497 0.1601359
000140 ab 89 3d bd d5 64 7f 3d 42 fb 87 3d 92 0f d9 bd
       -0.04627387 0.06235202 0.066397205 -0.10598673
000150 ab 74 eb 3b 98 0d b2 bd f3 dc de bd 30 00 59 3d
       0.0071855388 -0.08693999 -0.108819865 0.052978694
000160 83 d8 c7 3d 90 be aa 3d 6b fa 16 3d d6 da a8 bd
       0.09758093 0.08337128 0.03685991 -0.08244865
000170 5a d6 1f 3e 2b 99 45 3c a0 45 ba 3c d6 57 ec bc
       0.15609112 0.012060444 0.022738278 -0.028850477
000180 ab ce f9 3d 33 51 9c bd 48 d6 a1 3d 46 f0 64 bd
       0.12197622 -0.07632675 0.07902199 -0.055893205
000190 a8 cd 00 be cc 6a 31 3a 63 0a 17 be a8 d9 b2 bd
       -0.12578452 0.0006767928 -0.14750056 -0.08732921
0001a0 00 e3 5e 3c a0 4a 28 3d 93 f7 0a be 1c 82 d8 bd
       0.013603926 0.041086793 -0.13571005 -0.105716914
0001b0 28 15 94 3d 13 0a c4 bd 24 c8 1d be 40 cc 81 bd
       0.07230598 -0.09572234 -0.15408379 -0.06337786
0001c0 b6 5e 55 3d 3b e2 b1 bd ca 2f 10 3e 20 7d 39 bd
       0.052092277 -0.08685728 0.1408073 -0.045285344
0001d0 5b 8c 11 3d 06 27 cb 3d 2a ce c8 bd 1e 27 55 3e
       0.035534244 0.099195525 -0.09804948 0.20815703
0001e0 8b f2 b0 bc 30 4f 28 be ac f5 09 3e fe ef 4f 3d
       -0.021600028 -0.16436458 0.13472623 0.050765984
0001f0 c6 d4 f4 3d c1 99 4b 3d 66 35 e8 3d 56 70 28 3c
       0.11954646 0.049707178 0.1133831 0.010280689
000200 2b 8f 8d bb 00 ae 32 3b 44 7a 01 3e aa 0e 00 bd
       -0.0043200455 0.0027264357 0.12644297 -0.031263985
000210 96 19 2f 3d 46 7a bd 3d af e8 1c 3e a3 1a 16 3e
       0.04274901 0.092518374 0.15323137 0.14658599
000220 c6 a4 b5 bd 19 bf 03 bd f6 72 fa bc 3a 28 18 be
       -0.08869319 -0.032164667 -0.030572396 -0.14859095
000230 a6 9f 83 bd 36 32 8e bc 16 bb a8 bd 08 a8 9c bd
       -0.06426935 -0.017357927 -0.08238809 -0.07649237
000240 86 c3 56 bd c0 04 c1 bc 46 f2 51 bd c5 37 25 bd
       -0.05243256 -0.023561835 -0.05125644 -0.04033639
000250 20 a2 e7 3d 05 b0 b8 3d 56 c8 a6 bc 96 95 4e bc
       0.1131022 0.09017948 -0.0203592 -0.012608906
000260 a0 90 1d bd 3e 5b 4a bd 53 cf 21 3e ce 2b 8f bd
       -0.038468003 -0.04940342 0.15801744 -0.06990777
000270 36 dd 07 be 06 95 4e bd ff 8b 16 3e f0 b1 3d be
       -0.13267979 -0.05043509 0.14701842 -0.18524909
000280 31 28 81 3d 44 e5 07 be 17 96 19 3e 20 86 82 3d
       0.06306494 -0.13271052 0.14998661 0.063732386
000290 ae 7a 9b bd e0 57 48 bd 10 46 2a bd bc b2 14 3e
       -0.07591759 -0.04891193 -0.041570723 0.14521307
0002a0 40 ce 8b 3c 00 37 9a 3c 73 5d 97 bd 8e fb d5 3d
       0.017066121 0.018825054 -0.07390871 0.10448371
0002b0 00 e0 5a b9 d0 2b 19 3e 90 4c 1e 3e 0f 0c 07 3e
       -0.00020873547 0.1495812 0.15458894 0.13188194
0002c0 70 c0 0a 3d b0 52 28 bd f0 60 fd 3d da 6d d8 bd
       0.03387493 -0.041094482 0.12372005 -0.105678275
0002d0 f6 ad c1 bc 43 cb d5 bd 96 ba 5c 3c ae f2 8a bd
       -0.023642521 -0.1043916 0.01347222 -0.06784569
0002e0 bd 30 5c bd 30 2f d0 3c ab 96 6c bb c0 a8 01 3e
       -0.053757418 0.025413126 -0.0036100547 0.1266203
0002f0 7e 49 ea bd c2 16 57 3d fb d3 b5 3d 93 f8 b1 3d
       -0.11439799 0.052511938 0.08878323 0.0868999
000300 8e 73 11 3e 44 0b 1b 3e 53 4d e4 bd b3 58 80 bd
       0.14204237 0.15141016 -0.11147561 -0.06266918
000310 9f 26 2c 3e 27 19 5d bd eb a5 1b be 6e 8a f3 bd
       0.16811608 -0.053979065 -0.15200011 -0.11891638
000320 e6 18 5f 3d 00 e8 1e 3b 66 b4 25 bd 15 4d 06 3d
       0.054467104 0.002424717 -0.040455244 0.032788355
000330 8b ff b2 bd e0 97 d7 3d 0b 77 d4 bc 8e 60 86 3d
       -0.08740147 0.10527015 -0.02593567 0.06561385
000340 02 10 16 be 40 6d c7 bd 0b 57 17 3d c0 72 2c 3c
       -0.14654544 -0.09737635 0.036948245 0.010525405
000350 d6 d0 96 bd e8 f2 d5 3d 60 f3 86 3c 8f fb 4b be
       -0.07364051 0.10446721 0.016473472 -0.1992018
000360 56 b1 3e bc 07 d6 02 3e 9b e3 b6 bd 92 12 8e bd
       -0.01163896 0.12776957 -0.08930131 -0.06937136
000370 61 b9 3b be fa 99 35 3e 08 89 fc bd f3 d3 d4 3d
       -0.18332435 0.17734519 -0.12330824 0.103919886
000380 8b 6c dc bd 7c 9c 95 3d 99 f4 6a 3d a1 71 11 3d
       -0.107628904 0.07305238 0.057362173 0.035508756
000390 52 8f 20 be c8 d9 c3 bd 26 50 34 3d 5c 03 60 3d
       -0.15679672 -0.09563023 0.044021748 0.054690704
0003a0 2b dc 4b be 9b 94 d8 3c f6 a8 d7 bc ab 6d a7 bb
       -0.19908206 0.026438048 -0.026325684 -0.005109509
0003b0 60 a7 22 3d fb ea 94 3d 2b 99 a0 bd 34 81 7f 3c
       0.039710402 0.072713815 -0.078417145 0.015594769
0003c0 63 b4 e9 bd 9e d4 bd bd 00 ca e2 bb ee 27 17 be
       -0.11411359 -0.09269069 -0.006921053 -0.14761326
0003d0 30 f6 64 bd bd 2d e3 bd a3 4a ca 3d 70 bf 48 bd
       -0.055898845 -0.11092708 0.09877517 -0.049010694
0003e0 c2 5d 0d 3e f6 a9 6f 3d 00 21 33 bc d7 dc 09 be
       0.13805297 0.058511697 -0.010933161 -0.1346315
0003f0 d8 d1 f1 3d 0b 19 df 3d 5c 46 10 be fe e8 b1 3d
       0.11807603 0.108934484 -0.1408934 0.08687018

target_net.fc1.bias f4 [64]
000000 be d0 b1 3c ee 9f b4 3d 83 22 f0 bd f4 11 f9 bc
       0.021705981 0.08819567 -0.117253326 -0.030404069
000010 08 ea 15 3c 39 41 3c be 84 a6 89 bd 81 d8 22 3d
       0.009150036 -0.18384255 -0.067212135 0.039757255
000020 d8 f4 12 be 32 6f f4 3d e2 41 6e 3d b1 02 01 3e
       -0.14351213 0.11935271 0.0581683 0.12598683
000030 49 69 c8 3d ac 4a af bd 75 d4 01 3e c2 a7 91 bd
       0.097857065 -0.085591644 0.12678702 -0.071120754
000040 94 dd 12 be 64 2b 35 be d6 8b dd 3d 58 94 db bd
       -0.14342338 -0.17692333 0.10817687 -0.10721654
000050 13 55 f5 bd 14 e0 29 be 4f 19 dc 3d e6 01 d2 bd
       -0.11979117 -0.16589385 0.10747015 -0.10254268
000060 d0 bb 38 bd 8a b8 65 bd 07 28 fd 3d 39 19 b6 3a
       -0.045100987 -0.056084193 0.1236115 0.0013893015
000070 3e 7d 01 be 98 a4 38 3e 55 c7 9d 3d f6 40 08 be
       -0.12645432 0.18031538 0.07704035 -0.1330603
000080 19 96 81 bd be c1 26 3c 2e 4a 9b bb 59 45 2e bd
       -0.06327457 0.010178028 -0.0047390675 -0.042546604
000090 da 2d ea 3d 8c 66 aa 3d e0 fe 34 be ea ad 97 3c
       0.11434527 0.083203405 -0.17675352 0.018515546
0000a0 6f bf 29 be 99 28 0a bb 29 9b e3 bd ee e6 e7 bd
       -0.16576932 -0.0021081327 -0.11113579 -0.11323343
0000b0 4c a0 0a 3e 5f 46 4f 3d 0b dc 62 bd 49 1f 0e be
       0.13537711 0.05060422 -0.05538563 -0.13879122
0000c0 65 4f 15 3d 37 af 08 be a0 90 19 be 0e fa 0a bd
       0.03645267 -0.13348089 -0.14996576 -0.033929877
0000d0 1a fa 00 3d 31 5f b0 bc 36 16 1f 3d ea 90 82 3d
       0.031488515 -0.021529766 0.03883954 0.063752964
0000e0 43 f4 2a be 43 4e eb b9 53 7a 2c bb d8 88 ec bc
       -0.16694741 -0.00044881002 -0.0026318028 -0.028873846
0000f0 c5 ce 05 be da 2d 5c bd c5 1a 0a 3e 4e 07 ae bd
       -0.13067158 -0.053754665 0.13486774 -0.08497487

target_net.fc2.weight f4 [3, 64]
000000 ff 7d 78 bd 8a c9 78 bc e5 94 18 bd 51 37 a0 bd
       -0.060667034 -0.015184769 -0.037251372 -0.07823051
000010 d7 2b 24 bc a1 42 a4 bd 8d c1 81 3d e6 a6 eb 3c
       -0.010020218 -0.08020521 0.06335745 0.028766107
000020 d0 cc c5 bd 3e 7b 01 3e f8 af 2a bd 0b 31 c6 3c
       -0.096582055 0.1264467 -0.041671723 0.024193307
000030 28 72 4b bd b0 c7 86 3d 36 c9 bd bd 00 2c a2 3d
       -0.049669415 0.06581056 -0.092668936 0.079185486
000040 ca cb fe 3d 28 5e 95 bb d2 de 18 bd 19 38 78 3c
       0.124412134 -0.0045583434 -0.037321873 0.0151500935
000050 01 e2 69 bd a3 e1 d4 3d a6 2c b5 bd 4d 99 00 bd
       -0.0571003 0.10394599 -0.08846407 -0.0313962
000060 06 87 7e bd 55 dc 2e bd e1 f4 37 3d ae 31 5a 3d
       -0.062140487 -0.042690594 0.04491127 0.053270034
000070 83 e6 ae 3d 3d 65 3b bd a0 40 a4 bd 14 c9 a4 3d
       0.0854006 -0.045750845 -0.08020139 0.08046165
000080 84 b6 f3 bc bc 5c a8 3d 92 5c 3b 3d 52 52 d7 bb
       -0.029750116 0.08220813 0.04574258 -0.0065710926
000090 ea 06 3a bd bf 34 ad bd 93 25 d7 3d 1f ca ef bc
       -0.04541675 -0.08457326 0.105052136 -0.029271184
0000a0 16 31 6f 3d 28 bf 9a bd f2 22 0c 3d 4d c6 75 3d
       0.05839642 -0.075559914 0.034213014 0.060003567
0000b0 ad a4 12 bd 40 56 85 3d da 84 ce 3c 8a 86 a0 3c
       -0.03580158 0.065105915 0.025209833 0.019595403
0000c0 90 e5 53 3d eb 11 52 bd a0 51 e1 bc 9d dc 9e bd
       0.0517326 -0.05128662 -0.027504742 -0.077569224
0000d0 80 16 f7 bd 02 61 ec bd de 23 92 bc 8d a2 a2 3d
       -0.120648384 -0.1154194 -0.017839368 0.0794116
0000e0 3a b6 e4 3c 29 f7 df 3c d6 23 a4 3d ad 58 09 be
       0.027918924 0.027339535 0.08014648 -0.13412733
0000f0 e0 c0 2e bd 96 69 f6 3c 7a 72 23 be 40 eb 44 3d
       -0.04266441 0.030079644 -0.15961638 0.048075914
000100 6e 8c 4e bd 7c 14 e7 bd 53 1f bd 3d eb 94 4d bd
       -0.050426893 -0.11283204 0.0923449 -0.050190847
000110 74 67 c9 3d 59 0b 88 bd dc 6e 3d 3d d9 b6 c0 3d
       0.09834185 -0.066427894 0.046248302 0.094098754
000120 50 40 41 bc b4 c7 71 bd 06 dc a1 3d d5 46 09 3e
       -0.011795118 -0.059028342 0.07903294 0.13405927
000130 65 8e 0e 3d b5 7f 46 3d 17 9e 65 3d 10 64 2b bd
       0.034803767 0.048461635 0.05605897 -0.041843474
000140 b1 52 63 bd 31 5e c0 3d 7a af 84 3d 4c d4 bc 3c
       -0.055498783 0.093929656 0.06478782 0.02305045
000150 9d 58 80 3d 91 1d d6 3c bf b7 b8 bd b1 ec 21 3d
       0.06266902 0.026137145 -0.09019422 0.039532367
000160 1d 44 d1 3c 03 f9 ec bd 8c d8 b1 3d 4b ae f6 3d
       0.025545174 -0.11570933 0.08683881 0.120449625
000170 3a 78 39 bd aa 1f 00 3d b3 40 dd bc ab 2e 29 bb
       -0.045280673 0.031280197 -0.02700839 -0.002581517
000180 da 90 f1 3d 01 3b 6b bc f6 c5 60 3c d2 ce a8 3c
       0.11795206 -0.014357329 0.013719073 0.020606432
000190 af 84 9d bc 8a 65 3a 3d ef 36 b9 bd d9 e1 0b 3c
       -0.019228308 0.04550699 -0.09043681 0.008537733
0001a0 7d 86 d9 3c 20 f5 ab 3d bf 69 90 bd ad f4 ad 3d
       0.026553387 0.08396363 -0.070514195 0.08493934
0001b0 da 1d 11 3e 79 7a c2 3d 38 87 fc 3d 89 8a 94 bc
       0.14171544 0.09496016 0.123304784 -0.018132465
0001c0 13 a6 a1 3c f5 8c 89 3d d4 40 f1 bd 2f 05 f8 b9
       0.01973251 0.067163385 -0.11779943 -0.00047306108
0001d0 90 c1 4c bd d7 e1 84 bd cb e1 33 bd b6 10 e7 bc
       -0.049989283 -0.06488388 -0.043916505 -0.02820621
0001e0 da c3 8c bd 75 f1 ea bc 6c 60 b0 bc 1d 28 be bb
       -0.06873293 -0.028679589 -0.021530353 -0.0058031217
0001f0 b2 2f 34 bc 4c ab 64 bd 12 ad 82 bc 10 2d 83 3c
       -0.0109977 -0.055827424 -0.015951667 0.016012698
000200 0f 1c 8e bd 30 ba 2d bd c7 b2 7f bd 73 99 2d 3d
       -0.069389455 -0.04241389 -0.062426355 0.04238267
000210 1c 7e 7a bd 0d ec 80 3d 31 81 9a bd 25 3a 02 bd
       -0.061155424 0.06295023 -0.075441726 -0.031793732
000220 ba a9 82 3d b7 3c 96 3d 7c 26 23 3e 61 b8 07 bd
       0.06380029 0.07335799 0.1593265 -0.03313482
000230 32 66 d2 bc 23 09 9a 3d ae 80 4f bd 6e 3e 06 bd
       -0.025683496 0.07521274 -0.050659828 -0.03277438
000240 29 57 7b bd 7f a8 95 3c 7c 3e 0a 3d 68 6b be 3b
       -0.06136242 0.018268822 0.033750996 0.0058111437
000250 6a e9 dd bd d2 01 7c bd 8b 97 ca 3d 2d 12 b6 bd
       -0.10835536 -0.061525173 0.09892186 -0.088901855
000260 be db 39 bb 86 8b 9d 3d 20 29 8d 3d d5 04 61 3b
       -0.0028359736 0.076926276 0.068926096 0.0034335156
000270 76 b1 73 bd 0a bd 10 3e 54 37 d5 3d d3 78 e0 3d
       -0.05949541 0.14134613 0.104109436 0.109605454
000280 b6 8b b7 bd 74 99 22 3d 1a d6 c1 3d 9d 4a 54 bd
       -0.089621946 0.039697126 0.09464665 -0.05182897
000290 38 b0 91 bc a5 56 bf b9 62 70 91 3d b2 36 c4 bd
       -0.017784223 -0.00036494914 0.071015134 -0.09580745
0002a0 c5 c2 c0 bc 3e 2e c7 bd 7b 37 e7 bc 88 72 ed 3d
       -0.023530373 -0.09725617 -0.028224697 0.11594111
0002b0 ee 87 99 3d 90 74 72 bd 5a 58 6c bd 6a 8d d8 3d
       0.0749663 -0.059193194 -0.057701446 0.105738476
0002c0 79 02 d9 3c 08 6e 21 3d c5 06 b5 3d 36 00 86 bc
       0.026490437 0.039411575 0.08839182 -0.016357522
0002d0 98 99 b1 bd f7 2c ac bc 63 cc 01 3d 97 f3 eb 3d
       -0.08671874 -0.021017535 0.03168906 0.115210705
0002e0 16 86 02 be 10 dd d4 bd 1d 81 aa 3d 2a f8 e0 3d
       -0.12746462 -0.10393727 0.08325408 0.109848335
0002f0 46 4e da bd 2d 29 e5 bd ce a5 84 3d 50 1e 06 3c
       -0.10659461 -0.11189494 0.06476937 0.008185938

target_net.fc2.bias f4 [3]
000000 9f fd f1 ba 64 58 4f 3c 57 dd 31 3d
       -0.0018462426 0.012655351 0.043423977

tatic_net.fc1.weight f4 [64, 42]
000000 7b 30 12 3e bf ca 1d bd 8d c3 f0 3b 5a 26 11 be
       0.14276306 -0.038523432 0.00734753 -0.14174786
000010 1a 14 2e 3d df b6 de bd 13 bc 32 bd 36 8c d7 bd
       0.04249964 -0.10874724 -0.043636393 -0.1052479
000020 c5 5e bc 3d fc dd 06 3e 9e 4d a6 bd 31 e1 9a 3c
       0.09197763 0.13170618 -0.08120273 0.018906208
000030 69 06 00 be e0 cb ff 3d d6 df b9 3d b4 82 f3 bd
       -0.12502445 0.12490058 0.090758964 -0.11890164
000040 97 a1 10 be b8 66 ee 3d 9e aa 63 3c 56 ac de bd
       -0.14124142 0.11640686 0.013895659 -0.10872714
000050 f6 3d 1d 3e 89 c0 c0 bd 03 65 44 bd ea 83 22 3e
       0.15355667 -0.09411723 -0.047947895 0.15870634
000060 91 77 16 be 20 6c bc 3d cf 18 92 bd be 9e ca bd
       -0.14694048 0.09200311 -0.07133638 -0.09893559
000070 4d c2 9c 3d 13 c1 66 bd 9a 53 06 3d a0 a9 fb 3d
       0.076542474 -0.056336474 0.032794572 0.12288213
000080 61 06 5a bc 16 86 19 be 15 58 d2 3d a7 a6 d1 3d
       -0.013307185 -0.14992556 0.102707066 0.102368645
000090 61 75 da bd ea 21 02 3d 1d 71 23 3d 18 a4 8b 3d
       -0.106669195 0.031770624 0.039902795 0.06818408
0000a0 96 86 ae 3d 37 a0 28 bd a1 ce fc bd 1a ce 15 3e
       0.08521764 -0.041168418 -0.12344099 0.14629403
0000b0 b2 1f 62 bd f3 4c 02 3e 28 c4 30 bc ba ef 80 3d
       -0.05520601 0.12724666 -0.010788955 0.06295724
0000c0 43 1b 0e 3e 7d 4a 19 bd 54 c6 21 bc 43 db ae bc
       0.13877587 -0.037424553 -0.009873945 -0.021344787
0000d0 b5 91 94 3d 4d 8f b9 3d 38 5c ad bd bf 05 90 bc
       0.07254354 0.090605356 -0.08464855 -0.017580865
0000e0 c4 c7 a9 bd 23 a0 f1 bd ff 49 81 3d 69 6f be 3d
       -0.082900554 -0.11798122 0.06312942 0.092985936
0000f0 06 79 b0 3d 60 ad 92 3d f3 4c 18 bd a3 cd 08 3d
       0.086168334 0.07161975 -0.03718276 0.033399235
000100 7a 4c 1d 3e 04 38 0a bd 43 36 b5 bd 28 7c f1 3d
       0.15361205 -0.033744827 -0.0884824 0.11791259
000110 62 4c af 3d 36 dc 15 3c 34 f6 04 be 0c 4e ae 3b
       0.08559491 0.009146741 -0.12984544 0.0053193625
000120 1f de c1 bd 94 e3 27 3d a4 29 17 be b6 99 f4 bd
       -0.09466194 0.04098852 -0.14761978 -0.119433805
000130 1e d5 1c bd 03 33 1b 3e 4b 10 08 be 9b 3d 59 bd
       -0.038289182 0.15156178 -0.13287465 -0.053037267
000140 9b 5b f6 bd 0d 0f cf 3d 00 d0 a9 bc c4 79 85 3d
       -0.12029191 0.101102926 -0.020729065 0.065173656
000150 36 05 83 3d 2c 40 b2 3d be da f9 bd 49 f7 04 be
       0.06397478 0.08703646 -0.12199925 -0.12984957
000160 14 46 0c be 08 a1 31 3e 00 d0 44 3d a3 94 ad 3d
       -0.13698608 0.17346585 0.048049927 0.08475616
000170 08 2f 86 3d 99 55 4c 3d aa 37 3f bd c5 11 97 3d
       0.06551939 0.04988632 -0.046683945 0.07376436
000180 67 82 19 be bf 84 09 be e8 da 98 3d df 0a af bd
       -0.14991151 -0.13429545 0.07463628 -0.08546995
000190 d7 b6 10 3e f1 b2 c0 bd b5 a3 96 3d d8 6f f6 bd
       0.14132248 -0.0940913 0.073554434 -0.12033051
0001a0 84 fd b6 bd ed 8a 36 bd 7d 93 ff bd 47 c9 6e bd
       -0.08935073 -0.044566084 -0.12479303 -0.05829742
0001b0 d5 15 56 3d a8 b8 ca 3c 6e d2 7a bd 56 d0 cd 3d
       0.052266914 0.024746254 -0.061235838 0.100495026
0001c0 24 2d 8f bc 09 ce d6 3d 6e 23 0f be 0e ca a6 3b
       -0.01747758 0.10488517 -0.13978359 0.0050900048
0001d0 cb 3f 23 3d 0e 88 46 3d b8 22 0a be 9f e3 32 3d
       0.03985576 0.048469596 -0.13489807 0.043674108
0001e0 81 c4 37 3d 3b ad 11 be 4a e8 fd bd 32 aa c5 3d
       0.044865135 -0.14226238 -0.12397821 0.09651603
0001f0 63 50 14 be 41 f1 5f bb 81 0c 11 be 32 e0 dd bd
       -0.1448379 -0.0034170898 -0.14164926 -0.108337775
000200 6f 3b 90 3d e4 f4 29 3e ff 58 58 3d 92 9d 27 3e
       0.07042586 0.16597325 0.05281925 0.16368702
000210 96 f5 0f be eb ba fa bd 77 76 fb bd e9 e1 14 3e
       -0.14058527 -0.12242683 -0.12278455 0.14539303
000220 19 18 34 bd 5d 74 41 3d 84 6c 97 3d 44 ec 13 be
       -0.043968294 0.047230113 0.073937446 -0.14445597
000230 ba e7 ba 3d 57 e0 27 be ab d0 8b bc ab 2a fa 3d
       0.091262296 -0.16394173 -0.017067274 0.122151695
000240 2f a1 9b 3d 5e d5 1c 3e c3 45 56 3c 09 be 96 3d
       0.07599103 0.15315768 0.013078156 0.07360465
000250 37 5b c0 bd bd ca 11 3e e2 10 87 bd 70 14 e4 bd
       -0.09392398 0.14237495 -0.06595017 -0.11136711
000260 72 d6 d2 3d 17 6d 98 bd bf f5 10 3e d5 83 c6 bd
       0.102948084 -0.07442682 0.14156245 -0.09693114
000270 1c 9f c0 3c 15 85 0b bd e8 2b a1 3d 37 81 b5 bc
       0.02351337 -0.034062464 0.078697026 -0.022156341
000280 91 ce f8 3d c4 c7 b0 3c 49 4f 11 be 02 c1 9f bd
       0.121487744 0.02157963 -0.14190401 -0.07800485
000290 2e b9 1f be b5 9a cc 3d 7a 0d 95 bd 2d ee 1d 3e
       -0.15597984 0.099904455 -0.07277961 0.15422888
0002a0 4b 34 52 3d 25 fd 02 be 18 ba 0a be fb 82 fd bd
       0.0513194 -0.1279188 -0.13547552 -0.12378498
0002b0 3c c9 68 3d d0 8b 5c bd 19 c8 d1 bd f8 21 18 be
       0.056832537 -0.053844273 -0.10243244 -0.14856708
0002c0 ae f0 13 bd 5b c0 a2 bd a6 d4 a9 bd 1c f7 1b 3e
       -0.036118202 -0.07946845 -0.082925126 0.15230983
0002d0 88 c8 f3 bc 42 85 a2 bd da c0 14 bd 3c 87 f5 bd
       -0.029758707 -0.07935573 -0.03631673 -0.119886845
0002e0 0d f5 11 3c 28 e0 1d 3e 16 02 96 bd 21 6f ca 3c
       0.008908522 0.1541754 -0.073246166 0.024711194
0002f0 2f c0 d6 bd b7 b6 39 3d f9 9b d5 bd 49 24 13 be
       -0.10485875 0.045340266 -0.1043014 -0.1436931
000300 e5 a1 de 3d e2 38 da 3d dd f2 bb 3d 22 1c 4a 3d
       0.10870723 0.10655381 0.09177182 0.049343236
000310 37 40 11 be 79 67 72 3c 3f 1f 44 3d d3 67 cf 3d
       -0.14184652 0.014795178 0.04788136 0.10127225
000320 9b 85 3d bc ce 44 ed bd a3 5b 20 bc ef 35 a4 3d
       -0.011567499 -0.11585389 -0.009787473 0.080180995
000330 a2 a6 48 bd 4f 68 63 bc 6d cc ca 3b 4f 25 e9 bb
       -0.04898704 -0.01387985 0.0061889202 -0.0071150432
000340 1d ad 01 3d 37 34 1c 3e 7e 23 9d 3d da 9f f7 bd
       0.031659234 0.15254293 0.07672785 -0.12091036
000350 d7 9c 15 3e c6 8c ba 3a 6c 87 25 bd 32 54 3c 3d
       0.14610611 0.0014232628 -0.04041235 0.045978732
000360 ba 1a ad 3c 4d f6 12 3d 4f 85 1f bb 41 3c b5 3d
       0.021130908 0.035879422 -0.0024340933 0.08849383
000370 ea a9 9e bd 55 4d d0 3d 38 62 7d 3d af 32 b6 3d
       -0.07747252 0.10171 0.061861247 0.08896386
000380 23 fb 33 3d 3a e0 c0 3c 1c 23 72 bd af 53 f8 bd
       0.043940675 0.02354442 -0.059115514 -0.121253364
000390 35 bf d1 3d c2 5a b2 bd ec 84 70 3d 4d 79 56 3c
       0.10241548 -0.08708717 0.058720514 0.013090444
0003a0 b0 30 fe bd 41 77 13 bc 16 d5 dc 3c 86 ba 67 3d
       -0.1241163 -0.0090006 0.026957076 0.056574367
0003b0 fc fa de bb ca 20 19 3d f7 43 fe bd 6a 6e 39 bd
       -0.006804822 0.037384786 -0.12415307 -0.045271315
0003c0 90 bf 1d 3e e2 e8 05 3e 8d df 9c bd 60 f7 0b 3e
       0.15405107 0.13077119 -0.076598264 0.13668585
0003d0 a2 cf 0c 3e 08 a2 f3 3b 29 e8 e4 bd 47 bc bc 3d
       0.1375108 0.007435087 -0.111770935 0.092155986
0003e0 a6 b5 d4 bd c4 63 ef 3d 32 1c a2 3c d7 26 05 be
       -0.10386209 0.11688951 0.019788835 -0.13003097
0003f0 73 00 c6 3d d4 ff fd 3d 36 39 b0 3d 72 dd 62 bb
       0.096680544 0.12402311 0.08604662 -0.0034616855

tatic_net.fc1.bias f4 [64]
000000 b5 12 c7 3d 33 6e 74 bd 3d 83 70 3d 6a 19 d4 3d
       0.09720365 -0.059675407 0.05871891 0.1035641
000010 a3 3c 8a 3c 53 1c ab 3d be db 40 bd 84 b1 b0 bd
       0.016874617 0.08355012 -0.047084562 -0.086276084
000020 ba c5 a0 bd d6 1a e6 3a 07 a2 65 3d ee ff c9 3d
       -0.07850213 0.0017555605 0.056062724 0.09863268
000030 51 bd a8 bd 55 68 e5 3c 19 56 2c 3d e8 c6 da 3d
       -0.08239234 0.028003851 0.042074297 0.106824696
000040 d8 1a b0 bd 48 3d c1 3d 0f 58 0c 3e de 30 c7 3d
       -0.0859887 0.094355166 0.13705467 0.097261176
000050 12 b7 59 3d 1c 16 f4 3d ea 09 b7 bd 1c 37 0b 3e
       0.053153105 0.119182795 -0.08937438 0.13595241
000060 b2 18 90 bd fe fc 3b bd 10 ad 3c bd a5 74 6b 3c
       -0.0703596 -0.04589557 -0.046063483 0.014371072
000070 68 42 18 be 07 b4 03 3e 01 78 bc bd 5b e4 84 bd
       -0.14869082 0.12861644 -0.092025764 -0.06488868
000080 9a b2 fc 3d b8 6d 99 bd 6c e9 ce 3d 54 a1 59 bd
       0.12338753 -0.0749163 0.101031154 -0.05313237
000090 24 11 2e 3c 28 cf 29 bd 4a da 20 3d 10 5c a5 3d
       0.010624204 -0.041457325 0.039270677 0.080742
0000a0 b2 82 9c bd f5 cd c7 bd 00 e5 67 3d dc 45 01 3e
       -0.07642116 -0.0975608 0.056614876 0.12624305
0000b0 e7 49 68 3d 27 16 2b 3e 92 8c 00 be 0a 2a df 3d
       0.056711104 0.16707669 -0.12553623 0.1089669
0000c0 39 ec 18 3d 02 0d 0b be d4 8e 0f be 71 9d 1b bd
       0.037334654 -0.13579181 -0.14019328 -0.037991945
0000d0 3d fc 24 bd 31 42 0c 3b 3e f0 d8 bc 47 36 94 3c
       -0.040279616 0.0021401758 -0.026481744 0.018092288
0000e0 99 95 13 3e df c2 38 3d 95 20 99 3d 4c 96 ad 3d
       0.14412536 0.04510772 0.07476918 0.084759325
0000f0 d9 4a b8 3b e5 33 ce bd 7b 42 08 be 86 5d a9 bd
       0.005624157 -0.10068492 -0.1330661 -0.08269791

tatic_net.fc2.weight f4 [6, 64]
000000 c8 47 08 3d 66 a6 82 3d 68 1e 77 bd 94 7f 90 3d
       0.03327158 0.06379394 -0.060331732 0.070555836
000010 b0 44 17 bd 60 57 6d 3c 00 67 41 3a fc 31 c5 3d
       -0.03693074 0.014486164 0.0007377714 0.096286744
000020 ec 34 a5 3d 98 01 bc bd 3a 06 d9 3d 22 43 c1 3d
       0.08066735 -0.091799915 0.10596891 0.09436633
000030 ae 4b a6 bd 40 e2 da 3c 34 1e 2f bd 72 6e 9c 3d
       -0.081199035 0.026719213 -0.042753413 0.07638253
000040 1a 9d f2 bd da a4 cb bd c0 14 0f bc 04 74 04 3d
       -0.11846371 -0.09943552 -0.0087329745 0.032337204
000050 c2 d7 eb 3d 5a 93 dd bd 9a 3e 9e 3d 60 69 fa bb
       0.11515762 -0.10819121 0.07726784 -0.007641956
000060 c0 0d 49 bc 72 af f7 bd 80 81 e5 3d 3c 61 b2 3d
       -0.012271345 -0.120940104 0.11206341 0.08709952
000070 dc 98 5e 3d b8 6b a1 3c ac 36 08 bd 6e 6f c2 bd
       0.054344997 0.019704685 -0.033255264 -0.0949391
000080 0c 9f cf bd 8c 24 33 3d b0 53 9b bc 38 67 ac 3c
       -0.10137758 0.043736026 -0.018960804 0.021045312
000090 f4 f3 f0 3d 00 00 01 3c 60 38 0c 3c 8c 33 e1 bd
       0.1176528 0.007873535 0.008558363 -0.1099616
0000a0 0a 8d b4 bd 08 9b cd bd f0 e2 26 bc 50 ec e6 bd
       -0.088159636 -0.100393355 -0.010185942 -0.11275542
0000b0 10 a9 f8 bd 70 e9 4e bd 70 fa 4c 3c 4c f7 72 3d
       -0.12141621 -0.050515592 0.012510881 0.059317872
0000c0 60 22 2e 3d f0 1f 7e 3d 86 a9 a6 bd 2c 57 ca bd
       0.04251325 0.062042177 -0.08137803 -0.09879908
0000d0 c6 f2 b3 bd a2 5b aa bd c0 a0 0d 3c 9a 10 c7 bd
       -0.0878654 -0.08318259 0.008644283 -0.09719963
0000e0 a0 da 77 bc e4 5b 8e bd 78 6e da 3d 30 56 99 3c
       -0.015127808 -0.069511205 0.106656015 0.018717855
0000f0 c0 f0 d7 3b a8 b3 c7 3d 80 06 84 bd b2 78 bf 3d
       0.006589979 0.097510636 -0.06446552 0.09349193
000100 26 53 66 bd a6 7b eb 3d 8e 48 5c bd c3 53 3b 3d
       -0.05623164 0.114981934 -0.05378013 0.04573418
000110 8b 6a 09 be 4c 5a 32 3c f3 f4 9c bd 69 f1 0d be
       -0.13419549 0.010885786 -0.07663908 -0.13861622
000120 7b 2c 4d bd d7 90 d6 3d 76 e2 06 be c5 dd cd 3d
       -0.050091248 0.10476845 -0.13172325 0.10052065
000130 f1 04 42 3d ea f8 9d bd 6b b2 be 3d e5 94 f6 bc
       0.047367994 -0.07713492 0.09311374 -0.030100295
000140 fd 10 12 3d 4e 4d 32 bc 49 82 10 bd 0c 3c c3 bd
       0.035660733 -0.010882689 -0.0352805 -0.095329374
000150 04 d2 0a 3d b8 b9 96 3c 5d 72 c0 bd f4 59 e3 bc
       0.033891693 0.018399104 -0.09396813 -0.027752854
000160 9c 2c a0 3d 81 27 ee bc c9 0f 69 bd d3 cb 7f bd
       0.078210086 -0.029071571 -0.05689982 -0.06245024
000170 4f e1 c3 3b 0a c1 43 3d 0e e5 45 bd 14 ab bf bd
       0.0059777866 0.04779152 -0.048314147 -0.093588024
000180 9a b6 4a 3d b7 5e b2 3c 93 44 06 3e be 99 7a 3d
       0.04949055 0.02177368 0.13112096 0.061181776
000190 20 49 83 3d 51 9b 52 3d 54 80 89 bc 56 71 21 3d
       0.06410432 0.051417653 -0.016784824 0.039414726
0001a0 56 83 08 bd 80 88 8d 3d a4 4b b6 3d bc 93 97 3b
       -0.033328377 0.06910801 0.08901146 0.0046257656
0001b0 4d 1e dc bc 3a c2 bc bd 16 dd 80 3c 83 66 8d bc
       -0.026869917 -0.09216733 0.015730422 -0.017260795
0001c0 4f e9 da bd f8 89 67 3c 01 31 c5 3d fe 46 e3 bd
       -0.10689031 0.014132015 0.096284874 -0.11097525
0001d0 b8 1b 50 3d ca 64 8e 3d fc f4 00 bd 54 dc 06 be
       0.050807685 0.06952818 -0.031483635 -0.13169986
0001e0 c9 ad e3 bc c8 04 97 bd 8f a5 12 3e cc cf 0a 3c
       -0.027792828 -0.07373959 0.14320968 0.008472394
0001f0 39 3b ca 3d b6 b2 2f bd 8a c7 06 3d 09 8d 73 bc
       0.09874577 -0.04289504 0.03290514 -0.014865168
000200 3b 09 79 bd 89 0a 4b bd 49 c5 a7 3b fc 3e 8d 3d
       -0.06079982 -0.049570594 0.005119954 0.06896779
000210 ad ff a3 3d ee c0 0b bd fa f9 4f 3d 97 d4 0a 3d
       0.08007751 -0.03411954 0.050775506 0.033894148
000220 da a7 25 bc 40 ab e3 bd 09 00 8a bc 5c 8d 8e bb
       -0.01011082 -0.11116648 -0.01684572 -0.0043503474
000230 d8 74 a6 3d 2e be 05 bd bb 39 0c bd 2e 0a c4 bc
       0.08127755 -0.032652073 -0.034234744 -0.023930635
000240 cc d0 f6 bd b8 6e 85 bd 8b 1d 4c bd 3e b9 ad bd
       -0.120515436 -0.065152586 -0.049832862 -0.08482598
000250 28 5b 9b 3d 36 69 ea 3d 04 4b 72 3d b9 1e d2 bb
       0.07585746 0.11445849 0.05915357 -0.006412354
000260 23 b0 db 3c 16 72 06 3d f3 95 27 bd a2 66 86 3b
       0.026817387 0.032823645 -0.040914487 0.0041015903
000270 f0 1e e8 3d 43 db a5 3c 19 36 04 bd 5a 08 b3 3c
       0.11334026 0.020246154 -0.032278154 0.021854568
000280 f5 8a 6b 3c 79 59 d0 3d 14 42 22 3b 47 20 b1 3d
       0.014376392 0.101733156 0.0024758624 0.086487345
000290 c5 0e 44 bc cd 5c ae 3d 51 40 8c bd a1 25 0c be
       -0.011966412 0.08513794 -0.06848205 -0.1368623
0002a0 83 2f df 3d 10 e0 1b 3e fe 09 8a bd c0 77 e1 3d
       0.10897734 0.15222192 -0.06740187 0.110091686
0002b0 f1 73 ad bc 2d 2d c6 3c 0b 58 b6 3d 43 0c f1 3d
       -0.02117345 0.024191463 0.089035116 0.11769917
0002c0 fb d6 89 bd f2 47 a2 bd 49 cf ac 3c 60 7e ba 3d
       -0.067304574 -0.07923879 0.021094935 0.09106135
0002d0 33 8e 9f bd a1 e6 fc 3d d4 8b a0 bd 1e 0c 81 bc
       -0.07790794 0.123486765 -0.0783917 -0.015752848
0002e0 82 72 09 be 82 0a 00 bd 35 9e 0c 3e a4 2e 2e 3e
       -0.13422588 -0.03126002 0.13732226 0.1700998
0002f0 be 20 67 bd c6 de 74 3d fa b8 0f 3d 21 b4 c1 3d
       -0.05642771 0.059782766 0.035088517 0.09458185
000300 b4 63 e6 bc b5 77 c0 3d d3 0b 97 3c 21 97 c9 3d
       -0.028123714 0.09397832 0.018438255 0.09843279
000310 11 e6 5d 3c bc f1 4c 3c fd 7b e6 3c 83 fb c2 bc
       0.013543622 0.012508806 0.028135294 -0.02380157
000320 d6 4a ca bc 1f 8a 71 bc 3c 39 cf bd 47 5e aa bd
       -0.024693888 -0.014742403 -0.101183385 -0.08318763
000330 8a e8 ac 3c 4c 29 a8 bd 43 d2 58 bd 6a 1e fc 3b
       0.021106977 -0.08211002 -0.052934896 0.0076940553
000340 32 6b a4 3d e3 40 d9 bd 0a e2 c4 3c 3b 37 64 bd
       0.080282584 -0.10608079 0.024033565 -0.055716734
000350 41 41 57 bd bb 53 a8 bd 81 26 2e 3d 2e 0d 82 bc
       -0.052552465 -0.08219095 0.04251719 -0.015875425
000360 c8 71 1d 3d 74 d3 6d bd 71 f5 00 bd 0b a0 b4 3c
       0.03843859 -0.058062986 -0.03148407 0.02204897
000370 9d 44 f0 bd 16 53 02 3e a7 47 41 bd f3 c3 1e bd
       -0.11731837 0.12727007 -0.047187474 -0.03876109
000380 18 1d 09 be 1e c2 b9 3d 18 9a e6 3d 0c 05 ba bc
       -0.13390005 0.09070228 0.1125986 -0.022707485
000390 5d 64 63 3d 0e c2 5a bd 60 ce 05 bc 7b 63 15 3d
       0.055515636 -0.05340772 -0.008166879 0.036471825
0003a0 6e 7f dc 3d 2e 59 f4 3c 63 9a 5e bd 17 26 84 bd
       0.10766493 0.02982768 -0.054346453 -0.064525776
0003b0 f6 87 36 bd 95 df d2 3d 30 86 bf 3d 0c 84 07 bd
       -0.044563256 0.10296551 0.09351766 -0.033084914
0003c0 9a 5a b6 bd af 5b 1b 3e 84 7d 5a 3d a2 56 ab bd
       -0.089039996 0.15171693 0.053342357 -0.08366133
0003d0 9a f3 f6 bc 18 81 35 3d 54 e6 aa bd 44 56 61 bd
       -0.030145455 0.044312567 -0.08344713 -0.05501391
0003e0 07 55 fc bd 1c c7 c1 3d 3a 1d 06 3e 40 49 e1 3b
       -0.12320905 0.09461805 0.13097087 0.006875187
0003f0 b4 08 bb bd 17 cd 87 bd 20 0e 38 3c 49 35 2f bd
       -0.09132519 -0.06630915 0.011233836 -0.042775426

tatic_net.fc2.bias f4 [6]
000000 c4 b9 65 3d 81 8a ca bd d2 52 02 3d 70 92 c6 3c
       0.056085363 -0.09889699 0.031817265 0.024239749
000010 20 b2 0a 3d 7f 37 9b bd
       0.03386128 -0.075789444

tatic_net.fc3.weight f4 [6, 3]
000000 58 21 b5 be e6 b8 be 3e ff 26 d6 be 44 ff ed 3d
       -0.35377002 0.3725044 -0.41826627 0.11620954
000010 ae 9a c8 3e e2 0f 59 bd a9 26 8a 3e f2 19 0d be
       0.3918051 -0.052993663 0.2698262 -0.13779429
000020 fb f0 7c be 40 31 ae 3e 5e fa 46 be 1f c0 14 bf
       -0.24701302 0.3402195 -0.19431445 -0.58105654
000030 61 bc 7d be b3 18 05 bf 2b 21 10 3f a6 11 19 3f
       -0.24778892 -0.51990813 0.5630061 0.59792554
000040 cd 31 f0 3e 0d 52 a5 bc
       0.46912995 -0.020180726

tatic_net.fc3.bias f4 [6]
000000 4e a4 b7 3e 67 f3 f3 3e 87 a3 ea 3d 08 a3 ac 3e
       0.35867542 0.4764664 0.114569716 0.33718133
000010 61 f3 ba bd a9 ab 82 bd
       -0.09128452 -0.06380398

tatic_net.fc4.weight f4 [3, 9]
000000 bd cb 8d 3e 24 7f b8 3e 55 d6 82 3d 07 e8 7e 3e
       0.27694502 0.360345 0.06388537 0.24893199
000010 cd b0 d9 3e 95 9d b4 3e 68 53 03 be 75 a6 b1 3e
       0.425177 0.35276476 -0.12824786 0.3469731
000020 1a c3 15 be 1c 8e 48 3b 0d ff c4 bc 5e 34 20 be
       -0.14625207 0.0030602282 -0.024047399 -0.15644976
000030 29 80 4a 3e 3a 9b 75 be 56 f4 60 3e df 86 55 3e
       0.19775452 -0.23984995 0.21968207 0.2085223
000040 70 a8 22 3e 77 15 cf 3e 3a 50 b0 3d 42 1b 23 bd
       0.15884566 0.40446064 0.08609052 -0.039820917
000050 bb 7f 97 3e f7 eb 66 be 8a b2 f7 3c 06 55 db 3d
       0.29589638 -0.22550951 0.030236501 0.10709576
000060 b4 fa a7 bd 0f 05 e2 3d eb 00 90 3d
       -0.08202115 0.11036121 0.07031425

tatic_net.fc4.bias f4 [3]
000000 a0 db 48 be ce 20 63 be 08 8c 66 bd
       -0.1961503 -0.22180483 -0.056285888

fc1.weight f4 [256, 108]
000000 17 69 df b9 b6 8e a2 bc de 9d a3 3d e8 a2 9a 3d
       -0.00042612173 -0.01984344 0.07989095 0.07550603
000010 bc d9 4d bd 3e 96 54 3d c7 39 b9 3c 28 f8 15 bd
       -0.050256476 0.051901095 0.022610558 -0.036613613
000020 18 d9 96 3d b0 88 a8 3c 42 d4 72 bd 4f e6 63 3d
       0.07365626 0.02057299 -0.059284456 0.05563956
000030 35 91 25 bd 02 9c b5 bd 68 99 b6 3c 04 24 88 3d
       -0.040421683 -0.08867647 0.022289947 0.066474944
000040 da 2d ea 3c 0c 2d af bd 83 ea 98 bc 72 2b fa 3b
       0.028586317 -0.08553514 -0.018666511 0.0076345736
000050 cb d8 c4 bc b9 da ab bd 1e 1a 77 3d 04 0b 8a 3d
       -0.024029156 -0.083913274 0.06032764 0.06740382
000060 79 00 69 3d 9c 37 a5 3d 07 fa 66 bd d4 f1 d5 3c
       0.056885216 0.08067247 -0.05639079 0.02611629
000070 0d 34 0e bd de 77 74 3d 80 43 a2 bd 8d 86 b4 3d
       -0.03471761 0.059684627 -0.07923031 0.08814726
000080 d1 25 41 bb 7a 41 b4 bd de f3 78 3c 50 1f ae 3d
       -0.0029472003 -0.08801551 0.015194861 0.08502066
000090 8b 72 7c bd 6f 4e 93 3d 22 3a a9 bd 91 c0 cc bc
       -0.061632674 0.071926944 -0.08263041 -0.024994167
0000a0 11 ba aa bd 5c ef ba bc 7c 1b ad bc 1c d2 73 bd
       -0.083362706 -0.022819214 -0.02113127 -0.059526548
0000b0 8c 6f 84 3b 63 95 9f 3d cf d0 bd bd f0 36 8a 3d
       0.0040416177 0.07792165 -0.09268343 0.0674876
0000c0 cd 1f 92 3d b9 b6 89 3d 57 6f 82 bb e4 85 44 bb
       0.07134972 0.06724305 -0.003980558 -0.0029987032
0000d0 35 37 56 bd 28 27 17 3d 51 e6 4a 3d ed cb ae 3d
       -0.052298743 0.036902577 0.049536053 0.085349895
0000e0 83 01 a0 bd f6 6a 49 3c 39 1f 3b 3d 9f b4 5a bc
       -0.07812788 0.012293568 0.045684073 -0.0133487275
0000f0 09 0f 6a bd 56 d8 14 bd 3b 63 4f 3d f3 d2 78 3d
       -0.057143245 -0.036339127 0.050631743 0.06074805
000100 72 1c 4f 3d 9e 21 bd bd d0 cd 87 3d 95 53 e6 3c
       0.050564237 -0.092349276 0.066310525 0.028116027
000110 83 3b dd 3c fd a7 43 3d a8 28 81 bb 9a ca 25 bd
       0.027005916 0.047767628 -0.003941614 -0.04047642
000120 b1 37 c2 bd 50 c0 a8 bd e9 ba 8d bd 83 99 81 bd
       -0.094832785 -0.08239806 -0.06920416 -0.06328108
000130 9f 13 9f bd 40 42 54 3b 13 55 82 bd f4 e4 94 3b
       -0.07767414 0.003238812 -0.06363883 0.004543895
000140 08 0c 89 3d 9e 33 9e 3d fa 4c 74 bd c8 33 b3 bd
       0.06691748 0.07724689 -0.059643723 -0.08750111
000150 1a 4d 96 bc a0 af bd bd 2e fe 1f bd 12 61 9d bd
       -0.018347312 -0.092620134 -0.039060764 -0.0768453
000160 a0 67 ae 3c e0 e6 49 bd 76 cc 20 bd 26 95 9c 3d
       0.021289647 -0.049292445 -0.03925749 0.07645635
000170 da c2 22 bd 99 7e c2 3d 33 4d 80 3d 57 ac d9 bd
       -0.039736606 0.09496803 0.062647246 -0.10628574
000180 4f c4 e6 bc 41 a9 00 bd 7b 0a 35 3d ab b4 be bd
       -0.02816978 -0.031411413 0.044199448 -0.093118034
000190 29 4a 4b bb 27 d9 75 3d e7 3e 50 3d 8e 27 e9 3c
       -0.0031019545 0.060021546 0.05084124 0.028461244
0001a0 2b b4 ab bd 81 89 c8 bb f7 3d 74 3d d6 81 5d bd
       -0.08383974 -0.0061199074 0.059629407 -0.0540789
0001b0 16 a4 2d bd 3c 2f 3f bd 7e 94 57 bd 92 cc 3c 3f
       -0.042392813 -0.046675906 -0.052631848 0.7374965
0001c0 b3 af 1a 3f 37 7b 15 3f 75 a5 24 bb 6d fd 8b 3d
       0.60424346 0.58391136 -0.0025123034 0.068354465
0001d0 f1 4b 92 bb a0 0c 45 3f 41 3f 2d 3f 30 93 2f 3f
       -0.0044646193 0.7697239 0.6767464 0.68583965
0001e0 e7 a9 30 bd 60 55 e8 bc 57 88 8f bd cf 1e 27 3f
       -0.04313078 -0.028361022 -0.07008427 0.65281385
0001f0 28 ca 34 3f a6 f4 10 3f 8d b1 2e 3b 85 40 7a 3c
       0.70620966 0.56623304 0.0026656121 0.015274172
000200 53 d2 43 bd b3 07 7a bd 45 c8 48 bd 75 d2 d7 3e
       -0.047808003 -0.0610425 -0.049019117 0.42152753
000210 65 8b 8e bd 9a f2 7d 3d d8 25 88 3d ea db 11 3d
       -0.06960181 0.06199894 0.06647843 0.035610117
000220 92 37 96 bb 02 a5 20 3f 54 5e 8a 3d 89 de 83 bd
       -0.004584261 0.6275178 0.06756273 -0.064389296
000230 40 44 53 3d 43 73 93 3d 7b e8 3a 3b 16 68 2b 3f
       0.05157876 0.07199719 0.0028519917 0.669557
000240 c9 3e 84 bc e5 8b 76 3d b4 e5 5e bd c8 7f 37 3f
       -0.01614322 0.060192008 -0.05441828 0.71679354
000250 4a 7d 36 3f e5 07 09 3f ee bc ce 3a 08 af af 3c
       0.71284926 0.5352767 0.0015772858 0.021445766
000260 d4 33 9f 3d ee 69 3b 3f 07 df 1f 3f d4 0e 09 3f
       0.07773557 0.7320851 0.6244969 0.5353825
000270 bb 1b b5 bb a8 32 6b bc d5 21 0b 3d 6f 7d 28 3f
       -0.0055269874 -0.014355339 0.03396781 0.65816396
000280 a8 24 31 3f ec 0e 05 3f 3d 7e 70 bd ec cf 77 bd
       0.6919656 0.51975894 -0.05871414 -0.060501024
000290 c4 03 91 bc 56 35 35 3d d3 5c 95 3d 44 fc d1 3e
       -0.01770199 0.04424032 0.072930954 0.41012776
0002a0 b1 87 31 3d cb 60 ba bd 2d d7 03 bc 61 4e 82 bd
       0.043342296 -0.09100493 -0.008046907 -0.06362606
0002b0 7e 3a 16 bd 98 b1 0c 3f 24 b5 00 bd 80 75 66 3a
       -0.036676876 0.54958487 -0.03142275 0.00087913126
0002c0 9d 9b bf 3d 82 70 e8 bc 68 04 c4 bd 7a 71 1e 3f
       0.09355853 -0.02837396 -0.09571153 0.618919
0002d0 7f a2 52 3d db fd 2a bd ec 30 55 bd 82 85 24 3f
       0.0514245 -0.041746 -0.05204861 0.64266217
0002e0 61 f2 2d 3f d4 c2 ef 3e 4e bf 09 3c 1e 8f 85 bc
       0.67947966 0.4682833 0.008407427 -0.016303595
0002f0 d2 39 7a 3d ca 5f 4b 3f 19 33 2d 3f d2 8c 08 3f
       0.061090298 0.7944304 0.67656094 0.53339875
000300 2c 00 23 bd b3 29 85 3d f7 a1 a0 3c 55 65 3c 3f
       -0.039795086 0.06502094 0.01960848 0.7359212
000310 d2 27 31 3f fd aa 2a 3f 3b 6c 6e bd 28 40 93 bd
       0.69201386 0.6666716 -0.058208685 -0.07189971
000320 fd 90 6a 3d 0d c2 a6 b8 d1 3a 2f 3d 89 b2 00 3f
       0.057267178 -7.9516416e-05 0.0427807 0.50272423
000330 30 6f 9d 3c 90 aa 8c bc 48 82 a3 3b 6c 90 b1 3d
       0.019218057 -0.017171174 0.004989896 0.086701244
000340 bd 3c 87 bd 18 7c 16 3f 04 3d 42 bc 5a b4 01 3d
       -0.06603382 0.587831 -0.011855368 0.031666137
000350 ec 28 13 3d 01 9b f1 3c 93 8d 92 3d f8 9d 10 3f
       0.035927698 0.029492857 0.071559094 0.5649104
000360 75 2d 82 3d df c0 98 3c c4 d2 99 bd c6 3d 13 bd
       0.063563265 0.018646656 -0.075109035 -0.035947584
000370 74 dd 83 bc bd 5e 1e bd b1 29 8f 3d e3 0a aa bd
       -0.016096808 -0.03866457 0.06990374 -0.08302858
000380 c1 d7 bf 3d 27 dc 8e 3d 68 2e 58 3c d5 f3 91 3d
       0.09367324 0.069755845 0.013194658 0.071265854
000390 e3 42 6a 3d 59 69 05 3d e3 64 15 bd d1 a2 5c 3d
       0.057192694 0.03257117 -0.036473166 0.05386621
0003a0 6b a8 8d 3d a7 4e f8 3c ac a2 57 bc 52 8d 99 bd
       0.06916889 0.030310942 -0.013161343 -0.07497658
0003b0 e2 46 75 bd 9e 8c 44 3d 1c e3 b2 3d 2e 3a 57 3d
       -0.059882052 0.047985666 0.08734724 0.05254572
0003c0 0b 58 bd 3d 45 24 15 bd a2 05 50 3d b8 36 25 3d
       0.092453085 -0.036411542 0.050786622 0.040335387
0003d0 54 ff 32 3c 8d a3 d8 bd 3a 73 92 3d a2 09 51 bb
       0.010925133 -0.1057807 0.07150884 -0.003189661
0003e0 ce 79 7b bd c6 21 5f bd 1b 41 bd bd f3 5e a5 bd
       -0.06139546 -0.05447557 -0.092409335 -0.08074751
0003f0 56 ce 8b 3d fb cf 8a 3c c0 5c 92 3d 88 84 39 bd
       0.06826465 0.016944876 0.07146597 -0.045292407

fc1.bias f4 [256]
000000 21 62 db bd f9 a1 31 3f 30 d0 dc bb 9a 7f 05 3f
       -0.10712076 0.69387776 -0.006738685 0.5214783
000010 d5 60 2c 3e c3 25 37 3f 1b 3c db 3e a3 dd 32 3f
       0.16833813 0.71541995 0.42819294 0.6986944
000020 2b 9d 13 3f af 15 e6 3e 66 a7 01 3f 8a af 18 3f
       0.57661694 0.44938418 0.50646055 0.5964285
000030 d4 bc 7a bc dc a8 3f 3f ac 11 f4 3e c8 ad 2a 3f
       -0.015303809 0.74867034 0.47669733 0.6667142
000040 17 94 fc 3e 4c cb 43 3f 84 ee 30 3f a2 ee d0 bb
       0.49331734 0.7648208 0.69113946 -0.0063761035
000050 4a d8 0d 3f 70 b5 81 bd fd 9c 0d 3f 0b d7 eb 3e
       0.55408156 -0.063334346 0.5531767 0.46062502
000060 e5 3e a7 3e c6 0c 1c 3f 67 a7 f5 3e 4c 97 1e 3f
       0.32665172 0.6095699 0.4797928 0.6194961
000070 3d e3 bc 3e 63 c9 00 3f a5 33 d8 b9 44 a6 2e 3f
       0.3689212 0.5030729 -0.0004123721 0.6822245
000080 c2 35 11 bc 5a c6 0f 3f 79 c8 ad bd 1e f1 2f 3f
       -0.0088629145 0.56162035 -0.08485503 0.6872729
000090 56 02 0d 3f e2 f1 24 3f e9 7e 96 bc 92 17 f0 3e
       0.5508169 0.64431584 -0.018371062 0.46892983
0000a0 f6 ed 27 3f 4a 00 03 3f e8 3d bd bd b9 5c 00 3f
       0.65597475 0.51172316 -0.09240323 0.50141484
0000b0 30 4a cc 3e 17 c1 0a 3f 61 19 df 3d f0 e5 28 3f
       0.3990035 0.5420088 0.108935125 0.65975857
0000c0 75 43 f0 bd 5d 50 e7 3e 18 11 96 3e 8c dd 86 b9
       -0.117316164 0.451785 0.29309916 -0.00025723537
0000d0 38 5f fd 3e 96 0b 21 3f da 61 0d 3f 04 df 00 3f
       0.4948671 0.62908304 0.55227435 0.50340295
0000e0 ee 98 81 3e 61 28 16 3f 92 46 13 3f d1 bb 51 bb
       0.2531199 0.58655363 0.57529557 -0.0032002816
0000f0 9c 7e 16 3f 86 97 12 3f cb 10 2c 3f ca 3a 02 3f
       0.5878694 0.57262456 0.67213124 0.50870955
000100 03 2f 22 3f e8 a4 12 3f fd c4 8f bc fc e5 0f 3f
       0.63352984 0.57282877 -0.017549986 0.56210303
000110 47 a1 0d 3f 3a 49 6a bd e1 7b b0 3e cd 64 f5 3e
       0.55324215 -0.05719874 0.34469512 0.47928467
000120 c4 9c 0f 3f 76 82 07 3f ed 29 6c bc 97 3b 12 3f
       0.5609858 0.5293344 -0.014414293 0.57122177
000130 74 54 09 3f 8f 0d dc 3e 60 25 b8 bb 50 9a 10 3f
       0.5364449 0.42979094 -0.00561969 0.5648546
000140 5b 1c 12 3f 81 d3 b3 bd c6 ef 27 3f bb e3 ef 3e
       0.57074517 -0.087805755 0.6560024 0.46853432
000150 41 fe 03 3f 81 ef 1c 3f de 0b 07 3f 07 1b c6 3e
       0.51559836 0.61302954 0.5275248 0.38692495
000160 9a cc 0d 3f 6f 13 16 3f 48 c7 20 3d 3e 34 d2 3e
       0.5539032 0.58623403 0.03925255 0.41055483
000170 9a 30 0c 3f f9 e6 08 3f ad 0e 05 3f f4 55 29 ba
       0.5476166 0.53477436 0.5197552 -0.00064596464
000180 a7 5b 07 3f 82 0c 10 3f be 04 f0 3e a3 32 bb bd
       0.52874225 0.56269085 0.46878618 -0.091405176
000190 0a c1 2b 3f ef 8d 41 bb 57 fe 15 3f 59 4d 03 3f
       0.6709143 -0.0029534062 0.58591217 0.512899
0001a0 50 df 80 bd c7 a9 1b ba a6 9b 57 bb c3 21 d1 3c
       -0.062925935 -0.00059380796 -0.003289917 0.025528794
0001b0 29 5d 11 3f a0 f0 a3 3e 0c 48 ff bc 1b 1c 07 bd
       0.56782776 0.3201952 -0.031162284 -0.032985788
0001c0 a4 95 0f 3f a9 95 19 3f 39 a0 13 3f 85 ee ce 3e
       0.5608771 0.5999399 0.57666355 0.4041635
0001d0 02 d7 ae bd c7 ad f9 3e 08 b4 19 3f 6f 87 f0 3e
       -0.08537103 0.48765394 0.6004033 0.46978328
0001e0 01 0f 1c 3f db 4b 6b bd 68 88 2c 3f 65 d7 fc 3e
       0.60960394 -0.05744539 0.6739564 0.49383083
0001f0 b4 65 0e 3f c5 52 e6 bc 8e 3b 20 3f cc bf 00 3f
       0.55623937 -0.02811564 0.62590873 0.5029266
000200 df d9 23 3f 0a 52 c6 bd 68 dd ff 3e 49 45 18 3f
       0.6400432 -0.096836165 0.49973607 0.5948072
000210 4b 2c 14 3f 07 8d 1a bc 61 c0 97 bd b4 4a f8 b8
       0.57880086 -0.009433038 -0.0740974 -0.00011839476
000220 5d 1e b5 bd a8 90 30 3f a4 93 18 3f e2 e0 c2 bd
       -0.08843682 0.6897073 0.5960028 -0.09515549
000230 24 35 da 3e 04 8c d0 bd 60 95 08 3f 66 e2 60 3d
       0.42618668 -0.10182956 0.5335293 0.05490341
000240 90 c7 0b 3f 26 2b b2 3e 28 2a 26 3f 14 b9 65 3e
       0.54601383 0.34798545 0.64908075 0.22433883
000250 dd ed 12 3f 1f bc 05 3f 9e 6d 22 bc dd 63 0e 3f
       0.573942 0.52240175 -0.00991383 0.5562113
000260 cd 23 27 3f 41 eb bb bd 4d 83 cd 3e 96 ed 11 3f
       0.65289 -0.091757305 0.40139237 0.5700315
000270 62 6d 08 3f 2c d6 12 3f 7c e5 cd bc e9 ed 21 3f
       0.53291905 0.5735805 -0.02513384 0.6325365
000280 2b 48 04 3f 3d 49 4f 3e e3 e0 01 3f 41 ee 2b 3f
       0.5167262 0.20242782 0.50733775 0.6716042
000290 b0 75 18 3f f5 38 e6 b9 d9 29 35 3f f0 ee 2b 3f
       0.59554577 -0.00043911455 0.7076698 0.67161465
0002a0 f4 c8 08 3f 5f f9 29 3f e0 9e 18 3f 7c 56 fc 3e
       0.5343163 0.66396135 0.59617424 0.49284732
0002b0 20 4e 2a 3f 9f 47 16 3f 9c 62 11 3f 6c 3b f0 3e
       0.6652546 0.58703035 0.5679109 0.46920335
0002c0 59 e3 6f bd da fe c0 bd dc 54 28 3f 44 f2 8e bd
       -0.058566425 -0.09423609 0.65754485 -0.06979802
0002d0 cf 09 04 3f eb 16 08 3f 56 e7 e6 3e 43 07 bd bd
       0.51577467 0.5315997 0.4509837 -0.09229901
0002e0 e3 5f 02 3f 2c 4b 80 bd f0 a8 f9 3e 1e 11 20 3f
       0.5092756 -0.06264338 0.48761702 0.6252612
0002f0 66 4a 0d 3f cd 8f bf bd 22 c1 18 3f 6d f4 b2 3d
       0.5519165 -0.093536 0.596697 0.08738027
000300 d0 7e a0 bd 8c ed ff 3e e5 6c b6 bd c0 6e 6c 3e
       -0.078366876 0.4998592 -0.08907489 0.23089123
000310 72 97 17 3f ad 1f 05 3d fa 19 14 3f c8 a3 f3 3e
       0.5921546 0.03250091 0.5785214 0.47585893
000320 9c 2f ac bc e1 a2 0a 3f f2 ef 16 3f 06 93 b7 bd
       -0.021018796 0.54154783 0.5895988 -0.08963589
000330 ad 0f 40 bc 2e 4b 24 3f d9 f7 01 3f 23 e7 e6 3e
       -0.011722487 0.64177215 0.5076881 0.45098218
000340 46 85 03 3f cc 5e 0a 3f bc 9b aa bb e5 4f 05 3f
       0.51375234 0.540509 -0.0052065533 0.52075034
000350 c2 53 dd 3e 7f 6e f6 3e 9c bd 2c 3f a9 0d 19 3f
       0.43227965 0.48131177 0.6747682 0.5978647
000360 8b da fd 3e 90 0b 13 3f 28 0f 07 3f 95 58 0c 3f
       0.49580798 0.5743952 0.527575 0.54822665
000370 6e c0 f4 3e 73 81 07 3f 17 71 9a bd c1 11 e1 3e
       0.47803062 0.529319 -0.075411014 0.43958858
000380 f8 f7 05 3f 51 20 e7 3e 16 62 20 3f a0 f0 1a bc
       0.52331495 0.45141843 0.6264967 -0.0094567835
000390 74 89 b7 3e 4b b0 32 3f 63 17 27 3f 4f 7b a5 bc
       0.35847056 0.6980025 0.6527006 -0.0202004
0003a0 d7 b8 7b bd 4c a7 31 3f a5 fb 1d 3f c6 24 9f 3e
       -0.061455574 0.693959 0.61712104 0.31082743
0003b0 31 4e 5f bd 2e e6 65 bd f0 cd 89 bb 72 71 01 3f
       -0.05451793 -0.05612772 -0.004205458 0.5056373
0003c0 63 d7 09 3f 88 ca d2 3d c4 d9 ff 3e 00 9e 3a 3f
       0.5384428 0.10292536 0.4997083 0.7289734
0003d0 f6 c7 0a 3f 41 a7 2f 3f 18 dd 1a 3f ff 02 23 3f
       0.54211366 0.68614584 0.6049361 0.63676447
0003e0 9f 87 0e 3f 50 ae 0a 3f 71 f9 a7 3e ed f3 84 3e
       0.5567569 0.5417223 0.32807496 0.2596735
0003f0 91 d0 f7 bc e6 d4 45 3f ba e6 30 3f e3 a2 13 3f
       -0.03025082 0.7727798 0.6910206 0.5767042
