model_epoch_300.pth (torch, 141254 bytes, 15 tensors)

target_net.fc1.weight f4 [64, 36]
00000000: 80ed cc3d f01b 663d d651 3b3c cf1f 0a3d
00000010: 6419 733d d083 303d 8b27 e7bc 2bff e53d
00000020: dbd5 563d df7f b43d 56cb 4ebd c27e e5bd
00000030: 0b2b f1bd 9b9e b33d 0095 4ebd 9666 fa3d
00000040: 8c6e ca3d 1e66 9abd e0d0 16bd cecc 8bbd
00000050: 9825 27be 9027 193d 8e69 ca3d 2a58 b8bd
00000060: 0037 fe3c a0be ecbc 86b0 a3bd 6b0f 1a3c
00000070: f02f fb3d a577 3bbe 234b 193e 665b 77bd
00000080: b6f9 0b3d 0003 243c 0bfc 56bd b048 583d
00000090: 8888 143e d6cb c03d 36f6 3cbd 99d9 6dbc
000000a0: 4365 7dbd fdf4 0e3c afd8 063e 578c 1f3e
000000b0: 0b07 263d d3c1 4c3d 9b89 29bd dc06 953c
000000c0: eec0 d53d d405 02be 86a9 013e 3c2d f83d
000000d0: 9308 5c3c 7fa8 c23d f097 5cbd 166d 2a3d
000000e0: fc51 243e 5769 27be fe97 8d3d c35d 10bb
000000f0: 1072 74bd 10f4 08bd ecdf 0f3e 180f c73d
00000100: 2012 903c d276 37bd 003b 9cbc 8b19 663d
00000110: d629 47bc 23da 1f3e fe4e fbbd 0728 0cbe
00000120: 1662 0b3e 902b 373d 8049 153d 654e e03d
00000130: e35d a6bd f51c 3f3d 60eb ee3c aafa 233e
00000140: ab89 3dbd a5bf a43d d516 a73d 55f9 b6bd
00000150: ab74 eb3b 980d b2bd f3dc debd 119e 8c3d
00000160: 951b db3d 5237 143e 6bfa 163d d6da a8bd
00000170: 5ad6 1f3e 2b99 453c a045 ba3c 14bf 1fbd
00000180: abce f93d 3351 9cbd 48d6 a13d 46f0 64bd
00000190: a8cd 00be d80f d8bb 630a 17be a8d9 b2bd
000001a0: 00e3 5e3c a04a 283d 93f7 0abe 60a6 c8bd
000001b0: 2815 943d 130a c4bd 24c8 1dbe 57c5 92bd
000001c0: f037 653d 24ba 17be ca2f 103e 207d 39bd
000001d0: 5b8c 113d eb2d d23d 2575 b0bd 129a 1c3e
000001e0: 8bf2 b0bc 304f 28be acf5 093e aaee 553d
000001f0: 472e 023e d6fb 703d 6635 e83d 5670 283c
00000200: 2b8f 8dbb 00ae 323b 447a 013e e50f ccbc
00000210: 9619 2f3d 467a bd3d afe8 1c3e a31a 163e
00000220: c6a4 b5bd e157 83bc f672 fabc 3a28 18be
00000230: a69f 83bd 3632 8ebc 16bb a8bd 6630 90bd
00000240: 86c3 56bd c004 c1bc 46f2 51bd 1986 9cbd
00000250: bc49 ce3d ea6c f03d 56c8 a6bc 9695 4ebc
00000260: a090 1dbd d526 a2bd 21f3 093e 56dc c3bd
00000270: 36dd 07be 0695 4ebd ff8b 163e 1b65 21be
00000280: 5219 5f3d 40e5 1dbe 1796 193e 2086 823d
00000290: ae7a 9bbd e057 48bd 1046 2abd 6e03 083e
000002a0: 40ce 8b3c 0037 9a3c 735d 97bd 8efb d53d
000002b0: 00e0 5ab9 87fa 203e 904c 1e3e 0f0c 073e
000002c0: 70c0 0a3d b052 28bd f060 fd3d 474a 23be
000002d0: f6ad c1bc 43cb d5bd 96ba 5c3c c880 f3bc
000002e0: 2816 fbbc 32c0 4abd ab96 6cbb c0a8 013e
000002f0: 7e49 eabd 3ad5 a63d c9eb cd3d 5f60 353d
00000300: 8e73 113e 440b 1b3e 534d e4bd 617e 62bd
00000310: f111 343e 2e84 a2bd eba5 1bbe 6e8a f3bd
00000320: e618 5f3d 00e8 1e3b 66b4 25bd bb8a 393d
00000330: 8bff b2bd e097 d73d 0b77 d4bc 8e60 863d
00000340: 0210 16be e302 b6bd 0b57 173d c072 2c3c
00000350: d6d0 96bd e8f2 d53d 60f3 863c 0c15 2dbe
00000360: 56b1 3ebc 07d6 023e 9be3 b6bd 4940 75bd
00000370: dce1 23be f054 413e 0889 fcbd f3d3 d43d
00000380: 8b6c dcbd fca9 b33d 3364 993d 605b e83d
00000390: 528f 20be c8d9 c3bd 2650 343d c2d3 953d
000003a0: 5fab 1ebe ad80 9c3d f6a8 d7bc ab6d a7bb
000003b0: 60a7 223d fbea 943d 2b99 a0bd a0c8 dabc
000003c0: 63b4 e9bd 9ed4 bdbd 00ca e2bb ee27 17be
000003d0: 30f6 64bd d262 9cbd a34a ca3d 70bf 48bd
000003e0: c25d 0d3e f6a9 6f3d 0021 33bc 7d0b fabd
000003f0: d8d1 f13d 0b19 df3d 5c46 10be 3b08 f23d
0.10006237 0.056178987 0.011433085 0.03372174 0.059350386 0.043094456 -0.028217098 0.1123031
0.052450042 0.08813452 -0.050486885 -0.11205818 -0.11775788 0.08770486 -0.050435066 0.12226598
0.098843664 -0.075390086 -0.036820292 -0.06826173 -0.16322935 0.037391245 0.09883414 -0.09001191
0.031032085 -0.02889949 -0.079926535 0.00940309 0.12265003 -0.1830736 0.14970069 -0.0603899
0.03417369 0.010010481 -0.05248646 0.052803695 0.14505208 0.094138786 -0.046133243 -0.014517211
-0.06186415 0.008725402 0.13168596 0.15580879 0.04053406 0.049989533 -0.041390996 0.018191747
0.10437189 -0.12697536 0.12662324 0.12118003 0.013429779 0.09504794 -0.053855836 0.04160794
0.160469 -0.16348778 0.06913756 -0.0022028543 -0.05967909 -0.03343588 0.14050263 0.09719676
0.017586768 -0.04479105 -0.019071102 0.056176703 -0.012155971 0.15610556 -0.12270926 -0.13687144
0.13611636 0.04471928 0.03644705 0.109524526 -0.08123376 0.046658475 0.02916497 0.1601359
-0.04627387 0.08044366 0.08158652 -0.08934275 0.0071855388 -0.08693999 -0.108819865 0.06866086
0.1069862 0.14474228 0.03685991 -0.08244865 0.15609112 0.012060444 0.022738278 -0.039000586
0.12197622 -0.07632675 0.07902199 -0.055893205 -0.12578452 -0.0065936856 -0.14750056 -0.08732921
0.013603926 0.041086793 -0.13571005 -0.097973585 0.07230598 -0.09572234 -0.15408379 -0.07166546
0.05596155 -0.14817101 0.1408073 -0.045285344 0.035534244 0.102626644 -0.086160935 0.15293148
-0.021600028 -0.16436458 0.13472623 0.05222956 0.12712966 0.05883392 0.1133831 0.010280689
-0.0043200455 0.0027264357 0.12644297 -0.024909923 0.04274901 0.092518374 0.15323137 0.14658599
-0.08869319 -0.016033115 -0.030572396 -0.14859095 -0.06426935 -0.017357927 -0.08238809 -0.07040481
-0.05243256 -0.023561835 -0.05125644 -0.076427646 0.100726575 0.11739524 -0.0203592 -0.012608906
-0.038468003 -0.07917563 0.13471653 -0.0956351 -0.13267979 -0.05043509 0.14701842 -0.15761225
0.054467507 -0.15419483 0.14998661 0.063732386 -0.07591759 -0.04891193 -0.041570723 0.13282558
0.017066121 0.018825054 -0.07390871 0.10448371 -0.00020873547 0.15720569 0.15458894 0.13188194
0.03387493 -0.041094482 0.12372005 -0.15946303 -0.023642521 -0.1043916 0.01347222 -0.029724494
-0.030650213 -0.049499698 -0.0036100547 0.1266203 -0.11439799 0.081461385 0.10054738 0.04428136
0.14204237 0.15141016 -0.11147561 -0.055296306 0.17584969 -0.079353675 -0.15200011 -0.11891638
0.054467104 0.002424717 -0.040455244 0.04529832 -0.08740147 0.10527015 -0.02593567 0.06561385
-0.14654544 -0.08887269 0.036948245 0.010525405 -0.07364051 0.10446721 0.016473472 -0.1690256
-0.01163896 0.12776957 -0.08930131 -0.05987576 -0.16004127 0.18880057 -0.12330824 0.103919886
-0.107628904 0.08772656 0.074898146 0.113455534 -0.15679672 -0.09563023 0.044021748 0.0731578
-0.1549506 0.076417305 -0.026325684 -0.005109509 0.039710402 0.072713815 -0.078417145 -0.026706994
-0.11411359 -0.09269069 -0.006921053 -0.14761326 -0.055898845 -0.07636036 0.09877517 -0.049010694
0.13805297 0.058511697 -0.010933161 -0.122092225 0.11807603 0.108934484 -0.1408934 0.11817976

target_net.fc1.bias f4 [64]
00000000: 8c3b c63d 8bbe dd3d dc59 d0bd c74a 11bd
00000010: aa16 933c 37cd 1ebe 1d2a 43bd 11d9 623d
00000020: d8f4 12be de30 093e 6dba 4a3d 67fa 223e
00000030: abe0 db3d 2f94 22bc c84a 233e 811e 68bd
00000040: e77d 2fbe a573 25be 12f1 f23d c6a8 22bd
00000050: 58d5 e9bd 14e0 29be 2ace 823d 00e9 dfbd
00000060: 49b8 11bd 4bcf 41bd 24fd 183e fa43 703c
00000070: 371d ccbd 8cb8 393e bc72 903d e84f b8bd
00000080: 1996 81bd 9fe0 0e3d d9c0 1a3c aa54 2f3c
00000090: 25b5 163e 55cc 6e3d 5755 22be 2cd8 3e3d
000000a0: 3575 eebd ab97 c73b 40a0 c4bd ac91 12be
000000b0: 47f2 0a3e c4a6 903d 22f5 8cbb 75db d4bd
000000c0: d165 b33d a0a0 04be 4579 08be 8d9b e1bc
000000d0: c2cf 743c 1e09 e9bb 1121 803d 7b38 a53d
000000e0: 3f10 1cbe 480a 313d a1c0 9e3c 2426 563b
000000f0: c5ce 05be d9bd 67bd 0980 e43d 4e07 aebd
0.096793264 0.10827359 -0.10173389 -0.035471704 0.017955143 -0.15507971 -0.047647584 0.055382792
-0.14351213 0.13397548 0.049494196 0.15915833 0.107362114 -0.009923025 0.15946496 -0.056669716
-0.17137872 -0.16157396 0.11862387 -0.039711736 -0.11417645 -0.16589385 0.06386979 -0.10933113
-0.03557614 -0.04731683 0.14940315 0.014664644 -0.0996651 0.18136805 0.07053134 -0.08999616
-0.06327457 0.034882184 0.0094453925 0.010701338 0.14717539 0.058300335 -0.15852867 0.046592876
-0.11643449 0.0060910783 -0.09600878 -0.14313382 0.13568984 0.07063058 -0.004301683 -0.103934206
0.08759654 -0.12951899 -0.1332751 -0.027539993 0.014942111 -0.0071116826 0.06256307 0.080674134
-0.15240572 0.043222696 0.019378962 0.0032676542 -0.13067158 -0.056577537 0.11157233 -0.08497487

target_net.fc2.weight f4 [3, 64]
00000000: 5a9a 5dbd c823 943c 6660 3fbd 7ca2 b7bd
00000010: 18ad 8abd 8a3a b3bd d5bd 3f3d 7032 823d
00000020: d0cc c5bd d916 dc3d 1131 393a aa0d 6e3d
00000030: d767 5dbd 09ff cc3d a5b6 a0bd e7c6 b33d
00000040: b921 a23d 85fc 36bb 1ce4 87bd ab1c 073d
00000050: 2502 51bd a3e1 d43d 85b5 ccbd f24c 72bd
00000060: c59d 9ebd 5802 12bd cb26 ab3d 3546 cc3c
00000070: 6966 d93d c72e 72bc f4e6 f1bd b718 263d
00000080: 84b6 f3bc 8ee5 c03d 60fb 603d 7ee4 a53b
00000090: 5b91 81bd 7c14 55bd 79ba c83d c9d8 65bd
000000a0: 8ebe a73d 8da5 a2bd a28e 163d 14e9 6b3d
000000b0: 66ae d5bb 9a4d 9d3d 12b3 d13c a6d8 6d3d
000000c0: 123c b83d 8099 98bd 461d efbc b043 b2bd
000000d0: 2ed2 d3bd 861f c2bd 6277 163c f899 b23d
000000e0: 225a 863c deb1 ed3c 6394 af3d d3d2 e0bd
000000f0: e0c0 2ebd 4f18 e03c 41c4 03be 40eb 443d
00000100: 7749 47bd f0a1 e6bd 6db6 e63d da8f 33bd
00000110: e3f1 d63d 091e 98bd f2dd 1c3d 3d9e 5f3d
00000120: 5040 41bc b256 9dbd 09cc a03d 2857 ac3d
00000130: ec05 d9bb 787c fb3c 0e14 333d 25ff 0fbd
00000140: 45a0 80bc 165a 033e 4f75 763d df34 983c
00000150: dec0 8f3d 911d d63c b9d5 e7bd 33c3 703d
00000160: c80c 323c e464 fbbd 15fd 803d 7e90 cb3d
00000170: a021 57bd 6d29 213c 8a9e bf3b 6c2f 61ba
00000180: da90 f13d 7a94 41bb 10a6 01bd 58d2 4c3c
00000190: 56f5 67bc 23a1 763c 16ae ddbd 9003 ac3a
000001a0: 068d ab3b 2d29 bc3d dda3 bfbd 39df b53d
000001b0: 6a75 803d b1b3 df3d b97b fa3d 7ed1 cbbc
000001c0: 4135 b03c be9d b33d 7c10 dbbd f1a4 6fbc
000001d0: 8e58 90bd afbc a8bd 6ca4 7ebd cc94 09bd
000001e0: ebcb 8bbd e4c7 94bd 7743 a5bc 1a84 bcbb
000001f0: b22f 34bc 264d a3bd 582b 1bbd 102d 833c
00000200: 8ea1 a9bd 70fa a5bd 36ff 97bd bfa3 433d
00000210: 7fe2 b8bb f898 983d c94a 69bd 58e2 4abc
00000220: baa9 823d 7691 c13d 1019 de3d 94de e2bc
00000230: 8ed2 57bb c499 713d b778 6dbd 23f6 4fbd
00000240: 5040 fabc 7731 54bc 87a4 883d fa3f 59bc
00000250: c03a f8bd d201 7cbd 20f0 013e 83ea 85bd
00000260: aa4c bc3c bef4 ab3d f8de a13d cbfe ea3c
00000270: b10b 9fbd 06ed 173e 8d43 ec3d 09ee 1e3e
00000280: b68b b7bd b2c5 cd3c 3d9e f33d 3edd 74bd
00000290: 5458 c4bb d63e 2a3c c997 c13d 4f37 3abd
000002a0: e7e5 d8bc 0d4a d3bd a209 91bc 92db e33d
000002b0: 0358 2a3e be30 c7bd 49ee 88bd fb6f 833d
000002c0: c203 8ebc 8a15 2c3d d020 b63d b2d8 cc3a
000002d0: 23aa c5bd 67c6 dbbc 8b74 123d 856d df3d
000002e0: 66ff ecbd 76c1 c2bd 9e39 ae3d f4f2 a13d
000002f0: 464e dabd faef a9bd 636b 933d 501e 063c
-0.05410228 0.018083468 -0.046722792 -0.08966538 -0.06771296 -0.087514 0.046811897 0.063572764
-0.096582055 0.10746545 0.00070645014 0.0581185 -0.054054108 0.100095816 -0.07847337 0.08778172
0.07916588 -0.002792151 -0.06635305 0.032986324 -0.051027436 0.10394599 -0.099955596 -0.059155412
-0.07744936 -0.035646766 0.083570085 0.024935821 0.10615236 -0.01478166 -0.11811629 0.040550914
-0.029750116 0.09418784 0.05492723 0.005062639 -0.063265525 -0.05202149 0.09801192 -0.056114946
0.08190642 -0.079417326 0.03675712 0.057595327 -0.006521034 0.07680817 0.025598083 0.05806794
0.089958325 -0.07451153 -0.029188763 -0.087043166 -0.10342823 -0.09478669 0.0091837365 0.087207735
0.0164004 0.029015478 0.085732244 -0.109777115 -0.04266441 0.027355341 -0.12867834 0.048075914
-0.048654046 -0.11261356 0.11265264 -0.04383836 0.10495355 -0.07427604 0.0382976 0.054594267
-0.011795118 -0.076825514 0.078514166 0.08415061 -0.0066230204 0.030699 0.043720298 -0.035155434
-0.015701422 0.12827334 0.060170468 0.018579898 0.07019208 0.026137145 -0.11320061 0.058779906
0.010867305 -0.12275103 0.062982716 0.09939669 -0.0525223 0.009836537 0.0058477568 -0.0008590135
0.11795206 -0.0029537962 -0.03165251 0.012501322 -0.014157614 0.015053066 -0.1082422 0.001312362
0.005235317 0.09187541 -0.09357426 0.08880467 0.06272395 0.10922945 0.122306295 -0.024880167
0.021509768 0.08770321 -0.106965035 -0.014626727 -0.070481405 -0.082391135 -0.062168524 -0.03358917
-0.06826004 -0.072646886 -0.020173771 -0.0057530524 -0.0109977 -0.07973699 -0.037883133 0.016012698
-0.08282767 -0.08104408 -0.074217245 0.047763582 -0.005642235 0.074510515 -0.056956086 -0.012383066
0.06380029 0.094515726 0.10844624 -0.027694024 -0.0032931897 0.058984533 -0.05797645 -0.050771844
-0.030548245 -0.012951246 0.06672006 -0.013259882 -0.12120581 -0.061525173 0.12689257 -0.0653887
0.022985775 0.0839629 0.07903856 0.028685948 -0.07765902 0.14836511 0.11536322 0.1552049
-0.089621946 0.025118683 0.11895416 -0.059781305 -0.005991975 0.010390958 0.09452779 -0.045462903
-0.026476813 -0.103168584 -0.017704789 0.11125864 0.16635136 -0.09726094 -0.06686074 0.06417843
-0.017335776 0.04201273 0.08892977 0.0015628545 -0.09651592 -0.026828004 0.035755675 0.10909561
-0.11572151 -0.09509556 0.08507083 0.07907668 -0.10659461 -0.08297725 0.07198217 0.008185938

target_net.fc2.bias f4 [3]
00000000: d35d 903c fcc6 0b3c 81a2 be3c
0.017622864 0.008531328 0.023270847

tatic_net.fc1.weight f4 [64, 42]
00000000: 7b30 123e bfca 1dbd 8dc3 f03b 888b 09be
00000010: 0a31 c83c e21b d2bd 13bc 32bd 368c d7bd
00000020: c55e bc3d bc79 0c3e c653 63bd 60dc 2a3c
00000030: 6906 00be e0cb ff3d d6df b93d 582c ecbd
00000040: d430 f7bd 3dc0 e33d 9eaa 633c 56ac debd
00000050: f63d 1d3e 89c0 c0bd 0365 44bd 8d05 fe3d
00000060: 9177 16be 206c bc3d cf18 92bd be9e cabd
00000070: 4dc2 9c3d 78f1 9abd 9a53 063d a0a9 fb3d
00000080: 6106 5abc 1686 19be 1558 d23d 5919 c83d
00000090: 44d7 d6bd 3774 ee3c df60 343d 18a4 8b3d
000000a0: 9686 ae3d 37a0 28bd a1ce fcbd 1ace 153e
000000b0: b21f 62bd f7fe 003e ecac 1fbb edc3 6c3d
000000c0: 431b 0e3e 7d4a 19bd 54c6 21bc 2547 bfbc
000000d0: 17aa 503d 16f8 cd3d 385c adbd bf05 90bc
000000e0: c4c7 a9bd 9e46 edbd 383e 3d3d de75 d53d
000000f0: 0679 b03d 60ad 923d f34c 18bd a3cd 083d
00000100: 7a4c 1d3e 0f10 ba3a 4336 b5bd 287c f13d
00000110: 624c af3d 36dc 153c 34f6 04be 6667 843c
00000120: 1fde c1bd 94e3 273d a429 17be b699 f4bd
00000130: 1ed5 1cbd cd49 1c3e ad9a 10be 7339 6ebd
00000140: d45b 95bd 0d0f cf3d 00d0 a9bc c479 853d
00000150: 3605 833d 2c40 b23d beda f9bd 7521 fdbd
00000160: 5aba e4bd 9c18 2b3e 00d0 443d a394 ad3d
00000170: 082f 863d eee2 4d3d 730c 78bd ede1 a83d
00000180: 6782 19be bf84 09be e8da 983d 5902 a5bd
00000190: c3c8 f93d 6f38 acbd b5a3 963d d86f f6bd
000001a0: 84fd b6bd ed8a 36bd 7d93 ffbd a8a9 0fbd
000001b0: d515 563d a8b8 ca3c 6ed2 7abd 56d0 cd3d
000001c0: 242d 8fbc 350c 033e 6e23 0fbe 0eca a63b
000001d0: cb3f 233d 0e88 463d b822 0abe 5dbe f43c
000001e0: 7b54 ed3c 347f 13be 947c c3bd 32aa c53d
000001f0: 6350 14be 41f1 5fbb 810c 11be 32e0 ddbd
00000200: 6f3b 903d 9d06 2a3e 6853 843d 8658 223e
00000210: 96f5 0fbe ebba fabd 7776 fbbd 3c4d 133e
00000220: e345 83bd aff4 7b3d 846c 973d 44ec 13be
00000230: bae7 ba3d 3a3a 24be 958a 05bd 6510 0a3e
00000240: 2fa1 9b3d 5ed5 1c3e c345 563c 09be 963d
00000250: 375b c0bd 121b 363e e210 87bd 7014 e4bd
00000260: 72d6 d23d 176d 98bd bff5 103e 965a a8bd
00000270: 1c9f c03c 1585 0bbd e82b a13d 3781 b5bc
00000280: 91ce f83d b83b c53c 6197 19be 4427 abbd
00000290: 70b6 d8bd b59a cc3d 7a0d 95bd 2dee 1d3e
000002a0: 4b34 523d 25fd 02be 18ba 0abe ac2d e1bd
000002b0: 052e 0d3d ca01 5fbd 19c8 d1bd f821 18be
000002c0: aef0 13bd 16d6 94bd 0e31 6ebd 84b2 113e
000002d0: 88c8 f3bc 4285 a2bd dac0 14bd adea f6bd
000002e0: 3028 103d 2de4 103e 1602 96bd 216f ca3c
000002f0: 2fc0 d6bd b7b6 393d f99b d5bd 6e8b 1dbe
00000300: e5a1 de3d e238 da3d ddf2 bb3d 221c 4a3d
00000310: 3740 11be 7714 033c 3f1f 443d d367 cf3d
00000320: 9b85 3dbc ce44 edbd a35b 20bc aec1 bb3d
00000330: a786 41bd 3e8a 95bc ee64 8e3a 4f25 e9bb
00000340: 1dad 013d 3734 1c3e 7e23 9d3d da9f f7bd
00000350: d79c 153e a499 d93b 9f16 f9bb e8a4 eb3c
00000360: ba1a ad3c 4df6 123d 4f85 1fbb 9c4e d03d
00000370: a853 72bd a007 dc3d 3862 7d3d af32 b63d
00000380: 23fb 333d bb80 023d 91fa 97bd 862d 0abe
00000390: 35bf d13d c25a b2bd ec84 703d 4d79 563c
000003a0: b030 febd 0d6b 4fbc 16d5 dc3c 86ba 673d
000003b0: fcfa debb ca20 193d f743 febd 6180 68bd
000003c0: 90bf 1d3e e2e8 053e 8ddf 9cbd 60f7 0b3e
000003d0: a2cf 0c3e f44c 8c3c 8766 bfbd 2dc3 ee3d
000003e0: 00f8 0bbe c463 ef3d 321c a23c d726 05be
000003f0: 7300 c63d d4ff fd3d 3639 b03d 8385 afbb
0.14276306 -0.038523432 0.00734753 -0.13432133 0.024437446 -0.102592245 -0.043636393 -0.1052479
0.09197763 0.13718313 -0.055499814 0.010428518 -0.12502445 0.12490058 0.090758964 -0.115318954
-0.1206986 0.11120651 0.013895659 -0.10872714 0.15355667 -0.09411723 -0.047947895 0.124034025
-0.14694048 0.09200311 -0.07133638 -0.09893559 0.076542474 -0.07565588 0.032794572 0.12288213
-0.013307185 -0.14992556 0.102707066 0.0977046 -0.104902774 0.02910815 0.044037696 0.06818408
0.08521764 -0.041168418 -0.12344099 0.14629403 -0.05520601 0.12597261 -0.0024364544 0.057804037
0.13877587 -0.037424553 -0.009873945 -0.023349354 0.05094346 0.10057084 -0.08464855 -0.017580865
-0.082900554 -0.11585735 0.046201915 0.10422872 0.086168334 0.07161975 -0.03718276 0.033399235
0.15361205 0.001419546 -0.0884824 0.11791259 0.08559491 0.009146741 -0.12984544 0.016162585
-0.09466194 0.04098852 -0.14761978 -0.119433805 -0.038289182 0.15262528 -0.14121504 -0.058160257
-0.072929054 0.101102926 -0.020729065 0.065173656 0.06397478 0.08703646 -0.12199925 -0.12359897
-0.11168356 0.16708606 0.048049927 0.08475616 0.06551939 0.050265245 -0.060558748 0.08246217
-0.14991151 -0.13429545 0.07463628 -0.080570884 0.121964954 -0.08409201 0.073554434 -0.12033051
-0.08935073 -0.044566084 -0.12479303 -0.035073906 0.052266914 0.024746254 -0.061235838 0.100495026
-0.01747758 0.12797625 -0.13978359 0.0050900048 0.03985576 0.048469596 -0.13489807 0.029875929
0.028970947 -0.14403993 -0.09545246 0.09651603 -0.1448379 -0.0034170898 -0.14164926 -0.108337775
0.07042586 0.16604085 0.06461221 0.15854082 -0.14058527 -0.12242683 -0.12278455 0.14384931
-0.06409814 0.061512645 0.073937446 -0.14445597 0.091262296 -0.16037837 -0.032602865 0.13482817
0.07599103 0.15315768 0.013078156 0.07360465 -0.09392398 0.17783764 -0.06595017 -0.11136711
0.102948084 -0.07442682 0.14156245 -0.08220403 0.02351337 -0.034062464 0.078697026 -0.022156341
0.121487744 0.024076328 -0.14999153 -0.08357099 -0.10581672 0.099904455 -0.07277961 0.15422888
0.0513194 -0.1279188 -0.13547552 -0.10995039 0.034467716 -0.054445066 -0.10243244 -0.14856708
-0.036118202 -0.07267396 -0.05815225 0.14228255 -0.029758707 -0.07935573 -0.03631673 -0.120564796
0.035194576 0.14149542 -0.073246166 0.024711194 -0.10485875 0.045340266 -0.1043014 -0.1538522
0.10870723 0.10655381 0.09177182 0.049343236 -0.14184652 0.008000485 0.04788136 0.10127225
-0.011567499 -0.11585389 -0.009787473 0.09167801 -0.047247555 -0.018254396 0.001086382 -0.0071150432
0.031659234 0.15254293 0.07672785 -0.12091036 0.14610611 0.00664063 -0.0076015736 0.028765157
0.021130908 0.035879422 -0.0024340933 0.101712435 -0.059161812 0.10743642 0.061861247 0.08896386
0.043940675 0.03186105 -0.074208386 -0.13493928 0.10241548 -0.08708717 0.058720514 0.013090444
-0.1241163 -0.0126598 0.026957076 0.056574367 -0.006804822 0.037384786 -0.12415307 -0.056763057
0.15405107 0.13077119 -0.076598264 0.13668585 0.1375108 0.017126538 -0.093457274 0.116583206
-0.13668823 0.11688951 0.019788835 -0.13003097 0.096680544 0.12402311 0.08604662 -0.005356492

tatic_net.fc1.bias f4 [64]
00000000: 45eb be3d 5262 55bd b972 863d 1250 e63d
00000010: 2a85 993c 33f8 9c3d 6af8 56bd b634 c0bd
00000020: 6604 bfbd dcb0 1c3c 490f a53d c721 bb3d
00000030: 36b7 b8bd 8464 e93c fe69 ef3c 4e04 d03d
00000040: ac6c b2bd d404 bb3d 21f9 0c3e b007 c23d
00000050: 5335 6e3d af25 f73d c668 d5bd 1c37 0b3e
00000060: 4c90 a3bd ba52 14bd db3e 0abd 9785 733c
00000070: 1d4d 17be 0af4 dd3d 0178 bcbd a5e8 7cbd
00000080: 2152 f13d 96d5 8abd aa66 d93d 1291 5abc
00000090: bc22 b33c dff8 c0bc fc6e 123d 1a22 a03d
000000a0: c92e 9abd 59d3 c4bd bb2f 223d 701a fa3d
000000b0: a6ae 6c3d 0de6 2a3e 35f0 10be d099 c63d
000000c0: 619b 1e3d f40e 14be 2aa8 0bbe d41f d7bc
000000d0: 6a76 86bb 1710 2cbc 3ef0 d8bc b2c0 4e3c
000000e0: 0758 0c3e 04bb ef3c 2b53 903d 1430 ec3d
000000f0: 776a bd3b e533 cebd 6c55 17be 2272 a6bd
0.09322218 -0.05209572 0.0656485 0.11245741 0.018740255 0.07664528 -0.052483 -0.09385054
-0.09327011 0.009563651 0.08059556 0.09137302 -0.0901932 0.028490312 0.029225346 0.10157071
-0.08712134 0.0913178 0.1376691 0.094741225 0.058156323 0.120677345 -0.104203746 0.13595241
-0.07986507 -0.036211707 -0.03375135 0.014863393 -0.1477551 0.108375624 -0.092025764 -0.061745305
0.11783243 -0.067790195 0.10615285 -0.0133402515 0.021867149 -0.023556171 0.035750374 0.07819004
-0.07528455 -0.09610624 0.0395963 0.12212074 0.057783745 0.1668932 -0.14154132 0.09697306
0.0387224 -0.14458829 -0.13638368 -0.026260294 -0.0041034715 -0.010501883 -0.026481744 0.012619184
0.13705455 0.02926398 0.07047113 0.11532608 0.005780514 -0.10068492 -0.1477868 -0.08127238

tatic_net.fc2.weight f4 [6, 64]
00000000: c847 083d 66a6 823d 681e 77bd 947f 903d
00000010: b044 17bd 6057 6d3c 0067 413a fc31 c53d
00000020: ec34 a53d 9801 bcbd 3a06 d93d 2243 c13d
00000030: ae4b a6bd 40e2 da3c 341e 2fbd 726e 9c3d
00000040: 1a9d f2bd daa4 cbbd c014 0fbc 0474 043d
00000050: c2d7 eb3d 5a93 ddbd 9a3e 9e3d 6069 fabb
00000060: c00d 49bc 72af f7bd 8081 e53d 3c61 b23d
00000070: dc98 5e3d b86b a13c ac36 08bd 6e6f c2bd
00000080: 0c9f cfbd 8c24 333d b053 9bbc 3867 ac3c
00000090: f4f3 f03d 0000 013c 6038 0c3c 8c33 e1bd
000000a0: 0a8d b4bd 089b cdbd f0e2 26bc 50ec e6bd
000000b0: 10a9 f8bd 70e9 4ebd 70fa 4c3c 4cf7 723d
000000c0: 6022 2e3d f01f 7e3d 86a9 a6bd 2c57 cabd
000000d0: c6f2 b3bd a25b aabd c0a0 0d3c 9a10 c7bd
000000e0: a0da 77bc e45b 8ebd 786e da3d 3056 993c
000000f0: c0f0 d73b a8b3 c73d 8006 84bd b278 bf3d
00000100: a0a6 23bd 6612 ed3d c956 8abd 6475 523d
00000110: e46e 00be dff5 e03a 9f54 b3bd 2799 04be
00000120: 455c 81bd b0b3 c93d a7d9 fdbd 64a4 bb3d
00000130: a3d4 183d 917d a4bd 5eb7 bf3d 22a8 3abd
00000140: bac3 283d c71c 9cbc ab62 e3bc 0f2c c1bd
00000150: 21e8 533d 20c1 b63c ca2d e2bd f459 e3bc
00000160: 83aa 313d 06c1 0bbd fc7d 77bd 3118 63bd
00000170: 3a90 0fbb ff0a 0d3d 0ee5 45bd cfee a8bd
00000180: a2ce 3a3d 48ed a4bc 1436 cd3d 9d7f 443d
00000190: 2895 773d fd86 5e3d 65c9 a4bc fbb5 223d
000001a0: f406 90bd 775f 213d e9ed a13d 0b08 1b3c
000001b0: 1a4c 0ebd 153d ccbd c70b a93b f7f1 04bd
000001c0: 0514 c7bd 2a87 04bb 9328 b83d 96ae f0bd
000001d0: 829c 6e3d afdf 613d fcf4 00bd f18f 01be
000001e0: c244 58bc 4892 8abd 83fd 053e 5c5e d5bc
000001f0: b828 d63d b6b2 2fbd 129c e13c 7b44 85bc
00000200: 4c85 38bd 70fd 4bbd 8c93 55bc 18bf 963d
00000210: c758 aa3d d44b 2bbd 98f2 2b3d 5cf8 263d
00000220: 9853 acbc 45a0 f0bd becf 04bc b528 37bc
00000230: 5c09 963d 822e 0bbd d1f9 08bd be17 1abd
00000240: d953 edbd 5dbf 92bd 35c7 2bbd 1093 acbd
00000250: f71d c13d 340d ef3d ca16 2f3d af1e d2bb
00000260: ad7b dbbb 840a e33c 568c 3abd 5fcc 4b3c
00000270: 3c50 d93d 5332 ec3b 1936 04bd d455 0e3d
00000280: 82e0 4a3c c85e 603d c704 e2bc 84d0 983d
00000290: a644 83bc 3cd5 b83d 6e54 91bd 491e 0bbe
000002a0: 2468 953d 73ba f93d b544 99bd 1a1a e93d
000002b0: 52e2 dfbc 75b4 813c 1002 a53d bc37 d63d
000002c0: e70f 73bd e6c2 c3bd c3dd 873c a60d ae3d
000002d0: f4fc 90bd 75a0 e33d d48b a0bd e1a4 26bc
000002e0: af05 f7bd c7de c5bc fb68 fd3d b97e 073e
000002f0: 90c9 50bd c6de 743d b00b 013d c515 c03d
00000300: f8e6 49bc 1f10 c13d 80ef b83a b20a d43d
00000310: 5a00 903c e700 903b 023d 9b3c 3e1a 85bc
00000320: 6885 13bd 9877 acbc db39 bdbd ca2a b9bd
00000330: 960d 503c 0633 abbd 546f 56bd f2c6 cfbb
00000340: eb9f ae3d d6c7 e6bd 0876 023d 1a37 60bd
00000350: 9abc 0bbd bd87 a2bd d048 d63c 2e0d 82bc
00000360: 659f 9e3b 45c4 80bd 659f 11bd 3ca4 f63c
00000370: 4cfe febd 871b ea3d a747 41bd 5412 d6bc
00000380: 0870 0bbe 5b69 363d d85e a93d 659e 0dbd
00000390: 04c1 533d 5de6 47bd d44d 2ebc f5d4 1a3d
000003a0: bcc9 923d 67fe 82b9 00ab 7ebd 6bcb 77bd
000003b0: cb56 50bd d186 c23d 5a5c ad3d 74c8 3ebd
000003c0: 13f9 a4bd ebbd 0a3e 4c63 463d 1808 b7bd
000003d0: d67d bbbc d56d 013d 54e6 aabd 08d2 49bd
000003e0: 1845 e0bd 03b9 cf3d 7d9a f13d 8027 fabc
000003f0: ddff aebd 17cd 87bd 2cc2 ee3b 1e47 31bd
0.03327158 0.06379394 -0.060331732 0.070555836 -0.03693074 0.014486164 0.0007377714 0.096286744
0.08066735 -0.091799915 0.10596891 0.09436633 -0.081199035 0.026719213 -0.042753413 0.07638253
-0.11846371 -0.09943552 -0.0087329745 0.032337204 0.11515762 -0.10819121 0.07726784 -0.007641956
-0.012271345 -0.120940104 0.11206341 0.08709952 0.054344997 0.019704685 -0.033255264 -0.0949391
-0.10137758 0.043736026 -0.018960804 0.021045312 0.1176528 0.007873535 0.008558363 -0.1099616
-0.088159636 -0.100393355 -0.010185942 -0.11275542 -0.12141621 -0.050515592 0.012510881 0.059317872
0.04251325 0.062042177 -0.08137803 -0.09879908 -0.0878654 -0.08318259 0.008644283 -0.09719963
-0.015127808 -0.069511205 0.106656015 0.018717855 0.006589979 0.097510636 -0.06446552 0.09349193
-0.039953828 0.11575775 -0.06754834 0.051381484 -0.12542301 0.0017163119 -0.087563746 -0.12949048
-0.06316427 0.09848726 -0.123950295 0.091622144 0.03731216 -0.080317624 0.093611464 -0.0455705
0.041202284 -0.01905669 -0.02775701 -0.09432232 0.051735047 0.022308886 -0.1104389 -0.027752854
0.043375503 -0.03411963 -0.060422882 -0.055442993 -0.0021906034 0.034434315 -0.048314147 -0.08248674
0.045607217 -0.020132676 0.1002008 0.047973264 0.06044498 0.054327954 -0.020115564 0.03972433
-0.07032576 0.039397683 0.07906706 0.009462367 -0.034740545 -0.09972588 0.0051588747 -0.03245732
-0.09720615 -0.0020222166 0.08992114 -0.117520496 0.058254726 0.055144962 -0.031483635 -0.12652566
-0.013199987 -0.06766182 0.13084988 -0.02604597 0.10456985 -0.04289504 0.02754024 -0.016268006
-0.045048997 -0.049802244 -0.013035666 0.07360667 0.08317714 -0.041820362 0.041979402 0.040764198
-0.021035954 -0.11749319 -0.00810617 -0.011179139 0.07326004 -0.0339799 -0.03344137 -0.0376203
-0.11588258 -0.07165406 -0.041938026 -0.084264874 0.094295435 0.1167244 0.042746343 -0.006412349
-0.006698093 0.027714975 -0.04554399 0.012438863 0.106110066 0.0072081476 -0.032278154 0.03474982
0.012382628 0.05477789 -0.027590169 0.07461646 -0.016023945 0.09025046 -0.07096182 -0.13585772
0.07295254 0.121937655 -0.07483808 0.113819316 -0.027329598 0.015833119 0.08057034 0.10459849
-0.059341338 -0.09558658 0.016585236 0.08498697 -0.07079497 0.11114589 -0.0783917 -0.010171146
-0.12061631 -0.02415408 0.12373539 0.13231935 -0.050973475 0.059782766 0.031505287 0.09379152
-0.012323134 0.09426903 0.0014109462 0.103536025 0.017578293 0.004394639 0.01894999 -0.016247865
-0.036015898 -0.02105312 -0.09239551 -0.090413645 0.012698552 -0.08359341 -0.052352265 -0.006340855
0.08526596 -0.112685844 0.031850845 -0.05474005 -0.03411541 -0.07936046 0.026157767 -0.015875425
0.0048407787 -0.062874354 -0.0355524 0.03010761 -0.12450847 0.11431032 -0.047187474 -0.026131786
-0.13616955 0.04453407 0.08270043 -0.034574885 0.051697746 -0.048803676 -0.010638673 0.037800748
0.07167384 -0.00024985077 -0.062174797 -0.06049673 -0.050864022 0.094983704 0.0846488 -0.046577886
-0.0805532 0.1354901 0.04843454 -0.08937091 -0.022887152 0.031598885 -0.08344713 -0.049272567
-0.109506786 0.1014271 0.117970444 -0.030536413 -0.08544896 -0.06630915 0.0072863307 -0.043280713

tatic_net.fc2.bias f4 [6]
00000000: c4b9 653d c5ec bfbd 1fa0 123d 251c ec3c
00000010: 20b2 0a3d c6e6 91bd
0.056085363 -0.09371332 0.035797235 0.028822014 0.03386128 -0.07124095

tatic_net.fc3.weight f4 [6, 3]
00000000: 5821 b5be e6b8 be3e ff26 d6be cd82 043e
00000010: c048 c73e e9ec 05bd dba6 7e3e e09c 2abe
00000020: 71af 87be cd5b b33e 8564 42be 3184 10bf
00000030: 61bc 7dbe b318 05bf 2b21 103f 0029 173f
00000040: 0ee8 ef3e 3e06 17bd
-0.35377002 0.3725044 -0.41826627 0.12940522 0.3892269 -0.03269664 0.24868338 -0.16661406
-0.2650104 0.35030976 -0.18983658 -0.5645171 -0.24778892 -0.51990813 0.5630061 0.59046936
0.4685673 -0.036871187

tatic_net.fc3.bias f4 [6]
00000000: 4ea4 b73e 17ce e83e c479 9d3d 1890 a93e
00000010: 61f3 babd d146 4fbd
0.35867542 0.45469734 0.076892406 0.33117747 -0.09128452 -0.050604645

tatic_net.fc4.weight f4 [3, 9]
00000000: 569f 833e 30f6 ab3e e864 213d 0db1 623e
00000010: 3228 cd3e 9e15 a83e 43c7 21be da1d a53e
00000020: 7dd3 2ebe 91c8 fabc 0f0d 54bd 8197 3cbe
00000030: 5d18 373e e1fe 88be ea93 443e 3ccf 463e
00000040: fe45 063e f4e4 c03e 3a50 b03d 421b 23bd
00000050: bb7f 973e f7eb 66be 8ab2 f73c 0655 db3d
00000060: b4fa a7bd 0f05 e23d eb00 903d
0.257075 0.33586264 0.039402872 0.22137852 0.4006973 0.32828993 -0.15798669 0.32249337
-0.17072864 -0.030613216 -0.051770266 -0.18417169 0.17880388 -0.26756957 0.1919705 0.19414991
0.13112637 0.37674677 0.08609052 -0.039820917 0.29589638 -0.22550951 0.030236501 0.10709576
-0.08202115 0.11036121 0.07031425

tatic_net.fc4.bias f4 [3]
00000000: 0eee 61be b284 7fbe 088c 66bd
-0.22063467 -0.24952963 -0.056285888

fc1.weight f4 [256, 108]
00000000: 1769 dfb9 b68e a2bc de9d a33d f4c0 9a3d
00000010: 0966 4dbd 3e96 543d c739 b93c 28f8 15bd
00000020: 18d9 963d 33b9 a93c e36a 72bd 4fe6 633d
00000030: 3591 25bd 029c b5bd 6899 b63c 6e42 883d
00000040: b3d1 ea3c 0c2d afbd 83ea 98bc 722b fa3b
00000050: cbd8 c4bc b9da abbd 1e1a 773d 040b 8a3d
00000060: 7900 693d 9c37 a53d 07fa 66bd d4f1 d53c
00000070: 0d34 0ebd c6a9 763d 8043 a2bd 8d86 b43d
00000080: d125 41bb 7a41 b4bd def3 783c 501f ae3d
00000090: 8b72 7cbd 6f4e 933d 223a a9bd 5a48 ccbc
000000a0: 3880 aabd 5cef babc 7c1b adbc 1cd2 73bd
000000b0: 8c6f 843b 7de1 9f3d 209c bdbd f036 8a3d
000000c0: cd1f 923d b9b6 893d 576f 82bb b3b8 40bb
000000d0: 46e5 55bd 2827 173d 51e6 4a3d edcb ae3d
000000e0: 8301 a0bd f66a 493c 391f 3b3d 9fb4 5abc
000000f0: 090f 6abd 56d8 14bd 3b63 4f3d f3d2 783d
00000100: 721c 4f3d ae08 bcbd d0cd 873d 9553 e63c
00000110: 833b dd3c fda7 433d a828 81bb 9aca 25bd
00000120: b137 c2bd 50c0 a8bd e9ba 8dbd 777b 81bd
00000130: c6d9 9ebd 4042 543b 1355 82bd f4e4 943b
00000140: 080c 893d b87f 9e3d 9be3 73bd c833 b3bd
00000150: 1a4d 96bc a0af bdbd 2efe 1fbd a842 9dbd
00000160: 790b af3c e0e6 49bd 76cc 20bd 2695 9c3d
00000170: dac2 22bd 997e c23d 334d 803d 57ac d9bd
00000180: 4fc4 e6bc 41a9 00bd 7b0a 353d abb4 bebd
00000190: 294a 4bbb 0f0b 783d e73e 503d 8e27 e93c
000001a0: 2bb4 abbd 8189 c8bb f73d 743d d681 5dbd
000001b0: 16a4 2dbd 3c2f 3fbd 7e94 57bd 2326 1f3c
000001c0: dbff e0bd c51c 953d 75a5 24bb 6dfd 8b3d
000001d0: f14b 92bb a005 0e3d 8435 b0bb c404 b03d
000001e0: e7a9 30bd 6055 e8bc 5788 8fbd 8baf a5bd
000001f0: 56c9 0a3d d136 73bd 8db1 2e3b 8540 7a3c
00000200: 53d2 43bd b307 7abd 45c8 48bd 5057 87bd
00000210: 658b 8ebd 9af2 7d3d d825 883d eadb 113d
00000220: 9237 96bb eef8 c53c 545e 8a3d 89de 83bd
00000230: 4044 533d 4373 933d 7be8 3a3b 1914 9a3d
00000240: c93e 84bc e58b 763d b4e5 5ebd 990d 34bc
00000250: 6ba7 a4ba bd05 c63c eebc ce3a 08af af3c
00000260: d433 9f3d de5c 42bb 790a 6cbd 7c1d 84bd
00000270: bb1b b5bb a832 6bbc d521 0b3d 77ba 9abd
00000280: 69e2 a03c a1c8 d8bd 3d7e 70bd eccf 77bd
00000290: c403 91bc 5635 353d d35c 953d 93af 9ebd
000002a0: b187 313d cb60 babd 2dd7 03bc 614e 82bd
000002b0: 7e3a 16bd ad3b 5cbd 24b5 00bd 8075 663a
000002c0: 9d9b bf3d 8270 e8bc 6804 c4bd f07c c93c
000002d0: 7fa2 523d dbfd 2abd ec30 55bd 8254 aebd
000002e0: e7d3 0dbd 1b67 2fbd 4ebf 093c 1e8f 85bc
000002f0: d239 7a3d 6338 733d 5a49 b6bb 7c2d 88bd
00000300: 2c00 23bd b329 853d f7a1 a03c a59a 103b
00000310: bd47 a13c 302e 283d 3b6c 6ebd 2840 93bd
00000320: fd90 6a3d 0dc2 a6b8 d13a 2f3d eaa1 773c
00000330: 306f 9d3c 90aa 8cbc 4882 a33b 6c90 b13d
00000340: bd3c 87bd 8e4f 7ebc 043d 42bc 5ab4 013d
00000350: ec28 133d 019b f13c 938d 923d 3bf1 f0bc
00000360: 752d 823d dfc0 983c c4d2 99bd 5d6a 0bbd
00000370: d8f7 66bc bd5e 1ebd b129 8f3d e30a aabd
00000380: c1d7 bf3d e78b 943d 32b9 873c 65c1 993d
00000390: e342 6a3d 5969 053d e364 15bd 4c86 673d
000003a0: b91c 903d e4b5 0b3d aca2 57bc 528d 99bd
000003b0: e246 75bd 9e8c 443d 1ce3 b23d 2e3a 573d
000003c0: 0b58 bd3d 4524 15bd a205 503d b836 253d
000003d0: 54ff 323c 8da3 d8bd 3a73 923d a209 51bb
000003e0: ce79 7bbd c621 5fbd 1b41 bdbd f35e a5bd
000003f0: 56ce 8b3d fbcf 8a3c c05c 923d 1fb1 31bd
-0.00042612173 -0.01984344 0.07989095 0.07556334 -0.050146136 0.051901095 0.022610558 -0.036613613
0.07365626 0.020718193 -0.059183966 0.05563956 -0.040421683 -0.08867647 0.022289947 0.066532955
0.028664446 -0.08553514 -0.018666511 0.0076345736 -0.024029156 -0.083913274 0.06032764 0.06740382
0.056885216 0.08067247 -0.05639079 0.02611629 -0.03471761 0.060220502 -0.07923031 0.08814726
-0.0029472003 -0.08801551 0.015194861 0.08502066 -0.061632674 0.071926944 -0.08263041 -0.024936844
-0.08325237 -0.022819214 -0.02113127 -0.059526548 0.0040416177 0.0780668 -0.09258294 0.0674876
0.07134972 0.06724305 -0.003980558 -0.0029406964 -0.052220605 0.036902577 0.049536053 0.085349895
-0.07812788 0.012293568 0.045684073 -0.0133487275 -0.057143245 -0.036339127 0.050631743 0.06074805
0.050564237 -0.09181343 0.066310525 0.028116027 0.027005916 0.047767628 -0.003941614 -0.04047642
-0.094832785 -0.08239806 -0.06920416 -0.06322377 -0.07756381 0.003238812 -0.06363883 0.004543895
0.06691748 0.07739204 -0.059543233 -0.08750111 -0.018347312 -0.092620134 -0.039060764 -0.07678729
0.021367775 -0.049292445 -0.03925749 0.07645635 -0.039736606 0.09496803 0.062647246 -0.10628574
-0.02816978 -0.031411413 0.044199448 -0.093118034 -0.0031019545 0.06055742 0.05084124 0.028461244
-0.08383974 -0.0061199074 0.059629407 -0.0540789 -0.042392813 -0.046675906 -0.052631848 0.009713682
-0.109863006 0.07280878 -0.0025123034 0.068354465 -0.0044646193 0.034673333 -0.0053774733 0.08594659
-0.04313078 -0.028361022 -0.07008427 -0.08090123 0.033883415 -0.05937845 0.0026656121 0.015274172
-0.047808003 -0.0610425 -0.049019117 -0.066084504 -0.06960181 0.06199894 0.06647843 0.035610117
-0.004584261 0.02416655 0.06756273 -0.064389296 0.05157876 0.07199719 0.0028519917 0.075233646
-0.01614322 0.060192008 -0.05441828 -0.01098957 -0.0012562101 0.024172658 0.0015772858 0.021445766
0.07773557 -0.0029657404 -0.057627175 -0.06450936 -0.0055269874 -0.014355339 0.03396781 -0.075550966
0.01963921 -0.10585142 -0.05871414 -0.060501024 -0.01770199 0.04424032 0.072930954 -0.07748332
0.043342296 -0.09100493 -0.008046907 -0.06362606 -0.036676876 -0.05376785 -0.03142275 0.00087913126
0.09355853 -0.02837396 -0.09571153 0.024595708 0.0514245 -0.041746 -0.05204861 -0.08512212
-0.034625914 -0.04282294 0.008407427 -0.016303595 0.061090298 0.059379946 -0.0055629434 -0.066493005
-0.039795086 0.06502094 0.01960848 0.0022064832 0.019687528 0.041059673 -0.058208685 -0.07189971
0.057267178 -7.9516416e-05 0.0427807 0.015114287 0.019218057 -0.017171174 0.004989896 0.086701244
-0.06603382 -0.015521897 -0.011855368 0.031666137 0.035927698 0.029492857 0.071559094 -0.029411903
0.063563265 0.018646656 -0.075109035 -0.034036983 -0.0140971765 -0.03866457 0.06990374 -0.08302858
0.09367324 0.07253247 0.0165678 0.0750759 0.057192694 0.03257117 -0.036473166 0.05652456
0.070367284 0.03410901 -0.013161343 -0.07497658 -0.059882052 0.047985666 0.08734724 0.05254572
0.092453085 -0.036411542 0.050786622 0.040335387 0.010925133 -0.1057807 0.07150884 -0.003189661
-0.06139546 -0.05447557 -0.092409335 -0.08074751 0.06826465 0.016944876 0.07146597 -0.043381806

fc1.bias f4 [256]
00000000: 4f27 dbbd 412d 14bc de09 7ebb f1ff 76bd
00000010: e471 2f3f 1ee8 5f3d 2694 38bd 9562 de3c
00000020: 200c 26bd 63ef 7b3f 7024 853f 2e2f 903f
00000030: d4bc 7abc 5a94 223d 0153 813f 9437 993f
00000040: 0fb2 833f 07ec 8c3d 4761 9c3f ee41 cbba
00000050: 0274 8b3f 383e 72bd 57ad 8a3f 4319 7f3f
00000060: addf 053f 049c 923f cff6 813f a233 65bc
00000070: 349b 563f 6972 843f a368 8d3a 6e4f 9b3f
00000080: c235 11bc cf61 8c3f 79c8 adbd b637 ad3c
00000090: e811 8b3f c3f9 41bb 0e09 34bc 3c6e 803f
000000a0: 45ae 01bb f5ad 853f e83d bdbd 90dc 833f
000000b0: baf5 6e3f 8296 893f d5d2 1a3f 915f 983f
000000c0: 7543 f0bd 880e 7c3f f4e8 8ebd 8cdd 86b9
000000d0: 3f67 833f e38a c9bd cf4a 8b3f 18a5 843f
000000e0: ff92 423f 6c7a 8f3f 59ad 8d3f d1bb 51bb
000000f0: dfa0 8f3f 8555 8d3f a63d 9a3f bc2e 853f
00000100: 72db 803c 1aa2 8d3f aeba 8cbc 9d44 8c3f
00000110: 84f0 8a3f 3a49 6abd 4a7f c8bd c1dc 573d
00000120: 6033 8c3f 8d6e 883f ed29 6cbc ba8b 8d3f
00000130: 971a 893f 98cd 763f 4baf 853d a5d0 8c3f
00000140: 2166 8d3f 81d3 b3bd 60fa 973f d516 803f
00000150: 6c74 853f d990 923f 7bd3 873f 9767 683f
00000160: 0f54 8b3f 7da6 8f3f 4b5e d23c 47bf 713f
00000170: a5d2 68bd 16f8 883f 74c9 863f f455 29ba
00000180: 24ae 873f dc9a 8c3f 0667 803f a332 bbbd
00000190: 8036 9a3f ef8d 41bb d45c 8f3f 8fac 82b7
000001a0: dbe4 75bd c7a9 1bba 9844 02ba a7c2 9dba
000001b0: d511 8d3f 58b9 9a3e 0c48 ffbc 1b1c 07bd
000001c0: 4e00 8c3f 56d2 903f 57eb 8d3f 9e7d 703f
000001d0: c600 adbd 029f 823f 23fb 903f 4c55 803f
000001e0: 5482 923f db4b 6bbd da7f 9a3f 0b73 833f
000001f0: 4f4f 8b3f c552 e6bc 018e 943f 7d8f 843f
00000200: 2ccd 953f 9b1f c5bd faa5 843f 5630 903f
00000210: 5596 8e3f a7e4 d2bb 61c0 97bd a717 4d3d
00000220: 5d1e b5bd 592a 9c3f 39f1 903f e2e0 c2bd
00000230: ec10 763f 1897 ccbd 4c43 883f 1c08 823d
00000240: 6c2c 8a3f 269e 013f e3aa 9e3c 7276 443f
00000250: 7f2d 973c 7b51 873f 9e6d 22bc 8264 8b3f
00000260: c690 973f 41eb bbbd 60d0 6a3f ee57 8d3f
00000270: acc6 883f 9b7a 8d3f 7ce5 cdbc 1bbe 76bd
00000280: 0b7d 863f 4c10 313f 71eb 843f 0bea 8c3c
00000290: a042 903f f538 e6b9 5cd0 8fba da01 a4b8
000002a0: 186d 883f 8214 993f 4d64 903f 8245 833f
000002b0: 0f22 993f 970a 8f3f 43ef 8c3f 4875 803f
000002c0: 1d64 5fbd dafe c0bd a743 93bd 44f2 8ebd
000002d0: 6457 863f 2fae 883f 2c7a 98bb 4307 bdbd
000002e0: a566 853f 2c4b 80bd 240a 833f 713b 943f
000002f0: d875 8a3f cd8f bfbd abb1 adbd 7530 8cbd
00000300: d07e a0bd c178 843f 4498 aebd be08 453f
00000310: c04d 903f ca82 da3b 5958 8e3f 6aff 803f
00000320: 9c2f acbc 34ca 893f d2de 8f3f 0693 b7bd
00000330: 6f4e a8bd 588e 3b3d 1186 843f 438e 7c3f
00000340: 36e6 853f 312a 893f 0957 88b9 4323 07b9
00000350: 861f 773f 79f2 813f c169 9a3f 54bc 903f
00000360: 0502 833f 20be afbd 97c0 873f 4824 8a3f
00000370: c2a8 813f 99c9 873f 1771 9abd 6a15 793f
00000380: ee5c 873f 6b07 7c3f 6976 943f 911b 08bc
00000390: 4389 5e3f 668f 7bbc e1ce 973f 4f7b a5bc
000003a0: 533b 63bd 51c8 1e3d 511d 933f 32f6 553f
000003b0: 314e 5fbd 2ee6 65bd 2b86 23b9 1d1b 853f
000003c0: 6942 893f 0734 ee3e f467 843f 027d 233d
000003d0: 8fcc 893f 48b2 9b3f 0b4d 913f 19d8 953f
000003e0: 25d5 8b3f 41b9 893f 63e0 1f3f b9e0 abbd
000003f0: 6527 c6bc 5fdb 603d ae09 603d 3854 8e3f
-0.10700857 -0.0090439925 -0.0038763206 -0.06030268 0.6853316 0.054664724 -0.04506316 0.027146617
-0.040538907 0.9841215 1.0401745 1.1264398 -0.015303809 0.03969226 1.0103456 1.1970086
1.0288714 0.06880956 1.2217187 -0.001550732 1.0894778 -0.059141368 1.0834149 0.9964792
0.5229443 1.1453862 1.0153445 -0.013989361 0.8383057 1.0347415 0.001078863 1.2133615
-0.0088629145 1.0967349 -0.08485503 0.02114473 1.086484 -0.0029598332 -0.010988487 1.0033641
-0.001978771 1.0443712 -0.09240323 1.0301685 0.933437 1.0749056 0.60477954 1.1904165
-0.117316164 0.9845967 -0.06978026 -0.00025723537 1.0265883 -0.09840944 1.0882205 1.0362883
0.7600555 1.1209235 1.1068527 -0.0032002816 1.1220969 1.1041723 1.2050064 1.0404887
0.01572964 1.1065094 -0.01717886 1.0958439 1.085465 -0.05719874 -0.097899035 0.05270076
1.0953178 1.0658737 -0.014414293 1.1058266 1.071124 0.9640746 0.06527575 1.1001173
1.1046792 -0.087805755 1.1873283 1.0006968 1.0426154 1.1450454 1.0611414 0.90783066
1.0885028 1.1222683 0.025679728 0.9443249 -0.05684151 1.070071 1.0530229 -0.00064596464
1.0600019 1.0984759 1.003144 -0.091405176 1.2047882 -0.0029534062 1.1200204 -1.5577561e-05
-0.060032707 -0.00059380796 -0.0004969328 -0.001203616 1.1021067 0.3021953 -0.031162284 -0.032985788
1.0937593 1.131419 1.1087445 0.93941677 -0.08447413 1.0204775 1.1326641 1.002603
1.1446023 -0.05744539 1.2070267 1.0269483 1.0883578 -0.02811564 1.1605836 1.0356289
1.1703238 -0.09625169 1.0363152 1.1264751 1.1139628 -0.006435949 -0.0740974 0.050071385
-0.08843682 1.2200423 1.1323615 -0.09515549 0.9611957 -0.09989756 1.0645537 0.06349203
1.0794806 0.5063194 0.019368595 0.76743233 0.018454311 1.0571741 -0.00991383 1.0890048
1.1841056 -0.091757305 0.91724205 1.1042459 1.068563 1.1053041 -0.02513384 -0.060239892
1.050691 0.6916549 1.0384351 0.017201444 1.1270332 -0.00043911455 -0.001097213 -7.820474e-05
1.0658293 1.1959383 1.1280609 1.0255587 1.1963519 1.1175107 1.1010517 1.0035791
-0.054538835 -0.09423609 -0.07190638 -0.06979802 1.049542 1.0678157 -0.004653236 -0.09229901
1.042195 -0.06264338 1.023747 1.158064 1.0817213 -0.093536 -0.08481153 -0.0684518
-0.078366876 1.0349351 -0.08525136 0.76966465 1.1273727 0.0066684233 1.1120712 1.0077946
-0.021018796 1.0764832 1.1239874 -0.08963589 -0.08218085 0.045790046 1.0353414 0.98654574
1.046088 1.0716001 -0.00026004788 -0.0001288774 0.96532476 1.0152122 1.2063524 1.1307473
1.0234991 -0.08581185 1.0605649 1.0792322 1.0129626 1.0608398 -0.075411014 0.972983
1.0575235 0.9844882 1.1598636 -0.008307354 0.86928195 -0.015354013 1.186001 -0.0202004
-0.055476498 0.038765255 1.1493322 0.8357879 -0.05451793 -0.05612772 -0.00015594873 1.0398899
1.0723392 0.4652407 1.0344224 0.03991414 1.0765551 1.2163782 1.1351637 1.1706573
1.0924422 1.075966 0.6245176 -0.08392472 -0.024188707 0.05489671 0.05469673 1.1119452

fc2.weight f4 [1, 256]
00000000: a81d 6fbb 4471 2bbd 5a2c 4cbd 2eea 96bc
00000010: 38a4 623f 9814 a4bc d510 303a 1eaa 0fbd
00000020: cd0d 2fbd defd 953f 9ea9 933f be13 8b3f
00000030: 9e91 3cbd af60 eebc 52a3 933f 39d2 8b3f
00000040: a457 983f 48bd 43bc 22a6 8c3f df9a 11bd
00000050: f9db 973f de54 29bd b88d 8b3f 0491 993f
00000060: 7890 fb3e 6d84 993f 95be 983f aa05 8abb
00000070: 7bbf 553f 5120 8e3f 8e2f 35bc e0a4 8d3f
00000080: 9054 10bd df31 973f 2e7b 5abd c377 e2bc
00000090: d2d4 983f a31e 3fbd c287 40bd 1d95 953f
000000a0: 4e93 7fbc 01b2 903f 8f2f 46bb 7a4a 883f
000000b0: a723 953f 1485 913f 0f84 393f d27f 8c3f
000000c0: 1cc8 3dbd 9cfb 903f 1ca7 09bd 10c0 d03b
000000d0: ca4b 8e3f 025d 13bd ca47 9a3f 84c9 913f
000000e0: 66ef 493f 8d0c 963f 3f05 8e3f 9cea 1fbd
000000f0: b6d0 943f f7a0 8e3f a896 913f c4f9 8e3f
00000100: d49b ccbb 9b93 933f 5be0 93bc 3bc5 933f
00000110: e489 8f3f 807d 63bd 5b48 06bd 0307 acbb
00000120: 6a00 953f 2e04 9c3f 5f67 41bd 3af5 953f
00000130: bef3 953f 89cb 943f c718 ab3d 986e 973f
00000140: 0afd 933f de21 183d e804 8e3f e8bc 8f3f
00000150: 4c37 833f 9cbe 8f3f d55a 933f 31cd 683f
00000160: 5fdd 953f 9ade 993f d7d7 bfbb 1e63 933f
00000170: 51ca 0cbd 6775 983f b021 933f c3c8 3fbd
00000180: 2196 8d3f 22e5 983f 8023 953f 47ef a1bc
00000190: de1d 943f a0b9 343d d242 953f 7539 53bd
000001a0: cf73 56bd a9cc 5cbb f7fb 37bd 5c48 eabc
000001b0: 95d6 943f 62b6 973e bc35 5abc c094 eb3a
000001c0: 83f2 913f 7f4d 8e3f 1019 903f 5164 973f
000001d0: 50a1 8bbc b075 913f 29a5 8f3f 6fdf 903f
000001e0: ff00 973f a0f7 483d 8483 923f 8554 923f
000001f0: 7acf 8f3f 08fd 7abc e60f 963f 363b 913f
00000200: cbbb 8b3f 032f 3bbd 6821 9c3f d8d3 8e3f
00000210: 1f59 973f 5a29 b7bc 5a36 473d aede 4e3d
00000220: e1f3 40bd c0e9 8b3f c509 9b3f 5ae7 63bd
00000230: 9edd 963f da97 47bd ee17 8d3f ac56 34bd
00000240: f7fc 923f 373f 0e3f 846d b5bc 1703 563f
00000250: d104 bbbc e48f 963f 104e b0bc 1efa 903f
00000260: 0ee8 8d3f 9e80 2d3d 3f34 633f 86e5 943f
00000270: fe83 983f 88da 8e3f b9f0 c2bc eeb2 f5bc
00000280: da33 943f fde6 323f 0675 8d3f 647a 02bc
00000290: 2066 8e3f 7f29 0cbc 0b07 e8bc 85da 9ebc
000002a0: ba93 8e3f 2f9a 8f3f 0ba5 8e3f b427 913f
000002b0: f57b 8d3f f051 8c3f c11a 923f 0541 953f
000002c0: 0dbf 31bc d8b9 1ebd 15ab 01bc d491 0f3d
000002d0: 6dc0 933f 436b 9a3f 492f 17bd fc14 1cbd
000002e0: 1142 913f f461 b43c ea6e 9a3f 7473 913f
000002f0: e4ac 8a3f b048 f83b a102 94bb a907 75bc
00000300: e4b7 3dbc 7713 973f de8c 64bd 9a14 533f
00000310: e4a1 973f 51f1 31bc ece2 923f 920a 8f3f
00000320: ac63 00bd 8eeb 963f b071 953f 35e1 89ba
00000330: 235e 18bd 2200 1ebc 5bdf 843f 5bbc 983f
00000340: 9a19 903f e1ac 8d3f 71aa a9bc 7028 86bc
00000350: 4abe 913f 9925 943f 3fcb 8e3f c8da 913f
00000360: e5f6 843f abe2 25bc 59f1 913f 1e34 8d3f
00000370: fec5 963f d758 8e3f 87f7 f5bc 6c92 923f
00000380: 9966 943f 2ea5 913f 844e 933f 9309 bcbc
00000390: 7f9d 573f 5362 6fbd f8e9 923f a3db 3fbd
000003a0: 7af2 453d 54e2 23bd ec16 903f 43f9 7c3f
000003b0: 067f 1fbd c969 96bc 12a6 04bd 41e4 943f
000003c0: 23ad 943f ff4c e53e 41b6 953f d4d2 42bb
000003d0: 266e 953f fab3 8b3f 9960 8b3f bbcd 943f
000003e0: b484 983f 1219 953f 1c59 1c3f 8693 8ebc
000003f0: 5ef1 0dbd 3ed7 34bd 5ad7 0cbd 4f8e 973f
-0.0036486182 -0.041856065 -0.049846984 -0.018422212 0.8853183 -0.020029351 0.00067163754 -0.035074346
-0.04273777 1.1718099 1.1536138 1.08654 -0.04603731 -0.029098837 1.1534216 1.092353
1.1901746 -0.011946984 1.09882 -0.035548087 1.1864005 -0.0413407 1.0902624 1.199738
0.49133658 1.1993538 1.1933161 -0.004212101 0.834953 1.1103612 -0.011058701 1.1065941
-0.035236895 1.1812094 -0.05334013 -0.027644997 1.1939948 -0.046660077 -0.04700447 1.1686131
-0.015599085 1.1304322 -0.003024075 1.0647728 1.1651505 1.1368737 0.7246713 1.0976508
-0.046333417 1.1326785 -0.033606634 0.006370552 1.1116879 -0.03597737 1.2053158 1.1389623
0.7888092 1.172258 1.1095351 -0.0390421 1.1626194 1.1142873 1.1374102 1.1169972
-0.006244162 1.1529421 -0.018051317 1.1544565 1.1213956 -0.055539608 -0.032783847 -0.0052498593
1.1640751 1.2188776 -0.047217723 1.1715462 1.1715009 1.1624614 0.08354335 1.1830626
1.1561596 0.037141673 1.1095247 1.1229525 1.025125 1.1230044 1.1512095 0.909381
1.1708182 1.2021058 -0.0058545875 1.1514623 -0.03437263 1.1910828 1.1494656 -0.04682232
1.1061441 1.1944926 1.1651459 -0.019767417 1.1571615 0.04412234 1.1661017 -0.051568467
-0.052356537 -0.0033691323 -0.044918027 -0.028598957 1.1627985 0.29631335 -0.013318475 0.0017973408
1.1402134 1.11174 1.1257648 1.1827489 -0.017044693 1.136404 1.1222278 1.1318187
1.1797179 0.04906428 1.1446385 1.1432043 1.1235192 -0.015319116 1.1723602 1.1346195
1.0916685 -0.04569913 1.2197695 1.11584 1.1824073 -0.022358585 0.048635818 0.050505333
-0.04710758 1.093071 1.2112356 -0.055640556 1.1786382 -0.0487288 1.1022928 -0.04402797
1.1483449 0.5556521 -0.022146948 0.83598465 -0.022829445 1.1762662 -0.021521598 1.132633
1.1086442 0.042358987 0.88751596 1.1632545 1.1915281 1.116044 -0.023796426 -0.029992547
1.1578324 0.6988371 1.1051338 -0.0079637505 1.1124916 -0.008554815 -0.02832367 -0.019391308
1.1138833 1.1218928 1.1144117 1.1340241 1.1053454 1.0962505 1.1414415 1.1660467
-0.010848773 -0.038751453 -0.007914324 0.035051182 1.1543099 1.2063984 -0.03691033 -0.03810595
1.1348287 0.022019364 1.2065098 1.1363358 1.0834012 0.0075770244 -0.004516915 -0.01495544
-0.0115794875 1.1802815 -0.055798404 0.8245331 1.184628 -0.010860757 1.1475501 1.1175101
-0.031345055 1.1790636 1.167532 -0.0010519387 -0.03719915 -0.009643586 1.0380663 1.1932482
1.1257813 1.1068383 -0.020711156 -0.016376704 1.1386197 1.1573974 1.1155776 1.1394892
1.0387846 -0.010124843 1.1401778 1.103153 1.1779172 1.1120862 -0.030025257 1.1450934
1.159381 1.1378534 1.1508336 -0.022953784 0.84224695 -0.05844338 1.1477652 -0.04684032
0.048326947 -0.040010765 1.1256995 0.98817843 -0.0389395 -0.01836099 -0.03238494 1.1632158
1.1615337 0.44785306 1.1696244 -0.0029727714 1.167424 1.09143 1.0888854 1.1625284
1.1915498 1.1648276 0.6107347 -0.017404329 -0.034654014 -0.044150583 -0.034385063 1.1840304
