model_epoch_1000.pth (torch, 141274 bytes, 15 tensors)

target_net.fc1.weight f4 [64, 36]
000000 80 ed cc 3d f0 1b 66 3d d6 51 3b 3c 7b f7 26 bd
       0.10006237 0.056178987 0.011433085 -0.04076336
000010 65 45 87 3c 2e 7e 17 bd 8b 27 e7 bc 2b ff e5 3d
       0.016512582 -0.03698557 -0.028217098 0.1123031
000020 db d5 56 3d 4a 92 82 bb 4c 12 e9 bd b4 15 f8 bd
       0.052450042 -0.003984724 -0.11380443 -0.121135145
000030 0b 2b f1 bd 9b 9e b3 3d 00 95 4e bd fc f9 48 3d
       -0.11775788 0.08770486 -0.050435066 0.04906653
000040 13 13 b9 3c 4d 8e f7 bd e0 d0 16 bd ce cc 8b bd
       0.022592103 -0.120876886 -0.036820292 -0.06826173
000050 98 25 27 be 90 27 19 3d 8e 69 ca 3d 75 16 88 bd
       -0.16322935 0.037391245 0.09883414 -0.06644908
000060 00 37 fe 3c a0 be ec bc 86 b0 a3 bd 6b 0f 1a 3c
       0.031032085 -0.02889949 -0.079926535 0.00940309
000070 f0 2f fb 3d 84 9e 1d be 23 4b 19 3e 66 5b 77 bd
       0.12265003 -0.153925 0.14970069 -0.0603899
000080 b6 f9 0b 3d 00 03 24 3c 0b fc 56 bd 34 11 63 3c
       0.03417369 0.010010481 -0.05248646 0.013859082
000090 88 88 14 3e d6 cb c0 3d 36 f6 3c bd e2 a8 41 bd
       0.14505208 0.094138786 -0.046133243 -0.0472802
0000a0 6b 24 42 bd ce 17 a1 3d af d8 06 3e 57 8c 1f 3e
       -0.047398012 0.078658685 0.13168596 0.15580879
0000b0 0b 07 26 3d af a3 1c 3d 51 d6 d4 bc 7a 0c 5b 3c
       0.04053406 0.03824204 -0.0259811 0.013369674
0000c0 ee c0 d5 3d d4 05 02 be 86 a9 01 3e b7 00 e9 3d
       0.10437189 -0.12697536 0.12662324 0.113770895
0000d0 41 b0 94 3c fb 0e 1c 3e f0 97 5c bd 16 6d 2a 3d
       0.01815045 0.1524009 -0.053855836 0.04160794
0000e0 fc 51 24 3e 57 69 27 be fe 97 8d 3d f5 d8 c3 3c
       0.160469 -0.16348778 0.06913756 0.023907164
0000f0 10 72 74 bd 10 f4 08 bd ec df 0f 3e 18 0f c7 3d
       -0.05967909 -0.03343588 0.14050263 0.09719676
000100 20 12 90 3c 3f aa 35 bd 00 3b 9c bc 8b 19 66 3d
       0.017586768 -0.044351812 -0.019071102 0.056176703
000110 d6 29 47 bc 23 da 1f 3e fe 4e fb bd 5a 21 f0 bd
       -0.012155971 0.15610556 -0.12270926 -0.11725111
000120 16 62 0b 3e 90 2b 37 3d 80 49 15 3d b6 3f d4 3d
       0.13611636 0.04471928 0.03644705 0.103637144
000130 06 1e ab bd 0a 3d 30 3b 60 eb ee 3c aa fa 23 3e
       -0.08355336 0.002689185 0.02916497 0.1601359
000140 ab 89 3d bd ba 65 6b 3d 59 31 82 3d 6d 3b db bd
       -0.04627387 0.05747006 0.063570686 -0.10704694
000150 ab 74 eb 3b 98 0d b2 bd f3 dc de bd 11 f1 48 3d
       0.0071855388 -0.08693999 -0.108819865 0.049058024
000160 fd 92 c3 3d 81 6c b2 3d 6b fa 16 3d d6 da a8 bd
       0.0954952 0.08712102 0.03685991 -0.08244865
000170 5a d6 1f 3e 2b 99 45 3c a0 45 ba 3c 7e cd 0b bd
       0.15609112 0.012060444 0.022738278 -0.03413152
000180 ab ce f9 3d 33 51 9c bd 48 d6 a1 3d 46 f0 64 bd
       0.12197622 -0.07632675 0.07902199 -0.055893205
000190 a8 cd 00 be 94 1e 98 3c 63 0a 17 be a8 d9 b2 bd
       -0.12578452 0.018569268 -0.14750056 -0.08732921
0001a0 00 e3 5e 3c a0 4a 28 3d 93 f7 0a be 43 37 c3 bd
       0.013603926 0.041086793 -0.13571005 -0.09532025
0001b0 28 15 94 3d 13 0a c4 bd 24 c8 1d be be 62 8e bd
       0.07230598 -0.09572234 -0.15408379 -0.06952427
0001c0 9f 5b 0b 3d 93 e4 c9 bd ca 2f 10 3e 20 7d 39 bd
       0.034022924 -0.0985805 0.1408073 -0.045285344
0001d0 5b 8c 11 3d 85 b5 a6 3d 53 70 df bd 8a fb 49 3e
       0.035534244 0.08140091 -0.10910096 0.19724861
0001e0 8b f2 b0 bc 30 4f 28 be ac f5 09 3e 33 d6 0a 3d
       -0.021600028 -0.16436458 0.13472623 0.033895683
0001f0 00 67 f5 3d 3f c8 37 3d 66 35 e8 3d 56 70 28 3c
       0.11982536 0.044868704 0.1133831 0.010280689
000200 2b 8f 8d bb 00 ae 32 3b 44 7a 01 3e ad 99 fa bc
       -0.0043200455 0.0027264357 0.12644297 -0.030590856
000210 96 19 2f 3d 46 7a bd 3d af e8 1c 3e a3 1a 16 3e
       0.04274901 0.092518374 0.15323137 0.14658599
000220 c6 a4 b5 bd 75 ec 71 bd f6 72 fa bc 3a 28 18 be
       -0.08869319 -0.059063394 -0.030572396 -0.14859095
000230 a6 9f 83 bd 36 32 8e bc 16 bb a8 bd c7 23 ac bd
       -0.06426935 -0.017357927 -0.08238809 -0.084052615
000240 86 c3 56 bd c0 04 c1 bc 46 f2 51 bd 84 39 71 bd
       -0.05243256 -0.023561835 -0.05125644 -0.05889274
000250 25 f4 f2 3d b7 e2 e3 3d 56 c8 a6 bc 96 95 4e bc
       0.11862973 0.11127227 -0.0203592 -0.012608906
000260 a0 90 1d bd d3 fd 69 bd b7 10 1e 3e 9a ff 76 bd
       -0.038468003 -0.05712683 0.15436064 -0.060302354
000270 36 dd 07 be 06 95 4e bd ff 8b 16 3e 80 f7 3f be
       -0.13267979 -0.05043509 0.14701842 -0.18746758
000280 57 1f 74 3d ea cd 01 be 17 96 19 3e 20 86 82 3d
       0.0596002 -0.12676206 0.14998661 0.063732386
000290 ae 7a 9b bd e0 57 48 bd 10 46 2a bd d8 fa 10 3e
       -0.07591759 -0.04891193 -0.041570723 0.1415819
0002a0 40 ce 8b 3c 00 37 9a 3c 73 5d 97 bd 8e fb d5 3d
       0.017066121 0.018825054 -0.07390871 0.10448371
0002b0 00 e0 5a b9 b1 21 2a 3e 90 4c 1e 3e 0f 0c 07 3e
       -0.00020873547 0.16614415 0.15458894 0.13188194
0002c0 70 c0 0a 3d b0 52 28 bd f0 60 fd 3d c4 ce c4 bd
       0.03387493 -0.041094482 0.12372005 -0.0960975
0002d0 f6 ad c1 bc 43 cb d5 bd 96 ba 5c 3c ef a3 4f bd
       -0.023642521 -0.1043916 0.01347222 -0.05069345
0002e0 04 53 68 bd 72 33 10 3d ab 96 6c bb c0 a8 01 3e
       -0.056719795 0.035205312 -0.0036100547 0.1266203
0002f0 7e 49 ea bd 3c a2 7b 3d 09 3a bb 3d 09 c0 a8 3d
       -0.11439799 0.061434016 0.09141929 0.08239753
000300 8e 73 11 3e 44 0b 1b 3e 53 4d e4 bd aa 54 71 bd
       0.14204237 0.15141016 -0.11147561 -0.058918633
000310 71 90 37 3e 73 5a 44 bd eb a5 1b be 6e 8a f3 bd
       0.17926194 -0.04793782 -0.15200011 -0.11891638
000320 e6 18 5f 3d 00 e8 1e 3b 66 b4 25 bd 05 0b e6 3c
       0.054467104 0.002424717 -0.040455244 0.028081426
000330 8b ff b2 bd e0 97 d7 3d 0b 77 d4 bc 8e 60 86 3d
       -0.08740147 0.10527015 -0.02593567 0.06561385
000340 02 10 16 be 17 1b d7 bd 0b 57 17 3d c0 72 2c 3c
       -0.14654544 -0.10503214 0.036948245 0.010525405
000350 d6 d0 96 bd e8 f2 d5 3d 60 f3 86 3c 06 e5 52 be
       -0.07364051 0.10446721 0.016473472 -0.20595178
000360 56 b1 3e bc 07 d6 02 3e 9b e3 b6 bd a2 4c 85 bc
       -0.01163896 0.12776957 -0.08930131 -0.016271893
000370 d2 92 17 be 32 44 40 3e 08 89 fc bd f3 d3 d4 3d
       -0.14802101 0.18776014 -0.12330824 0.103919886
000380 8b 6c dc bd ec fd eb 3d 35 64 b0 3d 7f 24 6b 3d
       -0.107628904 0.11523041 0.08612863 0.057407852
000390 52 8f 20 be c8 d9 c3 bd 26 50 34 3d 60 43 b9 3d
       -0.15679672 -0.09563023 0.044021748 0.09046054
0003a0 53 bf 23 be ff 7f 15 3d f6 a8 d7 bc ab 6d a7 bb
       -0.15990953 0.03649902 -0.026325684 -0.005109509
0003b0 60 a7 22 3d fb ea 94 3d 2b 99 a0 bd 92 bf 42 3d
       0.039710402 0.072713815 -0.078417145 0.047545977
0003c0 63 b4 e9 bd 9e d4 bd bd 00 ca e2 bb ee 27 17 be
       -0.11411359 -0.09269069 -0.006921053 -0.14761326
0003d0 30 f6 64 bd eb c1 06 be a3 4a ca 3d 70 bf 48 bd
       -0.055898845 -0.13159911 0.09877517 -0.049010694
0003e0 c2 5d 0d 3e f6 a9 6f 3d 00 21 33 bc e1 d7 0b be
       0.13805297 0.058511697 -0.010933161 -0.1365657
0003f0 d8 d1 f1 3d 0b 19 df 3d 5c 46 10 be d2 c1 d3 3d
       0.11807603 0.108934484 -0.1408934 0.10339703

target_net.fc1.bias f4 [64]
000000 af 08 26 3b 4a ad ae 3d da 70 fd bd 20 96 12 bd
       0.0025334766 0.08529146 -0.1237504 -0.0357877
000010 a3 d6 06 bc c0 91 34 be c8 06 f8 bc 4e 62 35 3d
       -0.008229884 -0.17633724 -0.030276671 0.044283204
000020 d8 f4 12 be 04 74 f0 3d 4c b5 9e 3d a0 0c 01 3e
       -0.14351213 0.11740878 0.077494234 0.12602472
000030 ce 1f dc 3d c8 51 66 bd 33 37 ef 3d e2 f4 9b bd
       0.10748254 -0.056230336 0.1168045 -0.07615067
000040 c2 a2 20 be eb 11 3e be 28 1a 03 3e 58 94 db bd
       -0.15687087 -0.18561523 0.12802947 -0.10721654
000050 9c 52 15 be 14 e0 29 be 24 0e f5 3d e2 22 cb bd
       -0.14582294 -0.16589385 0.11965588 -0.09918763
000060 eb af 8b bd 8a b8 65 bd 37 53 15 3e 5c a2 88 bc
       -0.06820663 -0.056084193 0.14582525 -0.016678981
000070 4e dd 07 be a8 cf 4b 3e 9a cf a0 3d c5 79 18 be
       -0.13268015 0.19903433 0.07852097 -0.14890201
000080 19 96 81 bd 9b 2a 47 bb b9 c7 14 3c 1f a9 71 bd
       -0.06327457 -0.0030390385 0.009080821 -0.058999177
000090 fc 26 f1 3d 23 16 fd 3d 82 15 3e be 34 18 46 ba
       0.11775014 0.12357738 -0.18562892 -0.0007556707
0000a0 6f bf 29 be 99 28 0a bb d1 d2 e8 bd 59 fc eb bd
       -0.16576932 -0.0021081327 -0.11368335 -0.11522741
0000b0 00 a7 1c 3e 3a 6c 36 3d 14 b7 90 bd a0 d0 0d be
       0.1529808 0.044536807 -0.070661694 -0.13849115
0000c0 dd be b7 3c 9d c8 19 be a0 90 19 be 6a e3 10 bd
       0.022429878 -0.15017934 -0.14996576 -0.03537313
0000d0 3a ba c6 3c 8e db ba bc 8e 4e 39 3d 93 3d 88 3d
       0.024258722 -0.02280977 0.04524093 0.06652369
0000e0 43 f4 2a be 43 4e eb b9 53 7a 2c bb 73 9f a1 bc
       -0.16694741 -0.00044881002 -0.0026318028 -0.019729352
0000f0 c5 ce 05 be 85 84 53 bd 28 b0 23 3e 4e 07 ae bd
       -0.13067158 -0.051640052 0.15985167 -0.08497487

target_net.fc2.weight f4 [3, 64]
000000 2d 84 74 bd b5 4a 2e bc 05 02 08 bd 68 1c 89 bd
       -0.059696365 -0.010637929 -0.03320505 -0.06694871
000010 65 f7 6a bc 04 5e a0 bd 54 29 d0 3d 45 bb 68 3c
       -0.01434121 -0.07830432 0.10164133 0.014204805
000020 d0 cc c5 bd a2 d9 fa 3d e0 3c 6f bd 90 b8 9e bc
       -0.096582055 0.122485414 -0.058407664 -0.019375116
000030 65 66 71 bd b5 82 e9 3c 25 f8 be bd 2f a7 91 3d
       -0.05893554 0.028504709 -0.093246736 0.07111966
000040 c2 aa 03 3e 7b 05 03 3b bf b9 29 bd 19 38 78 3c
       0.12858108 0.001999228 -0.041436907 0.0151500935
000050 05 0c a9 bc a3 e1 d4 3d 2b 33 93 bd c3 49 07 bd
       -0.020635614 0.10394599 -0.07187494 -0.03302933
000060 e0 b8 6f bd 55 dc 2e bd 0d 32 75 3c b9 9e 67 3d
       -0.05852592 -0.042690594 0.014965546 0.056547854
000070 08 b4 bc 3d 63 5f 9a bd 36 0d ae bd 68 dd a1 3d
       0.09214026 -0.07537725 -0.084986135 0.07903558
000080 84 b6 f3 bc 00 cb b9 3d 95 b0 e3 3c 1c 56 f2 bb
       -0.029750116 0.09071922 0.027794162 -0.007395519
000090 8b 34 63 bd 18 27 d9 bd ff dc ee 3d 4d 10 1a bd
       -0.05547003 -0.1060316 0.116632454 -0.037613202
0000a0 16 31 6f 3d 28 bf 9a bd c6 2f 6c 3d 2f c3 58 3d
       0.05839642 -0.075559914 0.057662748 0.052920517
0000b0 83 79 68 bd 53 27 4c 3d a1 30 11 3d 2e 02 a0 3c
       -0.056756508 0.04984219 0.035446767 0.01953229
0000c0 6f 82 15 3d 59 48 08 bd a0 51 e1 bc 26 8a 8e bd
       0.036501344 -0.03327212 -0.027504742 -0.069599435
0000d0 7e e5 e4 bd 14 9b f4 bd 5f b7 3c bd 26 65 a2 3d
       -0.11176585 -0.11943641 -0.046073314 0.07929449
0000e0 3a b6 e4 3c 29 f7 df 3c d6 23 a4 3d 2c c8 12 be
       0.027918924 0.027339535 0.08014648 -0.14334172
0000f0 e0 c0 2e bd b4 8c 86 3c 0e 97 42 be 40 eb 44 3d
       -0.04266441 0.016424514 -0.19002935 0.048075914
000100 07 eb 82 bd c5 37 f0 bd 1e 7f b2 3d b6 86 57 bd
       -0.06392484 -0.11729387 0.08715652 -0.052618705
000110 9b c8 d0 3d ab 09 a6 bd b0 b9 a2 3c 33 d3 c0 3d
       0.101945125 -0.08107313 0.019863933 0.09415283
000120 50 40 41 bc cb da 8a bd f8 b5 d6 3d 66 29 1c 3e
       -0.011795118 -0.06780013 0.104839265 0.15250167
000130 8b 0b 2a 3d db c1 d7 3c 11 2e 89 3d db 55 00 bd
       0.041514914 0.026337555 0.066982396 -0.03133188
000140 44 2b 4b bd 31 5e c0 3d 46 15 69 3d 4c d4 bc 3c
       -0.04960181 0.093929656 0.056905054 0.02305045
000150 48 31 f9 3c 91 1d d6 3c c3 af c7 bd 5a 44 ca 3c
       0.030419007 0.026137145 -0.09750321 0.024690796
000160 2a 91 ea 3c 03 f9 ec bd 53 4e c0 3d 4b 3d e7 3d
       0.028633673 -0.11570933 0.09389939 0.112909876
000170 ba 84 40 bd 0a d8 1c 3d 76 66 81 bc 4c 09 16 3c
       -0.047001578 0.03829197 -0.015795927 0.00915749
000180 da 90 f1 3d f2 3e 35 bc 6e be 8d 3c 72 c8 df 3c
       0.11795206 -0.011062371 0.017302718 0.02731726
000190 1c 2d 5d bc 37 8e 1a 3d 30 70 a0 bd ce dd 06 3c
       -0.013499524 0.037733283 -0.07833898 0.008231593
0001a0 7d 86 d9 3c 20 f5 ab 3d 3b 57 a3 bd 2e e3 be 3d
       0.026553387 0.08396363 -0.07975622 0.09320675
0001b0 e8 84 22 3e 8d 17 c8 3d 60 aa e1 3d 89 8a 94 bc
       0.15871012 0.09770117 0.110188246 -0.018132465
0001c0 49 52 12 3d 1f 12 83 3d d4 40 f1 bd 15 0e 6b bb
       0.035723004 0.06399941 -0.11779943 -0.0035866548
0001d0 05 ec 5a bd ce ba 62 bd d7 1e 17 bd f2 36 e2 bc
       -0.053447742 -0.055353932 -0.036894646 -0.02761409
0001e0 da c3 8c bd 75 f1 ea bc 6c 60 b0 bc 90 ab 33 3d
       -0.06873293 -0.028679589 -0.021530353 0.043864787
0001f0 b2 2f 34 bc 6e 63 4a bd 7b 79 0e bc 10 2d 83 3c
       -0.0109977 -0.04941123 -0.008695955 0.016012698
000200 0a 2f 6b bd 09 5e 2e bd 09 bf 7a bd 1b 83 03 3d
       -0.057417907 -0.042570148 -0.06121734 0.032107454
000210 3b bd 77 bd a7 31 98 3d 11 9a c0 bd ac 12 ca bc
       -0.0604832 0.074313454 -0.09404386 -0.024667107
000220 ba a9 82 3d d7 e4 ab 3d ca 85 1f 3e ad cc 25 bc
       0.06380029 0.08393257 0.1557838 -0.010119599
000230 11 33 a7 bc a8 eb e8 3d 6a 1d 7b bd 7c 38 0c bd
       -0.020410093 0.11373073 -0.06130735 -0.034233555
000240 f0 ad 91 bd 5c cf 3f 3c 87 35 3d 3d 68 6b be 3b
       -0.07113254 0.011707153 0.046193626 0.0058111437
000250 77 12 f0 bd d2 01 7c bd 7d 00 b2 3d 01 c9 93 bd
       -0.11722272 -0.061525173 0.086914994 -0.07216073
000260 4b 05 02 bc 86 8b 9d 3d a5 86 9f 3d 0b db f4 3b
       -0.007935832 0.076926276 0.07789353 0.007472401
000270 63 65 84 bd a6 dd 19 3e 76 5b ca 3d 19 1d dd 3d
       -0.064646505 0.15025958 0.09880726 0.107965656
000280 b6 8b b7 bd 28 a5 f7 3c 6e 28 e0 3d fc b8 67 bd
       -0.089621946 0.03023012 0.10945211 -0.0565729
000290 f0 f3 50 bc ef 9a 5c 3c 1f 21 50 3d e9 c8 af bd
       -0.012753472 0.013464673 0.050812837 -0.085832424
0002a0 c5 c2 c0 bc 3e 2e c7 bd 0a a3 2f bd 6a 16 ed 3d
       -0.023530373 -0.09725617 -0.042880096 0.11576541
0002b0 c9 ec 8d 3d e7 7d 33 bd b0 b1 54 bd 6a b0 d8 3d
       0.06929929 -0.04382124 -0.05192727 0.10580523
0002c0 0b 45 f1 3c ad 87 c9 3c c5 06 b5 3d ce 0e a7 bc
       0.029451868 0.024600828 0.08839182 -0.020392802
0002d0 b5 86 bf bd ec 0b d9 bc 30 c6 25 3d 67 cb eb 3d
       -0.09351865 -0.026494943 0.04047221 0.11513405
0002e0 16 86 02 be 10 dd d4 bd 1d 81 aa 3d 6c 66 cf 3d
       -0.12746462 -0.10393727 0.08325408 0.10126957
0002f0 46 4e da bd 6a 65 d9 bd 88 b7 96 3d 50 1e 06 3c
       -0.10659461 -0.10615046 0.073592246 0.008185938

target_net.fc2.bias f4 [3]
000000 1e 7b fa bb 0c be 23 3c 2e 27 57 3d
       -0.0076440712 0.009994041 0.0525276

tatic_net.fc1.weight f4 [64, 42]
000000 7b 30 12 3e bf ca 1d bd 8d c3 f0 3b b8 27 0a be
       0.14276306 -0.038523432 0.00734753 -0.13491714
000010 aa e9 55 3d bd ce e7 bd 13 bc 32 bd 36 8c d7 bd
       0.052224793 -0.11318729 -0.043636393 -0.1052479
000020 c5 5e bc 3d a9 c3 08 3e b7 6b 9e bd 71 53 c7 3c
       0.09197763 0.13355888 -0.07735389 0.02433178
000030 69 06 00 be e0 cb ff 3d d6 df b9 3d 90 3e ed bd
       -0.12502445 0.12490058 0.090758964 -0.115841985
000040 45 61 10 be 20 cb ee 3d 9e aa 63 3c 56 ac de bd
       -0.14099605 0.11659837 0.013895659 -0.10872714
000050 f6 3d 1d 3e 89 c0 c0 bd 03 65 44 bd c2 7c 22 3e
       0.15355667 -0.09411723 -0.047947895 0.15867904
000060 91 77 16 be 20 6c bc 3d cf 18 92 bd be 9e ca bd
       -0.14694048 0.09200311 -0.07133638 -0.09893559
000070 4d c2 9c 3d 0f a9 50 bd 9a 53 06 3d a0 a9 fb 3d
       0.076542474 -0.050942477 0.032794572 0.12288213
000080 61 06 5a bc 16 86 19 be 15 58 d2 3d 89 3e e6 3d
       -0.013307185 -0.14992556 0.102707066 0.112423964
000090 bc 55 e0 bd 72 41 f3 3c 13 41 37 3d 18 a4 8b 3d
       -0.109538525 0.029694293 0.044739794 0.06818408
0000a0 96 86 ae 3d 37 a0 28 bd a1 ce fc bd 1a ce 15 3e
       0.08521764 -0.041168418 -0.12344099 0.14629403
0000b0 b2 1f 62 bd 86 dc 01 3e 30 8a a2 bc 4e 8b 89 3d
       -0.05520601 0.1268178 -0.019841284 0.067160234
0000c0 43 1b 0e 3e 7d 4a 19 bd 54 c6 21 bc 5a 6a 97 bc
       0.13877587 -0.037424553 -0.009873945 -0.01848333
0000d0 1e 42 91 3d a2 53 ab 3d 38 5c ad bd bf 05 90 bc
       0.07092689 0.08365561 -0.08464855 -0.017580865
0000e0 c4 c7 a9 bd f3 50 ee bd 79 dd 85 3d 87 a8 bd 3d
       -0.082900554 -0.116365336 0.06536383 0.0926066
0000f0 06 79 b0 3d 60 ad 92 3d f3 4c 18 bd a3 cd 08 3d
       0.086168334 0.07161975 -0.03718276 0.033399235
000100 7a 4c 1d 3e 8d c0 f2 bc 43 36 b5 bd 28 7c f1 3d
       0.15361205 -0.029632831 -0.0884824 0.11791259
000110 62 4c af 3d 36 dc 15 3c 34 f6 04 be eb 1a 1a 3b
       0.08559491 0.009146741 -0.12984544 0.002351458
000120 1f de c1 bd 94 e3 27 3d a4 29 17 be b6 99 f4 bd
       -0.09466194 0.04098852 -0.14761978 -0.119433805
000130 1e d5 1c bd c9 8c 10 3e a0 4f 06 be 47 01 55 bd
       -0.038289182 0.14116205 -0.13116312 -0.05200317
000140 c5 a5 ec bd 0d 0f cf 3d 00 d0 a9 bc c4 79 85 3d
       -0.115550555 0.101102926 -0.020729065 0.065173656
000150 36 05 83 3d 2c 40 b2 3d be da f9 bd f6 b3 0a be
       0.06397478 0.08703646 -0.12199925 -0.13545212
000160 7a d7 16 be 8c ae 38 3e 00 d0 44 3d a3 94 ad 3d
       -0.14730635 0.18035334 0.048049927 0.08475616
000170 08 2f 86 3d 0e 00 43 3d f2 0b 53 bd 48 a2 86 3d
       0.06551939 0.047607474 -0.051525064 0.065739214
000180 67 82 19 be bf 84 09 be e8 da 98 3d b4 33 b3 bd
       -0.14991151 -0.13429545 0.07463628 -0.08750096
000190 8f 42 10 3e a2 25 c8 bd b5 a3 96 3d d8 6f f6 bd
       0.1408789 -0.09772803 0.073554434 -0.12033051
0001a0 84 fd b6 bd ed 8a 36 bd 7d 93 ff bd 38 8a 59 bd
       -0.08935073 -0.044566084 -0.12479303 -0.05311033
0001b0 d5 15 56 3d a8 b8 ca 3c 6e d2 7a bd 56 d0 cd 3d
       0.052266914 0.024746254 -0.061235838 0.100495026
0001c0 24 2d 8f bc 36 8a cd 3d 6e 23 0f be 0e ca a6 3b
       -0.01747758 0.10036127 -0.13978359 0.0050900048
0001d0 cb 3f 23 3d 0e 88 46 3d b8 22 0a be 8b 5a 06 3d
       0.03985576 0.048469596 -0.13489807 0.032801192
0001e0 2e 5d 47 3d d4 7f 0f be 6b 80 03 be 32 aa c5 3d
       0.048672847 -0.14013606 -0.12841956 0.09651603
0001f0 63 50 14 be 41 f1 5f bb 81 0c 11 be 32 e0 dd bd
       -0.1448379 -0.0034170898 -0.14164926 -0.108337775
000200 6f 3b 90 3d 80 8b 29 3e 1d 90 33 3d 94 f1 2b 3e
       0.07042586 0.16557121 0.04383861 0.16791373
000210 96 f5 0f be eb ba fa bd 77 76 fb bd d0 d2 17 3e
       -0.14058527 -0.12242683 -0.12278455 0.14826512
000220 3a b2 3a bd df da 24 3d 84 6c 97 3d 44 ec 13 be
       -0.045580126 0.040247794 0.073937446 -0.14445597
000230 ba e7 ba 3d 2d 34 26 be d5 18 72 bc a1 7e f9 3d
       0.091262296 -0.16230841 -0.014776428 0.12182356
000240 2f a1 9b 3d 5e d5 1c 3e c3 45 56 3c 09 be 96 3d
       0.07599103 0.15315768 0.013078156 0.07360465
000250 37 5b c0 bd 09 09 16 3e e2 10 87 bd 70 14 e4 bd
       -0.09392398 0.14651884 -0.06595017 -0.11136711
000260 72 d6 d2 3d 17 6d 98 bd bf f5 10 3e c3 74 cc bd
       0.102948084 -0.07442682 0.14156245 -0.09983208
000270 1c 9f c0 3c 15 85 0b bd e8 2b a1 3d 37 81 b5 bc
       0.02351337 -0.034062464 0.078697026 -0.022156341
000280 91 ce f8 3d 45 75 38 3c 9d 9f 0f be 57 cb 9d bd
       0.121487744 0.011258428 -0.14025731 -0.077047996
000290 d6 d6 1a be b5 9a cc 3d 7a 0d 95 bd 2d ee 1d 3e
       -0.15121016 0.099904455 -0.07277961 0.15422888
0002a0 4b 34 52 3d 25 fd 02 be 18 ba 0a be c2 d3 f0 bd
       0.0513194 -0.1279188 -0.13547552 -0.117591396
0002b0 7a 41 85 3d c7 c5 86 bd 19 c8 d1 bd f8 21 18 be
       0.06506629 -0.06580692 -0.10243244 -0.14856708
0002c0 ae f0 13 bd 9e 01 9b bd 8e 22 a3 bd df f0 21 3e
       -0.036118202 -0.07568668 -0.07965575 0.15814541
0002d0 88 c8 f3 bc 42 85 a2 bd da c0 14 bd 2a ef ea bd
       -0.029758707 -0.07935573 -0.03631673 -0.11471398
0002e0 1f 16 61 3c 78 28 26 3e 16 02 96 bd 21 6f ca 3c
       0.013738184 0.16226375 -0.073246166 0.024711194
0002f0 2f c0 d6 bd b7 b6 39 3d f9 9b d5 bd 05 85 1c be
       -0.10485875 0.045340266 -0.1043014 -0.15285118
000300 e5 a1 de 3d e2 38 da 3d dd f2 bb 3d 22 1c 4a 3d
       0.10870723 0.10655381 0.09177182 0.049343236
000310 37 40 11 be c1 c7 c7 3c 3f 1f 44 3d d3 67 cf 3d
       -0.14184652 0.024387242 0.04788136 0.10127225
000320 9b 85 3d bc ce 44 ed bd a3 5b 20 bc ca b5 b1 3d
       -0.011567499 -0.11585389 -0.009787473 0.08677252
000330 90 19 54 bd ee 52 84 bc 84 b3 3b 3c 4f 25 e9 bb
       -0.05178219 -0.016152825 0.011456374 -0.0071150432
000340 1d ad 01 3d 37 34 1c 3e 7e 23 9d 3d da 9f f7 bd
       0.031659234 0.15254293 0.07672785 -0.12091036
000350 d7 9c 15 3e 9a 9f 22 3c 89 79 00 bd ed 92 2c 3d
       0.14610611 0.009925747 -0.031365905 0.042132307
000360 ba 1a ad 3c 4d f6 12 3d 4f 85 1f bb 0f 14 c2 3d
       0.021130908 0.035879422 -0.0024340933 0.09476482
000370 1d c7 86 bd 0b 72 f8 3d 38 62 7d 3d af 32 b6 3d
       -0.065809466 0.12131127 0.061861247 0.08896386
000380 23 fb 33 3d 00 04 02 3d 0b ab 54 bd 26 86 ed bd
       0.043940675 0.031742096 -0.05192093 -0.115978524
000390 35 bf d1 3d c2 5a b2 bd ec 84 70 3d 4d 79 56 3c
       0.10241548 -0.08708717 0.058720514 0.013090444
0003a0 b0 30 fe bd e5 a1 4e bc 16 d5 dc 3c 86 ba 67 3d
       -0.1241163 -0.012611841 0.026957076 0.056574367
0003b0 fc fa de bb ca 20 19 3d f7 43 fe bd 97 f4 0e bd
       -0.006804822 0.037384786 -0.12415307 -0.034901228
0003c0 90 bf 1d 3e e2 e8 05 3e 8d df 9c bd 60 f7 0b 3e
       0.15405107 0.13077119 -0.076598264 0.13668585
0003d0 a2 cf 0c 3e 44 e4 a6 3c 3d b4 ee bd ce 8d b5 3d
       0.1375108 0.020372517 -0.116554715 0.08864938
0003e0 7c 45 bd bd c4 63 ef 3d 32 1c a2 3c d7 26 05 be
       -0.09241769 0.11688951 0.019788835 -0.13003097
0003f0 73 00 c6 3d d4 ff fd 3d 36 39 b0 3d 77 eb 53 bc
       0.096680544 0.12402311 0.08604662 -0.012934557

tatic_net.fc1.bias f4 [64]
000000 2f 2d d6 3d 20 6f 84 bd af c0 52 3d dd fe c9 3d
       0.10457837 -0.06466508 0.05145329 0.098630644
000010 5b dd c6 3c ac c5 c2 3d a4 e5 62 bd b4 92 a6 bd
       0.024275472 0.09510359 -0.055394784 -0.0813345
000020 e4 64 aa bd d6 1a e6 3a 06 5d 47 3d 7b f6 c0 3d
       -0.083200246 0.0017555605 0.0486727 0.094220124
000030 82 4c b1 bd e3 a1 1e 3d 63 19 66 3d e9 9d d1 3d
       -0.08657171 0.038728606 0.056176554 0.10235197
000040 4c 3f a6 bd 6a 07 cb 3d 47 cf 0e 3e 36 c8 d4 3d
       -0.08117542 0.099135235 0.13946258 0.1038975
000050 ee a7 41 3d 23 93 e2 3d 02 14 c4 bd 1c 37 0b 3e
       0.04727929 0.1106322 -0.09574129 0.13595241
000060 37 a4 99 bd ae 5c 51 bd f1 6e 52 bd 5d 69 69 3c
       -0.075020246 -0.051113777 -0.051375333 0.014246312
000070 27 71 13 be 63 f6 fc 3d 01 78 bc bd 28 b5 8d bd
       -0.14398633 0.12351682 -0.092025764 -0.069193184
000080 81 50 03 3e a8 6d aa bd 28 ac c4 3d 2f 69 74 bd
       0.12823679 -0.083216965 0.09603149 -0.059670623
000090 0e e9 2d 3c 33 75 3c bd 18 c4 34 3d 60 49 9b 3d
       0.010614647 -0.046010207 0.044132322 0.075823545
0000a0 da 2c 9f bd 64 df bf bd 53 38 45 3d b4 54 06 3e
       -0.07772227 -0.0936878 0.048149418 0.13118249
0000b0 92 9e 81 3d 7d f5 2a 3e 0d d7 04 be 57 3c d7 3d
       0.06329073 0.16695209 -0.1297266 0.10509556
0000c0 9d 15 2c 3d 5c 92 08 be fd f2 13 be fc 93 0d bd
       0.0420128 -0.13337082 -0.14448161 -0.034564957
0000d0 c9 bf 08 bd 5a 62 02 bb 3e f0 d8 bc 47 36 94 3c
       -0.033386026 -0.0019895048 -0.026481744 0.018092288
0000e0 5d 64 18 3e 3a 60 26 3d f7 0c 91 3d 04 c1 a5 3d
       0.14882036 0.040619113 0.07082551 0.080934554
0000f0 ca a4 23 3c e5 33 ce bd 08 50 0a be 86 5d a9 bd
       0.009988019 -0.10068492 -0.13507092 -0.08269791

tatic_net.fc2.weight f4 [6, 64]
000000 c8 47 08 3d 66 a6 82 3d 68 1e 77 bd 94 7f 90 3d
       0.03327158 0.06379394 -0.060331732 0.070555836
000010 b0 44 17 bd 60 57 6d 3c 00 67 41 3a fc 31 c5 3d
       -0.03693074 0.014486164 0.0007377714 0.096286744
000020 ec 34 a5 3d 98 01 bc bd 3a 06 d9 3d 22 43 c1 3d
       0.08066735 -0.091799915 0.10596891 0.09436633
000030 ae 4b a6 bd 40 e2 da 3c 34 1e 2f bd 72 6e 9c 3d
       -0.081199035 0.026719213 -0.042753413 0.07638253
000040 1a 9d f2 bd da a4 cb bd c0 14 0f bc 04 74 04 3d
       -0.11846371 -0.09943552 -0.0087329745 0.032337204
000050 c2 d7 eb 3d 5a 93 dd bd 9a 3e 9e 3d 60 69 fa bb
       0.11515762 -0.10819121 0.07726784 -0.007641956
000060 c0 0d 49 bc 72 af f7 bd 80 81 e5 3d 3c 61 b2 3d
       -0.012271345 -0.120940104 0.11206341 0.08709952
000070 dc 98 5e 3d b8 6b a1 3c ac 36 08 bd 6e 6f c2 bd
       0.054344997 0.019704685 -0.033255264 -0.0949391
000080 0c 9f cf bd 8c 24 33 3d b0 53 9b bc 38 67 ac 3c
       -0.10137758 0.043736026 -0.018960804 0.021045312
000090 f4 f3 f0 3d 00 00 01 3c 60 38 0c 3c 8c 33 e1 bd
       0.1176528 0.007873535 0.008558363 -0.1099616
0000a0 0a 8d b4 bd 08 9b cd bd f0 e2 26 bc 50 ec e6 bd
       -0.088159636 -0.100393355 -0.010185942 -0.11275542
0000b0 10 a9 f8 bd 70 e9 4e bd 70 fa 4c 3c 4c f7 72 3d
       -0.12141621 -0.050515592 0.012510881 0.059317872
0000c0 60 22 2e 3d f0 1f 7e 3d 86 a9 a6 bd 2c 57 ca bd
       0.04251325 0.062042177 -0.08137803 -0.09879908
0000d0 c6 f2 b3 bd a2 5b aa bd c0 a0 0d 3c 9a 10 c7 bd
       -0.0878654 -0.08318259 0.008644283 -0.09719963
0000e0 a0 da 77 bc e4 5b 8e bd 78 6e da 3d 30 56 99 3c
       -0.015127808 -0.069511205 0.106656015 0.018717855
0000f0 c0 f0 d7 3b a8 b3 c7 3d 80 06 84 bd b2 78 bf 3d
       0.006589979 0.097510636 -0.06446552 0.09349193
000100 7a 2a 7d bd d9 a5 e3 3d 5e 53 54 bd 67 5d 2d 3d
       -0.061808087 0.11115617 -0.051837318 0.042325404
000110 b8 66 10 be c2 62 82 3c af 66 a4 bd 39 b0 0f be
       -0.14101684 0.015916232 -0.08027398 -0.14032067
000120 3e d0 5a bd d7 90 d6 3d 35 70 09 be 2e 16 c6 3d
       -0.05342125 0.10476845 -0.1342171 0.09672199
000130 17 39 33 3d e2 6a a9 bd b3 e8 a3 3d f6 1f 05 bd
       0.043755617 -0.082723394 0.08003368 -0.032501183
000140 e0 65 f2 3c f8 1d 7a bc a0 b1 32 bd 03 39 cb bd
       0.029589593 -0.015265934 -0.043626428 -0.099229835
000150 42 2d c5 3c 06 8f 9b 3c 2b e1 cc bd f4 59 e3 bc
       0.024069432 0.018989097 -0.10003885 -0.027752854
000160 74 65 9e 3d 3b 50 ff bc 4b 11 72 bd 5a f7 89 bd
       0.077341944 -0.031166187 -0.059098523 -0.06736632
000170 c9 5e 05 3b bd 2b 42 3d 0e e5 45 bd f8 8f c6 bd
       0.0020350686 0.047404993 -0.048314147 -0.096954286
000180 3e d1 3c 3d 23 81 ee 3c f7 a7 08 3e 8f 1f 71 3d
       0.046097986 0.029114312 0.13345324 0.058867987
000190 06 b3 85 3d ce 50 65 3d 9d f2 b2 bc 16 6a 0b 3d
       0.06528287 0.055985264 -0.021844203 0.03403672
0001a0 4d d6 0a bd 48 27 9b 3d b5 4c ac 3d 05 75 9d 3a
       -0.03389578 0.07575852 0.08413068 0.0012013024
0001b0 06 72 01 bd 2c af bf bd f0 12 47 3c 4f 42 a5 bc
       -0.03160288 -0.09359583 0.012150511 -0.02017322
0001c0 78 d8 e4 bd 2e d6 9a 3c 42 5a bf 3d 6c 6c f2 bd
       -0.11174101 0.018900957 0.09343387 -0.11837086
0001d0 0f 5d 3b 3d 4f 3d 88 3d fc f4 00 bd 54 dc 06 be
       0.045743044 0.06652319 -0.031483635 -0.13169986
0001e0 f7 f3 03 bd 81 b0 9e bd e5 32 12 3e 14 31 32 3c
       -0.032215085 -0.07748509 0.14277227 0.010875959
0001f0 46 86 c2 3d b6 b2 2f bd c1 18 f1 3c 09 8d 73 bc
       0.09498267 -0.04289504 0.029430749 -0.014865168
000200 62 9b 86 bd 05 5e 56 bd b4 6e 0b 3c 47 90 88 3d
       -0.06572606 -0.052335758 0.00851028 0.06668144
000210 2b 0c 99 3d 2c 23 eb bc 6b 5a 41 3d 18 76 09 3d
       0.07473024 -0.028703295 0.04720537 0.03355989
000220 0d 46 5b bc 40 ab e3 bd 2e cc 96 bc ce 7e 04 bc
       -0.013383401 -0.11116648 -0.018407907 -0.008086873
000230 7b 2f 9f 3d bc 2a 19 bd 76 a7 3a bd d8 41 d7 bc
       0.07772728 -0.03739427 -0.04556986 -0.026276514
000240 60 b7 00 be 8f b0 8d bd 44 fe 69 bd f8 3e b3 bd
       -0.12569952 -0.069184415 -0.057127252 -0.08752245
000250 a3 05 89 3d 9c e5 ed 3d ae e8 59 3d b9 1e d2 bb
       0.06690528 0.1161606 0.053200416 -0.006412354
000260 77 aa d4 3c dc 2f 03 3d 58 8c 2b bd f2 e2 54 ba
       0.02596019 0.032028064 -0.04188189 -0.00081209757
000270 29 fb e0 3d a4 1d 9e 3c 19 36 04 bd 4e da 97 3c
       0.10985405 0.019301243 -0.032278154 0.018536713
000280 1a 48 3b 3c 9c b8 e0 3d 36 f6 ac 3b 80 32 ac 3d
       0.011430765 0.109727114 0.005278374 0.084080696
000290 b9 e0 2e bc ea b8 b7 3d 9f a4 95 bd 45 28 11 be
       -0.010673695 0.089708164 -0.073067896 -0.14175518
0002a0 f1 83 dd 3d 0c af 22 3e db c6 93 bd 4f a6 db 3d
       0.108161815 0.15887088 -0.07215663 0.1072508
0002b0 9d 3c d2 bc dd f4 be 3c c5 23 af 3d c3 2e eb 3d
       -0.025663668 0.02331012 0.08551744 0.114835285
0002c0 da 77 91 bd 4b fa 97 bd e0 d7 95 3c 1f 56 ad 3d
       -0.07102938 -0.074207865 0.018291414 0.08463692
0002d0 ab 61 a9 bd 48 da f6 3d d4 8b a0 bd 1e 0c 81 bc
       -0.08270582 0.120533526 -0.0783917 -0.015752848
0002e0 f4 3a 0d be 5a 49 0f bd 78 73 0d 3e c7 2b 32 3e
       -0.1379202 -0.034982063 0.13813579 0.17399512
0002f0 04 1f 72 bd c6 de 74 3d b2 21 01 3d 21 b4 c1 3d
       -0.05911161 0.059782766 0.031526275 0.09458185
000300 1a 86 07 bd b3 79 ba 3d 98 fb b0 3c 31 90 c4 3d
       -0.033086874 0.091052435 0.021604344 0.09597815
000310 c2 30 02 3c 17 ae 92 3c 96 d0 c9 3c 70 55 c7 bc
       0.007946195 0.017905278 0.024635594 -0.024332732
000320 48 82 e4 bc 1f 8a 71 bc bd b1 d2 bd 61 e0 b1 bd
       -0.027894154 -0.014742403 -0.10287807 -0.08685375
000330 53 69 90 3c 75 1e b2 bd 4d 5f 84 bd ce a2 b1 3b
       0.017628348 -0.086972155 -0.0646349 0.005421019
000340 e1 a6 99 3d e2 72 e1 bd ec fc 87 3c 9e ec 6f bd
       0.07502533 -0.1100824 0.016600095 -0.058575265
000350 fa 86 7c bd 24 2f a5 bd 79 b3 15 3d 2e 0d 82 bc
       -0.06165216 -0.08065632 0.03654811 -0.015875425
000360 73 37 1a 3d 68 ec 71 bd e2 b1 05 bd f4 20 8d 3c
       0.037650537 -0.059063345 -0.032640345 0.017227627
000370 65 63 f7 bd 58 79 01 3e a7 47 41 bd cd 2e 2c bd
       -0.12079505 0.12643945 -0.047187474 -0.04203682
000380 b5 30 0c be a2 f4 c9 3d 7a 4d ec 3d 17 f7 cc bc
       -0.13690455 0.09861113 0.11538215 -0.025020165
000390 95 ed 68 3d 94 08 48 bd 16 d1 50 bc c1 17 01 3d
       0.0568672 -0.048836306 -0.0127451625 0.031516794
0003a0 9c 03 db 3d a6 9f 15 3d ce d4 71 bd 0d ff 89 bd
       0.10694048 0.036529206 -0.059040837 -0.067381
0003b0 19 bf 48 bd 73 0b d1 3d 98 77 b8 3d 70 f1 12 bd
       -0.04901037 0.10207262 0.09007186 -0.035874784
0003c0 4c 45 be bd 35 82 20 3e db 4c 4f 3d 7e ce b8 bd
       -0.09290561 0.1567467 0.050610404 -0.0902376
0003d0 29 f8 0e bd 4e b4 29 3d 54 e6 aa bd 44 56 61 bd
       -0.034904633 0.041431718 -0.08344713 -0.05501391
0003e0 ec fe 01 be b5 55 ba 3d f8 be 06 3e 99 81 2c 3c
       -0.12694901 0.090983786 0.13158786 0.010528945
0003f0 cd d4 c0 bd 17 cd 87 bd e7 b4 fe 3b 49 35 2f bd
       -0.094155885 -0.06630915 0.00777303 -0.042775426

tatic_net.fc2.bias f4 [6]
000000 c4 b9 65 3d 1a d0 d5 bd 22 5b dd 3c ef 66 9e 3c
       0.056085363 -0.10440083 0.027020995 0.019336192
000010 20 b2 0a 3d 7f 71 a5 bd
       0.03386128 -0.08078288

tatic_net.fc3.weight f4 [6, 3]
000000 58 21 b5 be e6 b8 be 3e ff 26 d6 be d9 ba ee 3d
       -0.35377002 0.3725044 -0.41826627 0.11656732
000010 2b b9 cb 3e f2 c9 58 bd bd 4e 8a 3e c1 08 0a be
       0.3978971 -0.052926965 0.27013198 -0.13479902
000020 9b 90 7c be 9b c2 af 3e f1 7c 3f be d2 ad 13 bf
       -0.24664538 0.3432816 -0.18700005 -0.57687104
000030 61 bc 7d be b3 18 05 bf 2b 21 10 3f 71 83 18 3f
       -0.24778892 -0.51990813 0.5630061 0.59575564
000040 8c 96 ec 3e 86 4d bb bc
       0.46208608 -0.022864114

tatic_net.fc3.bias f4 [6]
000000 4e a4 b7 3e ba 5b f9 3e a7 e5 f4 3d 5f 8e b1 3e
       0.35867542 0.48702794 0.11957865 0.34678933
000010 61 f3 ba bd c0 80 97 bd
       -0.09128452 -0.07397604

tatic_net.fc4.weight f4 [3, 9]
000000 39 0d 90 3e bb c2 ba 3e 25 e5 8b 3d f2 a0 81 3e
       0.28135088 0.36476693 0.06830815 0.25318104
000010 38 f4 db 3e 9e e0 b6 3e f0 a8 fd bd e0 e9 b3 3e
       0.42959762 0.35718244 -0.12385738 0.3513937
000020 ed 3c 11 be 79 da 5f 3c ee 40 75 bc b2 e8 16 be
       -0.14183398 0.013662928 -0.014969094 -0.14737204
000030 c3 cf 50 3e ec 4f 6c be bc 3e 6a 3e f9 4c 5d 3e
       0.20391755 -0.23077363 0.22875494 0.21611394
000040 bf f3 2b 3e a3 ba d3 3e 3a 50 b0 3d 42 1b 23 bd
       0.167922 0.4135333 0.08609052 -0.039820917
000050 bb 7f 97 3e f7 eb 66 be 8a b2 f7 3c 06 55 db 3d
       0.29589638 -0.22550951 0.030236501 0.10709576
000060 b4 fa a7 bd 0f 05 e2 3d eb 00 90 3d
       -0.08202115 0.11036121 0.07031425

tatic_net.fc4.bias f4 [3]
000000 18 54 44 be e0 d4 59 be 08 8c 66 bd
       -0.19172704 -0.21272612 -0.056285888

fc1.weight f4 [256, 108]
000000 17 69 df b9 b6 8e a2 bc de 9d a3 3d e8 a2 9a 3d
       -0.00042612173 -0.01984344 0.07989095 0.07550603
000010 bc d9 4d bd 3e 96 54 3d c7 39 b9 3c 28 f8 15 bd
       -0.050256476 0.051901095 0.022610558 -0.036613613
000020 18 d9 96 3d b0 88 a8 3c 42 d4 72 bd 4f e6 63 3d
       0.07365626 0.02057299 -0.059284456 0.05563956
000030 35 91 25 bd 02 9c b5 bd 68 99 b6 3c 04 24 88 3d
       -0.040421683 -0.08867647 0.022289947 0.066474944
000040 da 2d ea 3c 0c 2d af bd 83 ea 98 bc 72 2b fa 3b
       0.028586317 -0.08553514 -0.018666511 0.0076345736
000050 cb d8 c4 bc b9 da ab bd 1e 1a 77 3d 04 0b 8a 3d
       -0.024029156 -0.083913274 0.06032764 0.06740382
000060 79 00 69 3d 9c 37 a5 3d 07 fa 66 bd d4 f1 d5 3c
       0.056885216 0.08067247 -0.05639079 0.02611629
000070 0d 34 0e bd de 77 74 3d 80 43 a2 bd 8d 86 b4 3d
       -0.03471761 0.059684627 -0.07923031 0.08814726
000080 d1 25 41 bb 7a 41 b4 bd de f3 78 3c 50 1f ae 3d
       -0.0029472003 -0.08801551 0.015194861 0.08502066
000090 8b 72 7c bd 6f 4e 93 3d 22 3a a9 bd 91 c0 cc bc
       -0.061632674 0.071926944 -0.08263041 -0.024994167
0000a0 11 ba aa bd 5c ef ba bc 7c 1b ad bc 1c d2 73 bd
       -0.083362706 -0.022819214 -0.02113127 -0.059526548
0000b0 8c 6f 84 3b 63 95 9f 3d cf d0 bd bd f0 36 8a 3d
       0.0040416177 0.07792165 -0.09268343 0.0674876
0000c0 cd 1f 92 3d b9 b6 89 3d 57 6f 82 bb e4 85 44 bb
       0.07134972 0.06724305 -0.003980558 -0.0029987032
0000d0 35 37 56 bd 28 27 17 3d 51 e6 4a 3d ed cb ae 3d
       -0.052298743 0.036902577 0.049536053 0.085349895
0000e0 83 01 a0 bd f6 6a 49 3c 39 1f 3b 3d 9f b4 5a bc
       -0.07812788 0.012293568 0.045684073 -0.0133487275
0000f0 09 0f 6a bd 56 d8 14 bd 3b 63 4f 3d f3 d2 78 3d
       -0.057143245 -0.036339127 0.050631743 0.06074805
000100 72 1c 4f 3d 9e 21 bd bd d0 cd 87 3d 95 53 e6 3c
       0.050564237 -0.092349276 0.066310525 0.028116027
000110 83 3b dd 3c fd a7 43 3d a8 28 81 bb 9a ca 25 bd
       0.027005916 0.047767628 -0.003941614 -0.04047642
000120 b1 37 c2 bd 50 c0 a8 bd e9 ba 8d bd 83 99 81 bd
       -0.094832785 -0.08239806 -0.06920416 -0.06328108
000130 9f 13 9f bd 40 42 54 3b 13 55 82 bd f4 e4 94 3b
       -0.07767414 0.003238812 -0.06363883 0.004543895
000140 08 0c 89 3d 9e 33 9e 3d fa 4c 74 bd c8 33 b3 bd
       0.06691748 0.07724689 -0.059643723 -0.08750111
000150 1a 4d 96 bc a0 af bd bd 2e fe 1f bd 12 61 9d bd
       -0.018347312 -0.092620134 -0.039060764 -0.0768453
000160 a0 67 ae 3c e0 e6 49 bd 76 cc 20 bd 26 95 9c 3d
       0.021289647 -0.049292445 -0.03925749 0.07645635
000170 da c2 22 bd 99 7e c2 3d 33 4d 80 3d 57 ac d9 bd
       -0.039736606 0.09496803 0.062647246 -0.10628574
000180 4f c4 e6 bc 41 a9 00 bd 7b 0a 35 3d ab b4 be bd
       -0.02816978 -0.031411413 0.044199448 -0.093118034
000190 29 4a 4b bb 27 d9 75 3d e7 3e 50 3d 8e 27 e9 3c
       -0.0031019545 0.060021546 0.05084124 0.028461244
0001a0 2b b4 ab bd 81 89 c8 bb f7 3d 74 3d d6 81 5d bd
       -0.08383974 -0.0061199074 0.059629407 -0.0540789
0001b0 16 a4 2d bd 3c 2f 3f bd 7e 94 57 bd d1 b4 1e 3f
       -0.042392813 -0.046675906 -0.052631848 0.61994654
0001c0 78 e1 f5 3e 41 d8 ef 3e 75 a5 24 bb 6d fd 8b 3d
       0.48023582 0.46844676 -0.0025123034 0.068354465
0001d0 f1 4b 92 bb dc 4c 27 3f fe c0 0c 3f 8b 7e 0d 3f
       -0.0044646193 0.65351653 0.5498198 0.55271214
0001e0 e7 a9 30 bd 60 55 e8 bc 57 88 8f bd 2a ae 08 3f
       -0.04313078 -0.028361022 -0.07008427 0.53390753
0001f0 44 db 12 3f d6 56 db 3e 8d b1 2e 3b 85 40 7a 3c
       0.5736582 0.42839688 0.0026656121 0.015274172
000200 53 d2 43 bd b3 07 7a bd 45 c8 48 bd 13 8f 93 3e
       -0.047808003 -0.0610425 -0.049019117 0.28820094
000210 65 8b 8e bd 9a f2 7d 3d d8 25 88 3d ea db 11 3d
       -0.06960181 0.06199894 0.06647843 0.035610117
000220 92 37 96 bb 75 02 fd 3e 54 5e 8a 3d 89 de 83 bd
       -0.004584261 0.49415937 0.06756273 -0.064389296
000230 40 44 53 3d 43 73 93 3d 7b e8 3a 3b bc c9 06 3f
       0.05157876 0.07199719 0.0028519917 0.5265157
000240 c9 3e 84 bc e5 8b 76 3d b4 e5 5e bd 07 68 19 3f
       -0.01614322 0.060192008 -0.05441828 0.5992436
000250 50 be 16 3f 91 f1 d6 3e ee bc ce 3a 08 af af 3c
       0.58884144 0.41981176 0.0015772858 0.021445766
000260 d4 33 9f 3d 2a aa 1d 3f 87 c1 fe 3e 53 f4 cd 3e
       0.07773557 0.61587775 0.49757025 0.40225467
000270 bb 1b b5 bb a8 32 6b bc d5 21 0b 3d ca 0c 0a 3f
       -0.0055269874 -0.014355339 0.03396781 0.53925765
000280 c4 35 0f 3f 79 8b c3 3e 3d 7e 70 bd ec cf 77 bd
       0.55941415 0.38192347 -0.05871414 -0.060501024
000290 c4 03 91 bc 56 35 35 3d d3 5c 95 3d e1 b8 8d 3e
       -0.01770199 0.04424032 0.072930954 0.27680114
0002a0 b1 87 31 3d cb 60 ba bd 2d d7 03 bc 61 4e 82 bd
       0.043342296 -0.09100493 -0.008046907 -0.06362606
0002b0 7e 3a 16 bd b9 1b d5 3e 24 b5 00 bd 80 75 66 3a
       -0.036676876 0.41622713 -0.03142275 0.00087913126
0002c0 9d 9b bf 3d 82 70 e8 bc 68 04 c4 bd 33 a6 f3 3e
       0.09355853 -0.02837396 -0.09571153 0.47587737
0002d0 7f a2 52 3d db fd 2a bd ec 30 55 bd c1 6d 06 3f
       0.0514245 -0.041746 -0.05204861 0.5251122
0002e0 67 33 0e 3f 71 a4 b4 3e 4e bf 09 3c 1e 8f 85 bc
       0.55547184 0.3528171 0.008407427 -0.016303595
0002f0 d2 39 7a 3d 06 a0 2d 3f d6 b4 0c 3f 4e f0 cc 3e
       0.061090298 0.678223 0.54963434 0.40027088
000300 2c 00 23 bd b3 29 85 3d f7 a1 a0 3c b0 f4 1d 3f
       -0.039795086 0.06502094 0.01960848 0.6170149
000310 ee 38 0f 3f ba 61 07 3f 3b 6c 6e bd 28 40 93 bd
       0.5594624 0.52883494 -0.058208685 -0.07189971
000320 fd 90 6a 3d 0d c2 a6 b8 d1 3a 2f 3d bd 21 bd 3e
       0.057267178 -7.9516416e-05 0.0427807 0.36939803
000330 30 6f 9d 3c 90 aa 8c bc 48 82 a3 3b 6c 90 b1 3d
       0.019218057 -0.017171174 0.004989896 0.086701244
000340 bd 3c 87 bd b3 b0 e8 3e 04 3d 42 bc 5a b4 01 3d
       -0.06603382 0.4544731 -0.011855368 0.031666137
000350 ec 28 13 3d 01 9b f1 3c 93 8d 92 3d 29 ff d7 3e
       0.035927698 0.029492857 0.071559094 0.4218686
000360 75 2d 82 3d df c0 98 3c c4 d2 99 bd c6 3d 13 bd
       0.063563265 0.018646656 -0.075109035 -0.035947584
000370 74 dd 83 bc bd 5e 1e bd b1 29 8f 3d e3 0a aa bd
       -0.016096808 -0.03866457 0.06990374 -0.08302858
000380 c1 d7 bf 3d 27 dc 8e 3d 68 2e 58 3c d5 f3 91 3d
       0.09367324 0.069755845 0.013194658 0.071265854
000390 e3 42 6a 3d 59 69 05 3d e3 64 15 bd d1 a2 5c 3d
       0.057192694 0.03257117 -0.036473166 0.05386621
0003a0 6b a8 8d 3d a7 4e f8 3c ac a2 57 bc 52 8d 99 bd
       0.06916889 0.030310942 -0.013161343 -0.07497658
0003b0 e2 46 75 bd 9e 8c 44 3d 1c e3 b2 3d 2e 3a 57 3d
       -0.059882052 0.047985666 0.08734724 0.05254572
0003c0 0b 58 bd 3d 45 24 15 bd a2 05 50 3d b8 36 25 3d
       0.092453085 -0.036411542 0.050786622 0.040335387
0003d0 54 ff 32 3c 8d a3 d8 bd 3a 73 92 3d a2 09 51 bb
       0.010925133 -0.1057807 0.07150884 -0.003189661
0003e0 ce 79 7b bd c6 21 5f bd 1b 41 bd bd f3 5e a5 bd
       -0.06139546 -0.05447557 -0.092409335 -0.08074751
0003f0 56 ce 8b 3d fb cf 8a 3c c0 5c 92 3d 88 84 39 bd
       0.06826465 0.016944876 0.07146597 -0.045292407

fc1.bias f4 [256]
000000 21 62 db bd a3 0f 12 3f 30 d0 dc bb 18 80 cc 3e
       -0.10712076 0.5705511 -0.006738685 0.39941478
000010 ff 0d 9d 3e 9a b3 17 3f bb 9f 9d 3e 43 5b 13 3f
       0.3067474 0.59258425 0.30785927 0.5756113
000020 9a 65 e8 3e 42 79 15 3f 6f 20 24 3f 9b 55 3b 3f
       0.45390016 0.5838815 0.6411199 0.731775
000030 d4 bc 7a bc e4 15 20 3f e3 81 1c 3f 87 4f 4d 3f
       -0.015303809 0.625334 0.6113569 0.80199474
000040 11 ae 20 3f 37 4f 24 3f ca 8b 53 3f a2 ee d0 bb
       0.62765604 0.6418337 0.82635176 -0.0063761035
000050 a3 3e 30 3f 70 b5 81 bd 31 40 30 3f a7 4a 18 3f
       0.68845576 -0.063334346 0.6884795 0.5948891
000060 25 5c b1 3e 27 6c 3e 3f 18 36 1d 3f b1 81 fe 3e
       0.34640613 0.7438378 0.61410666 0.49708322
000070 91 b1 01 3f f5 5d 23 3f a5 33 d8 b9 c0 3d 51 3f
       0.5066157 0.6381524 -0.0004123721 0.8173485
000080 c2 35 11 bc 73 2f 32 3f 79 c8 ad bd 04 77 10 3f
       -0.0088629145 0.6960365 -0.08485503 0.56431603
000090 b0 64 2f 3f 40 74 05 3f e9 7e 96 bc 42 7c 1a 3f
       0.6851301 0.5213051 -0.018371062 0.6034585
0000a0 7b 82 08 3f b1 87 25 3f e8 3d bd bd 5f 13 23 3f
       0.533241 0.64660174 -0.09240323 0.6370143
0000b0 2f 97 08 3f 6a 44 2d 3f 0f b4 80 3e e9 83 4b 3f
       0.5335569 0.67682517 0.25137374 0.79498154
0000c0 9f 3b 00 be 30 2e 16 3f a1 06 32 3e 8c dd 86 b9
       -0.12522744 0.58664227 0.17385341 -0.00025723537
0000d0 09 43 21 3f f3 6c 01 3f 49 be 2f 3f 2b 61 23 3f
       0.6299291 0.5055687 0.6864973 0.6382014
0000e0 07 84 c9 3e 8a 96 38 3f 36 dc 35 3f d1 bb 51 bb
       0.3935854 0.72104704 0.7103914 -0.0032002816
0000f0 40 f2 38 3f bc 29 35 3f ce 93 4e 3f fb ca 24 3f
       0.72244644 0.70766807 0.8069428 0.64372224
000100 ff ed 02 3f 63 1e 35 3f fd c4 8f bc 87 5e 32 3f
       0.51144403 0.7074949 -0.017549986 0.6967549
000110 5b 2e 30 3f 3a 49 6a bd e8 72 65 3e b6 14 b8 3e
       0.6882073 -0.05719874 0.22407115 0.359533
000120 a4 0f 32 3f 9e d7 29 3f ed 29 6c bc 1a aa 34 3f
       0.69555116 0.6634463 -0.014414293 0.70572054
000130 f4 c2 2b 3f 90 7a 10 3f 60 25 b8 bb 8b 02 33 3f
       0.6709435 0.56437016 -0.00561969 0.69925755
000140 be 93 34 3f 81 d3 b3 bd 8a 85 4a 3f 1c 7e 1a 3f
       0.70537937 -0.087805755 0.79110014 0.6034868
000150 ea d4 26 3f 0f 7c 3f 3f 73 86 29 3f cd 50 06 3f
       0.6516863 0.74798673 0.6622078 0.5246704
000160 e2 3b 30 3f 59 71 38 3f b5 77 57 3d 7d 94 0b 3f
       0.68841374 0.72047955 0.052604396 0.5452345
000170 3b af d9 3e e6 4a 2b 3f 39 8a 27 3f f4 55 29 ba
       0.42516503 0.6691116 0.65445286 -0.00064596464
000180 3a f3 29 3f 90 6e 32 3f 68 74 1a 3f 7a d6 c2 bd
       0.6638676 0.69699955 0.6033387 -0.095135644
000190 33 38 4e 3f ef 8d 41 bb 21 70 38 3f 52 3c c8 3e
       0.80554503 -0.0029534062 0.72046095 0.3910852
0001a0 50 df 80 bd c7 a9 1b ba a6 9b 57 bb ea 7e c9 3a
       -0.062925935 -0.00059380796 -0.003289917 0.0015372906
0001b0 b6 d0 33 3f 7e 9a f9 3e 0c 48 ff bc 1b 1c 07 bd
       0.7024034 0.4875068 -0.031162284 -0.032985788
0001c0 16 17 32 3f 64 29 3c 3f f3 2a 36 3f 57 df 09 3f
       0.69566476 0.7350066 0.71159285 0.53856415
0001d0 02 d7 ae bd c3 5a 1f 3f 91 40 3c 3f d4 c9 1a 3f
       -0.08537103 0.62247866 0.7353602 0.60464215
0001e0 f9 78 3e 3f db 4b 6b bd 0e 07 4f 3f 32 eb 20 3f
       0.7440334 -0.05744539 0.8087014 0.6285888
0001f0 c3 f1 30 3f c5 52 e6 bc 9a a9 42 3f 89 44 23 3f
       0.691189 -0.02811564 0.7604004 0.6377645
000200 1e 7c 46 3f 0a 52 c6 bd b1 43 22 3f 76 d6 3a 3f
       0.7753314 -0.096836165 0.6338454 0.7298349
000210 d5 94 36 3f 07 8d 1a bc 61 c0 97 bd b4 4a f8 b8
       0.7132085 -0.009433038 -0.0740974 -0.00011839476
000220 5d 1e b5 bd ed 31 53 3f dd ec 3a 3f e2 e0 c2 bd
       -0.08843682 0.82498056 0.73017675 -0.09515549
000230 40 85 0f 3f 04 8c d0 bd ae 2f 2b 3f 51 9d 1f 3d
       0.560627 -0.10182956 0.6686963 0.038968388
000240 dc 43 2e 3f e0 3a bc 3e 96 c8 06 3f 05 1f a2 3e
       0.68072295 0.36763668 0.5264982 0.3166429
000250 53 60 e7 3e d4 27 28 3f 9e 6d 22 bc cc e9 30 3f
       0.45190677 0.6568577 -0.00991383 0.69106746
000260 4c ba 49 3f 41 eb bb bd b9 35 0a 3f b5 60 34 3f
       0.7879989 -0.091757305 0.53988224 0.70460063
000270 d1 d0 2a 3f 49 67 35 3f 7c e5 cd bc 0c 63 02 3f
       0.6672488 0.70860726 -0.02513384 0.50932384
000280 6c be 26 3f 04 1c b1 3e 7c 79 24 3f 51 92 0c 3f
       0.6513431 0.34591687 0.6424787 0.5491076
000290 28 09 3b 3f f5 38 e6 b9 e7 9f 15 3f 3d 80 0c 3f
       0.73060846 -0.00043911455 0.58447117 0.54883176
0002a0 a7 5b 2b 3f 73 86 4c 3f be 30 3b 3f 78 b0 20 3f
       0.66936725 0.79892653 0.7312125 0.6276927
0002b0 7d e6 4c 3f aa e6 38 3f 2e e3 33 3f 58 8f 1a 3f
       0.800392 0.72226965 0.70268524 0.60374975
0002c0 59 e3 6f bd da fe c0 bd 46 d1 08 3f 44 f2 8e bd
       -0.058566425 -0.09423609 0.53444326 -0.06979802
0002d0 78 82 26 3f a0 72 2a 3f a0 0c a9 3e 43 07 bd bd
       0.6504283 0.66581154 0.33017445 -0.09229901
0002e0 8a e4 24 3f 2c 4b 80 bd 08 30 1f 3f ca 94 42 3f
       0.6441122 -0.06264338 0.62182665 0.76008284
0002f0 cb f2 2f 3f cd 8f bf bd 0a ad f2 3e f6 97 a6 bc
       0.6872985 -0.093536 0.47397643 -0.020336132
000300 d0 7e a0 bd 6f 60 22 3f e5 6c b6 bd 1c 2b dc 3e
       -0.078366876 0.63428396 -0.08907489 0.4300164
000310 20 ff 39 3f 0a f9 5d 3d fc 96 36 3f c7 61 1c 3f
       0.72654915 0.05419258 0.71324134 0.61086696
000320 9c 2f ac bc 34 0d 2d 3f 02 61 39 3f 06 93 b7 bd
       -0.021018796 0.6759827 0.7241365 -0.08963589
000330 97 3b b5 bd e3 06 05 3f b6 c3 24 3f 1f d6 15 3f
       -0.088492565 0.51963633 0.6436113 0.5852985
000340 e4 0f 26 3f 20 f6 2c 3f bc 9b aa bb 87 9c cc 3e
       0.64868 0.67563057 -0.0052065533 0.3996317
000350 25 2c 11 3f 05 ae 1d 3f 15 4f 4f 3f 4f 8f 3b 3f
       0.56707984 0.6159366 0.80980045 0.73265547
000360 97 b8 21 3f 22 4a e7 3e 6d 90 29 3f bc f2 2e 3f
       0.63172287 0.45173746 0.66236 0.68339133
000370 11 cb 1c 3f 5d 15 2a 3f d1 89 a8 bd ee 06 13 3f
       0.61247355 0.6643885 -0.082294114 0.5743245
000380 b0 6d 28 3f de 12 16 3f de dc 42 3f a0 f0 1a bc
       0.6579237 0.5862254 0.76118267 -0.0094567835
000390 62 02 ff 3e 9f 07 13 3f 67 94 49 3f 4f 7b a5 bc
       0.49806505 0.57433504 0.7874207 -0.0202004
0003a0 d7 b8 7b bd 00 25 12 3f 20 86 40 3f 18 15 e5 3e
       -0.061455574 0.5708771 0.7520466 0.44742656
0003b0 31 4e 5f bd 2e e6 65 bd f0 cd 89 bb a7 e4 23 3f
       -0.05451793 -0.05612772 -0.004205458 0.6402077
0003c0 cc 4b 2c 3f 41 97 9b 3e 9c 5c 22 3f 0e 33 1b 3f
       0.67303157 0.30388835 0.6342256 0.6062478
0003d0 f3 38 2d 3f d4 49 52 3f 3d 81 3d 3f d6 76 45 3f
       0.6766502 0.821439 0.74025327 0.77134454
0003e0 26 eb 30 3f 97 20 2d 3f 60 ac ef 3e 26 51 11 3e
       0.6910881 0.67627853 0.468112 0.14191112
0003f0 91 d0 f7 bc fc 38 26 3f af 68 11 3f 80 0a 36 3f
       -0.03025082 0.649307 0.5680036 0.7110977
