model_epoch_0.pth (torch, 141214 bytes, 15 tensors)

target_net.fc1.weight f4 [64, 36]
00000000: 238d 993d 4bc0 21bd f331 b33d 5043 8bbd
00000010: 04e9 16be 00cc 233a abc0 ccbb 7465 123e
00000020: 1b95 f93d c084 abbc 80bd 22bc 7b64 47bd
00000030: 7b41 fb3d b341 083e 36f7 b23c c46b 06be
00000040: b8da e63d 53c9 0e3e be0a 8a3d 53d0 a4bd
00000050: daae 1f3e 9413 0c3e 2ae0 053e 6a92 073e
00000060: a40a 05be c79a 0a3e 00ef f3bc 38e9 e2bd
00000070: 965f 88bd cbcf cc3c 561b 933d 7614 0bbe
00000080: fb1e dcbd 686f 23be b865 12be 00ec 4f3c
00000090: 236f 8c3d e6bf f73d 67e5 23be 1b9f b73d
000000a0: 0968 0e3e 4ca8 123e ee1a 21be 5caf 153e
000000b0: 70e3 bdbd 305a c9bd 890f a03d 904b 333d
000000c0: c886 1d3e 2ea0 dfbd 2ee1 b03d 1d12 f9bd
000000d0: e2d6 143e 6136 efbd e822 babd 802a 18bc
000000e0: d634 f23b e2ba 10be 2b6b 833c 9655 b5bd
000000f0: abab 72bb 2004 a9bc d66c dbbb 1bd8 d6bd
00000100: de50 eebd cbfd d43d 5076 acbd a08a aa3c
00000110: 2848 f5bd 2e59 e63d 538c f13d e9f8 91bd
00000120: f6dd 1ebe 269e 11bd 2850 113e ef4c 23be
00000130: 2869 ab3d b01c 183d b784 26be f019 c23d
00000140: 5686 56bb a9bc 8cbd 78fc 0bb9 26ae b53d
00000150: 58eb b1bd 66ef b23d 2b98 ac3b 6106 0c3e
00000160: 49f1 1e3e 6e7a 71bd 0656 8c3d 86d0 09be
00000170: 63a1 26be 2bde 9f3b 0e25 9dbd 56f0 84bc
00000180: ebc9 103e d6cd f43d cb28 17be a021 fdbc
00000190: 6ef1 f73d db30 31bd 4031 debd c0c1 d7bc
000001a0: 6e98 dcbd e6ad b6bd aba2 42bd 665e 073e
000001b0: 80eb f8bc eb2f 31bc d62b cf3c 3687 92bc
000001c0: b328 dfbd eedd 25be 8ed3 9abd 962d 563d
000001d0: 3752 0abe 8bd7 8abd 2bf8 70bd b086 87bd
000001e0: 3443 1e3e 8052 303c eb09 7fbd 5b85 f2bd
000001f0: cf56 0d3e 80de 01bd 2bf0 60bd 3303 c5bd
00000200: 1e96 c53d 66ee 07bd a257 23be 13e5 fcbd
00000210: bb84 47bd d316 f63d 5b37 473d 3b0f f13d
00000220: 90d4 fb3d d605 e73d 1435 28be d603 3dbc
00000230: f682 f0bc 76ad d1bd 383d 11be 960b 0c3e
00000240: 8ed2 153e a69f 133d e8ab 15be 6b13 1e3d
00000250: 767d 1bbe 6b38 0fbd f4d9 193e 24ae 28be
00000260: c3f9 c2bd 20fd f83d 5b64 97bd 4089 6fbc
00000270: e62f bd3d f6ea a9bc 2e96 293e 8bbd 78bd
00000280: d0db 23bd 3676 403d 0089 7dbc 485a 973d
00000290: e085 b2bd a38d d6bd 2861 fd3d ab18 d63d
000002a0: 48bc fc3d 108a 783d c3cf f83d 00af 80bb
000002b0: d752 043e a01f 973c 2ed4 8cbd b6d7 ddbc
000002c0: 2cf4 28be 08b9 a5bd 2f6c 073e a029 013d
000002d0: 4ae9 033e 42a1 0a3e e6f2 51bd f67b 8a3c
000002e0: db5c 13bd 56f5 603c ab2a a63d eb53 6a3d
000002f0: 70ad 773d e602 d5bd 2656 9ebd 00a3 6cbc
00000300: 084f e9bd 13b7 a33d 6bc2 05be a01a bbbc
00000310: 8081 23bc f60e 903d 0014 c5bd cb8d ab3d
00000320: 388a f03d ba22 1bbe 62be 19be 76e5 bbbd
00000330: 0009 0fbc c2b0 023e eb48 423c c03d fc3c
00000340: 5ef5 c9bd 9e89 8abd 76b7 983d 001a aa3a
00000350: f6b6 163e 4b05 fabd 96ca 3dbc 2325 f0bd
00000360: eb92 33bc e049 b9bd 47a7 18be 52e4 81bd
00000370: 064a 1cbe 8c59 223e 6b92 57bd 3cc4 173e
00000380: ebc4 a33d 8ca3 b63d 3174 a53c 7e97 95bd
00000390: e847 c2bd e765 22be 176b 2abe 81de 5dbc
000003a0: 854e 8cbc 6b7e 993c 2047 4d3d b654 2d3d
000003b0: eba2 123e 9b81 47bd 2be2 fc3d 16a7 d33d
000003c0: 7873 c0bd e39a 933d 2b67 063c d6bf 323d
000003d0: a022 00bd aba4 afba cba8 7fbd 3b8f 03be
000003e0: de8e 17be 6b8a 223c 1848 9fbd b66c ffbc
000003f0: 56df bfbb 560d aab9 abcd 623d 44a0 f2bd
0.07497623 -0.039490025 0.087497614 -0.06799948 -0.14737326 0.0006248355 -0.0062485537 0.14296514
0.12186643 -0.020937324 -0.009932876 -0.04867981 0.12268349 0.13306312 0.021846395 -0.13127047
0.11272186 0.13943987 0.0674033 -0.08047547 0.15594044 0.13679343 0.13073793 0.13239446
-0.1299234 0.13535605 -0.02977705 -0.11079639 -0.066588566 0.025001427 0.07182948 -0.13582024
-0.107480966 -0.15960467 -0.14296615 0.012690544 0.06857135 0.120971486 -0.16005479 0.08965894
0.13906874 0.14322013 -0.15732929 0.14617676 -0.09271896 -0.09831655 0.07815463 0.043773234
0.15383446 -0.10919224 0.086366996 -0.12161658 0.14535096 -0.11680294 -0.09088689 -0.009287477
0.0073915524 -0.1413379 0.016042313 -0.08854215 -0.0037028592 -0.02063185 -0.006696324 -0.104904376
-0.11636518 0.1039997 -0.08421004 0.020818055 -0.11976653 0.112474784 0.11794343 -0.07127554
-0.15514359 -0.035551213 0.14190733 -0.15947317 0.08369666 0.037136734 -0.16261564 0.094776034
-0.003273388 -0.068719216 -0.00013350125 0.08871107 -0.086874664 0.08737068 0.0052671633 0.13674308
0.1552173 -0.05895465 0.06852345 -0.13458452 -0.16272502 0.0048787794 -0.07673083 -0.016227882
0.14139526 0.119533226 -0.14761655 -0.030899823 0.12106596 -0.043259483 -0.108492374 -0.026337504
-0.10771261 -0.08919887 -0.047518414 0.13219604 -0.030385733 -0.010814647 0.025289457 -0.01788674
-0.10896435 -0.1619794 -0.07559882 0.052289568 -0.13507925 -0.06779393 -0.05883042 -0.066174865
0.15455323 0.010761857 -0.062265318 -0.11841842 0.13802646 -0.031706333 -0.054916542 -0.09619751
0.09647773 -0.03318634 -0.15951398 -0.1234838 -0.048710566 0.12016072 0.048636775 0.11770483
0.122964025 0.1128041 -0.16426498 -0.011536559 -0.029359322 -0.10238163 -0.1418351 0.13676295
0.14631101 0.036040924 -0.14616358 0.038592737 -0.15184578 -0.034965914 0.15024549 -0.1647268
-0.095202945 0.12157655 -0.07392188 -0.014620125 0.092376515 -0.02074192 0.16561195 -0.060727637
-0.04000455 0.046987735 -0.015474558 0.07390267 -0.08716941 -0.10476234 0.12372047 0.10453924
0.12340599 0.06067854 0.121490024 -0.0039271116 0.12922226 0.018447697 -0.068764076 -0.027080398
-0.16499394 -0.080919325 0.13224863 0.031533837 0.12881961 0.13538077 -0.051257037 0.016904812
-0.035977226 0.013730368 0.08113607 0.057208937 0.060468137 -0.104009435 -0.07731275 -0.014443159
-0.11392027 0.07993903 -0.13062446 -0.022839844 -0.009979606 0.070341036 -0.09622955 0.08376654
0.11745113 -0.15149966 -0.15014032 -0.091746256 -0.008730173 0.1276274 0.011858205 0.030791163
-0.09861253 -0.0676453 0.074568674 0.0012977719 0.14718232 -0.12208041 -0.011583945 -0.11725833
-0.010960321 -0.09047294 -0.14907561 -0.06342377 -0.15262613 0.15854472 -0.05262987 0.14820951
0.079965435 0.08917913 0.020197006 -0.073042855 -0.09486371 -0.15859185 -0.16642414 -0.013541819
-0.017127285 0.018737039 0.05011666 0.042317115 0.14319961 -0.048707586 0.123478256 0.103346035
-0.09397024 0.07207277 0.008203308 0.04363998 -0.03128302 -0.0013400515 -0.062416833 -0.12847607
-0.14800593 0.009920697 -0.07777423 -0.031179767 -0.005855481 -0.00032434863 0.05537192 -0.118469745

target_net.fc1.bias f4 [64]
00000000: 0641 ed3d a525 cdbd 06f2 733d 00ba a53b
00000010: 0eec 0dbe 76cb 933c 5662 743b 30bb 183e
00000020: 07c8 243e 70e9 8fbd 2ad8 1fbe f8f2 3ebd
00000030: 33f4 27be 0010 32ba 95a0 11be 807d 563d
00000040: a5a8 f5bd 7506 73bd d322 07be 80ab 80bb
00000050: bd9e 973d 40c0 6fbd d6ff eabd 9754 f2bb
00000060: dbc7 3c3d fd9c e3bd acc5 a0bc 56bf fcbc
00000070: 4205 07be b531 eabd 7bff 043e 3e81 013e
00000080: 7cc6 1cbc 68e0 11bd db02 9cbd 8528 983c
00000090: a46c 023e cd40 dabd e18e 933d 87e0 2b3e
000000a0: 7d34 443d 83c1 953d 0b2a 83bc b04d e1bd
000000b0: be23 18be 0a55 3eb9 d04a 0c3e 1d80 b63d
000000c0: 80c5 afbd 18b3 21be ce96 c13d 4250 b7bd
000000d0: e4f7 aebc ce6f d7bd 75a9 2a3e fe27 acbd
000000e0: de34 dc3d 6cbf 0b3e eef8 e53c c027 e4bc
000000f0: 3656 d4bd af17 e4bd 3d9a 7abc 0b6e 49bb
0.11584668 -0.10016946 0.059556983 0.0050575733 -0.13859579 0.018041354 0.0037290058 0.14915156
0.1609193 -0.070269465 -0.15609804 -0.04661843 -0.16401748 -0.00067925453 -0.14221413 0.05236578
-0.11995057 -0.05933233 -0.13196878 -0.0039266944 0.07403324 -0.058532953 -0.11474578 -0.007395338
0.046089035 -0.111139275 -0.019625507 -0.030852955 -0.131856 -0.11435262 0.12988083 0.12646958
-0.009568807 -0.0356144 -0.07617732 0.018574009 0.12736756 -0.10656891 0.07204986 0.16784869
0.04790162 0.073123 -0.016011259 -0.11001146 -0.14857385 -0.00018151492 0.13700414 0.089111544
-0.08582592 -0.15790975 0.09452592 -0.08950855 -0.021358438 -0.10519372 0.16666205 -0.084060654
0.10752271 0.1364724 0.0280728 -0.027850986 -0.10368006 -0.1113733 -0.015295562 -0.0030735757

target_net.fc2.weight f4 [3, 64]
00000000: 6094 06bc f909 903d 067b 993b ecab 853d
00000010: 741b d53d 2c3b 333d cbb3 29bb 2be8 89bc
00000020: 912f e03d 700a 1bbc 9e3b 8a3c 0e65 be3c
00000030: e2a8 e83b a2e6 80bd 281a 68bd ece6 083d
00000040: bcf2 8abb c76e be3d 20c3 6c3d 8260 a5bd
00000050: 5695 e3bd 180f fcbd 201a cdbc 2755 ce3d
00000060: 98b4 853d 9283 3c3d 1cad 5dbd dfc7 e0bd
00000070: 4f8b 00be 8eb6 2e3c 6bde bd3c 9708 c2bb
00000080: d8d2 a73d 06fb 853d c00b 553c b37e 2e3c
00000090: 9516 cfbb 03fc ce3d ba5a b7bc 4d35 cd3c
000000a0: d136 653b 54b2 b1bd 7cfb 433d ce36 c73d
000000b0: 9353 d23d c8be 6cb7 1e64 2b3d 89ad e1bd
000000c0: 9280 eebd b006 b4bd 70a8 ddbd 57ab a8bd
000000d0: aa89 e13c 28a0 fe3d d170 8dbd 5136 6f3d
000000e0: 058a d83d 1a28 2cbb 1a1d 58bc 4471 2fbd
000000f0: fd37 43bd 74c2 4bbd 6e14 5fbd aeb2 a93d
00000100: 585b f43c ca9d 873d c67a 4bbd 98fe ea3c
00000110: 5ab2 ae3d f409 17bd e917 9dbc 2395 f83c
00000120: 98f8 f83d 502a 353d 17e6 29bd 01c2 77bd
00000130: 35aa ecbd 547f 81bd 062b 94bc 486f dabc
00000140: ee09 ebbd 0d8a c3bd 5023 8ebd 469e 993d
00000150: 2f2d fdbd 18b4 eb3c 108d 873c 76ff d03d
00000160: aa10 85bd e5ab f1bc 5831 a8bd 0701 0b3d
00000170: ed01 7a3b 1041 57bb a956 033c 1eb6 df3c
00000180: 7bac d03c b139 cd3d 7823 9abc c03c e93d
00000190: 0d1b b33d 23b7 ccbd 6e42 25bd 7261 833d
000001a0: ac50 a8bd 56f1 9abd b821 0b3d c877 ac3c
000001b0: fe38 543c 2724 a63d c852 e83d 325a b1bd
000001c0: fc5c e2bd 4c85 773d e0dd 8f3b 4822 983b
000001d0: d5e3 a5bd 4ce1 b93d 9305 da3c ac96 dbbd
000001e0: 142d 82bd 6cc7 923d 684f 9fbd 689c 873d
000001f0: 2ae1 14bd f03a 1ebc 03ca 7e3b 2d31 e03d
00000200: 5ecc 82bd 262d 0cbc e5fa 653d 4436 d33d
00000210: e6b4 9a3d 08d3 b83d b023 6bbb d09d 7dbd
00000220: f9a8 dd3b 9412 37bd 10a0 cd3c ac5d 143d
00000230: 00ce 68bd 7095 85bd 0d94 873d 507a 2fbc
00000240: 7ca9 b2bd 456e 333d 5810 343d 32d6 d6bd
00000250: d104 f6bc 92fe b53d b071 58bc a1f6 193c
00000260: dac5 9cbd 4ba9 4c3d ad0e 103d 96b7 aa3d
00000270: 0071 b13b 239b c0bd 9a07 353d c8ec 0d3b
00000280: 0391 55bd d118 31bd c81e 5f3d 2813 0dbc
00000290: 66d5 e73d 0be8 fd3c 9191 193d edc4 903d
000002a0: dbf3 993d 5e26 fcbd 3072 403d 5ab6 ca3d
000002b0: 1cec 63bd f7cd ddbd 9644 773d 5e51 c7bd
000002c0: 41df 96bd 7e9e febd 9227 a33d 174d 8fbd
000002d0: ad8b 02bd b679 de3d 7664 b63d 7bae f6bb
000002e0: 73f6 f4bd 2608 603c 5498 ffbc da05 b63d
000002f0: 7f2b 9e3d 8d6d adbd 33f9 c7bd 330b c03c
-0.008214086 0.07033152 0.004683855 0.06526932 0.10405627 0.043757603 -0.0025894518 -0.01683434
0.109465726 -0.009462938 0.01687413 0.023241546 0.0071002105 -0.0629399 -0.05666557 0.03342335
-0.004240362 0.09298473 0.057803273 -0.08075048 -0.11112468 -0.123075664 -0.025036871 0.10074835
0.06528586 0.046023913 -0.054120168 -0.109756224 -0.12553142 0.010663642 0.023177346 -0.005921434
0.08194512 0.065420195 0.01300329 0.010650325 -0.0063198307 0.10106661 -0.022382129 0.02504983
0.00349753 -0.086765915 0.047847256 0.0972725 0.10269847 -1.4111116e-05 0.041843526 -0.11019427
-0.116456166 -0.08790338 -0.108231425 -0.082358055 0.027531464 0.12432891 -0.06906284 0.05840141
0.105732 -0.002626902 -0.013190532 -0.042832628 -0.047660816 -0.04974599 -0.054462843 0.082860336
0.029828712 0.06621893 -0.049677633 0.028685853 0.085301116 -0.036874726 -0.01917644 0.030344551
0.121567905 0.044229805 -0.041479196 -0.06048775 -0.11555902 -0.06323114 -0.018086921 -0.026664391
-0.11476503 -0.095478155 -0.06940329 0.075008914 -0.12362134 0.028772399 0.016546756 0.10204975
-0.06497319 -0.029500911 -0.082125366 0.033936527 0.003814812 -0.0032845177 0.008016267 0.02730852
0.02547287 0.100207694 -0.018815741 0.1138854 0.08745394 -0.09995868 -0.040346555 0.064150706
-0.08218512 -0.075655624 0.033967704 0.02105321 0.012953041 0.08112364 0.11343914 -0.086597815
-0.110528916 0.060429856 0.0043904632 0.0046427585 -0.08100096 0.09076175 0.026613986 -0.10722098
-0.06356254 0.07166943 -0.077788174 0.06621629 -0.036347546 -0.0096576065 0.0038877733 0.109468795
-0.06386636 -0.008555686 0.056147475 0.10313085 0.07554035 0.09024626 -0.0035879426 -0.06191808
0.006764528 -0.04469545 0.025100738 0.036222145 -0.056837082 -0.065226436 0.06620035 -0.010710314
-0.08723733 0.043806333 0.0439609 -0.10490073 -0.030031594 0.08886446 -0.013210699 0.00939718
-0.07654925 0.049966138 0.035170246 0.083357975 0.005415082 -0.0940459 0.044196703 0.0021656025
-0.052140247 -0.043236557 0.054472715 -0.008610524 0.113199994 0.030994436 0.03749234 0.070688106
0.07517215 -0.123120055 0.046983898 0.09898062 -0.055645093 -0.108303 0.060368143 -0.097323164
-0.07366801 -0.12432574 0.07966532 -0.069971256 -0.031871486 0.10863058 0.0890588 -0.007528124
-0.11961069 0.013673818 -0.031200565 0.08887835 0.0772314 -0.08468161 -0.09764328 0.02344284

target_net.fc2.bias f4 [3]
00000000: 506d 8dbd 5adb 8c3d 183e 423c
-0.06905615 0.068777755 0.011855625

tatic_net.fc1.weight f4 [64, 42]
00000000: 4205 00be 1f2a bc3d d761 8b3c ad1f 8f3c
00000010: b970 f03c 25aa 0dbe 4356 c83d 75e7 edbd
00000020: c28d 8ebd 7700 bb3d 95be a8bc 5cdf 4ebd
00000030: b828 b8bd 76ea 10be 3072 cbbd 559a aebd
00000040: 8a28 e43d 20b2 a93d 2998 acbd f3e6 083e
00000050: df8c ddbd 838d f43d d85b 3fbc 8f8c 0c3d
00000060: dee5 c9bd 59c1 693d 675f b63d 7b7f acbd
00000070: c339 b6bb 889b 953d a336 1d3d fda2 f4bd
00000080: 4037 f93d d506 35bd 1b4d 65bd 4c65 1f3d
00000090: 60ee 873d 5dfe ed3c ed41 fd3d 08e3 da3c
000000a0: 1cea 143c c657 f43d 1e62 bcbd 4338 abbd
000000b0: ae68 d93c 7930 b73c a21e d43c 6a9d e63d
000000c0: 94e9 a73d b392 fbbd 7f65 943d 40f2 843c
000000d0: 1413 e93d 09dc 19be 36bd e0bd 9679 00bd
000000e0: 7ac3 febd 7923 093e b256 0e3e 23c7 e3bd
000000f0: d45a ff3d 0486 0abd 9453 173e fc5e 55bd
00000100: 1196 57bc 0d09 7a3c 2daf d13d 9339 c4bd
00000110: 21e2 103c 2898 263d d05d 07bd ed44 e7bc
00000120: 2a78 17be 8382 1cbe dfc8 143e 1f4d b2bd
00000130: 4b7b 88bd 451b d5bd 5a24 ebbd d3ec 0f3e
00000140: 1256 163e 4714 d83d 0be1 6ebc ed01 e2bd
00000150: ce5c 77bd ed14 fb3d 9f7e 90bd d7a5 963c
00000160: 8a34 96bd c5e9 be3b d8aa 6ebd db5d 8dbd
00000170: f01d fe3d 8356 73bc 6f00 eabd b794 f9bd
00000180: 34a1 00bd 2b23 c53d acdf cb3d 1be2 16be
00000190: 29d3 fa3d 9e32 843d dca3 f93c dcd4 613d
000001a0: 14bb d13d 22e3 183e 2605 abbd 9909 bcbd
000001b0: 8412 163e c9a8 19be 6b2d 933d 1443 1c3e
000001c0: e481 d13d 2ea8 a1bd 27de 19be b0b2 aebd
000001d0: 3443 a5bc e185 85bd 1785 a53d 53e0 cd3d
000001e0: 14a6 5c3d 99fe c43c 2b46 243d 3d7f 08be
000001f0: 2480 b0bd 67a7 f53d c74c b1bd bddb 863d
00000200: 98b4 15be af8a 703d c21a 6f3c 29a6 503d
00000210: c7cc 8fbd e835 d8bd 92f1 063e 27d2 ab3d
00000220: f958 ad3d a03c c4bd 0ed5 9ebd f20e 11be
00000230: 32dd cb3d c12f 193e 6bb6 c53c bdf1 b7bd
00000240: d6b6 be3d 3699 06bd a8fb ce3c e41b f03d
00000250: 7263 88bd 2ffb 19bd e940 a2bd 6815 923d
00000260: 101a 50bd 6b80 4d3c 936c 52bd 39d8 eabd
00000270: 4b42 9f3d 4d20 5cbd 3826 09be 780a dabc
00000280: 6888 d4bc b6ac 843d 8118 e6bb 3a8e 783d
00000290: 7388 823d 71c8 c3bd 137f 253b 4686 dd3d
000002a0: 53be c2bd 5912 8a3d 9aa2 1cbe 4c14 f7bd
000002b0: ecf0 89bd 5321 f33d 2471 07bd 96c2 0fbc
000002c0: bec3 b23d 3069 78bd bdbd 593d 2b45 df3c
000002d0: ab99 033d 21fb f8bc 21ac a5bd 2cda 073d
000002e0: 173d bf3d b37f c73d cd19 8c3d 9d69 3abd
000002f0: 89a2 b63a 4b98 01be b552 e6bc 5d38 293d
00000300: 3525 c4bc 7809 17be 14a7 69bd b2df 02bd
00000310: bb61 f93d 511a fa3d b66b acbd ad04 cf3d
00000320: 7ab4 7a3c 4713 4cbd a9e4 2e3c 4234 ba3d
00000330: 6824 ebbd 9851 92bd a9ad 21bd 5949 123c
00000340: 72d2 ff3d 9604 9c3d b2f2 4f3d e939 bc3d
00000350: ad36 7c3d af05 76bd 0e70 b7bb 00d1 c6bd
00000360: 1770 183d 44f3 81bc d307 afbd 3d1d f7bc
00000370: aea8 193e fbce dbbd 05db adbd 5288 483d
00000380: 50e5 a0bd 120b 03be d91b d6bd f608 ad3b
00000390: acc4 d13d 0749 b63d eb21 d6bd babb e1bd
000003a0: 74ab 1d3e 9a17 a9bc 9f70 bb3d 5e27 32bc
000003b0: dcfe 07be 5009 07bd df09 d03d 5c74 15be
000003c0: ab19 083e 02f6 063e 41e9 3e3d 914e 72bc
000003d0: a905 ef3d 2eaf 77bd df89 193e 1d88 db3d
000003e0: 2e34 05bd 75a6 13bd 0d0b 56bc 23aa 4f3b
000003f0: b725 d73d eac9 433d 2c53 ec3d 98a0 e43d
-0.12502006 0.091877215 0.017014427 0.017471159 0.029350625 -0.13834436 0.09782078 -0.116164126
-0.06960632 0.09130948 -0.02059869 -0.05050598 -0.089921415 -0.1415194 -0.09933889 -0.0852553
0.11140545 0.08285928 -0.0842746 0.1336935 -0.10817885 0.11941054 -0.011679612 0.034313735
-0.09858297 0.057069156 0.08904915 -0.084227525 -0.005561085 0.07305056 0.038382184 -0.1194515
0.12168741 -0.04419597 -0.055981737 0.038914964 0.06637263 0.029051954 0.1236609 0.026719585
0.009089019 0.11930804 -0.09198402 -0.083603404 0.026539173 0.02236198 0.025893513 0.11260493
0.08198848 -0.1228384 0.07245921 0.016228795 0.11380592 -0.15025343 -0.10973589 -0.031365953
-0.12439628 0.13392438 0.13900259 -0.11121967 0.12468496 -0.033819214 0.14777976 -0.052092537
-0.013158337 0.015260947 0.1023849 -0.09581294 0.008842976 0.04067245 -0.03304845 -0.028231109
-0.14791933 -0.15284161 0.14529751 -0.08706116 -0.06664141 -0.10405592 -0.11481543 0.14055185
0.1468127 0.105507426 -0.014580022 -0.110355236 -0.06039124 0.12259851 -0.07055401 0.018389625
-0.0733424 0.0058262073 -0.058268398 -0.06902667 0.12408054 -0.014852169 -0.11425864 -0.12186568
-0.031403735 0.096258484 0.099547714 -0.1473469 0.12247307 0.06454967 0.030473642 0.05513464
0.102407604 0.14930394 -0.08350591 -0.09181518 0.146555 -0.15005793 0.07186397 0.15259963
0.10229853 -0.07893406 -0.1502615 -0.08530176 -0.020173647 -0.06519676 0.080820255 0.10052552
0.053869322 0.024047183 0.04010598 -0.13329788 -0.08618191 0.1199482 -0.08657222 0.065848805
-0.14619672 0.05872601 0.014593782 0.050939713 -0.0702148 -0.10557157 0.1317809 0.08389693
0.08464236 -0.09581876 -0.07755481 -0.14165857 0.09954299 0.14959623 0.024134835 -0.08981655
0.09312217 -0.032860957 0.025266483 0.1172407 -0.06659593 -0.037593063 -0.07922537 0.07132989
-0.050806105 0.012542824 -0.051373076 -0.114670224 0.07776316 -0.053741742 -0.13393486 -0.02661632
-0.02594395 0.064782545 -0.007021964 0.060682513 0.06373682 -0.095597155 0.0025252744 0.10816626
-0.09508958 0.06741781 -0.15296403 -0.12064418 -0.06735405 0.118715905 -0.033066884 -0.00877442
0.08728741 -0.06064719 0.053159464 0.027254662 0.03212897 -0.030393185 -0.080894716 0.03316705
0.09337824 0.097411536 0.068408586 -0.045510877 0.0013933937 -0.12655751 -0.02811561 0.041313518
-0.023943523 -0.14749706 -0.057044104 -0.031951614 0.12176844 0.12212051 -0.08418982 0.10108314
0.015301818 -0.04982307 0.010674634 0.09091999 -0.11481553 -0.07144469 -0.039472256 0.00892862
0.12491311 0.07618062 0.05076856 0.09190733 0.06157558 -0.060064014 -0.0055980748 -0.09707832
0.037216272 -0.015863068 -0.08546414 -0.03016531 0.15005752 -0.10732838 -0.0848904 0.04895813
-0.07856238 -0.12797192 -0.1045453 0.0052806092 0.1024259 0.089006476 -0.10455688 -0.11022134
0.15397435 -0.020641137 0.0915234 -0.010873644 -0.13280815 -0.032967865 0.10158133 -0.14595169
0.13291042 0.13179782 0.046609167 -0.0147892395 0.116710015 -0.0604698 0.14994 0.10719321
-0.032520466 -0.036047418 -0.013064158 0.0031687103 0.105052404 0.047799982 0.11539301 0.11163443

tatic_net.fc1.bias f4 [64]
00000000: 0f0f d13d 0d55 f9bc c374 8c3d 1b3f 0cbe
00000010: a702 14bd 712c d13c a19f 05be b16e 10bd
00000020: db0a 15bd 09a0 f9bd e992 e7bd 1ec4 40bc
00000030: 0989 3fbd 9c25 99bd 9611 48bc 919d 7d3d
00000040: d33c 0e3e 03d0 1dbe 1dd4 8cbd 58de 223d
00000050: ae02 d23d 1a36 093e f09b 3abd 9482 fcbc
00000060: 2ab9 bfbd 2406 0f3e 3609 0fbd 0f61 d63d
00000070: ed00 1ebe 9702 d2bb 608f 023c c44d a43d
00000080: be50 043e 929f f2bc 5b09 533d 7643 d33d
00000090: bab5 313d 2259 76bd 7fe9 1c3d 6f80 3d3c
000000a0: 81cf db3c 2992 9abd 6512 02bc 9c06 ccbb
000000b0: 8fd4 cabd 2d2e 14be 39b5 eb3d 5e71 2b3d
000000c0: b49b e2bc f766 c83c ec13 023e 5f93 8ebd
000000d0: c8b8 c3bd 5a83 65bc 35f6 b23b 749e da3d
000000e0: ecf5 e33c 64db f23d 2751 7dbd 2467 573d
000000f0: 2d87 e73c aaf7 c93c d91e 013e 2927 153e
0.1020795 -0.030436063 0.06858208 -0.13695948 -0.036135342 0.025533887 -0.13049175 -0.035261814
-0.036387306 -0.121887274 -0.11307318 -0.011765508 -0.046761546 -0.074778765 -0.012211224 0.061917845
0.1389039 -0.15411381 -0.06876395 0.039762825 0.10254417 0.13399544 -0.04555887 -0.030823983
-0.09361489 0.13967186 -0.034920894 0.10467731 -0.1543004 -0.006409 0.007968754 0.08022645
0.12921426 -0.029617105 0.051522594 0.103156015 0.0433862 -0.060143597 0.038308617 0.0115662655
0.026832344 -0.07547409 -0.007938956 -0.006226374 -0.099038236 -0.1447074 0.11509175 0.041856162
-0.027662136 0.02446316 0.12702912 -0.069617026 -0.095567286 -0.014008367 0.005461479 0.10674754
0.027827226 0.11858252 -0.06184497 0.052588597 0.028262699 0.024654228 0.12609424 0.1456572

tatic_net.fc2.weight f4 [6, 64]
00000000: 6736 a03d 3a7a ed3d 706e fe3c 715b 883d
00000010: dbf9 cebd 26fd ffbd c795 b2bd 3351 19bc
00000020: feeb 323d ca1f bf3d ffcd fb3c 40c8 f03d
00000030: 495d 8fbd 0cac 5b3c 5da5 f2bc fc8f b83a
00000040: 8142 503c 0f83 f7bb a365 de3d c152 a4bd
00000050: 7c82 44bc 679a c83d e1dc 99bd 486f a83c
00000060: 678f 8c3d 554f 50bd a932 d9bd 4c6a 233d
00000070: 2642 f23c e816 cabd a77a 79bd d42c a63d
00000080: f544 13bc 8484 5dbd 7b0a 343c 88c0 a2bd
00000090: cc80 0d3d 26e2 40bd e5da 4cbd d02d e3bd
000000a0: e846 e83d 3bbd 29bd 1a18 bbbd a309 6e3d
000000b0: 1efc 6b3c 2ae9 68bd 8bfc da3d 6fc2 f7bd
000000c0: f78a f43c d4b4 a73d b21e ea3d 9ef9 97bd
000000d0: 62a5 d3bc 8ba0 d23c 53e5 4bbd 4990 ff3d
000000e0: 0f8c c83d 081a fe3d 69e0 d6bd 0371 903d
000000f0: 5c8e be3d df36 8bbd b2d6 b2bd 893c 703d
00000100: d0a0 ab3d ba21 85bd f06a 483c e0cc c23c
00000110: ac6a d3bd f461 8bbd d071 97bc fcd1 09bd
00000120: 025f e63d d090 a8bc 9843 cabd 58a7 443d
00000130: 8c39 ec3d 68ab d0bc 18b8 073d 067b b2bd
00000140: a0c0 ed3b 947e a83d 5eb4 fdbd 4a10 ec3d
00000150: 12d8 d93d c8c6 de3c fe43 ab3d 08ea abbc
00000160: f806 fc3d eaed fcbd 583b 0bbd 408e 823b
00000170: 3e37 9abd cc20 1dbd ce59 d2bd 0ce0 81bd
00000180: c0a4 f4bc ac4e 793d 94c7 a7bd 309e 953c
00000190: dcdc 72bd 427a fe3d a85f 8cbc c826 2a3d
000001a0: a821 a1bd f49c a1bd 1c94 7ebd a49d abbd
000001b0: 4a48 d73d 8013 5c3d 1c34 083d a453 a33d
000001c0: 864f dabd aaba aa3d 8012 a53c 901c 593c
000001d0: 9c87 4e3d 8016 9a3d 50f8 d9bd 5065 743d
000001e0: 3805 e6bc 5609 a73d 6c0e 043d b064 e7bd
000001f0: cab7 d03d a8e0 e63c 6062 b63c fc06 793d
00000200: b8df fa3d 05c2 f83d eae1 813d 8e57 5b3d
00000210: 8a2f b03c fdc7 fcbc a4d9 0dbd 1935 a5bd
00000220: 15f9 e2bd 0ef7 9b3b 31e8 463c 1b7f a3bd
00000230: c2e7 b43d 7664 dcbd aa83 b33d dc87 0abc
00000240: 722b a4ba 9314 f53d 400e d4bd 2190 6fbc
00000250: f0bb c83d 37d9 e23d c090 dbbd c7e4 8d3d
00000260: f17a 863c a166 4fbd 29fb ef3d fc69 c73d
00000270: e9a7 f2bc 546e b0bd a26b 883d 24ee 9dbd
00000280: 6fae cc3d ebfb adbd d698 3e3d 8aae 493d
00000290: 0277 4b3b 80cb 7c3d 108f bcbc f57e 2cbd
000002a0: e46f d5bd 1278 83bd 2619 d33d 226d b63d
000002b0: f62b fabd 4b46 f83d 10a8 dfbd 3c0a 9fbc
000002c0: e487 c0bd 066e d9bd 11b0 d53c d044 9c3d
000002d0: ca41 9f3d ba6e ffbd 931e cabd 7b9d b5bd
000002e0: 2aac ccbc 1973 e53d 6e32 f0bd 6425 923c
000002f0: 1b3d b3bd b24c 0cbc 87b3 ccbd b23d 823d
00000300: 9fdc e9bd 8fbc c7bc d66a c43c f3a3 a8bd
00000310: 8b89 7abd 95cc ec3d 4f47 79bd 1995 ce3d
00000320: fb81 903d 5f68 b33d 4a80 d3bd f6df c3bd
00000330: a2e9 e3bc 7e05 e83d 1fe1 b73c cf96 ffbc
00000340: 2ac3 f3bd 2cc5 633d 3c4d bfbd 8af3 bf3d
00000350: 3d22 d0bd d649 3fbd 4b52 9d3b 2e2e e93d
00000360: 4c11 f63c 8f57 c43b cdbb 693c 7cf8 313c
00000370: 5d8b b7bd 4583 983c 6f65 b1bb e8fb 423d
00000380: 2d5a 19bd 1b48 e73d f800 b6bd 6a28 553d
00000390: c678 913d 7347 473d d27b ccbb be07 21bd
000003a0: b45f 9f3d b458 963d 1f21 973d f8d0 a0bd
000003b0: b8ff 33bd d264 463d 4622 833c c816 4fbc
000003c0: 1313 14bd 0899 d23d 706e 073d 789c 11bd
000003d0: 60a7 15bc 0e4c 143d 449c 8bbd 9e6b 343d
000003e0: b9d7 c4bd efc5 ccbd faa3 383c 8642 f43d
000003f0: 18c0 eabd ed56 99bd ab8f 503d 2d5c 8d3d
0.078228764 0.115955785 0.03105852 0.06658066 -0.1010625 -0.12499456 -0.08719974 -0.009357738
0.04368209 0.09332235 0.030737875 0.11756945 -0.070002146 0.013407718 -0.029619867 0.0014080997
0.012711168 -0.007553465 0.108592294 -0.080235966 -0.0119940005 0.09795075 -0.075128324 0.020560876
0.06863289 -0.050856907 -0.10605366 0.039896294 0.029572558 -0.0986765 -0.060907986 0.08114019
-0.008988609 -0.054081455 0.010988827 -0.07946879 0.03454666 -0.047090672 -0.05001344 -0.110927224
0.11341649 -0.04144023 -0.091354564 0.05811466 0.014403371 -0.056862988 0.106927 -0.12097632
0.02985142 0.08188787 0.11431636 -0.074206576 -0.025835697 0.025711318 -0.049779247 0.12478692
0.09792339 0.12407309 -0.104920216 0.07052805 0.09304497 -0.06797575 -0.08732356 0.05865148
0.08380282 -0.065005735 0.012232527 0.023779333 -0.103230804 -0.068057925 -0.018486887 -0.033647522
0.1124859 -0.020576864 -0.09876174 0.048011154 0.11534414 -0.025472358 0.03313455 -0.08714871
0.0072556287 0.08227268 -0.12387918 0.115265444 0.10636915 0.027194396 0.08362578 -0.020985618
0.12306017 -0.12350066 -0.03399214 0.0039842427 -0.07530068 -0.038361356 -0.10271035 -0.06341562
-0.029863715 0.060866043 -0.081923634 0.018263906 -0.05929266 0.124256626 -0.017135456 0.04154089
-0.078677475 -0.078912646 -0.062152967 -0.08379677 0.10511835 0.053729534 0.03325282 0.079749376
-0.10659699 0.083363846 0.020150423 0.013251439 0.050422296 0.07523823 -0.10643065 0.05966693
-0.02807866 0.081560776 0.032240316 -0.112985015 0.10191305 0.028183296 0.022263706 0.060797676
0.12249702 0.12146381 0.06341918 0.053550296 0.021507043 -0.03085708 -0.034631386 -0.08066768
-0.11082665 0.004759676 0.01214032 -0.07983228 0.08833267 -0.10761349 0.08765347 -0.008455243
-0.0012525155 0.11966815 -0.103542805 -0.014621765 0.09801471 0.11076587 -0.10720968 0.069284014
0.016416045 -0.050634984 0.11717827 0.09737012 -0.029621081 -0.086147934 0.06661154 -0.07711437
0.09994208 -0.08495315 0.046532474 0.04923872 0.0031046276 0.06171751 -0.023017436 -0.042113263
-0.10421732 -0.06419386 0.10307531 0.08907534 -0.12215416 0.12122782 -0.10920727 -0.01941406
-0.09400919 -0.106166884 0.026084932 0.076303124 0.0777622 -0.12472291 -0.09869113 -0.08867928
-0.024984438 0.11203594 -0.11728369 0.017840095 -0.08751889 -0.008563207 -0.099951796 0.06359424
-0.11419033 -0.024381904 0.023976725 -0.08234396 -0.061166327 0.115624584 -0.06085902 0.10087032
0.07056042 0.087601416 -0.103272036 -0.095642015 -0.027821366 0.113291726 0.022446213 -0.03119984
-0.11902459 0.05560796 -0.09340903 0.09372623 -0.101627804 -0.046701275 0.00480107 0.11385761
0.030037545 0.005991883 0.014265967 0.010862466 -0.08962128 0.018617282 -0.005413703 0.047603518
-0.037439514 0.1129305 -0.088869035 0.052040495 0.07103114 0.048652124 -0.0062403465 -0.039314024
0.07781926 0.073411375 0.07379364 -0.078523576 -0.043945044 0.048435993 0.016007554 -0.012639709
-0.036151003 0.10283095 0.033064306 -0.03554961 -0.009134144 0.036205344 -0.06816915 0.044047944
-0.09611458 -0.0999869 0.011269564 0.11926751 -0.1146242 -0.07487283 0.050918262 0.06902347

tatic_net.fc2.bias f4 [6]
00000000: f175 8cbd c066 41bc 11a0 bcbd 5644 3c3d
00000010: 970a fcbd 738c a73c
-0.06858433 -0.011804283 -0.09210218 0.045963608 -0.12306707 0.020452714

tatic_net.fc3.weight f4 [6, 3]
00000000: 47a3 b83e 30b0 79be 9cb3 3abe d448 c9be
00000010: 76c7 dbbe 2de5 37be 9f5b 193e 89a3 68be
00000020: ef16 0fbf c56b 053f 7145 3bbe 3a29 8e3e
00000030: fc20 b33e e1a6 00bf 5466 efbe b51a 0e3f
00000040: dc61 c1bc a466 723e
0.3606207 -0.24383616 -0.18232578 -0.39313376 -0.42925614 -0.17958517 0.14976357 -0.22718634
-0.5589437 0.5211757 -0.18288209 0.27765828 0.34986103 -0.50254637 -0.46757758 0.555095
-0.023606233 0.23671967

tatic_net.fc3.bias f4 [6]
00000000: e996 61be cc52 323d 719c 87be 5734 a7be
00000010: 7a53 2fbe 8a46 e9bd
-0.22030224 0.043535993 -0.26486543 -0.3265712 -0.17121688 -0.113904074

tatic_net.fc4.weight f4 [3, 9]
00000000: 23a3 60be f0ec 8c3e b0bd ee3d ca4a 8dbe
00000010: 6ba6 a2bd 4b70 12bd a841 4fbe 4051 1fbd
00000020: 0c42 a13e 3bce 99be 2bcf 903d 6005 07bd
00000030: 0636 833d c0fb 06bd 16c1 923e 1e05 2ebe
00000040: 76ac 233d f212 9c3e b003 fcbd d5db 6c3e
00000050: feed 8abd 135f 93bd aca1 8bbe fb91 b8bd
00000060: 2189 a73e 70bf 86be 4633 2cbe
-0.21937232 0.2752452 0.11657274 -0.27596122 -0.07941898 -0.035751622 -0.2023989 -0.038895845
0.31495702 -0.30040154 0.07070764 -0.03296411 0.064067885 -0.03295493 0.28662938 -0.1699414
0.039959393 0.30483204 -0.12305391 0.23130734 -0.06783675 -0.07195868 -0.27271783 -0.090122186
0.3272181 -0.2631793 -0.16816434

tatic_net.fc4.bias f4 [3]
00000000: c6ba 2abe 2b4b 4e3e 257e 763e
-0.16672811 0.20145862 0.24071558

fc1.weight f4 [256, 108]
00000000: 7025 a5bc b8ca cbbc abfa 013d ae9c 7c3c
00000010: 3083 92bd 0c97 b0bd 75ae af3c e667 4a3d
00000020: a988 ebbc 37b5 073d efe3 afbd 54ea c4bc
00000030: 55ff a33d b8ba 8d3d accd 4e3d 1c24 933d
00000040: 70bd f23c 81be b53d ec25 293d 3864 613d
00000050: e120 a73c bb47 b7bd 2dae 3d3d 225a 47bc
00000060: 0cae 283d 790b 123c c178 ba3d 59a3 953d
00000070: 420b 6a3d ef1f a93d 780e 2d3d 40a0 8e3d
00000080: a9ed bdbd 5e60 9ebd 77aa 88bd 5a97 983d
00000090: 1c2f 293d 5242 783d a0bd fcbb fdd9 b73d
000000a0: 4957 b03d 4eb1 b13d b741 303d abac 403c
000000b0: 5aa2 3dbd 845c 483c 1c10 b8bd c07a 833b
000000c0: 5715 f73b 16cc 55bd bd9b 1dbb 2608 933d
000000d0: 2b73 c6bc a185 47bd be28 bb3d 0472 963d
000000e0: 1db5 a7bb d353 f13c c1b8 bdbd f534 57bd
000000f0: 4fc1 473c d9d4 09bd 440a 84bd 0685 47bd
00000100: a2b1 533d f2b0 7e3d 06fc 483d 7ea1 a33d
00000110: ced5 03bd c99b 563c 34fa 193c 1d32 6c3d
00000120: 15d2 ac3d 53e3 95bd 066f 85bc 97ff 4a3d
00000130: 5e90 6dbd e561 df3b d509 523c 2639 b23d
00000140: 1912 20bd 09c2 b83d cb7a 8a3d 2286 05bd
00000150: fa60 9ebc f819 143c de1f 8b3d bf6c d23c
00000160: 1bfb b63d df86 acbd a3b1 c1bd 4e98 a7bd
00000170: 3ddd 95bd 40b4 123a b040 2f3d 781b c8bb
00000180: 0a25 60bd e7f3 bbbd 14fa 97bd 1a33 b23d
00000190: ad16 11bd 2fad 50bd f85d 933c 9780 ff3c
000001a0: e1f1 a73c 36e2 1b3d 894f c93c 9ea6 c73b
000001b0: 6130 5a3c a3e8 a13d 593a 8d3d c056 143b
000001c0: acc4 163c d8e4 9bbd 5e2e 783d b7b4 b7bd
000001d0: 9943 5abd 367e acbc 33cc a33d 5b65 a13d
000001e0: b50d 993d f0d2 b6bd 21e4 3abd 8ea6 f23c
000001f0: 3038 72bc 45ba 7ebd d546 5f3d 7dbe b7bd
00000200: e6f7 7abd 56cb b9bd 5995 5bbd f2b8 293a
00000210: e8b0 023d 3624 88bd 1784 c43b 3340 623d
00000220: eaf3 74bd 4c9a 9e3d 7afd 193b 9e14 213d
00000230: 4718 453c 32c9 aebd 9950 46bd 088e 8bbd
00000240: a474 b3bd 2bd6 993c e15f 4cbd ea41 28bc
00000250: 8864 703c 996b dd3c 5b7c 913d 62cc c1bc
00000260: 4efd a5bd bd26 8bbd 67a0 423d a550 75bd
00000270: c64f 1a3d 5f8f b93c f937 e0bb b1b3 78bd
00000280: 30d2 9f3d e7f9 4ebd 8568 7b3d d3f1 d83c
00000290: 13d4 3ebd d5c5 503d a60d 223d 82eb c73d
000002a0: 8e9f a93d 1784 b13d e8bf 783c e355 5b3d
000002b0: 6202 01bd c5f1 a6bd 4808 42bd 296d 47ba
000002c0: 35d8 8fbd c9fa e13b 0e24 473d aed0 55bd
000002d0: cd46 673d 7895 073d 7a59 4a3d ba51 93bc
000002e0: d9f8 6f3d 1816 6b3d 3620 8bbc 3bd4 c23b
000002f0: 6134 0b3d 0410 c33d 22d5 a43c df8c 0b3d
00000300: b443 093d 8490 bfba 3f90 b73c 1a18 ab3d
00000310: 6c96 523d 4085 a03d 2230 923c 4674 66bd
00000320: 952c 97bd 303b bb3c 33c8 1abd c5b1 b13d
00000330: e611 973d 0d95 a53d 043d 7d3d 66b0 723d
00000340: 7008 033b 40fd 0abc 63e3 b73d 3b57 7cbd
00000350: 7e00 363d 5e16 c0bc 0266 a13d 39de 853d
00000360: fbd2 693d 455a ffbc fad9 0c3d e7c0 193d
00000370: 4e55 b03d 8824 b23d ea98 1dbd 6a36 2fbd
00000380: 930a d13c bbe4 a3bd d424 efbc bb49 7a3d
00000390: c2be 893d 146c d93c 0cf6 93bd 0768 22bd
000003a0: 6ada 7d3d 99d9 abbd 0594 06bd 77b0 983c
000003b0: 33f4 053d 6f87 873d 9bac c23d a46a 513d
000003c0: a7be 9e3d 6f94 42bc 3f2f 6a3d 4244 6f3d
000003d0: c4fc aa3d 0b1b a5ba 2493 36bd 9b77 e1bc
000003e0: 8a40 acbd 3641 96bd 7d6e 6f3c a64c 93bc
000003f0: 256e 8abd 07f1 76bd e8cd 2dbd c3b1 7a3d
-0.020159453 -0.024876937 0.031733196 0.015418215 -0.07153928 -0.0862256 0.021445492 0.04941549
-0.028751688 0.033131804 -0.08588397 -0.024037518 0.08007685 0.069203794 0.050489113 0.07184622
0.029631346 0.08874226 0.04129593 0.055027217 0.02040142 -0.089492284 0.046308685 -0.012167485
0.04118161 0.008913868 0.09105063 0.07306547 0.057139643 0.08258044 0.042250127 0.06964159
-0.09273846 -0.07733224 -0.066731386 0.07450743 0.041304693 0.060610123 -0.0077130347 0.08977125
0.08610398 0.08676396 0.04303142 0.011759917 -0.04629741 0.012229089 -0.089874476 0.0040124357
0.0075403857 -0.052196585 -0.0024049126 0.071792886 -0.024224838 -0.048711423 0.0913863 0.073459655
-0.005118026 0.029458916 -0.09263755 -0.052540738 0.012192084 -0.033650253 -0.064472705 -0.048710845
0.051683076 0.062180467 0.049068473 0.079897866 -0.032186322 0.0130986655 0.009398032 0.05766498
0.084385075 -0.07318749 -0.016288292 0.049560156 -0.057999007 0.00681709 0.012819727 0.087023064
-0.03907976 0.09021384 0.06761702 -0.032598622 -0.019333351 0.009039395 0.067931876 0.02568662
0.08934613 -0.08424162 -0.0945771 -0.08183347 -0.073175885 0.00055963174 0.0427863 -0.00610679
-0.054722823 -0.0917738 -0.074207455 0.08701153 -0.035422016 -0.05094641 0.017989144 0.031189246
0.020501079 0.03805753 0.024574058 0.0060928604 0.0133171985 0.079057 0.068958946 0.0022634715
0.009202164 -0.07612008 0.060591094 -0.089700155 -0.053287122 -0.021056276 0.07997932 0.0788066
0.074733175 -0.08926952 -0.045627717 0.029620435 -0.014783904 -0.06218936 0.05451091 -0.0897188
-0.06127157 -0.090719864 -0.053609226 0.00064743974 0.031906992 -0.06647532 0.0059971916 0.055237006
-0.059802927 0.077442735 0.002349703 0.039326303 0.012029714 -0.08534469 -0.048416708 -0.068142
-0.08762482 0.018778881 -0.049896125 -0.010269621 0.014672406 0.027028846 0.07103797 -0.023657028
-0.08104955 -0.06794498 0.047516253 -0.05989136 0.037673734 0.022651372 -0.00684261 -0.060718242
0.07803762 -0.050531294 0.061378974 0.026482498 -0.04658897 0.050969917 0.039563797 0.097617164
0.08282386 0.08667772 0.015182473 0.053548705 -0.031496413 -0.08151583 -0.04737118 -0.00076075137
-0.0702366 0.006896351 0.04861837 -0.052200966 0.056464005 0.03310153 0.049401738 -0.017983306
0.05858693 0.057394117 -0.016983133 0.00594571 0.0339855 0.09524539 0.02012116 0.034069892
0.033511832 -0.0014615213 0.02240765 0.083542064 0.051412985 0.078379154 0.017845217 -0.05626323
-0.0738155 0.022855371 -0.03778858 0.08676485 0.07376461 0.0808507 0.061825767 0.059250258
0.0019994043 -0.008483231 0.089789174 -0.061606627 0.044434063 -0.023448166 0.078807846 0.06536526
0.057085972 -0.031170974 0.034387566 0.03753748 0.086100206 0.08698374 -0.03847591 -0.042776503
0.025517737 -0.08002611 -0.029192366 0.06110547 0.06725837 0.026540793 -0.07224664 -0.03964999
0.061975874 -0.08391113 -0.032856006 0.018638832 0.03270359 0.06617629 0.09505578 0.05112709
0.07751208 -0.01187621 0.057173964 0.058414705 0.083489925 -0.001259656 -0.044573918 -0.027522853
-0.08410747 -0.07336657 0.014613745 -0.017980885 -0.0675929 -0.060288455 -0.042432696 0.061204683

fc1.bias f4 [256]
00000000: a752 803d 7e99 b03d d2dd acbd 6518 98bd
00000010: 7679 5dbd fbdf 223d e462 0a3d a16e 8ebd
00000020: b5ec 8d3c f464 9d3c 950d a43d 6e83 913d
00000030: 77eb a33c 6815 a6bd 4564 993d 8773 2e3c
00000040: bb6a e0bc d7fa 25bd 1fc2 2bbd 7a12 ee3c
00000050: dfb5 b3bd bf87 afbd 0298 8e3d 6c3a 133d
00000060: a22f 7a3d daab 3c3d 4a40 3fbd fe03 8a3d
00000070: 731b c73d cf3d ce3b cac8 383c 347c 4cbd
00000080: b02b fbbc 76ad 36bd aa5a f6b9 7149 c0bc
00000090: 26fd 9dbb 43f1 7b3d 72fd b1bb 5b0c 693d
000000a0: 575e 04bd 838b f93c 0c33 14bd 97d6 803d
000000b0: 5307 75bd 9eb3 d63c df61 4c3d 9ea3 15bd
000000c0: 1252 b43b 3223 acbc 0ee2 c0bd dcc5 b8bc
000000d0: 14ff 4dbd 19eb 8fbd a2cf 263d 09fe 8b3d
000000e0: 33fe 723d 507b 563d 424b da3c d837 443d
000000f0: 815e 383c 22b0 a63c b5f1 bd3d 3c7b 47bd
00000100: 3e0d 0ebd f04b db3c 642c 2ebd 27f8 28bd
00000110: 4bb8 243d 4251 613d 694e 91bd abd6 babd
00000120: 5193 d43b d545 9a3c 068d c33d 9067 f1bc
00000130: 3900 adbd 0263 ae3d 7c39 c9bb a739 143d
00000140: f8ca 7a3d 0111 093d d888 0abd 5ae3 f63c
00000150: 04c2 f7bc 7ce0 7abd 92b8 943d a592 5f3a
00000160: 5ba1 a83d e8c6 b3bd 4b40 873d 66f0 9bbd
00000170: 82fd e9bc f5d6 5dbc 255f d23c dd3a 97bd
00000180: e3ce 723d 2483 46bd 6b3d 5c3c aafc 65bd
00000190: 5d59 b1bd b080 89bd fb36 72bd 1cab aabc
000001a0: aadf a3bd 0797 12bd 81e9 9abd d09c de3c
000001b0: d40c 60bd 7e29 80bc a5b3 97bd ee62 dcbc
000001c0: 07ef 93bc 6db4 013d e97f 80bb 73d7 2f3d
000001d0: b228 94bd 586a 1dbd 23f1 7d3d e8c4 503d
000001e0: e5db 66bc 3494 bdbc e7cd d43c 02de 16bd
000001f0: 32a6 60bd c0ae 8c3d d4ee c73c cf12 c3bd
00000200: 90bc a6bc 5092 9e3d 61a6 b8bd eec0 c03d
00000210: 7565 363d 5cf0 463d 948a 8b3d 9066 013d
00000220: 3c0c 00bd e00d 54bd c50d a13d 4b5e 943d
00000230: f4ac 8c3d 3173 4c3c aa89 42bd 1ea2 6ebd
00000240: 475a 72bd e01e 283d 8069 ea3c 1016 3d3d
00000250: 8f10 aebd c214 073c c805 cfbd 0dfc adbd
00000260: 6c52 68bd deb4 69bd 777b 82bd df93 8f3c
00000270: 4e4b 813c 1e94 803d 0fb0 6f3d 1fdd cdbd
00000280: ea9b c0bd 1666 8bbd 7869 b2bd 090e 423d
00000290: 76a3 183d b59d 4d3d 8fa7 7bbd 4b72 c2bd
000002a0: 6592 b33d 9bc8 99bc 3119 743d 4a58 b73d
000002b0: c9bf eebb e210 27bd daa1 ae3c 2278 303d
000002c0: 30c0 b33d e0b5 233d 06ea 00bd 8672 d93c
000002d0: d95d 77bd e19d 3f3d 7512 6c3d 8748 583d
000002e0: da49 1d3d 2b28 323d 30a7 193b f04c 10bd
000002f0: ac8f 8dbd 12ea c53d 75e3 76bd 3983 b3bd
00000300: 654f 9a3d 296f dc3c 0b92 92bd 2d3d 97bd
00000310: 5332 2a3c 1331 fd3c 3cd6 27bd dbc9 e53a
00000320: c99d 43bd 630b 3ebd 2a8a ae3d 20fe 1abd
00000330: ccdd a1bd 6c28 9e3d 9f29 783c e8a0 683d
00000340: ea5a a3bd 1212 39bd 11fc 86bd d1d8 bcbd
00000350: 08bb 42bd 550c 7a3d 1633 acbd 95ec cd3d
00000360: 73e1 a2bd 23b4 9d3c 1b9e b43d 9fca 493d
00000370: f225 28bc 328e 75bd 92e0 3f3d b455 633d
00000380: 72a8 453d f8a9 a53d 7ab5 a0bc b0d1 26bd
00000390: cf24 19bc d66f bf3d 056c 303d a66b 4bbd
000003a0: 29de 2b3d 906d bebd 832b 73bd 5225 14bd
000003b0: ece4 4f3c faf7 9a3d a39d 23bb 4818 9f3d
000003c0: 7582 ca3d e439 b23d 592c 9ebd 7ebf a9bd
000003d0: 1ff6 513d 64d9 a9bd a73c 9ebd 808e e43c
000003e0: d531 94bd ea54 813d 0f4b 7e3d 9cb1 8dbd
000003f0: 3bbb 983d bb4a 7f3d 35a7 683d a515 7b3d
0.06265765 0.08623026 -0.08440746 -0.07426528 -0.054070912 0.039764386 0.033785716 -0.069546945
0.017324785 0.019213177 0.08010403 0.07105146 0.02000974 -0.08109552 0.07489828 0.010647661
-0.027394643 -0.040522423 -0.041933175 0.029061545 -0.087749235 -0.085708134 0.06962587 0.035944387
0.061080582 0.046062328 -0.04669217 0.06739043 0.097220324 0.0062939893 0.011278341 -0.049923137
-0.03066048 -0.04459902 -0.00046988326 -0.02347252 -0.0048214374 0.061509382 -0.0054318244 0.05689655
-0.032316532 0.030462032 -0.036181495 0.0629093 -0.059821438 0.026208695 0.049898025 -0.03653299
0.0055029476 -0.021012876 -0.094181165 -0.022555284 -0.05029209 -0.07027263 0.040725358 0.06835563
0.059324455 0.052363694 0.026647214 0.04790482 0.011253 0.020347659 0.092746176 -0.04870151
-0.034680597 0.026769608 -0.042522803 -0.04125228 0.040214818 0.055009134 -0.07095034 -0.09122976
0.006487288 0.018832127 0.095483825 -0.029468328 -0.08447308 0.08514978 -0.006140886 0.036187794
0.061228722 0.03346348 -0.03382191 0.030137707 -0.030243881 -0.06124924 0.072617665 0.00085286266
0.08233901 -0.08778173 0.0660406 -0.07614212 -0.028563265 -0.013540019 0.025680134 -0.07384274
0.059279334 -0.04846491 0.013442378 -0.056149162 -0.08659623 -0.06713998 -0.059134465 -0.020833544
-0.08001645 -0.035788562 -0.075640686 0.027174383 -0.054699734 -0.015644785 -0.07407311 -0.026902642
-0.018058313 0.031666208 -0.003921498 0.042930078 -0.072343245 -0.038431495 0.061997544 0.050969034
-0.014090513 -0.023141958 0.025977088 -0.036832817 -0.054845996 0.068692684 0.024405874 -0.09525072
-0.020353585 0.07742751 -0.09016109 0.094117984 0.04453035 0.04856907 0.06813541 0.03159195
-0.031261668 -0.051771045 0.078639545 0.072445475 0.06868926 0.012478636 -0.047494568 -0.058260076
-0.059168126 0.04104507 0.02861476 0.04616362 -0.08499252 0.008244695 -0.101085246 -0.084953405
-0.05671923 -0.057057254 -0.06371205 0.017526565 0.015782978 0.06278251 0.058517512 -0.10051941
-0.09404738 -0.06806581 -0.08711523 0.047376666 0.037265263 0.05019923 -0.061439093 -0.09494456
0.08768157 -0.018772414 0.059594337 0.08952387 -0.007286046 -0.040787585 0.021317411 0.043083318
0.08776891 0.03996837 -0.031473182 0.026543867 -0.060392234 0.046781424 0.05763479 0.052803542
0.03840051 0.04349534 0.0023445599 -0.035229623 -0.06912169 0.09663786 -0.060275514 -0.08765263
0.075346746 0.026908474 -0.07156762 -0.07384715 0.010387975 0.03090719 -0.040975794 0.0017531471
-0.047757898 -0.046397578 0.085224465 -0.03784001 -0.079036325 0.077225536 0.015146642 0.056794077
-0.07976325 -0.04518325 -0.065910466 -0.09221042 -0.04754165 0.061046917 -0.08408181 0.1005489
-0.07953157 0.019250935 0.08819219 0.0492655 -0.010262953 -0.05995006 0.046845026 0.055501655
0.048256345 0.080890596 -0.019617785 -0.040727317 -0.009347155 0.09347503 0.043071765 -0.04966321
0.041959915 -0.09298241 -0.059367668 -0.036168404 0.012688857 0.07566829 -0.0024965785 0.07768303
0.09888164 0.08702448 -0.077233024 -0.08288477 0.05126011 -0.08293417 -0.07726412 0.02789998
-0.07236067 0.06315024 0.0620833 -0.06918642 0.074575864 0.062327128 0.056800086 0.06129994

fc2.weight f4 [1, 256]
00000000: df1b c7bc 73a5 903b 8ac1 51bd c701 7d3d
00000010: 61b0 a2bc 3ef4 02bc ec7b ecbc c01c 823b
00000020: 41c9 0fbd f68d 613c cc9a cd3c 114f bebb
00000030: c9c7 26bd 0729 153d 7d52 15bd a4f4 67bd
00000040: 7bfb 143d 1843 a23c 4a21 6bbd 68b6 a0bc
00000050: bbbb 07bc 5885 98bc 2a59 5fbd 8c6e d3bc
00000060: ce6e 1a3c ecdc 563d b04c cb3c f534 073d
00000070: a9d1 903c 8965 36bd ed96 5abd 085a cdbb
00000080: 51a1 6b3d 56dc e23c fa8a 2e3d b96e 7b3d
00000090: b177 813d 382e f039 78c2 0dbc 1c21 22bd
000000a0: 8159 3b3d c3c3 6e3d 5711 59bd 8b25 3c3d
000000b0: 17a6 d0bb c88d 39ba 59e4 0abd 068c 9fbc
000000c0: e38d 183c 3d36 543c e753 5ebd 08f8 d53c
000000d0: ec2f 30bd 50db 6c3c 7904 d73c 7c93 393d
000000e0: 8394 b2bc ac91 663d 707b 813c 7e28 203d
000000f0: 5314 1d3d 515b a2bc 5f20 803b 11e2 843d
00000100: 3d69 4fbc 7c88 ebbc 773d f7bc 7894 d73c
00000110: 34b5 45bd 710c 4e3d f569 dcbc 3913 b0bc
00000120: 78d6 e23a 9905 6b3d 9e97 0a3d 8c83 843d
00000130: ea38 0fbd e5ed 2e3d d35a a1bc b8dc 9ebc
00000140: 3e99 843c 7a81 203d e964 53bd 50a9 773d
00000150: 744e f73c ce7d 57bd 0b28 72bc 5d8d d2bc
00000160: eb28 7b3d 65a8 3ebd f05b 8a3d 3cd3 003d
00000170: d4ca 85ba 4df2 ed3c 3883 a7ba 5611 733d
00000180: b352 0d3d ca41 67bd 7843 a23c 88fb e4bc
00000190: 54ec 0bbc 4bb6 c83c 44b7 babb 5c23 cbbc
000001a0: 9196 d0bc ec2e c9bb 81f0 173d 14c4 06bd
000001b0: 9aca 2f3d 48ff 40bd d46f 9abb 9147 64bd
000001c0: 3b29 6e3d 3b73 7f3d 048d 2b3c be15 423d
000001d0: d888 2bbd e377 efbc 80f2 e73b dff2 69bd
000001e0: a31b 43bd af90 643d f7fb 34bb f3f4 fd3c
000001f0: 5bdb 293c d215 2fbd d47f 11bc abc9 89bc
00000200: cf75 833d adaa 863d ddb4 0cbd a403 d33a
00000210: 930c ecbb 505f 353d 9144 69bc 3368 623d
00000220: f364 1b3d f9a2 4fbd c04f 9a3b 0caf 643c
00000230: cd1b 9abc 70ee 38bd 9b80 553d 27ca 7a3d
00000240: 1025 a03c a148 a13c 40a5 76bc 4a1c 67bd
00000250: 1181 16bd 3bbb d8bc cc5f 44bd 5c4b 19bc
00000260: 0769 45bd df01 2e3d 5feb 373c 3d5e 44bd
00000270: 631b f3bc a021 ea3c 14cf 14bd d862 60bd
00000280: 6b8e 08bb 2dd2 15bd 5397 a33c 8822 5a3d
00000290: 31f2 883d 803d c53c 20d7 623b 58e5 00bc
000002a0: 333b ed3c b2d7 383d 5975 683d 282b eebc
000002b0: 7dd4 f7bc 1fb0 cc3a ac51 023d 2c15 233d
000002c0: 774a 723d 84c9 bcbb 3b43 d8bc 1841 613d
000002d0: 7410 21bd 23e1 2b3d 8433 273c 13c5 41bc
000002e0: f0c8 e1bb 39d4 84bc 2774 c1bc d687 113b
000002f0: 8bbd 4f3d b369 663b 39f1 0cbd 238e 293d
00000300: d461 b2ba f305 233c 80e5 6d3b bf77 f33c
00000310: 5abf 99bc e828 623d 3bbe 933c 91ec b4bc
00000320: 1804 6d3c 74e4 06bd 9d85 4c3d 1aa9 5bbd
00000330: 0a90 053d 845f ea3c 5ff8 913c d7eb 18bc
00000340: b1c1 65bc 9370 813d 9cf7 d9bc f82c 9b3c
00000350: 7870 edbc 3102 ac3c 90bd c639 d9be cb3c
00000360: 58e4 8fbc 4ba8 afba acd1 45bd 1b1a ecbc
00000370: ebe7 30bd 0f15 48bd c77b 143d 80f9 a7bc
00000380: 3de0 27bd dfb8 6abd 4254 4abd 38a8 4a3d
00000390: dc16 6cbd 39cf 703d 8d98 5d3d 6adc 40bb
000003a0: 63cd 713d 7388 6dbd f14f c2bc 4a69 823b
000003b0: b3f1 05bd 6438 32bc d105 52bd d6e6 cfbc
000003c0: 621c 813d 0523 5f3d 88cc 9c3c 5fbb 25bd
000003d0: c038 413c d06d 2cbd 7109 04bd 06a0 ebbc
000003e0: 4ce7 eb3c 144f 1dbd f128 03bd 4811 75bc
000003f0: c03b 73bb 94a4 6bbc 44a2 473d 582c 773d
-0.024305282 0.0044142543 -0.051209964 0.061769273 -0.019859495 -0.007992802 -0.028867684 0.0039707124
-0.03510404 0.013766756 0.025098227 -0.0058077653 -0.040717874 0.03641608 -0.03645562 -0.05662979
0.036372643 0.019807383 -0.057404794 -0.019618228 -0.0082845045 -0.01861827 -0.054528393 -0.025809549
0.009425832 0.05245678 0.02481684 0.033009488 0.017678099 -0.044530425 -0.05336659 -0.006266836
0.05752689 0.027692955 0.042613007 0.06138489 0.063216574 0.00045810803 -0.008652322 -0.039582357
0.045739654 0.05829216 -0.052995052 0.04593424 -0.0063674557 -0.0007078317 -0.033909176 -0.019475948
0.009311172 0.012952385 -0.054279234 0.026119247 -0.04301445 0.014456585 0.02624725 0.045306668
-0.021799332 0.056291267 0.01580593 0.039101116 0.03834946 -0.019818934 0.003910109 0.06488431
-0.012659368 -0.028751604 -0.030180676 0.026315913 -0.048268512 0.050304834 -0.026905993 -0.021493541
0.0017306348 0.057378385 0.033836 0.06470403 -0.034966387 0.042707343 -0.019696629 -0.019392356
0.016186353 0.03918598 -0.051609907 0.060464203 0.030188777 -0.05261021 -0.014780055 -0.025702173
0.06131832 -0.046547312 0.06755817 0.03145145 -0.0010207542 0.029046202 -0.0012780195 0.059342705
0.034502696 -0.056459226 0.019807562 -0.02795197 -0.008540232 0.024500987 -0.0056981165 -0.024797134
-0.02546242 -0.0061396267 0.037094597 -0.03290184 0.042917825 -0.047118455 -0.004713038 -0.055732314
0.05814479 0.06236575 0.010470632 0.047384016 -0.04187855 -0.029231971 0.007078469 -0.057116386
-0.04763378 0.055802044 -0.0027616003 0.03100059 0.01036724 -0.04274542 -0.008880574 -0.016819796
0.064189546 0.065755226 -0.034352172 0.0016099107 -0.0072036474 0.04428035 -0.014237539 0.055275153
0.03793807 -0.050692532 0.004709214 0.01395775 -0.018812085 -0.045149267 0.0521246 0.061227944
0.019548923 0.019687952 -0.015054047 -0.056423463 -0.03674418 -0.026456466 -0.04794292 -0.009356346
-0.048195865 0.042482253 0.01122555 -0.047941435 -0.029676145 0.028580487 -0.036330298 -0.054781765
-0.002083684 -0.036577392 0.019969618 0.053255588 0.06686819 0.024077177 0.0034613088 -0.00786718
0.028958892 0.045127578 0.056752536 -0.029073313 -0.03025269 0.0015616453 0.03181617 0.039815113
0.059153046 -0.005761327 -0.026399245 0.05499372 -0.03932233 0.041962754 0.010205153 -0.011826771
-0.0068904087 -0.016214477 -0.023614956 0.0022206209 0.05071787 0.0035158216 -0.034409735 0.041395318
-0.0013609477 0.009950149 0.0036300123 0.029720185 -0.018768001 0.055214792 0.018035045 -0.02208546
0.014466308 -0.032932714 0.04993211 -0.053628065 0.03260807 0.028609999 0.017818628 -0.009333572
-0.01402323 0.063203 -0.026607327 0.018942341 -0.028984293 0.020997139 0.00037906738 0.024871277
-0.017564937 -0.0013401596 -0.04829566 -0.028821042 -0.043189924 -0.048848208 0.036250856 -0.020504713
-0.040985335 -0.057305213 -0.04939676 0.049476832 -0.057638988 0.058791373 0.054100562 -0.0029428252
0.059033763 -0.057991456 -0.02371976 0.0039798366 -0.032701205 -0.010877702 -0.05127508 -0.025378626
0.06304242 0.054476757 0.019140497 -0.040461894 0.011793315 -0.042096913 -0.032235567 -0.028762829
0.028796814 -0.038405493 -0.032021467 -0.014957733 -0.0037114471 -0.0143825 0.048738733 0.060345024
