model_epoch_1400.pth (torch, 141274 bytes, 15 tensors)

target_net.fc1.weight f4 [64, 36]
0.10006237 0.056178987 0.011433085 -0.042034686 0.027278269 0.0044121468 -0.028217098 0.1123031
0.052450042 -0.019272463 -0.10611023 -0.13249822 -0.11775788 0.08770486 -0.050435066 0.05523717
0.026266852 -0.16734865 -0.036820292 -0.06826173 -0.16322935 0.037391245 0.09883414 -0.055312913
0.031032085 -0.02889949 -0.079926535 0.00940309 0.12265003 -0.16382012 0.14970069 -0.0603899
0.03417369 0.010010481 -0.05248646 -0.03856097 0.14505208 0.094138786 -0.046133243 -0.06083742
-0.06889653 0.11003612 0.13168596 0.15580879 0.04053406 -0.008311025 -0.05791979 -0.013863249
0.10437189 -0.12697536 0.12662324 0.060661506 -0.00060618855 0.118214205 -0.053855836 0.04160794
0.160469 -0.16348778 0.06913756 0.065073036 -0.05967909 -0.03343588 0.14050263 0.09719676
0.017586768 -0.08851131 -0.019071102 0.056176703 -0.012155971 0.15610556 -0.12270926 -0.14545509
0.13611636 0.04471928 0.03644705 0.09971252 -0.10520462 -0.03784011 0.02916497 0.1601359
-0.04627387 0.062603 0.04057514 -0.0947454 0.0071855388 -0.08693999 -0.108819865 0.06702545
0.064770564 0.07745015 0.03685991 -0.08244865 0.15609112 0.012060444 0.022738278 -0.061795365
0.12197622 -0.07632675 0.07902199 -0.055893205 -0.12578452 -0.026055561 -0.14750056 -0.08732921
0.013603926 0.041086793 -0.13571005 -0.1133343 0.07230598 -0.09572234 -0.15408379 -0.071290925
0.04054002 -0.10370136 0.1408073 -0.045285344 0.035534244 0.07919232 -0.10577041 0.18580711
-0.021600028 -0.16436458 0.13472623 0.039743554 0.111163154 0.031310357 0.1133831 0.010280689
-0.0043200455 0.0027264357 0.12644297 -0.013966853 0.04274901 0.092518374 0.15323137 0.14658599
-0.08869319 -0.023423033 -0.030572396 -0.14859095 -0.06426935 -0.017357927 -0.08238809 -0.105598606
-0.05243256 -0.023561835 -0.05125644 -0.068413794 0.0976091 0.11044894 -0.0203592 -0.012608906
-0.038468003 -0.06770325 0.14471993 -0.0696883 -0.13267979 -0.05043509 0.14701842 -0.20218049
0.041495793 -0.115684494 0.14998661 0.063732386 -0.07591759 -0.04891193 -0.041570723 0.14183655
0.017066121 0.018825054 -0.07390871 0.10448371 -0.00020873547 0.1354167 0.15458894 0.13188194
0.03387493 -0.041094482 0.12372005 -0.115660295 -0.023642521 -0.1043916 0.01347222 -0.07580243
-0.061743665 0.023020025 -0.0036100547 0.1266203 -0.11439799 0.033473562 0.08829648 0.052519217
0.14204237 0.15141016 -0.11147561 -0.07052435 0.17336708 -0.07136298 -0.15200011 -0.11891638
0.054467104 0.002424717 -0.040455244 0.056622252 -0.08740147 0.10527015 -0.02593567 0.06561385
-0.14654544 -0.0926733 0.036948245 0.010525405 -0.07364051 0.10446721 0.016473472 -0.19985572
-0.01163896 0.12776957 -0.08930131 -0.028789954 -0.16830477 0.20673725 -0.12330824 0.103919886
-0.107628904 0.09500015 0.07024394 0.04811011 -0.15679672 -0.09563023 0.044021748 0.08120278
-0.15145427 0.05317281 -0.026325684 -0.005109509 0.039710402 0.072713815 -0.078417145 0.048080467
-0.11411359 -0.09269069 -0.006921053 -0.14761326 -0.055898845 -0.14517689 0.09877517 -0.049010694
0.13805297 0.058511697 -0.010933161 -0.13150206 0.11807603 0.108934484 -0.1408934 0.11511729
00000000: 80ed cc3d f01b 663d d651 3b3c 902c 2cbd
00000010: ad76 df3c c593 903b 8b27 e7bc 2bff e53d
00000020: dbd5 563d 49e1 9dbc 5250 d9bd 9dad 07be
00000030: 0b2b f1bd 9b9e b33d 0095 4ebd 5f40 623d
00000040: 952d d73c 725d 2bbe e0d0 16bd cecc 8bbd
00000050: 9825 27be 9027 193d 8e69 ca3d cb8f 62bd
00000060: 0037 fe3c a0be ecbc 86b0 a3bd 6b0f 1a3c
00000070: f02f fb3d 76c0 27be 234b 193e 665b 77bd
00000080: b6f9 0b3d 0003 243c 0bfc 56bd 1cf2 1dbd
00000090: 8888 143e d6cb c03d 36f6 3cbd a930 79bd
000000a0: a019 8dbd 9e5a e13d afd8 063e 578c 1f3e
000000b0: 0b07 263d f72a 08bc 4d3d 6dbd ae22 63bc
000000c0: eec0 d53d d405 02be 86a9 013e 3378 783d
000000d0: a0e8 1eba 4a1a f23d f097 5cbd 166d 2a3d
000000e0: fc51 243e 5769 27be fe97 8d3d 0345 853d
000000f0: 1072 74bd 10f4 08bd ecdf 0f3e 180f c73d
00000100: 2012 903c 6b45 b5bd 003b 9cbc 8b19 663d
00000110: d629 47bc 23da 1f3e fe4e fbbd 2ef2 14be
00000120: 1662 0b3e 902b 373d 8049 153d 1436 cc3d
00000130: 8575 d7bd 3bfe 1abd 60eb ee3c aafa 233e
00000140: ab89 3dbd 0036 803d 1e32 263d e009 c2bd
00000150: ab74 eb3b 980d b2bd f3dc debd a444 893d
00000160: 6ea6 843d 2f9e 9e3d 6bfa 163d d6da a8bd
00000170: 5ad6 1f3e 2b99 453c a045 ba3c 231d 7dbd
00000180: abce f93d 3351 9cbd 48d6 a13d 46f0 64bd
00000190: a8cd 00be 7972 d5bc 630a 17be a8d9 b2bd
000001a0: 00e3 5e3c a04a 283d 93f7 0abe d01b e8bd
000001b0: 2815 943d 130a c4bd 24c8 1dbe fa00 92bd
000001c0: 4b0d 263d 6161 d4bd ca2f 103e 207d 39bd
000001d0: 5b8c 113d 952f a23d 289e d8bd 3844 3e3e
000001e0: 8bf2 b0bc 304f 28be acf5 093e 23ca 223d
000001f0: 82a9 e33d 4a3f 003d 6635 e83d 5670 283c
00000200: 2b8f 8dbb 00ae 323b 447a 013e 3ad5 64bc
00000210: 9619 2f3d 467a bd3d afe8 1c3e a31a 163e
00000220: c6a4 b5bd a9e1 bfbc f672 fabc 3a28 18be
00000230: a69f 83bd 3632 8ebc 16bb a8bd 1544 d8bd
00000240: 86c3 56bd c004 c1bc 46f2 51bd 881c 8cbd
00000250: 48e7 c73d 0e33 e23d 56c8 a6bc 9695 4ebc
00000260: a090 1dbd 00a8 8abd 7631 143e bdb8 8ebd
00000270: 36dd 07be 0695 4ebd ff8b 163e 6708 4fbe
00000280: 7ef7 293d feeb ecbd 1796 193e 2086 823d
00000290: ae7a 9bbd e057 48bd 1046 2abd 9a3d 113e
000002a0: 40ce 8b3c 0037 9a3c 735d 97bd 8efb d53d
000002b0: 00e0 5ab9 adaa 0a3e 904c 1e3e 0f0c 073e
000002c0: 70c0 0a3d b052 28bd f060 fd3d 4edf ecbd
000002d0: f6ad c1bc 43cb d5bd 96ba 5c3c 4e3e 9bbd
000002e0: ede6 7cbd 7e94 bc3c ab96 6cbb c0a8 013e
000002f0: 7e49 eabd 931b 093d c9d4 b43d 641e 573d
00000300: 8e73 113e 440b 1b3e 534d e4bd 126f 90bd
00000310: 2487 313e c126 92bd eba5 1bbe 6e8a f3bd
00000320: e618 5f3d 00e8 1e3b 66b4 25bd bcec 673d
00000330: 8bff b2bd e097 d73d 0b77 d4bc 8e60 863d
00000340: 0210 16be 80cb bdbd 0b57 173d c072 2c3c
00000350: d6d0 96bd e8f2 d53d 60f3 863c faa6 4cbe
00000360: 56b1 3ebc 07d6 023e 9be3 b6bd e9d8 ebbc
00000370: 1658 2cbe eeb2 533e 0889 fcbd f3d3 d43d
00000380: 8b6c dcbd 708f c23d 0edc 8f3d 1b0f 453d
00000390: 528f 20be c8d9 c3bd 2650 343d a54d a63d
000003a0: d416 1bbe bbcb 593d f6a8 d7bc ab6d a7bb
000003b0: 60a7 223d fbea 943d 2b99 a0bd 06f0 443d
000003c0: 63b4 e9bd 9ed4 bdbd 00ca e2bb ee27 17be
000003d0: 30f6 64bd 40a9 14be a34a ca3d 70bf 48bd
000003e0: c25d 0d3e f6a9 6f3d 0021 33bc 7aa8 06be
000003f0: d8d1 f13d 0b19 df3d 5c46 10be 9dc2 eb3d

target_net.fc1.bias f4 [64]
0.016215587 0.054582264 -0.13225284 -0.035739403 -0.031251445 -0.19492419 -0.03625304 0.05116683
-0.14351213 0.12060401 0.011051204 0.14168817 0.08107267 -0.043579336 0.1422175 -0.07128415
-0.15620488 -0.17993563 0.11018859 -0.10721654 -0.15300284 -0.16589385 0.11940419 -0.10552221
-0.05062201 -0.056084193 0.11597241 -0.02387748 -0.15575454 0.179666 0.057035092 -0.13548456
-0.06327457 -0.027363589 0.013767155 -0.07878144 0.11279886 0.09984812 -0.20244893 0.027394341
-0.16576932 -0.0021081327 -0.15319517 -0.1256544 0.13423698 0.022969857 -0.071575716 -0.1451111
0.017132696 -0.13939877 -0.14996576 -0.03887676 0.035300132 -0.018514989 0.025614189 0.053692464
-0.16694741 -0.00044881002 -0.0026318028 -0.025304163 -0.13067158 -0.049895205 0.13894205 -0.08497487
00000000: 8dd6 843c a791 5f3d 4a6d 07be 7b63 12bd
00000010: 8401 00bd 359a 47be 117e 14bd 4f94 513d
00000020: d8f4 12be 3cff f63d 1c10 353c b416 113e
00000030: 6e09 a63d 3f80 32bd 77a1 113e 6dfd 91bd
00000040: 2cf4 1fbe 0c41 38be 8eaa e13d 5894 dbbd
00000050: c7ac 1cbe 14e0 29be 2f8a f43d 071c d8bd
00000060: 0659 4fbd 8ab8 65bd f182 ed3d b49a c3bc
00000070: 1e7e 1fbe 5dfa 373e a19d 693d 77bc 0abe
00000080: 1996 81bd 9b29 e0bc a28f 613c 2a58 a1bd
00000090: 1703 e73d 2c7d cc3d c64e 4fbe 196a e03c
000000a0: 6fbf 29be 9928 0abb 32df 1cbe 8cab 00be
000000b0: 6b75 093e 482b bc3c 4a96 92bd 0198 14be
000000c0: de59 8c3c 8dbe 0ebe a090 19be 3d3d 1fbd
000000d0: df96 103d bfac 97bc d9d4 d13c a1ec 5b3d
000000e0: 43f4 2abe 434e ebb9 537a 2cbb ad4a cfbc
000000f0: c5ce 05be ea5e 4cbd d346 0e3e 4e07 aebd

target_net.fc2.weight f4 [3, 64]
-0.030483084 -0.03920523 -0.049779054 -0.04789812 0.008022287 -0.038448576 0.051428307 -0.0011175099
-0.096582055 0.12703887 -0.041807856 0.005040385 -0.047558904 -0.003634108 -0.08904898 0.073770575
0.05828694 -0.0024682719 -0.009457313 0.0151500935 -0.043952946 0.10394599 -0.09071715 -0.022774005
-0.08112006 -0.042690594 0.036335398 0.03584694 0.065129735 -0.05386716 -0.058231156 0.05672161
-0.029750116 0.08558632 0.043309145 -0.014285772 -0.06936407 -0.09271612 0.12260442 0.029001823
0.05839642 -0.075559914 0.014007031 0.076485835 -0.014948944 0.07163414 0.03547464 0.023869917
0.019581502 -0.055605948 -0.027504742 -0.09492256 -0.10224008 -0.12598898 -0.026738005 0.071312904
0.027918924 0.027339535 0.08014648 -0.12512633 -0.04266441 0.03155772 -0.16847192 0.048075914
-0.06658859 -0.05695716 0.08417644 -0.048517246 0.07726071 -0.10617758 0.05599232 0.114757076
-0.011795118 -0.09185411 0.10557838 0.16447349 0.03309295 0.056473985 0.066067934 -0.04745603
-0.013173885 0.10670712 0.016712353 0.02305045 0.08310437 0.026137145 -0.08162235 0.010889363
0.046464905 -0.11570933 0.08605159 0.15883513 -0.032906145 0.030586977 -0.0536276 0.00915749
0.11795206 -0.011220912 -0.011707855 0.02497134 0.025512958 0.05068039 -0.065205626 -0.059925333
0.026553387 0.08396363 -0.059717905 0.08427806 0.108964734 0.08100072 0.11015969 -0.014065508
0.031423956 0.062405504 -0.11779943 0.015309545 -0.05680685 -0.042815693 -0.04381249 -0.021014333
-0.06873293 -0.028679589 -0.021530353 0.030823054 -0.0109977 -0.08063441 -0.016462315 0.016012698
-0.09076989 -0.068698615 -0.04023146 0.004312427 -0.05338914 0.052421477 -0.07412761 -0.026807036
0.06380029 0.09050882 0.1385547 -0.056871578 -0.02749406 0.12709713 -0.060676735 -0.018910198
-0.02418676 0.015338093 0.04605585 0.0058111437 -0.12819135 -0.061525173 0.09311315 -0.069236346
0.0087769525 0.076926276 0.062431037 -0.025801368 -0.046600513 0.13398014 0.11020349 0.13058305
-0.089621946 0.035369206 0.11651083 -0.043713037 -0.029496742 -0.02176606 0.0414698 -0.0868301
-0.023530373 -0.09725617 -0.0155181885 0.10047475 0.072994925 -0.04840715 -0.05192727 0.10512328
0.040971473 0.051744476 0.08839182 -0.01184629 -0.109673 -0.020776823 0.025391014 0.118638314
-0.12746462 -0.10393727 0.08325408 0.09101419 -0.10659461 -0.09445038 0.05768778 0.008185938
00000000: a9b7 f9bc aa95 20bd 1fe5 4bbd d230 44bd
00000010: e96f 033c 417c 1dbd 7da6 523d 6979 92ba
00000020: d0cc c5bd 7a16 023e b73e 2bbd d029 a53b
00000030: 20cd 42bd 372a 6ebb 505f b6bd 0715 973d
00000040: 49be 6e3d bbc2 21bb d9f2 1abc 1938 783c
00000050: 0108 34bd a3e1 d43d eac9 b9bd 8d90 babc
00000060: 4622 a6bd 55dc 2ebd 6dd4 143d 3ed4 123d
00000070: bd62 853d d0a3 5cbd cb83 6ebd eb54 683d
00000080: 84b6 f3bc e147 af3d ee64 313d df0e 6abc
00000090: c00e 8ebd f3e1 bdbd 0718 fb3d 3b95 ed3c
000000a0: 1631 6f3d 28bf 9abd bf7d 653c 9ba4 9c3d
000000b0: 6aec 74bc ecb4 923d db4d 113d d88a c33c
000000c0: 6369 a03c 10c3 63bd a051 e1bc c266 c2bd
000000d0: 3f63 d1bd 4103 01be a909 dbbc 800c 923d
000000e0: 3ab6 e43c 29f7 df3c d623 a43d 1e21 00be
000000f0: e0c0 2ebd ab42 013d e783 2cbe 40eb 443d
00000100: 995f 88bd e94b 69bd b364 ac3d 05ba 46bd
00000110: dd3a 9e3d a273 d9bd 3458 653d c205 eb3d
00000120: 5040 41bc 021e bcbd 7a39 d83d bd6b 283e
00000130: 798c 073d 4451 673d a04e 873d 4161 42bd
00000140: 47d7 57bc 4389 da3d 58e8 883c 4cd4 bc3c
00000150: a032 aa3d 911d d63c 9e29 a7bd 4c69 323c
00000160: fc51 3e3d 03f9 ecbd d13b b03d ada5 223e
00000170: 98c8 06bd 8a91 fa3c 9da8 5bbd 4c09 163c
00000180: da90 f13d ebd7 37bc 4ed2 3fbc b290 cc3c
00000190: 8d00 d13c 3e96 4f3d 878a 85bd 4474 75bd
000001a0: 7d86 d93c 20f5 ab3d c39a 74bd fa99 ac3d
000001b0: e728 df3d b5e3 a53d 679b e13d 0473 66bc
000001c0: 68b6 003d ea9c 7f3d d440 f1bd e3d4 7a3c
000001d0: 4dae 68bd 825f 2fbd ba74 33bd 4026 acbc
000001e0: dac3 8cbd 75f1 eabc 6c60 b0bc a180 fc3c
000001f0: b22f 34bc a723 a5bd fadb 86bc 102d 833c
00000200: 90e5 b9bd dcb1 8cbd bec9 24bd 424f 8d3b
00000210: 92ae 5abd e7b7 563d 37d0 97bd 6e9a dbbc
00000220: baa9 823d b05c b93d 49e1 0d3e 2cf2 68bd
00000230: 393b e1bc c025 023e 2b88 78bd 8fe9 9abc
00000240: 5023 c6bc a04c 7b3c 0fa5 3c3d 686b be3b
00000250: 9844 03be d201 7cbd 1bb2 be3d c9cb 8dbd
00000260: 35cd 0f3c 868b 9d3d b0b7 7f3d 645d d3bc
00000270: 2ee0 3ebd 1732 093e 5eb2 e13d 90b7 053e
00000280: b68b b7bd 4ddf 103d 3b9d ee3d 710c 33bd
00000290: 27a3 f1bc bc4e b2bc 3ddc 293d fbd3 b1bd
000002a0: c5c2 c0bc 3e2e c7bd 0040 7ebc b5c5 cd3d
000002b0: 5d7e 953d 9346 46bd b0b1 54bd e04a d73d
000002c0: b4d1 273d 04f2 533d c506 b53d f116 42bc
000002d0: 3d9c e0bd 2834 aabc d100 d03c a5f8 f23d
000002e0: 1686 02be 10dd d4bd 1d81 aa3d a665 ba3d
000002f0: 464e dabd 336f c1bd 064a 6c3d 501e 063c

target_net.fc2.bias f4 [3]
-0.013460052 0.012971936 0.056602307
00000000: 8d87 5cbc 3e88 543c d2d7 673d

tatic_net.fc1.weight f4 [64, 42]
0.14276306 -0.038523432 0.00734753 -0.13531242 0.04735256 -0.12841856 -0.043636393 -0.1052479
0.09197763 0.1313583 -0.090201475 0.018286785 -0.12502445 0.12490058 0.090758964 -0.11843587
-0.1537538 0.099327855 0.013895659 -0.10872714 0.15355667 -0.09411723 -0.047947895 0.15816054
-0.14694048 0.09200311 -0.07133638 -0.09893559 0.076542474 -0.051528454 0.032794572 0.12288213
-0.013307185 -0.14992556 0.102707066 0.12338801 -0.103616275 0.03226755 0.049303744 0.06818408
0.08521764 -0.041168418 -0.12344099 0.14629403 -0.05520601 0.117790006 -0.024225071 0.085098915
0.13877587 -0.037424553 -0.009873945 -0.023601511 0.07007775 0.086041085 -0.08464855 -0.017580865
-0.082900554 -0.122061916 0.06599489 0.09933122 0.086168334 0.07161975 -0.03718276 0.033399235
0.15361205 -0.031003254 -0.0884824 0.11791259 0.08559491 0.009146741 -0.12984544 -0.0005290586
-0.09466194 0.04098852 -0.14761978 -0.119433805 -0.038289182 0.12388595 -0.13118593 -0.05214331
-0.14437193 0.101102926 -0.020729065 0.065173656 0.06397478 0.08703646 -0.12199925 -0.13543257
-0.14983141 0.20552415 0.048049927 0.08475616 0.06551939 0.041920323 -0.054646436 0.06795259
-0.14991151 -0.13429545 0.07463628 -0.08445974 0.15250222 -0.083321504 0.073554434 -0.12033051
-0.08935073 -0.044566084 -0.12479303 -0.035740968 0.052266914 0.024746254 -0.061235838 0.100495026
-0.01747758 0.09114662 -0.13978359 0.0050900048 0.03985576 0.048469596 -0.13489807 0.025118135
0.049404062 -0.14399679 -0.14628711 0.09651603 -0.1448379 -0.0034170898 -0.14164926 -0.108337775
0.07042586 0.15641855 0.039497294 0.18595885 -0.14058527 -0.12242683 -0.12278455 0.14315581
-0.04651735 0.042655088 0.073937446 -0.14445597 0.091262296 -0.16799477 -0.0141157415 0.12863553
0.07599103 0.15315768 0.013078156 0.07360465 -0.09392398 0.14502814 -0.06595017 -0.11136711
0.102948084 -0.07442682 0.14156245 -0.102641866 0.02351337 -0.034062464 0.078697026 -0.022156341
0.121487744 -0.006198947 -0.14018431 -0.07720095 -0.18004775 0.099904455 -0.07277961 0.15422888
0.0513194 -0.1279188 -0.13547552 -0.1097273 0.07434073 -0.09000128 -0.10243244 -0.14856708
-0.036118202 -0.07384253 -0.08416086 0.15222551 -0.029758707 -0.07935573 -0.03631673 -0.12038366
0.0052502584 0.14887647 -0.073246166 0.024711194 -0.10485875 0.045340266 -0.1043014 -0.16286269
0.10870723 0.10655381 0.09177182 0.049343236 -0.14184652 0.029815981 0.04788136 0.10127225
-0.011567499 -0.11585389 -0.009787473 0.09365769 -0.04877365 -0.010963838 0.0147623485 -0.0071150432
0.031659234 0.15254293 0.07672785 -0.12091036 0.14610611 0.0057208706 -0.046367362 0.04320262
0.021130908 0.035879422 -0.0024340933 0.08312921 -0.09997959 0.10258126 0.061861247 0.08896386
0.043940675 0.024616597 -0.08091337 -0.1678998 0.10241548 -0.08708717 0.058720514 0.013090444
-0.1241163 -0.012760077 0.026957076 0.056574367 -0.006804822 0.037384786 -0.12415307 -0.047424212
0.15405107 0.13077119 -0.076598264 0.13668585 0.1375108 0.01640136 -0.104555264 0.10022405
-0.11178374 0.11688951 0.019788835 -0.13003097 0.096680544 0.12402311 0.08604662 -0.010502338
00000000: 7b30 123e bfca 1dbd 8dc3 f03b 578f 0abe
00000010: c2f4 413d 2880 03be 13bc 32bd 368c d7bd
00000020: c55e bc3d ca82 063e 8dbb b8bd 2bce 953c
00000030: 6906 00be e0cb ff3d d6df b93d 818e f2bd
00000040: a371 1dbe 676c cb3d 9eaa 633c 56ac debd
00000050: f63d 1d3e 89c0 c0bd 0365 44bd d6f4 213e
00000060: 9177 16be 206c bc3d cf18 92bd be9e cabd
00000070: 4dc2 9c3d 800f 53bd 9a53 063d a0a9 fb3d
00000080: 6106 5abc 1686 19be 1558 d23d dab2 fc3d
00000090: c534 d4bd fa2a 043d b9f2 493d 18a4 8b3d
000000a0: 9686 ae3d 37a0 28bd a1ce fcbd 1ace 153e
000000b0: b21f 62bd e33b f13d a873 c6bc 5748 ae3d
000000c0: 431b 0e3e 7d4a 19bd 54c6 21bc f557 c1bc
000000d0: ec84 8f3d 4f36 b03d 385c adbd bf05 90bc
000000e0: c4c7 a9bd 99fb f9bd 5428 873d 2b6e cb3d
000000f0: 0679 b03d 60ad 923d f34c 18bd a3cd 083d
00000100: 7a4c 1d3e 89fa fdbc 4336 b5bd 287c f13d
00000110: 624c af3d 36dc 153c 34f6 04be 86b0 0aba
00000120: 1fde c1bd 94e3 273d a429 17be b699 f4bd
00000130: 1ed5 1cbd ebb7 fd3d 9b55 06be 3994 55bd
00000140: 3cd6 13be 0d0f cf3d 00d0 a9bc c479 853d
00000150: 3605 833d 2c40 b23d beda f9bd d6ae 0abe
00000160: 686d 19be ec74 523e 00d0 443d a394 ad3d
00000170: 082f 863d a5b4 2b3d f1d4 5fbd ba2a 8b3d
00000180: 6782 19be bf84 09be e8da 983d 3af9 acbd
00000190: 8b29 1c3e 77a4 aabd b5a3 963d d86f f6bd
000001a0: 84fd b6bd ed8a 36bd 7d93 ffbd 1f65 12bd
000001b0: d515 563d a8b8 ca3c 6ed2 7abd 56d0 cd3d
000001c0: 242d 8fbc 14ab ba3d 6e23 0fbe 0eca a63b
000001d0: cb3f 233d 0e88 463d b822 0abe 8cc4 cd3c
000001e0: ea5b 4a3d e573 13be 4acc 15be 32aa c53d
000001f0: 6350 14be 41f1 5fbb 810c 11be 32e0 ddbd
00000200: 6f3b 903d 2f2c 203e eac7 213d ff6b 3e3e
00000210: 96f5 0fbe ebba fabd 7776 fbbd 7097 123e
00000220: fa88 3ebd 1ab7 2e3d 846c 973d 44ec 13be
00000230: bae7 ba3d d206 2cbe b645 67bc 08b9 033e
00000240: 2fa1 9b3d 5ed5 1c3e c345 563c 09be 963d
00000250: 375b c0bd 4282 143e e210 87bd 7014 e4bd
00000260: 72d6 d23d 176d 98bd bff5 103e e635 d2bd
00000270: 1c9f c03c 1585 0bbd e82b a13d 3781 b5bc
00000280: 91ce f83d 8920 cbbb 7a8c 0fbe 881b 9ebd
00000290: 705e 38be b59a cc3d 7a0d 95bd 2dee 1d3e
000002a0: 4b34 523d 25fd 02be 18ba 0abe b5b8 e0bd
000002b0: f43f 983d 9752 b8bd 19c8 d1bd f821 18be
000002c0: aef0 13bd c13a 97bd 875c acbd 01e1 1b3e
000002d0: 88c8 f3bc 4285 a2bd dac0 14bd b58b f6bd
000002e0: 5c0a ac3b 1373 183e 1602 96bd 216f ca3c
000002f0: 2fc0 d6bd b7b6 393d f99b d5bd 7ac5 26be
00000300: e5a1 de3d e238 da3d ddf2 bb3d 221c 4a3d
00000310: 3740 11be a540 f43c 3f1f 443d d367 cf3d
00000320: 9b85 3dbc ce44 edbd a35b 20bc 9acf bf3d
00000330: e1c6 47bd aba1 33bc c7dd 713c 4f25 e9bb
00000340: 1dad 013d 3734 1c3e 7e23 9d3d da9f f7bd
00000350: d79c 153e 2476 bb3b b4eb 3dbd 3bf5 303d
00000360: ba1a ad3c 4df6 123d 4f85 1fbb a63f aa3d
00000370: 19c2 ccbd 2016 d23d 3862 7d3d af32 b63d
00000380: 23fb 333d bfa8 c93c e9b5 a5bd eded 2bbe
00000390: 35bf d13d c25a b2bd ec84 703d 4d79 563c
000003a0: b030 febd a40f 51bc 16d5 dc3c 86ba 673d
000003b0: fcfa debb ca20 193d f743 febd e43f 42bd
000003c0: 90bf 1d3e e2e8 053e 8ddf 9cbd 60f7 0b3e
000003d0: a2cf 0c3e 255c 863c 1221 d6bd 4442 cd3d
000003e0: e0ee e4bd c463 ef3d 321c a23c d726 05be
000003f0: 7300 c63d d4ff fd3d 3639 b03d 0012 2cbc

tatic_net.fc1.bias f4 [64]
0.10700223 -0.076861404 0.04427726 0.086375274 0.029646892 0.08548436 -0.0485415 -0.07053296
-0.07569742 0.0017570899 0.051822074 0.10182089 -0.07906787 0.044391032 0.05163803 0.11005932
-0.073936656 0.10812258 0.14897874 0.11092356 0.04126621 0.1162372 -0.09937197 0.13595241
-0.06614859 -0.058097698 -0.064757936 0.00078675395 -0.13828306 0.13146697 -0.092025906 -0.056810144
0.13526219 -0.084865384 0.08834859 -0.040283475 0.002751369 -0.046009842 0.05317036 0.06290886
-0.085792564 -0.09940887 0.05060847 0.14063871 0.07313451 0.1568249 -0.12208454 0.10365791
0.049065907 -0.1183214 -0.13670349 -0.039337516 -0.033021998 0.005658117 -0.026481744 0.018092288
0.15283738 0.044918418 0.059126493 0.07769656 0.016757311 -0.10068492 -0.115924306 -0.08269724
00000000: fc23 db3d 8369 9dbd 125c 353d 85e5 b03d
00000010: 0ade f23c 6d12 af3d 74d3 46bd 9673 90bd
00000020: 4007 9bbd 274e e63a 6243 543d 7987 d03d
00000030: 56ee a1bd 5fd3 353d 6682 533d c866 e13d
00000040: 1a6c 97bd 5f6f dd3d e28d 183e e42b e33d
00000050: c206 293d c50d ee3d 8883 cbbd 1c37 0b3e
00000060: e978 87bd daf7 6dbd cf9f 84bd 2a3e 4e3a
00000070: 139a 0dbe 479f 063e 1478 bcbd c1b1 68bd
00000080: 2c82 0a3e e7cd adbd 1bf0 b43d 4900 25bd
00000090: 5050 343b d174 3cbd 2ac9 593d 5cd6 803d
000000a0: 03b4 afbd e196 cbbd d44a 4f3d 9803 103e
000000b0: 8cc7 953d b596 203e 7607 fabd 994a d43d
000000c0: 55f9 483d 7d52 f2bd 00fc 0bbe 6020 21bd
000000d0: 1342 07bd ba67 b93b 3ef0 d8bc 4736 943c
000000e0: 6781 1c3e 60fc 373d 9f2e 723d 601f 9f3d
000000f0: a146 893c e533 cebd b969 edbd 2c5d a9bd

tatic_net.fc2.weight f4 [6, 64]
0.03327158 0.06379394 -0.060331732 0.070555836 -0.03693074 0.014486164 0.0007377714 0.096286744
0.08066735 -0.091799915 0.10596891 0.09436633 -0.081199035 0.026719213 -0.042753413 0.07638253
-0.11846371 -0.09943552 -0.0087329745 0.032337204 0.11515762 -0.10819121 0.07726784 -0.007641956
-0.012271345 -0.120940104 0.11206341 0.08709952 0.054344997 0.019704685 -0.033255264 -0.0949391
-0.10137758 0.043736026 -0.018960804 0.021045312 0.1176528 0.007873535 0.008558363 -0.1099616
-0.088159636 -0.100393355 -0.010185942 -0.11275542 -0.12141621 -0.050515592 0.012510881 0.059317872
0.04251325 0.062042177 -0.08137803 -0.09879908 -0.0878654 -0.08318259 0.008644283 -0.09719963
-0.015127808 -0.069511205 0.106656015 0.018717855 0.006589979 0.097510636 -0.06446552 0.09349193
-0.05891259 0.111869596 -0.041204955 0.04411119 -0.13564186 0.0017176091 -0.07755885 -0.1371249
-0.05123127 0.104759514 -0.1305483 0.097776994 0.044434175 -0.07103089 0.080815926 -0.032060895
0.032110464 -0.012293612 -0.05044143 -0.09790862 0.020398663 0.031755358 -0.091852896 -0.027752854
0.08293406 -0.023836521 -0.056022223 -0.07370754 0.008263052 0.049746435 -0.048314184 -0.1079037
0.051671907 0.03960291 0.13826883 0.047233447 0.056829866 0.055985037 -0.02143822 0.030566065
-0.04917196 0.08385995 0.08012419 0.0029947115 -0.039916165 -0.10109341 0.013530063 -0.017568355
-0.11315182 0.034117844 0.09500078 -0.12673384 0.04692233 0.0693684 -0.031483635 -0.13169986
-0.030631429 -0.08488068 0.15194592 0.022367029 0.09547056 -0.04289504 0.023552021 -0.014865228
-0.06186186 -0.04953374 0.021891136 0.07049923 0.08312803 -0.044151474 0.049808614 0.03925551
-0.011241619 -0.11118317 -0.014764693 -0.0070943143 0.07838848 -0.02470013 -0.043447524 -0.025669169
-0.12096371 -0.065271616 -0.06043213 -0.083969496 0.06391696 0.13139294 0.061801083 -0.006412354
0.031688526 0.040648177 -0.03652658 -0.007482391 0.11751181 0.022535143 -0.032278232 0.008390587
0.018293789 0.12151218 0.011002905 0.07320688 -0.016443264 0.08970792 -0.07161694 -0.1434307
0.0926498 0.16775602 -0.0758766 0.11068814 -0.03210941 0.018587971 0.08685787 0.117450096
-0.0702783 -0.056323685 0.019787356 0.078720115 -0.080343895 0.123329826 -0.0783917 -0.015752848
-0.13560808 -0.042647902 0.14946759 0.18833776 -0.056667637 0.059782766 0.025811736 0.09458176
-0.029505864 0.093307875 0.03421522 0.09927092 0.015646782 0.0025914705 0.02730372 -0.019276913
-0.02568862 -0.014762608 -0.09939249 -0.08578273 0.018356808 -0.07464749 -0.06287106 0.0060438626
0.07924472 -0.10645701 0.012736559 -0.05556007 -0.06488293 -0.066014335 0.045069944 -0.015875425
0.043371692 -0.05088194 -0.027860126 0.010723208 -0.11355646 0.12956929 -0.047187574 -0.052267965
-0.13034865 0.11004389 0.12086934 -0.035864104 0.050610133 -0.048836548 -0.011598272 0.02953979
0.09134843 0.04521201 -0.06271233 -0.06438476 -0.05565931 0.09679381 0.09148039 -0.03321338
-0.092687115 0.17398196 0.052206594 -0.09663602 -0.032710183 0.044298857 -0.08344713 -0.05501391
-0.12489195 0.083432145 0.14232905 0.024226667 -0.09222412 -0.06630915 0.00214081 -0.042775545
00000000: c847 083d 66a6 823d 681e 77bd 947f 903d
00000010: b044 17bd 6057 6d3c 0067 413a fc31 c53d
00000020: ec34 a53d 9801 bcbd 3a06 d93d 2243 c13d
00000030: ae4b a6bd 40e2 da3c 341e 2fbd 726e 9c3d
00000040: 1a9d f2bd daa4 cbbd c014 0fbc 0474 043d
00000050: c2d7 eb3d 5a93 ddbd 9a3e 9e3d 6069 fabb
00000060: c00d 49bc 72af f7bd 8081 e53d 3c61 b23d
00000070: dc98 5e3d b86b a13c ac36 08bd 6e6f c2bd
00000080: 0c9f cfbd 8c24 333d b053 9bbc 3867 ac3c
00000090: f4f3 f03d 0000 013c 6038 0c3c 8c33 e1bd
000000a0: 0a8d b4bd 089b cdbd f0e2 26bc 50ec e6bd
000000b0: 10a9 f8bd 70e9 4ebd 70fa 4c3c 4cf7 723d
000000c0: 6022 2e3d f01f 7e3d 86a9 a6bd 2c57 cabd
000000d0: c6f2 b3bd a25b aabd c0a0 0d3c 9a10 c7bd
000000e0: a0da 77bc e45b 8ebd 786e da3d 3056 993c
000000f0: c0f0 d73b a8b3 c73d 8006 84bd b278 bf3d
00000100: 544e 71bd e31b e53d 87c6 28bd efad 343d
00000110: b3e5 0abe 6621 e13a 2dd7 9ebd 786a 0cbe
00000120: e1d7 51bd 288c d63d 74ae 05be 4e3f c83d
00000130: 9c00 363d a578 91bd d282 a53d 4952 03bd
00000140: 4386 033d 256b 49bc ac9b 4ebd 5184 c8bd
00000150: 191b a73c e811 023d 5f1d bcbd f459 e3bc
00000160: 55d9 a93d cf44 c3bc 8f77 65bd fbf3 96bd
00000170: c161 073c ebc2 4b3d 18e5 45bd 9dfc dcbd
00000180: eca5 533d a936 223d 5896 0d3e dc77 413d
00000190: 6fc6 683d 9150 653d 359f afbc af65 fa3c
000001a0: 8a68 49bd c4be ab3d 2718 a43d ec42 443b
000001b0: 227f 23bd 100a cfbd 33ad 5d3c 83eb 8fbc
000001c0: 24bc e7bd 27bf 0b3d c58f c23d 84c6 01be
000001d0: a131 403d 0511 8e3d fcf4 00bd 54dc 06be
000001e0: c3ee fabc ecd5 adbd b697 1b3e 0f3b b73c
000001f0: 1286 c33d b6b2 2fbd 2bf0 c03c 498d 73bc
00000200: dd62 7dbd e4e3 4abd 0a55 b33c e661 903d
00000210: 073f aa3d 2dd8 34bd 1e04 4c3d 63ca 203d
00000220: c42e 38bc 00b4 e3bd 9ce7 71bc 6c77 e8bb
00000230: 248a a03d ed57 cabc 08f6 31bd 2648 d2bc
00000240: d2bb f7bd 20ad 85bd ae87 77bd 33f8 abbd
00000250: e5e6 823d df8b 063e 2223 7d3d b91e d2bb
00000260: d4cb 013d b47e 263d e59c 15bd d82e f5bb
00000270: 08aa f03d 9f9b b83c 2e36 04bd ac78 093c
00000280: dbdc 953c 61db f83d 8745 343c 7ded 953d
00000290: 06b4 86bc c9b8 b73d e7ab 92bd 7fdf 12be
000002a0: 2ebf bd3d 3cc8 2b3e 3165 9bbd 77b0 e23d
000002b0: 2885 03bd cd45 983c 8ae2 b13d ad89 f03d
000002c0: 12ee 8fbd aab3 66bd 1819 a23c 0338 a13d
000002d0: 578b a4bd 5994 fc3d d48b a0bd 1e0c 81bc
000002e0: d8dc 0abe 91af 2ebd 080e 193e 9ddb 403e
000002f0: 531c 68bd c6de 743d 2273 d33c 15b4 c13d
00000300: 48b6 f1bc 3318 bf3d 4225 0c3d 8d4e cb3d
00000310: ae2d 803c a9d5 293b 0dac df3c 9eea 9dbc
00000320: f170 d2bc dede 71bc 4a8e cbbd dbae afbd
00000330: 0461 963c c9e0 98bd 8bc2 80bd 980b c63b
00000340: 0e4b a23d 2206 dabd 00ad 503c f592 63bd
00000350: 57e1 84bd 8632 87bd 439b 383d 2e0d 82bc
00000360: 84a6 313d 9569 50bd eb3a e4bc 65b0 2f3c
00000370: 4a90 e8bd d0ad 043e c247 41bd ef16 56bd
00000380: 1e7a 05be b15e e13d 588a f73d 3de6 12bd
00000390: 924c 4f3d d508 48bd ae06 3ebc 6efd f13c
000003a0: e314 bb3d 3b30 393d 526f 80bd 28dc 83bd
000003b0: 04fb 63bd d53b c63d 125a bb3d c10a 08bd
000003c0: bed2 bdbd 5428 323e 95d6 553d 1be9 c5bd
000003d0: 1dfb 05bd b872 353d 54e6 aabd 4456 61bd
000003e0: 5ac7 ffbd 79de aa3d b5be 113e 0177 c63c
000003f0: 00e0 bcbd 17cd 87bd d54c 0c3b 6935 2fbd

tatic_net.fc2.bias f4 [6]
0.056085363 -0.11592973 0.017672835 0.009518095 0.03386128 -0.09031475
00000000: c4b9 653d 916c edbd 9fc6 903c c9f1 1b3c
00000010: 20b2 0a3d f1f6 b8bd

tatic_net.fc3.weight f4 [6, 3]
-0.35377002 0.3725044 -0.41826627 0.108434185 0.39977586 -0.066494346 0.26883855 -0.13354525
-0.2526613 0.3274893 -0.19951491 -0.5994441 -0.24778892 -0.51990813 0.5630061 0.6097904
0.47182518 -0.0009867239
00000000: 5821 b5be e6b8 be3e ff26 d6be be12 de3d
00000010: 6caf cc3e 302e 88bd 35a5 893e 16c0 08be
00000020: d25c 81be adac a73e a34d 4cbe 2b75 19bf
00000030: 61bc 7dbe b318 05bf 2b21 103f 391b 1c3f
00000040: 1293 f13e f654 81ba

tatic_net.fc3.bias f4 [6]
0.35867542 0.5039682 0.12746523 0.34497085 -0.09128452 -0.07689868
00000000: 4ea4 b73e 0f04 013f 3f86 023e 05a0 b03e
00000010: 61f3 babd 0e7d 9dbd

tatic_net.fc4.weight f4 [3, 9]
0.2940942 0.38352257 0.087064154 0.27452594 0.44835088 0.37593055 -0.102539755 0.37014696
-0.12308713 0.03514172 0.002164563 -0.1302376 0.21601225 -0.2136447 0.24587372 0.2287871
0.18505093 0.43065172 0.08609052 -0.039820917 0.29589638 -0.22550951 0.030236501 0.10709576
-0.08202115 0.11036121 0.07031425
00000000: 8493 963e 125d c43e b14e b23d aa8e 8c3e
00000010: 3f8e e53e f879 c03e 5d00 d2bd e783 bd3e
00000020: 1b15 fcbd c4f0 0f3d 57db 0d3b 015d 05be
00000030: 5132 5d3e adc5 5abe 52c6 7b3e 2a47 6a3e
00000040: fe7d 3d3e 627e dc3e 3a50 b03d 421b 23bd
00000050: bb7f 973e f7eb 66be 8ab2 f73c 0655 db3d
00000060: b4fa a7bd 0f05 e23d eb00 903d

tatic_net.fc4.bias f4 [3]
-0.17296846 -0.1955895 -0.056285888
00000000: a51e 31be 9d48 48be 088c 66bd

fc1.weight f4 [256, 108]
-0.00042612173 -0.01984344 0.07989095 0.07142171 -0.05286574 0.051901095 0.022610558 -0.036613613
0.07365626 0.01725603 -0.06189372 0.061341684 -0.040421683 -0.08867647 0.022289947 0.0618226
0.027318312 -0.090130754 -0.018666511 0.0076345736 -0.024029156 -0.083913274 0.06032764 0.06280821
0.056885216 0.08067247 -0.05639079 0.02611629 -0.03471761 0.06113028 -0.07923031 0.08814726
-0.0029472003 -0.08801551 0.015194861 0.08502066 -0.061632674 0.071926944 -0.08263041 -0.029078491
-0.08597196 -0.022819214 -0.02113127 -0.059526548 0.0040416177 0.07460475 -0.09529268 0.07318973
0.07134972 0.06724305 -0.003980558 -0.007651078 -0.05356671 0.03230695 0.049536053 0.085349895
-0.07812788 0.012293568 0.045684073 -0.017944362 -0.057143245 -0.036339127 0.050631743 0.06074805
0.050564237 -0.09090362 0.066310525 0.028116027 0.027005916 0.047767628 -0.003941614 -0.04047642
-0.094832785 -0.08239806 -0.06920416 -0.06736541 -0.080283396 0.003238812 -0.06363883 0.004543895
0.06691748 0.07392999 -0.062252987 -0.08179898 -0.018347312 -0.092620134 -0.039060764 -0.08149765
0.020021647 -0.05388807 -0.03925749 0.07645635 -0.039736606 0.09496803 0.062647246 -0.11088136
-0.02816978 -0.031411413 0.044199448 -0.093118034 -0.0031019545 0.0614672 0.05084124 0.028461244
-0.08383974 -0.0061199074 0.059629407 -0.0540789 -0.042392813 -0.046675906 -0.052631848 0.3702377
0.23232308 0.23240386 -0.0025123034 0.068354465 -0.0044646193 0.40594357 0.28091773 0.25793132
-0.04313078 -0.028361022 -0.07008427 0.2823776 0.28774568 0.14066309 0.0026656121 0.015274172
-0.047808003 -0.0610425 -0.049019117 0.013899163 -0.06960181 0.06199894 0.06647843 0.035610117
-0.004584261 0.19569051 0.06756273 -0.064389296 0.05157876 0.07199719 0.0028519917 0.21509281
-0.01614322 0.060192008 -0.05441828 0.34953487 0.340928 0.1837682 0.0015772858 0.021445766
0.07773557 0.36830336 0.22866803 0.1074735 -0.0055269874 -0.014355339 0.03396781 0.2877279
0.27350166 0.094190545 -0.05871414 -0.060501024 -0.01770199 0.04424032 0.072930954 0.0024994442
0.043342296 -0.09100493 -0.008046907 -0.06362606 -0.036676876 0.117758706 -0.03142275 0.00087913126
0.09355853 -0.02837396 -0.09571153 0.16445407 0.0514245 -0.041746 -0.05204861 0.27540323
0.3075582 0.11677379 0.008407427 -0.016303595 0.061090298 0.4306494 0.28073218 0.10548965
-0.039795086 0.06502094 0.01960848 0.36548334 0.27354994 0.24110082 -0.058208685 -0.07189971
0.057267178 -7.9516416e-05 0.0427807 0.09509602 0.019218057 -0.017171174 0.004989896 0.086701244
-0.06603382 0.15600416 -0.011855368 0.031666137 0.035927698 0.029492857 0.071559094 0.110444844
0.063563265 0.018646656 -0.075109035 -0.035947584 -0.016096808 -0.03866457 0.06990374 -0.08302858
0.09367324 0.069755845 0.013194658 0.071265854 0.057192694 0.03257117 -0.036473166 0.05386621
0.06916889 0.030310942 -0.013161343 -0.07497658 -0.059882052 0.047985666 0.08734724 0.05254572
0.092453085 -0.036411542 0.050786622 0.040335387 0.010925133 -0.1057807 0.07150884 -0.003189661
-0.06139546 -0.05447557 -0.092409335 -0.08074751 0.06826465 0.016944876 0.07146597 -0.045292407
00000000: 1769 dfb9 b68e a2bc de9d a33d 8c45 923d
00000010: bf89 58bd 3e96 543d c739 b93c 28f8 15bd
00000020: 18d9 963d 855c 8d3c 4584 7dbd 6b41 7b3d
00000030: 3591 25bd 029c b5bd 6899 b63c b239 7d3d
00000040: a7ca df3c 7996 b8bd 83ea 98bc 722b fa3b
00000050: cbd8 c4bc b9da abbd 1e1a 773d 97a1 803d
00000060: 7900 693d 9c37 a53d 07fa 66bd d4f1 d53c
00000070: 0d34 0ebd bf63 7a3d 8043 a2bd 8d86 b43d
00000080: d125 41bb 7a41 b4bd def3 783c 501f ae3d
00000090: 8b72 7cbd 6f4e 933d 223a a9bd 0436 eebc
000000a0: 1112 b0bd 5cef babc 7c1b adbc 1cd2 73bd
000000b0: 8c6f 843b 60ca 983d cf28 c3bd 7fe4 953d
000000c0: cd1f 923d b9b6 893d 576f 82bb e5b5 fabb
000000d0: c468 5bbd 4b54 043d 51e6 4a3d edcb ae3d
000000e0: 8301 a0bd f66a 493c 391f 3b3d 0e00 93bc
000000f0: 090f 6abd 56d8 14bd 3b63 4f3d f3d2 783d
00000100: 721c 4f3d ad2b babd d0cd 873d 9553 e63c
00000110: 833b dd3c fda7 433d a828 81bb 9aca 25bd
00000120: b137 c2bd 50c0 a8bd e9ba 8dbd e0f6 89bd
00000130: 9f6b a4bd 4042 543b 1355 82bd f4e4 943b
00000140: 080c 893d 9b68 973d fdfc 7ebd 3986 a7bd
00000150: 1a4d 96bc a0af bdbd 2efe 1fbd 3de8 a6bd
00000160: 7004 a43c bdb9 5cbd 76cc 20bd 2695 9c3d
00000170: dac2 22bd 997e c23d 334d 803d c415 e3bd
00000180: 4fc4 e6bc 41a9 00bd 7b0a 353d abb4 bebd
00000190: 294a 4bbb 08c5 7b3d e73e 503d 8e27 e93c
000001a0: 2bb4 abbd 8189 c8bb f73d 743d d681 5dbd
000001b0: 16a4 2dbd 3c2f 3fbd 7e94 57bd cc8f bd3e
000001c0: 1ae6 6d3e 47fb 6d3e 75a5 24bb 6dfd 8b3d
000001d0: f14b 92bb d6d7 cf3e 73d4 8f3e 930f 843e
000001e0: e7a9 30bd 6055 e8bc 5788 8fbd cc93 903e
000001f0: 6753 933e fc09 103e 8db1 2e3b 8540 7a3c
00000200: 53d2 43bd b307 7abd 45c8 48bd 51b9 633c
00000210: 658b 8ebd 9af2 7d3d d825 883d eadb 113d
00000220: 9237 96bb 1863 483e 545e 8a3d 89de 83bd
00000230: 4044 533d 4373 933d 7be8 3a3b 4a41 5c3e
00000240: c93e 84bc e58b 763d b4e5 5ebd 3cf6 b23e
00000250: 1d8e ae3e bb2d 3c3e eebc ce3a 08af af3c
00000260: d433 9f3d 4292 bc3e f427 6a3e 111b dc3d
00000270: bb1b b5bb a832 6bbc d521 0b3d 1251 933e
00000280: 6908 8c3e f9e6 c03d 3d7e 70bd eccf 77bd
00000290: c403 91bc 5635 353d d35c 953d b7cd 233b
000002a0: b187 313d cb60 babd 2dd7 03bc 614e 82bd
000002b0: 7e3a 16bd 7a2b f13d 24b5 00bd 8075 663a
000002c0: 9d9b bf3d 8270 e8bc 6804 c4bd a666 283e
000002d0: 7fa2 523d dbfd 2abd ec30 55bd a701 8d3e
000002e0: 4578 9d3e 1927 ef3d 4ebf 093c 1e8f 85bc
000002f0: d239 7a3d 147e dc3e 21bc 8f3e f50a d83d
00000300: 2c00 23bd b329 853d f7a1 a03c a220 bb3e
00000310: bd0e 8c3e 22e3 763e 3b6c 6ebd 2840 93bd
00000320: fd90 6a3d 0dc2 a6b8 d13a 2f3d b4c1 c23d
00000330: 306f 9d3c 90aa 8cbc 4882 a33b 6c90 b13d
00000340: bd3c 87bd 8ebf 1f3e 043d 42bc 5ab4 013d
00000350: ec28 133d 019b f13c 938d 923d e830 e23d
00000360: 752d 823d dfc0 983c c4d2 99bd c63d 13bd
00000370: 74dd 83bc bd5e 1ebd b129 8f3d e30a aabd
00000380: c1d7 bf3d 27dc 8e3d 682e 583c d5f3 913d
00000390: e342 6a3d 5969 053d e364 15bd d1a2 5c3d
000003a0: 6ba8 8d3d a74e f83c aca2 57bc 528d 99bd
000003b0: e246 75bd 9e8c 443d 1ce3 b23d 2e3a 573d
000003c0: 0b58 bd3d 4524 15bd a205 503d b836 253d
000003d0: 54ff 323c 8da3 d8bd 3a73 923d a209 51bb
000003e0: ce79 7bbd c621 5fbd 1b41 bdbd f35e a5bd
000003f0: 56ce 8b3d fbcf 8a3c c05c 923d 8884 39bd

fc1.bias f4 [256]
-0.10973001 0.3018574 -0.006738685 0.13722938 0.6097791 0.32628927 0.056656707 0.30804303
0.18809442 0.8820888 0.93959296 1.0312582 -0.015303809 0.35662436 0.9098402 1.1013908
0.92563325 0.37487876 1.1256561 -0.0063761035 0.9864707 -0.063334346 0.9879038 0.8927576
0.5143687 1.0417011 0.9120562 0.23305044 0.8080363 0.93722886 -0.0004123721 1.116518
-0.0088629145 0.9941231 -0.08485503 0.29741946 0.9830573 0.25407994 -0.018371062 0.9017224
0.26749185 0.945388 -0.09361748 0.93685824 0.8318535 0.97552437 0.5578211 1.0942842
-0.12522744 0.88538796 -0.029738422 -0.00025723537 0.92899257 0.23602982 0.9842999 0.9368855
0.69835263 1.0192819 1.0094786 -0.0032002816 1.0207816 1.0067235 1.1056478 0.94273055
0.24925293 1.0059737 -0.019682273 0.9952161 0.9871276 -0.05719874 -0.026788391 0.14184126
0.9938592 0.9610922 -0.014414293 1.0039425 0.96916187 0.86270356 -0.00561969 0.9973158
1.0038003 -0.087805755 1.0902194 0.9023954 0.9521181 1.0469052 0.96070474 0.8266701
0.9866353 1.0183048 0.33397624 0.84371626 0.16075754 0.9670969 0.95300066 -0.00064596464
0.96302444 0.9949082 0.90164274 -0.095135644 1.1039634 -0.0029534062 1.0187768 0.12968633
-0.062925935 -0.00059380796 -0.003289917 -0.0014092933 1.0007315 0.79371643 -0.031162284 -0.032985788
0.9943339 1.0340914 1.0104798 0.8366342 -0.08537103 0.9211868 1.0342624 0.9034048
1.0421426 -0.05744539 1.1073166 0.9272101 0.9900979 -0.02811564 1.0586022 0.9365093
1.0747344 -0.096836165 0.9314737 1.0288612 1.0112776 -0.009433038 -0.0740974 -0.00011839476
-0.08843682 1.1243664 1.0278987 -0.09515549 0.85875094 -0.10182956 0.96792024 0.22110832
0.97926164 0.53550816 0.26143572 0.6338706 0.18918687 0.9550294 -0.00991383 0.989817
1.0871322 -0.091757305 0.84316105 1.0029385 0.9652033 1.0076213 -0.02513384 0.24120323
0.94975483 0.65320575 0.94166213 0.28466538 1.0296808 -0.00043911455 0.31645277 0.2828837
0.9684264 1.097861 1.0302233 0.92643934 1.0995773 1.0216148 1.0013161 0.90204364
-0.058566425 -0.09423609 0.26694793 -0.06979802 0.94888896 0.9635839 0.074270755 -0.09229901
0.9428311 -0.06264338 0.9196091 1.0588002 0.9868345 -0.093536 0.20839839 -0.08392898
-0.078366876 0.93239063 -0.08907489 0.7332744 1.0245897 0.4099321 1.011771 0.9098477
0.042885736 0.9741107 1.0224075 -0.08963589 -0.09208491 0.2569573 0.9438409 0.8832484
0.94753927 0.97480214 -0.0052065533 0.14228351 0.86574894 0.9143546 1.1088343 1.0313394
0.93193793 0.18644269 0.9610238 0.98260254 0.91061616 0.96345705 -0.082294114 0.8728999
0.95628744 0.8848942 1.0597106 -0.0094567835 0.8024933 0.30406028 1.0859779 -0.0202004
-0.061455574 0.3032625 1.050923 0.7484601 -0.05451793 -0.05612772 -0.004205458 0.93854034
0.9714133 0.61573374 0.9324555 0.34066376 0.97492445 1.1208442 1.0396872 1.0697151
0.98902893 0.97459686 0.77124184 -0.04683023 -0.03025082 0.37996262 0.30061796 1.0091498
00000000: 21ba e0bd 0e8d 9a3e 30d0 dcbb dc85 0c3e
00000010: 7c1a 1c3f 630f a73e dd10 683d d1b7 9d3e
00000020: d39b 403e 92d0 613f 2a89 703f 4500 843f
00000030: d4bc 7abc 7897 b63e 4aeb 683f 60fa 8c3f
00000040: 4df6 6c3f 1cf0 bf3e 8015 903f a2ee d0bb
00000050: 5889 7c3f 70b5 81bd 43e7 7c3f c38b 643f
00000060: abad 033f 7656 853f 847c 693f c6a4 6e3e
00000070: 78db 4e3f 3bee 6f3f a533 d8b9 10ea 8e3f
00000080: c235 11bc da7e 7e3f 79c8 adbd 5d47 983e
00000090: a5a9 7b3f c416 823e e97e 96bc 47d7 663f
000000a0: b1f4 883e f304 723f 85ba bfbd f1d5 6f3f
000000b0: 5af4 543f f7bb 793f 5dcd 0e3f 8111 8c3f
000000c0: 9f3b 00be c9a8 623f fe9d f3bc 8cdd 86b9
000000d0: 75d2 6d3f cdb1 713e 14fb 7b3f bad7 6f3f
000000e0: 3dc7 323f d477 823f 9836 813f d1bb 51bb
000000f0: f9a8 823f 51dc 803f de85 8d3f ca56 713f
00000100: 293c 7f3e bfc3 803f b83c a1bc 7bc6 7e3f
00000110: 65b4 7c3f 3a49 6abd 5473 dbbc d63e 113e
00000120: 8e6d 7e3f 230a 763f ed29 6cbc 3081 803f
00000130: fe1a 783f 24da 5c3f 6025 b8bb 1750 7f3f
00000140: 877c 803f 81d3 b3bd 4f8c 8b3f 6303 673f
00000150: 03be 733f fd00 863f bff0 753f a7a0 533f
00000160: 2294 7c3f d057 823f effe aa3e cafd 573f
00000170: a09d 243e aa93 773f daf7 733f f455 29ba
00000180: c588 763f 4eb2 7e3f 0fd2 663f 7ad6 c2bd
00000190: ac4e 8d3f ef8d 41bb 4767 823f 7ecc 043e
000001a0: 50df 80bd c7a9 1bba a69b 57bb 09b8 b8ba
000001b0: f817 803f 0031 4b3f 0c48 ffbc 1b1c 07bd
000001c0: ab8c 7e3f 1b5d 843f 6757 813f a92d 563f
000001d0: 02d7 aebd e6d2 6b3f b662 843f 8945 673f
000001e0: ee64 853f db4b 6bbd 8dbc 8d3f a45d 6d3f
000001f0: 0e77 7d3f c552 e6bc 4780 873f 13bf 6f3f
00000200: e690 893f 0a52 c6bd 0f75 6e3f b9b1 833f
00000210: 8b71 813f 078d 1abc 61c0 97bd b44a f8b8
00000220: 5d1e b5bd 3deb 8f3f 2f92 833f e2e0 c2bd
00000230: 1ad7 5b3f 048c d0bd 9fc9 773f 386a 623e
00000240: e4b0 7a3f 1017 093f e7da 853e 5845 223f
00000250: 34ba 413e cf7c 743f 9e6d 22bc a664 7d3f
00000260: 2627 8b3f 41eb bbbd 67d9 573f 4a60 803f
00000270: 9017 773f bcf9 803f 7ce5 cdbc fbfd 763e
00000280: 2223 733f 7e38 273f c510 713f a9bf 913e
00000290: 95cc 833f f538 e6b9 1906 a23e 22d6 903e
000002a0: cbea 773f b686 8c3f 5bde 833f 212b 6d3f
000002b0: f3be 8c3f 46c4 823f 202b 803f 55ec 663f
000002c0: 59e3 6fbd dafe c0bd 66ad 883e 44f2 8ebd
000002d0: 63ea 723f 6fad 763f 441b 983d 4307 bdbd
000002e0: 615d 713f 2c4b 80bd 816b 6b3f c486 873f
000002f0: 30a1 7c3f cd8f bfbd 6366 553e f5e2 abbd
00000300: d07e a0bd 27b1 6e3f e56c b6bd dfb7 3b3f
00000310: c125 833f 9fe2 d13e b681 813f c7eb 683f
00000320: f4a8 2f3d 525f 793f 40de 823f 0693 b7bd
00000330: 0397 bcbd e88f 833e 8f9f 713f 911c 623f
00000340: ef91 723f a28c 793f bc9b aabb c5b2 113e
00000350: b9a1 5d3f 2513 6a3f 48ee 8d3f ee02 843f
00000360: 7c93 6e3f d5ea 3e3e a805 763f d78b 7b3f
00000370: 241e 693f 1fa5 763f d189 a8bd 5e76 5f3f
00000380: 41cf 743f 6d88 623f 99a4 873f a0f0 1abc
00000390: 3370 4d3f caad 9b3e 5301 8b3f 4f7b a5bc
000003a0: d7b8 7bbd 3945 9b3e a584 863f 159b 3f3f
000003b0: 314e 5fbd 2ee6 65bd f0cd 89bb 2e44 703f
000003c0: 8bae 783f baa0 1d3f 67b5 6e3f 7b6b ae3e
000003d0: a694 793f d377 8f3f 7814 853f 6dec 883f
000003e0: 0031 7d3f 2e7f 793f 1b70 453f 0ed1 3fbd
000003f0: 91d0 f7bc 768a c23e 99ea 993e d22b 813f

fc2.weight f4 [1, 256]
0.00074936583 -0.3808637 -0.048761606 -0.24522763 0.84655213 -0.3198508 -0.14069144 -0.3498814
-0.30831984 1.085088 1.0615898 0.9901124 -0.04603731 -0.3820143 1.0594376 0.9943857
1.1031417 -0.33665153 0.99938303 -0.032093775 1.1000264 -0.03880699 0.99383587 1.11033
0.548092 1.109581 1.1027852 -0.27548963 0.94164276 1.0215036 -0.011043663 1.0099512
-0.035236895 1.0934546 -0.05334013 -0.33429036 1.1061286 -0.34117964 -0.04625152 1.0777676
-0.30889028 1.0405012 -0.0014193146 0.9693374 1.0775894 1.0450267 0.75206053 1.0013175
-0.03959903 1.0443457 -0.17514215 0.006370552 1.0213852 -0.4072745 1.1126654 1.0443023
0.7997191 1.0749402 1.0200684 -0.0390421 1.073626 1.0172839 1.0438694 1.0219369
-0.24566653 1.0611668 -0.017513676 1.0622245 1.0316023 -0.055539608 -0.17730631 -0.18067148
1.0761154 1.1263086 -0.047217723 1.080899 1.0837712 1.0756495 0.047252093 1.0965976
1.0673318 0.037141673 1.0138651 1.0302662 0.9472325 1.02741 1.060554 0.90165174
1.0826408 1.1152802 0.32528308 1.0641857 -0.28117618 1.0971252 1.0509142 -0.04682232
1.0130409 1.1100465 1.0762141 -0.017672503 1.065923 0.04412234 1.0694194 -0.23234257
-0.051316097 -0.0033691323 -0.04317356 -0.068513416 1.0749009 0.84032786 -0.013318475 0.0017973408
1.0442365 1.0158619 1.0280612 1.0965784 -0.016974106 1.0441269 1.0324469 1.0437174
1.0905966 0.04906428 1.0480306 1.0491804 1.029237 -0.015319116 1.0836908 1.0404038
0.99505746 -0.045669638 1.1277128 1.0202541 1.094846 -0.02131157 0.048635818 0.0015586297
-0.04710758 0.9956918 1.1221001 -0.055640556 1.0913206 -0.04854974 1.0084449 0.17632483
1.0561177 0.64622635 -0.2936939 0.8243353 -0.25089505 1.0843102 -0.021521598 1.043821
1.0120609 0.042358987 0.82841986 1.0721822 1.1061352 1.0221765 -0.023796426 -0.3654357
1.0663422 0.7308312 1.0101427 -0.28353453 1.0165539 -0.008554815 -0.36326382 -0.31340674
1.0168017 1.0258949 1.0262053 1.0410628 1.009158 0.9972919 1.0509956 1.0762972
-0.007566928 -0.038751453 -0.3507969 0.035051182 1.0632802 1.1195098 -0.1797176 -0.03810595
1.0460656 0.022019364 1.1168519 1.0425413 0.9867406 0.0075770244 -0.30617803 -0.06947311
-0.0115794875 1.0921834 -0.053608507 0.91847175 1.0966054 0.40987745 1.0602063 1.0260549
-0.09421914 1.0891554 1.0773064 -0.0010519387 -0.07984661 -0.25207415 0.9549488 1.1034486
1.0341989 1.0083845 -0.031873982 -0.18852437 1.0484533 1.065508 1.0186161 1.0440109
0.9560998 -0.29992145 1.0459622 1.0087832 1.0891018 1.0181626 -0.024160432 1.0557437
1.0743849 1.0497426 1.0535693 -0.022875628 0.7914256 -0.43078828 1.0532802 -0.04684032
0.043033145 -0.3502153 1.03016 0.9231288 -0.0389395 -0.01836099 -0.029630471 1.0739381
1.0649844 0.6748199 1.0850601 -0.3063542 1.0776161 0.99452704 0.9948662 1.0643884
1.1077586 1.0728484 0.8701284 -0.12986669 -0.029547067 -0.4012088 -0.34361678 1.0961915
00000000: 1771 443a 9100 c3be 40ba 47bd f41c 7bbe
00000010: a4b7 583f 7cc3 a3be 6b11 10be a823 b3be
00000020: 19dc 9dbe 2ae4 8a3f 2de2 873f 0278 7d3f
00000030: 9e91 3cbd 6197 c3be a79b 873f 1090 7e3f
00000040: bf33 8d3f 975d acbe 91d7 7f3f c374 03bd
00000050: aacd 8c3f 14f4 1ebd 076c 7e3f 4b1f 8e3f
00000060: c24f 0c3f c006 8e3f 1128 8d3f fa0c 8dbe
00000070: 800f 713f a1c0 823f 7bf0 34bc 1546 813f
00000080: 9054 10bd 52f6 8b3f 2e7b 5abd 1b28 abbe
00000090: 9f95 8d3f 19af aebe 3c72 3dbd 4af4 893f
000000a0: de26 9ebe 252f 853f 4c08 baba 7f26 783f
000000b0: 73ee 893f 6fc3 853f 0a87 403f 2c2b 803f
000000c0: 9832 22bd 1fad 853f 7758 33be 10c0 d03b
000000d0: c0bc 823f 4986 d0be d26b 8e3f b3ab 853f
000000e0: 64ba 4c3f a497 893f 9a91 823f 9cea 1fbd
000000f0: 946c 893f 5c36 823f 839d 853f d4ce 823f
00000100: 0290 7bbe 50d4 873f d778 8fbc f9f6 873f
00000110: 8b0b 843f 807d 63bd c98f 35be f201 39be
00000120: 26be 893f e12a 903f 5f67 41bd e65a 8a3f
00000130: 04b9 8a3f e2ae 893f 698b 413d 4f5d 8c3f
00000140: 549e 883f de21 183d 55c6 813f c3df 833f
00000150: d47d 723f 2c82 833f 3cc0 873f a6d2 663f
00000160: f993 8a3f 80c1 8e3f 818b a63e 3d37 883f
00000170: 53f6 8fbe 996e 8c3f 5b84 863f c3c8 3fbd
00000180: 53ab 813f 0116 8e3f 62c1 893f edc5 90bc
00000190: 2a70 883f a0b9 343d bce2 883f 36eb 6dbe
000001a0: d430 52bd a9cc 5cbb c2d6 30bd c350 8cbd
000001b0: 5a96 893f ba1f 573f bc35 5abc c094 eb3a
000001c0: 8ba9 853f c307 823f 8297 833f ae5c 8c3f
000001d0: 480d 8bbc f3a5 853f 3827 843f 8898 853f
000001e0: ab98 8b3f a0f7 483d de25 863f 8b4b 863f
000001f0: 0abe 833f 08fd 7abc 61b6 8a3f f42b 853f
00000200: 16bc 7e3f 1610 3bbd e558 903f b097 823f
00000210: ea23 8c3f 9a95 aebc 5a36 473d ef4a cc3a
00000220: e1f3 40bd a8e5 7e3f faa0 8f3f 5ae7 63bd
00000230: 65b0 8b3f 18dc 46bd b914 813f 7f8e 343e
00000240: dd2e 873f 176f 253f 0c5f 96be a307 533f
00000250: 5175 80be adca 8a3f 104e b0bc ed9b 853f
00000260: 368b 813f 9e80 2d3d 5313 543f 443d 893f
00000270: d795 8d3f aed6 823f b9f0 c2bc 631a bbbe
00000280: e77d 883f c117 3b3f 5b4c 813f 702b 91be
00000290: 701e 823f 7f29 0cbc b7fd b9be d976 a0be
000002a0: 8f26 823f 8650 833f b25a 833f 8c41 853f
000002b0: 172c 813f 864e 7f3f 0687 863f 1bc4 893f
000002c0: fef3 f7bb d8b9 1ebd a79b b3be d491 0f3d
000002d0: 9119 883f 194c 8f3f e407 38be fc14 1cbd
000002e0: 7ae5 853f f461 b43c 01f5 8e3f fe71 853f
000002f0: 089b 7c3f b048 f83b 5ec3 9cbe eb47 8ebd
00000300: e4b7 3dbc aacc 8b3f 9894 5bbd f720 6b3f
00000310: 915d 8c3f 75db d13e d7b4 873f c455 833f
00000320: f7f5 c0bd 7269 8b3f 2de5 893f 35e1 89ba
00000330: 9f86 a3bd dd0f 81be 8677 743f ce3d 8d3f
00000340: a160 843f be12 813f 4b8e 02bd 880c 41be
00000350: b833 863f 9162 883f 0362 823f 26a2 853f
00000360: f5c2 743f 4e8f 99be 17e2 853f cf1f 813f
00000370: b067 8b3f 2753 823f 19ec c5bc 9c22 873f
00000380: 7285 893f f75d 863f 5cdb 863f ab65 bbbc
00000390: de9a 4a3f 4890 dcbe e3d1 863f a3db 3fbd
000003a0: 8643 303d 6b4f b3be 48dc 833f 2b52 6c3f
000003b0: 067f 1fbd c969 96bc 9abb f2bc ce76 893f
000003c0: 6951 883f ffc0 2c3f 40e3 8a3f 75da 9cbe
000003d0: 53ef 893f 5399 7e3f 8daf 7e3f e13d 883f
000003e0: 09cb 8d3f 1953 893f bcc0 5e3f c6fb 04be
000003f0: b10c f2bc 3d6b cdbe 8aee afbe 0150 8c3f
