model_epoch_200.pth (torch, 141254 bytes, 15 tensors)

target_net.fc1.weight f4 [64, 36]
00000000: 80ed cc3d f01b 663d d651 3b3c 2c29 2b3d
00000010: 0fd3 8f3d 9fbf 583d 8b27 e7bc 2bff e53d
00000020: dbd5 563d 3853 bd3d c23a 16bd 2cac bbbd
00000030: 0b2b f1bd 9b9e b33d 0095 4ebd 3328 033e
00000040: 5fa2 f93d 00b6 a1bd e0d0 16bd cecc 8bbd
00000050: 9825 27be 9027 193d 8e69 ca3d 4f82 c8bd
00000060: 0037 fe3c a0be ecbc 86b0 a3bd 6b0f 1a3c
00000070: f02f fb3d 6ad5 2bbe 234b 193e 665b 77bd
00000080: b6f9 0b3d 0003 243c 0bfc 56bd 5869 8b3d
00000090: 8888 143e d6cb c03d 36f6 3cbd 93f5 dabc
000000a0: db18 84bd a146 103d afd8 063e 578c 1f3e
000000b0: 0b07 263d f46d 263d 90dc 23bd fd2a c83b
000000c0: eec0 d53d d405 02be 86a9 013e 2ab7 f03d
000000d0: 3706 9f3c a859 cf3d f097 5cbd 166d 2a3d
000000e0: fc51 243e 5769 27be fe97 8d3d cf3e d03b
000000f0: 1072 74bd 10f4 08bd ecdf 0f3e 180f c73d
00000100: 2012 903c e712 03bd 003b 9cbc 8b19 663d
00000110: d629 47bc 23da 1f3e fe4e fbbd 5a5c 09be
00000120: 1662 0b3e 902b 373d 8049 153d 4122 f33d
00000130: 9b37 a9bd 69ce bc3c 60eb ee3c aafa 233e
00000140: ab89 3dbd 1987 ab3d 046e a73d f36f 92bd
00000150: ab74 eb3b 980d b2bd f3dc debd d4ab 8a3d
00000160: 81b1 dd3d b0b8 083e 6bfa 163d d6da a8bd
00000170: 5ad6 1f3e 2b99 453c a045 ba3c 5224 41bd
00000180: abce f93d 3351 9cbd 48d6 a13d 46f0 64bd
00000190: a8cd 00be 0cba 5a3c 630a 17be a8d9 b2bd
000001a0: 00e3 5e3c a04a 283d 93f7 0abe b3ea d6bd
000001b0: 2815 943d 130a c4bd 24c8 1dbe 9ace 82bd
000001c0: ba4a 763d 8679 38be ca2f 103e 207d 39bd
000001d0: 5b8c 113d 8a1f ea3d 44be aabd c133 1e3e
000001e0: 8bf2 b0bc 304f 28be acf5 093e 31f2 7f3d
000001f0: 6ab9 f13d 1c94 8a3d 6635 e83d 5670 283c
00000200: 2b8f 8dbb 00ae 323b 447a 013e e08c 90bc
00000210: 9619 2f3d 467a bd3d afe8 1c3e a31a 163e
00000220: c6a4 b5bd bda8 c0bc f672 fabc 3a28 18be
00000230: a69f 83bd 3632 8ebc 16bb a8bd 2a75 9abd
00000240: 86c3 56bd c004 c1bc 46f2 51bd 5fd1 b4bd
00000250: 6bdc b13d e733 e13d 56c8 a6bc 9695 4ebc
00000260: a090 1dbd 3a9e b3bd 06cc f53d 2dd8 f7bd
00000270: 36dd 07be 0695 4ebd ff8b 163e 3385 27be
00000280: 5340 323d 9948 1cbe 1796 193e 2086 823d
00000290: ae7a 9bbd e057 48bd 1046 2abd 7983 053e
000002a0: 40ce 8b3c 0037 9a3c 735d 97bd 8efb d53d
000002b0: 00e0 5ab9 7772 303e 904c 1e3e 0f0c 073e
000002c0: 70c0 0a3d b052 28bd f060 fd3d f8c4 3bbe
000002d0: f6ad c1bc 43cb d5bd 96ba 5c3c ba1a eebc
000002e0: b5a9 f9bc 63d3 6fbd ab96 6cbb c0a8 013e
000002f0: 7e49 eabd 386e b73d 608f cd3d 6aaa 153d
00000300: 8e73 113e 440b 1b3e 534d e4bd 0101 56bd
00000310: 6b4e 283e 75ec 92bd eba5 1bbe 6e8a f3bd
00000320: e618 5f3d 00e8 1e3b 66b4 25bd a607 5b3d
00000330: 8bff b2bd e097 d73d 0b77 d4bc 8e60 863d
00000340: 0210 16be 41c5 c7bd 0b57 173d c072 2c3c
00000350: d6d0 96bd e8f2 d53d 60f3 863c 047d 13be
00000360: 56b1 3ebc 07d6 023e 9be3 b6bd b1ea 87bd
00000370: 2b0e 23be f525 3a3e 0889 fcbd f3d3 d43d
00000380: 8b6c dcbd 0319 ac3d 1066 b03d d1be 113e
00000390: 528f 20be c8d9 c3bd 2650 343d c979 823d
000003a0: 6d0c 16be ea52 a53d f6a8 d7bc ab6d a7bb
000003b0: 60a7 223d fbea 943d 2b99 a0bd 8a2a 17bd
000003c0: 63b4 e9bd 9ed4 bdbd 00ca e2bb ee27 17be
000003d0: 30f6 64bd d39c 78bd a34a ca3d 70bf 48bd
000003e0: c25d 0d3e f6a9 6f3d 0021 33bc cac0 01be
000003f0: d8d1 f13d 0b19 df3d 5c46 10be 1c3b 093e
0.10006237 0.056178987 0.011433085 0.04178731 0.07022678 0.05291712 -0.028217098 0.1123031
0.052450042 0.09244388 -0.03667713 -0.091636986 -0.11775788 0.08770486 -0.050435066 0.12808304
0.12189173 -0.07896042 -0.036820292 -0.06826173 -0.16322935 0.037391245 0.09883414 -0.097904794
0.031032085 -0.02889949 -0.079926535 0.00940309 0.12265003 -0.1678063 0.14970069 -0.0603899
0.03417369 0.010010481 -0.05248646 0.06807202 0.14505208 0.094138786 -0.046133243 -0.026728427
-0.06450053 0.035223607 0.13168596 0.15580879 0.04053406 0.040632203 -0.040005267 0.00610864
0.10437189 -0.12697536 0.12662324 0.11753686 0.019412143 0.101245224 -0.053855836 0.04160794
0.160469 -0.16348778 0.06913756 0.0063551436 -0.05967909 -0.03343588 0.14050263 0.09719676
0.017586768 -0.03200045 -0.019071102 0.056176703 -0.012155971 0.15610556 -0.12270926 -0.13414136
0.13611636 0.04471928 0.03644705 0.11871768 -0.08262559 0.023047643 0.02916497 0.1601359
-0.04627387 0.08375377 0.08175281 -0.07150259 0.0071855388 -0.08693999 -0.108819865 0.06771055
0.10824872 0.13351703 0.03685991 -0.08244865 0.15609112 0.012060444 0.022738278 -0.04715378
0.12197622 -0.07632675 0.07902199 -0.055893205 -0.12578452 0.013350021 -0.14750056 -0.08732921
0.013603926 0.041086793 -0.13571005 -0.10493984 0.07230598 -0.09572234 -0.15408379 -0.06387062
0.06012986 -0.18015108 0.1408073 -0.045285344 0.035534244 0.11431797 -0.083370715 0.1544943
-0.021600028 -0.16436458 0.13472623 0.06248683 0.11802943 0.06766531 0.1133831 0.010280689
-0.0043200455 0.0027264357 0.12644297 -0.0176453 0.04274901 0.092518374 0.15323137 0.14658599
-0.08869319 -0.02351796 -0.030572396 -0.14859095 -0.06426935 -0.017357927 -0.08238809 -0.075418785
-0.05243256 -0.023561835 -0.05125644 -0.08828997 0.086846195 0.10996228 -0.0203592 -0.012608906
-0.038468003 -0.08770414 0.12001805 -0.12101779 -0.13267979 -0.05043509 0.14701842 -0.16359405
0.043518376 -0.15262069 0.14998661 0.063732386 -0.07591759 -0.04891193 -0.041570723 0.13038434
0.017066121 0.018825054 -0.07390871 0.10448371 -0.00020873547 0.17231165 0.15458894 0.13188194
0.03387493 -0.041094482 0.12372005 -0.18336856 -0.023642521 -0.1043916 0.01347222 -0.029065479
-0.03047643 -0.058551203 -0.0036100547 0.1266203 -0.11439799 0.089565694 0.10037112 0.036539473
0.14204237 0.15141016 -0.11147561 -0.05224705 0.16436164 -0.07174007 -0.15200011 -0.11891638
0.054467104 0.002424717 -0.040455244 0.05347409 -0.08740147 0.10527015 -0.02593567 0.06561385
-0.14654544 -0.0975442 0.036948245 0.010525405 -0.07364051 0.10446721 0.016473472 -0.14403158
-0.01163896 0.12776957 -0.08930131 -0.06636561 -0.15923373 0.18178542 -0.12330824 0.103919886
-0.107628904 0.08403208 0.08613217 0.14232947 -0.15679672 -0.09563023 0.044021748 0.06370885
-0.14653178 0.08072455 -0.026325684 -0.005109509 0.039710402 0.072713815 -0.078417145 -0.036905803
-0.11411359 -0.09269069 -0.006921053 -0.14761326 -0.055898845 -0.060696434 0.09877517 -0.049010694
0.13805297 0.058511697 -0.010933161 -0.126712 0.11807603 0.108934484 -0.1408934 0.13401455

target_net.fc1.bias f4 [64]
00000000: 7e48 e13d 57c5 d63d caad c9bd 0eef 00bd
00000010: 5151 403c a23e 22be c03d 4cbd 9fb6 8f3d
00000020: d8f4 12be 17bb 103e 95fd 5e3d ed02 1f3e
00000030: 4d94 fb3d 0810 a0bc 405a 2a3e 71bb 74bd
00000040: 026d 25be ea01 12be 3ffb 003e d07d 17bd
00000050: cb05 dabd 02b7 23be 69db 993d ffee d6bd
00000060: 525d e6bc 4bcf 41bd 522c 243e 66c1 1e3d
00000070: 2cca cdbd 7a68 3e3e 1341 813d 9247 b3bd
00000080: 1996 81bd 1de5 333d ba50 743c aa95 283c
00000090: 0971 1f3e cd7a 783d 372d 2bbe caa6 173d
000000a0: 41d4 c5bd 1610 33bc b0a0 d0bd 5b27 f4bd
000000b0: e94c dc3d 482c 993d 76e0 fc3a a902 c3bd
000000c0: 320d ba3d ecbb 03be 4579 08be 35b9 d4bc
000000d0: da30 913c 7f5d b0bb 0d91 933d 11b1 a83d
000000e0: abfc 1cbe 6508 693d b48b de3c 78a8 8e3c
000000f0: c5ce 05be 66e8 33bd a94f e43d 4e07 aebd
0.11000155 0.10486858 -0.09847601 -0.03147798 0.011738137 -0.15844205 -0.049863577 0.07017254
-0.14351213 0.14133869 0.054441053 0.1552846 0.122841455 -0.019538894 0.1663599 -0.05974907
-0.16154864 -0.14258543 0.12595843 -0.03698522 -0.10645636 -0.1598778 0.07512552 -0.10494804
-0.02812067 -0.04731683 0.16032532 0.038758658 -0.10048327 0.18594542 0.0631124 -0.08753885
-0.06327457 0.04391967 0.014911825 0.010289589 0.15570463 0.060663987 -0.16716467 0.037024297
-0.09659625 -0.010929128 -0.10186899 -0.11921569 0.10756857 0.07479149 0.0019292969 -0.09521992
0.09084548 -0.12864655 -0.1332751 -0.02596722 0.01772349 -0.0053822394 0.072054006 0.08236898
-0.1533076 0.05689277 0.027166225 0.017414317 -0.13067158 -0.043922804 0.111480065 -0.08497487

target_net.fc2.weight f4 [3, 64]
00000000: 32c6 64bd e010 733c 02b1 4cbd 1283 c4bd
00000010: df31 85bd 940a a9bd 0309 783d 94ac 313d
00000020: d0cc c5bd 0993 e23d 1baf 73bc ce79 8a3d
00000030: 1cfb 92bd b90b be3d 7b6f cdbd e48b d23d
00000040: b594 b33d 120e 4bbc b9cc 8abd 54c5 313d
00000050: 853b 4ebd da3b d73d 201f c6bd 498e 76bd
00000060: 2680 bdbd 5802 12bd 97ff c33d a56e a83c
00000070: 0c3b d33d 515a 44bc 8889 e0bd 923c 5d3d
00000080: 84b6 f3bc e59d a53d 153f 7e3d c614 13bc
00000090: bcaa 91bd 173b 40bd 95b2 bc3d 36b1 2dbd
000000a0: 63be a53d 50a2 90bd 0614 ce3c a364 133d
000000b0: ce5a 023d f775 a73d f5f9 1e3d 11f0 943d
000000c0: 639e aa3d d392 aebd 461d efbc 9812 cebd
000000d0: 7836 e5bd 26f9 ecbd 5da5 463c da4e ad3d
000000e0: 52b1 813c 9c7f 083d 9098 b53d c805 e9bd
000000f0: e0c0 2ebd 4637 243d 560d 01be 40eb 443d
00000100: 8ba1 44bd 3b0f f2bd 155c ec3d 4153 25bd
00000110: 7939 c73d 8d71 97bd c58b 0d3c 7872 9c3d
00000120: 5040 41bc e9b1 aabd b685 c73d 9102 b83d
00000130: d314 db3b d4c8 023d ad9f 573d 1ab9 3cbd
00000140: c8a2 4cbc 623f 083e 1343 8e3d 2a3d 403c
00000150: b57c 6b3d fb11 d43c 6b45 d3bd b2c5 503d
00000160: 71dc a53c e464 fbbd a596 7e3d bf06 fb3d
00000170: 7a47 55bd e00a 633b 1728 ccbb 9b37 20bb
00000180: da90 f13d 67bf 38bc d6b4 08bd 8477 b13c
00000190: af73 41bc 776a a23b 69f8 d2bd b27f 8f3b
000001a0: 5b43 153c 8b46 bb3d a789 c4bd 3452 c43d
000001b0: 6e7d 443d 9286 e43d a2a8 f93d c120 e4bc
000001c0: 6d04 df3c e673 b43d 7c10 dbbd 62d8 1fbc
000001d0: d58d 82bd c9b0 8ebd dedd 8dbd 6e58 12bd
000001e0: 42fb 88bd 3b55 8cbd 9111 edbc 5043 09bb
000001f0: b22f 34bc b7ee 99bd 1acd 34bd 102d 833c
00000200: 82c9 a7bd 760e 95bd 6e70 96bd 9bf3 4f3d
00000210: ae54 01bc 7981 8e3d 677f 40bd c1b9 83bc
00000220: baa9 823d 24ea ca3d d453 d63d 17e6 42bd
00000230: 659d 2b3b 59e7 833d 9809 35bd b69f 72bd
00000240: 8465 1ebd 0ddb 11bc a216 6e3d 12d1 99bc
00000250: 1b35 e9bd 6931 80bd 1727 eb3d 3857 63bd
00000260: 8181 ef3c bef4 ab3d ac26 873d 1778 0d3c
00000270: 3832 99bd 7317 1d3e 3194 f23d 943a 0f3e
00000280: b68b b7bd 7d90 2d3d 171e e53d 26b6 60bd
00000290: b49a 58ba e45a 803c dbdd c43d 1b9a 84bd
000002a0: 6eef ecbc d364 8bbd c6be 40bb 676d 023e
000002b0: f05a 0b3e 5b97 dbbd d146 abbd ea9b 4c3d
000002c0: 4030 85bc 1252 593d d020 b63d d797 2c3c
000002d0: 4401 c0bd 5d2b 99bc 41b6 263d 811a e93d
000002e0: 5223 ecbd fa5e d3bd 6c76 b93d dc29 a63d
000002f0: 464e dabd 6d26 cfbd 99c8 9d3d 501e 063c
-0.055853076 0.014835566 -0.049973495 -0.09595312 -0.06503653 -0.08253971 0.06055547 0.043377474
-0.096582055 0.11063201 -0.014873291 0.06761514 -0.071768016 0.0927958 -0.10031029 0.10280588
0.08768598 -0.012393491 -0.06777329 0.043401077 -0.05034973 0.10509463 -0.096739054 -0.060194287
-0.09252958 -0.035646766 0.09570234 0.020560572 0.10313997 -0.011984424 -0.10963732 0.054012842
-0.029750116 0.080867566 0.06207188 -0.008977121 -0.07112643 -0.046931352 0.09213749 -0.04240533
0.08092954 -0.07062209 0.025156032 0.035984647 0.03182488 0.08176797 0.038812596 0.072723515
0.08330991 -0.08524098 -0.029188763 -0.1006214 -0.1119203 -0.11570959 0.012124387 0.08462305
0.015831623 0.033324823 0.088669896 -0.11378056 -0.04266441 0.040091775 -0.12602744 0.048075914
-0.048005622 -0.11819311 0.11541001 -0.0403626 0.09727759 -0.07394705 0.008639281 0.07639021
-0.011795118 -0.08334715 0.097423 0.089848645 0.006685832 0.031929806 0.052642513 -0.046074964
-0.012489982 0.13305429 0.06946387 0.011733333 0.057491977 0.02588748 -0.10315975 0.050969787
0.020246716 -0.12275103 0.062155385 0.12257146 -0.05207012 0.0034643933 -0.006230365 -0.0024447206
0.11795206 -0.011276103 -0.033375584 0.021663435 -0.011807366 0.0049565393 -0.10301287 0.004379236
0.009110297 0.091443144 -0.095965676 0.095859915 0.04797118 0.1115848 0.12190367 -0.02784765
0.02722379 0.088111684 -0.106965035 -0.0097561795 -0.063747086 -0.06967313 -0.069270834 -0.035728864
-0.066885486 -0.06852194 -0.02893904 -0.0020944662 -0.0109977 -0.07516234 -0.044140913 0.016012698
-0.081927314 -0.07278149 -0.07345663 0.05076943 -0.007893724 0.06958289 -0.0469965 -0.016079785
0.06380029 0.0990794 0.10465208 -0.047582712 0.0026186344 0.064406104 -0.044198602 -0.059234343
-0.03867103 -0.008902323 0.058127053 -0.01877645 -0.11387082 -0.06259424 0.11482065 -0.0555031
0.029236557 0.0839629 0.06599173 0.008634589 -0.074802816 0.15340976 0.118446715 0.1398719
-0.089621946 0.042374123 0.1118738 -0.05486121 -0.00082627987 0.01566834 0.09612628 -0.06474706
-0.028922763 -0.0680634 -0.0029410585 0.12737046 0.13608909 -0.10722228 -0.083631165 0.04995338
-0.016258359 0.053056784 0.08892977 0.010534248 -0.093752414 -0.018697435 0.040701155 0.11382008
-0.11530174 -0.1032085 0.0905579 0.08113453 -0.10659461 -0.10114751 0.077042766 0.008185938

target_net.fc2.bias f4 [3]
00000000: 8667 743c 37d2 223c 44be bd3c
0.01491726 0.009937814 0.023162015

tatic_net.fc1.weight f4 [64, 42]
00000000: 7b30 123e bfca 1dbd 8dc3 f03b 809d 01be
00000010: 01d4 d43c 4f6a afbd 13bc 32bd 368c d7bd
00000020: c55e bc3d d6d6 113e e726 5abd 6320 ac3c
00000030: 6906 00be e0cb ff3d d6df b93d 07ba e1bd
00000040: 729e f8bd 20d8 f33d 9eaa 633c 56ac debd
00000050: f63d 1d3e 89c0 c0bd 0365 44bd 9ddc 093e
00000060: 9177 16be 206c bc3d cf18 92bd be9e cabd
00000070: 4dc2 9c3d c0c0 89bd 9a53 063d a0a9 fb3d
00000080: 6106 5abc 1686 19be 1558 d23d 7058 db3d
00000090: ea1b debd 190c d43c cdbd 553d 18a4 8b3d
000000a0: 9686 ae3d 37a0 28bd a1ce fcbd 1ace 153e
000000b0: b21f 62bd 1f55 f23d a6c1 843a f0a1 4a3d
000000c0: 431b 0e3e 7d4a 19bd 54c6 21bc 6eda c4bc
000000d0: 7ebe 313d 39bf c03d 385c adbd bf05 90bc
000000e0: c4c7 a9bd 5272 f4bd ceef 413d d47d c73d
000000f0: 0679 b03d 60ad 923d f34c 18bd a3cd 083d
00000100: 7a4c 1d3e 7b98 d6bb 4336 b5bd 287c f13d
00000110: 624c af3d 36dc 153c 34f6 04be e609 123c
00000120: 1fde c1bd 94e3 273d a429 17be b699 f4bd
00000130: 1ed5 1cbd b95f 1b3e bb4f 11be f462 5dbd
00000140: 942c 93bd 0d0f cf3d 00d0 a9bc c479 853d
00000150: 3605 833d 2c40 b23d beda f9bd ee43 03be
00000160: f890 d9bd 1728 223e 00d0 443d a394 ad3d
00000170: 082f 863d fbec 4e3d e141 87bd 53f5 9a3d
00000180: 6782 19be bf84 09be e8da 983d 1db9 aabd
00000190: 8724 003e 0c2c b6bd b5a3 963d d86f f6bd
000001a0: 84fd b6bd ed8a 36bd 7d93 ffbd 2866 33bd
000001b0: d515 563d a8b8 ca3c 6ed2 7abd 56d0 cd3d
000001c0: 242d 8fbc cec7 f83d 6e23 0fbe 0eca a63b
000001d0: cb3f 233d 0e88 463d b822 0abe ec47 ec3c
000001e0: b532 d93c 95d4 0fbe 9e6c c4bd 32aa c53d
000001f0: 6350 14be 41f1 5fbb 810c 11be 32e0 ddbd
00000200: 6f3b 903d 552f 223e 604b 8b3d d8c5 193e
00000210: 96f5 0fbe ebba fabd 7776 fbbd 6da6 123e
00000220: 46bf 92bd cfae 613d 846c 973d 44ec 13be
00000230: bae7 ba3d facb 27be e7c2 00bd 5211 033e
00000240: 2fa1 9b3d 5ed5 1c3e c345 563c 09be 963d
00000250: 375b c0bd c1f9 2d3e e210 87bd 7014 e4bd
00000260: 72d6 d23d 176d 98bd bff5 103e 4572 b7bd
00000270: 1c9f c03c 1585 0bbd e82b a13d 3781 b5bc
00000280: 91ce f83d 71b1 bd3c 9b54 1abe 49ba a2bd
00000290: b85c d6bd b59a cc3d 7a0d 95bd 2dee 1d3e
000002a0: 4b34 523d 25fd 02be 18ba 0abe ad50 d4bd
000002b0: 045a f23c fb1c 3bbd 19c8 d1bd f821 18be
000002c0: aef0 13bd fb46 91bd 7ef9 48bd 75a4 183e
000002d0: 88c8 f3bc 4285 a2bd dac0 14bd a67b edbd
000002e0: 895d 0c3d 6edf 183e 1602 96bd 216f ca3c
000002f0: 2fc0 d6bd b7b6 393d f99b d5bd 8bd5 19be
00000300: e5a1 de3d e238 da3d ddf2 bb3d 221c 4a3d
00000310: 3740 11be 6943 9e3c 3f1f 443d d367 cf3d
00000320: 9b85 3dbc ce44 edbd a35b 20bc 9df7 bc3d
00000330: cedb 43bd 3237 b5bc d9af 8fba 4f25 e9bb
00000340: 1dad 013d 3734 1c3e 7e23 9d3d da9f f7bd
00000350: d79c 153e bb5e 543c 2a0b d3bb 1afc a73c
00000360: ba1a ad3c 4df6 123d 4f85 1fbb d3a8 cb3d
00000370: 9cf4 6ebd c2c1 ee3d 3862 7d3d af32 b63d
00000380: 23fb 333d 478a 023d b8c4 95bd 73ac 06be
00000390: 35bf d13d c25a b2bd ec84 703d 4d79 563c
000003a0: b030 febd 15ab 8abc 16d5 dc3c 86ba 673d
000003b0: fcfa debb ca20 193d f743 febd 4d81 4fbd
000003c0: 90bf 1d3e e2e8 053e 8ddf 9cbd 60f7 0b3e
000003d0: a2cf 0c3e 67c3 813c b88c bcbd acce e93d
000003e0: c02c 0abe c463 ef3d 321c a23c d726 05be
000003f0: 7300 c63d d4ff fd3d 3639 b03d 1e01 1dbb
0.14276306 -0.038523432 0.00734753 -0.12657738 0.025979998 -0.08565199 -0.043636393 -0.1052479
0.09197763 0.1424211 -0.053259756 0.021011537 -0.12502445 0.12490058 0.090758964 -0.1102181
-0.12139596 0.11906457 0.013895659 -0.10872714 0.15355667 -0.09411723 -0.047947895 0.13463064
-0.14694048 0.09200311 -0.07133638 -0.09893559 0.076542474 -0.06726217 0.032794572 0.12288213
-0.013307185 -0.14992556 0.102707066 0.107102275 -0.10845168 0.025884675 0.05218296 0.06818408
0.08521764 -0.041168418 -0.12344099 0.14629403 -0.05520601 0.11832642 0.0010128513 0.049470842
0.13877587 -0.037424553 -0.009873945 -0.024029937 0.043394558 0.09411473 -0.08464855 -0.017580865
-0.082900554 -0.11935867 0.047347836 0.09740797 0.086168334 0.07161975 -0.03718276 0.033399235
0.15361205 -0.006548939 -0.0884824 0.11791259 0.08559491 0.009146741 -0.12984544 0.008913493
-0.09466194 0.04098852 -0.14761978 -0.119433805 -0.038289182 0.15173234 -0.14190571 -0.054049447
-0.07186237 0.101102926 -0.020729065 0.065173656 0.06397478 0.08703646 -0.12199925 -0.12818882
-0.10623354 0.15835606 0.048049927 0.08475616 0.06551939 0.05051897 -0.06604362 0.07566323
-0.14991151 -0.13429545 0.07463628 -0.08336089 0.12513934 -0.0889512 0.073554434 -0.12033051
-0.08935073 -0.044566084 -0.12479303 -0.043798596 0.052266914 0.024746254 -0.061235838 0.100495026
-0.01747758 0.12147485 -0.13978359 0.0050900048 0.03985576 0.048469596 -0.13489807 0.028842889
0.026513437 -0.14045937 -0.095910296 0.09651603 -0.1448379 -0.0034170898 -0.14164926 -0.108337775
0.07042586 0.15838368 0.06801486 0.15016878 -0.14058527 -0.12242683 -0.12278455 0.14321299
-0.07165389 0.05509835 0.073937446 -0.14445597 0.091262296 -0.16386405 -0.031435873 0.12799576
0.07599103 0.15315768 0.013078156 0.07360465 -0.09392398 0.16989805 -0.06595017 -0.11136711
0.102948084 -0.07442682 0.14156245 -0.08957342 0.02351337 -0.034062464 0.078697026 -0.022156341
0.121487744 0.0231559 -0.15071337 -0.07945687 -0.104669034 0.099904455 -0.07277961 0.15422888
0.0513194 -0.1279188 -0.13547552 -0.1036695 0.029583938 -0.045681935 -0.10243244 -0.14856708
-0.036118202 -0.070936166 -0.04906606 0.14906485 -0.029758707 -0.07935573 -0.03631673 -0.1159585
0.03426889 0.14928982 -0.073246166 0.024711194 -0.10485875 0.045340266 -0.1043014 -0.15022866
0.10870723 0.10655381 0.09177182 0.049343236 -0.14184652 0.019319253 0.04788136 0.10127225
-0.011567499 -0.11585389 -0.009787473 0.09226916 -0.047817044 -0.022121046 -0.0010962441 -0.0071150432
0.031659234 0.15254293 0.07672785 -0.12091036 0.14610611 0.012962039 -0.00644054 0.020505954
0.021130908 0.035879422 -0.0024340933 0.0994431 -0.058338746 0.1165805 0.061861247 0.08896386
0.043940675 0.031870153 -0.07312912 -0.13151722 0.10241548 -0.08708717 0.058720514 0.013090444
-0.1241163 -0.016927281 0.026957076 0.056574367 -0.006804822 0.037384786 -0.12415307 -0.05066042
0.15405107 0.13077119 -0.076598264 0.13668585 0.1375108 0.015840245 -0.092065275 0.11416373
-0.13493633 0.11688951 0.019788835 -0.13003097 0.096680544 0.12402311 0.08604662 -0.0023956965

tatic_net.fc1.bias f4 [64]
00000000: 0a3d cf3d a22c 64bd 70e5 823d 78ec de3d
00000010: e07b bd3c 2269 a13d d59b 53bd a4ae b6bd
00000020: 705b bcbd 752f 693c 5002 a23d 09fd b93d
00000030: 39fa b9bd f440 f53c 6107 153d acaa d03d
00000040: eacd a8bd d8d3 bf3d e850 173e c33d ca3d
00000050: 68ec 6c3d e92b fa3d 40e1 ccbd 1c37 0b3e
00000060: 34a2 9ebd 9637 18bd a5b4 16bd 571d 653c
00000070: 2881 12be 0c2d d33d 6577 bcbd ed68 6dbd
00000080: 46c4 f53d bc0e 91bd f5b8 d13d 010b 00bc
00000090: 8b8b 703c ae4c 5ebc 8efb 1e3d 0421 8e3d
000000a0: 41af 91bd 4ed1 b1bd 9397 cf3c f0d1 013e
000000b0: f884 703d 316f 253e 6671 11be 5023 cc3d
000000c0: 1097 323d 261c 0fbe 2583 10be a944 b6bc
000000d0: c172 84bb 5647 37bc 3ef0 d8bc b2c0 4e3c
000000e0: 4191 123e 9abd 153d a2b0 883d 3681 f63d
000000f0: 7745 2e3c 6569 cebd bdc2 15be 2272 a6bd
0.10119064 -0.055706628 0.06391418 0.108849466 0.023130357 0.078813806 -0.051662285 -0.08920029
-0.09197128 0.014232506 0.07910597 0.09081466 -0.09080929 0.029938199 0.03638399 0.10188803
-0.082424 0.09366578 0.14776957 0.09875061 0.057842642 0.122154064 -0.100039005 0.13595241
-0.077457815 -0.037162386 -0.03679337 0.013984046 -0.14307082 0.103113264 -0.0920246 -0.057961393
0.12000327 -0.070828885 0.10240356 -0.007815124 0.014681707 -0.013568087 0.03881412 0.06939891
-0.07113505 -0.086825 0.02534083 0.12677741 0.05872056 0.16155697 -0.14203414 0.09967673
0.043601096 -0.13975582 -0.14112528 -0.022249537 -0.004042 -0.011186441 -0.026481744 0.012619184
0.14313222 0.03655777 0.06674315 0.12036364 0.010636679 -0.10078696 -0.14625068 -0.08127238

tatic_net.fc2.weight f4 [6, 64]
00000000: c847 083d 66a6 823d 681e 77bd 947f 903d
00000010: b044 17bd 6057 6d3c 0067 413a fc31 c53d
00000020: ec34 a53d 9801 bcbd 3a06 d93d 2243 c13d
00000030: ae4b a6bd 40e2 da3c 341e 2fbd 726e 9c3d
00000040: 1a9d f2bd daa4 cbbd c014 0fbc 0474 043d
00000050: c2d7 eb3d 5a93 ddbd 9a3e 9e3d 6069 fabb
00000060: c00d 49bc 72af f7bd 8081 e53d 3c61 b23d
00000070: dc98 5e3d b86b a13c ac36 08bd 6e6f c2bd
00000080: 0c9f cfbd 8c24 333d b053 9bbc 3867 ac3c
00000090: f4f3 f03d 0000 013c 6038 0c3c 8c33 e1bd
000000a0: 0a8d b4bd 089b cdbd f0e2 26bc 50ec e6bd
000000b0: 10a9 f8bd 70e9 4ebd 70fa 4c3c 4cf7 723d
000000c0: 6022 2e3d f01f 7e3d 86a9 a6bd 2c57 cabd
000000d0: c6f2 b3bd a25b aabd c0a0 0d3c 9a10 c7bd
000000e0: a0da 77bc e45b 8ebd 786e da3d 3056 993c
000000f0: c0f0 d73b a8b3 c73d 8006 84bd b278 bf3d
00000100: f0e6 1dbd 6b63 ea3d ad71 90bd a7a9 4d3d
00000110: b6c7 febd 43a3 0b3c 3bf6 b1bd 7f83 02be
00000120: 568a 81bd 5527 c33d a11a febd 8a3e bd3d
00000130: 1193 193d 6134 a5bd c10a af3d 817f 43bd
00000140: 408e 303d 74f5 73bc 6803 efbc 9196 c1bd
00000150: 9289 653d e60d 1e3c 0821 cfbd f459 e3bc
00000160: 68dc 1c3d 8107 0fbd 4fce 7fbd 4eac 56bd
00000170: 515a 55ba 38fd ee3c 0ae5 45bd 555b b8bd
00000180: faf4 483d 4fd0 c4bc 6de1 c53d 2f45 3d3d
00000190: 21f0 623d a217 543d c97f 8abc ab57 df3c
000001a0: da51 98bd 9e08 343d 8d10 a13d b439 283c
000001b0: 9eed 11bd b4c3 ccbd 91f1 af3b 8eac 09bd
000001c0: 081d c9bd 5a17 eb3a 6cfd ba3d f1be fbbd
000001d0: 2b73 6c3d 5db4 603d fcf4 00bd f18f 01be
000001e0: b886 26bc cf58 87bd 52e5 043e 6018 f4bc
000001f0: 5e85 d43d fdad 2fbd 1680 e33c 7b44 85bc
00000200: d983 2fbd b714 53bd 4ae1 8cbc ff86 933d
00000210: 9ca7 aa3d 9822 0cbd 78be 313d f45a 2d3d
00000220: 9ded a6bc 2544 f7bd 1e4b 0abc 3827 1ebc
00000230: 54ee 973d 22ec 0cbd 0141 2bbd 5af5 1fbd
00000240: db21 e9bd 57b2 88bd f788 32bd b08e adbd
00000250: 5129 c93d d039 d33d 455b 553d af1e d2bb
00000260: 6d9e 35bc 5943 d93c 83e8 44bd 0afd 853c
00000270: 6766 dd3d 56f3 ff3a fe35 04bd 20f5 e03c
00000280: e26b 833c 85ea 4f3d 8e20 fcbc 3e7b 963d
00000290: 312e a6bc b0da b43d 82ab 89bd 9f4d 18be
000002a0: 07e1 8d3d dcd4 013e 89a8 98bd 65fb eb3d
000002b0: 794d e1bc 8e9f 843c 32f7 a63d dd67 d53d
000002c0: 41b9 77bd 435c b9bd 72ea 983c ecad a03d
000002d0: 4582 91bd 5196 e43d d48b a0bd e1a4 26bc
000002e0: b58f efbd b6b0 b2bc 8ade f93d 482d 033e
000002f0: ae4b 55bd 4ef2 743d 8006 053d c515 c03d
00000300: 01a9 28bc 17aa bd3d 0534 20bb 57f2 d03d
00000310: a1b2 923c 0046 403c 5f9e a53c 78d8 6ebc
00000320: 796c 11bd 8dfe c6bc c8e1 bdbd 6a58 b6bd
00000330: 3cc6 5c3c 0b26 acbd ff71 78bd 0ac8 01bc
00000340: e6bb b23d 4d15 ddbd ff74 f73c 7ff0 61bd
00000350: 4f7a f7bc a8dc bdbd 511d 113d 2e0d 82bc
00000360: 48d7 af39 140c 83bd e597 1bbd ada1 0a3d
00000370: 582d fbbd 3757 df3d 9647 41bd 630d 09bd
00000380: 01d6 07be a316 263d 07a7 a23d a2c5 12bd
00000390: f2d1 413d 6b8d 50bd 9301 e6bb 4d90 cc3c
000003a0: 5502 8b3d a996 913b d20b 7ebd 407a 72bd
000003b0: 39ae 51bd 200b c33d 1a04 af3d 30ff 40bd
000003c0: 613c a7bd f6a8 0f3e ed4e 4e3d 27e2 c3bd
000003d0: c1f4 bdbc a1bd 023d 54e6 aabd 08d2 49bd
000003e0: 5b18 d9bd 9531 d43d 176a ee3d fbe7 0dbd
000003f0: 1a26 b1bd 79c6 87bd dde7 043c 1e47 31bd
0.03327158 0.06379394 -0.060331732 0.070555836 -0.03693074 0.014486164 0.0007377714 0.096286744
0.08066735 -0.091799915 0.10596891 0.09436633 -0.081199035 0.026719213 -0.042753413 0.07638253
-0.11846371 -0.09943552 -0.0087329745 0.032337204 0.11515762 -0.10819121 0.07726784 -0.007641956
-0.012271345 -0.120940104 0.11206341 0.08709952 0.054344997 0.019704685 -0.033255264 -0.0949391
-0.10137758 0.043736026 -0.018960804 0.021045312 0.1176528 0.007873535 0.008558363 -0.1099616
-0.088159636 -0.100393355 -0.010185942 -0.11275542 -0.12141621 -0.050515592 0.012510881 0.059317872
0.04251325 0.062042177 -0.08137803 -0.09879908 -0.0878654 -0.08318259 0.008644283 -0.09719963
-0.015127808 -0.069511205 0.106656015 0.018717855 0.006589979 0.097510636 -0.06446552 0.09349193
-0.038550317 0.11444744 -0.07052932 0.05021062 -0.124404356 0.008522811 -0.08689543 -0.12745474
-0.063252136 0.09528986 -0.12407423 0.09240444 0.03749377 -0.08066631 0.08546973 -0.04772902
0.04310441 -0.014890064 -0.029176429 -0.094525464 0.0560394 0.009646868 -0.10113722 -0.027752854
0.038296133 -0.034919266 -0.06245261 -0.052410416 -0.00081387634 0.029173478 -0.04831413 -0.09001795
0.049061753 -0.02402511 0.09662137 0.046208557 0.055404786 0.05178035 -0.016906636 0.027263483
-0.07437487 0.04395353 0.07864485 0.010267664 -0.035627 -0.09998265 0.005369373 -0.033611827
-0.098199904 0.0017936036 0.09130368 -0.122922786 0.05772702 0.054859508 -0.031483635 -0.12652566
-0.010163955 -0.06608736 0.12978104 -0.02979678 0.10377 -0.042890538 0.027771037 -0.016268006
-0.04285035 -0.051533427 -0.01719727 0.07203483 0.0833275 -0.03421268 0.043394536 0.042323068
-0.020376975 -0.120735444 -0.008440761 -0.009652905 0.07418504 -0.03440488 -0.04181004 -0.039052345
-0.113834105 -0.066746406 -0.04358765 -0.08474481 0.098223336 0.10313761 0.052088995 -0.006412349
-0.011085135 0.026521372 -0.048073303 0.01635601 0.10810547 0.0019527476 -0.032278053 0.027460635
0.016042653 0.050760765 -0.030777242 0.07347725 -0.020285698 0.08830774 -0.06722166 -0.1487336
0.06927686 0.12678856 -0.074540205 0.11522559 -0.027502762 0.016189363 0.081526175 0.10420201
-0.060479406 -0.09050801 0.01866648 0.07845673 -0.07104925 0.11161483 -0.0783917 -0.010171146
-0.11697332 -0.021812778 0.12200649 0.12810242 -0.052074127 0.059801392 0.032476902 0.09379152
-0.0102942 0.09260958 -0.0024445069 0.10202473 0.017907443 0.011735439 0.020217119 -0.014577977
-0.03550384 -0.024291301 -0.0927158 -0.089035824 0.013474997 -0.084056936 -0.06065559 -0.007921228
0.08727245 -0.107950784 0.030207155 -0.055160996 -0.030209688 -0.092706025 0.03542835 -0.015875425
0.00033538998 -0.06398788 -0.037986655 0.033845592 -0.12264508 0.10905307 -0.04718741 -0.033460032
-0.1326523 0.04054893 0.07942014 -0.03583301 0.04731936 -0.050916117 -0.0070192306 0.024971152
0.06787554 0.004443009 -0.06202299 -0.059198618 -0.051191542 0.09523606 0.08545704 -0.047118366
-0.08165813 0.14029297 0.05036824 -0.095646195 -0.023187997 0.031919125 -0.08344713 -0.049272567
-0.106003486 0.103610195 0.11641329 -0.034645062 -0.086498454 -0.066296525 0.008111921 -0.043280713

tatic_net.fc2.bias f4 [6]
00000000: c4b9 653d 71ad c7bd a5f1 013d b71c cb3c
00000010: 20b2 0a3d b75e 9abd
0.056085363 -0.09749878 0.03172459 0.024793966 0.03386128 -0.07537597

tatic_net.fc3.weight f4 [6, 3]
00000000: 5821 b5be e6b8 be3e ff26 d6be cc88 083e
00000010: 2092 c83e 4979 bebc eedd 803e 8fdf 2bbe
00000020: a27f 87be 4f02 b43e 30ea 40be e63e 0fbf
00000030: 61bc 7dbe b318 05bf 2b21 103f f8dd 153f
00000040: d0a9 ed3e ec71 3cbd
-0.35377002 0.3725044 -0.41826627 0.13333434 0.39173985 -0.023251193 0.2516932 -0.167845
-0.26464564 0.3515801 -0.18839335 -0.5595535 -0.24778892 -0.51990813 0.5630061 0.5854182
0.4641862 -0.046007082

tatic_net.fc3.bias f4 [6]
00000000: 4ea4 b73e 31cc e63e e719 983d 976a a83e
00000010: 61f3 babd 095b 4bbd
0.35867542 0.4507766 0.074268155 0.32893822 -0.09128452 -0.049647365

tatic_net.fc4.weight f4 [3, 9]
00000000: 3207 7a3e 5c5e a53e 5c4d d93c ab47 573e
00000010: 7490 c63e fc7d a13e 3513 2ebe 1c86 9e3e
00000020: ae02 3cbe 8bfd 19bd cf88 63bd 9376 40be
00000030: 5742 353e 59ee 8abe 18b5 403e 8d36 463e
00000040: 0167 023e 85f5 be3e 3a50 b03d 421b 23bd
00000050: bb7f 973e f7eb 66be 8ab2 f73c 0655 db3d
00000060: b4fa a7bd 0f05 e23d eb00 903d
0.24416807 0.32298553 0.026526146 0.21023433 0.38782084 0.3154143 -0.16999514 0.30961692
-0.18360397 -0.037595313 -0.055550393 -0.18795232 0.17701088 -0.2713497 0.18819082 0.19356747
0.12734605 0.37296692 0.08609052 -0.039820917 0.29589638 -0.22550951 0.030236501 0.10709576
-0.08202115 0.11036121 0.07031425

tatic_net.fc4.bias f4 [3]
00000000: a11d 6fbe d3b1 81be 088c 66bd
-0.23351146 -0.25330982 -0.056285888

fc1.weight f4 [256, 108]
00000000: 1769 dfb9 b68e a2bc de9d a33d adf9 9a3d
00000010: 9782 4cbd 3e96 543d c739 b93c 28f8 15bd
00000020: 18d9 963d cdf4 ab3c 589d 71bd 4fe6 633d
00000030: 3591 25bd 029c b5bd 6899 b63c db7b 883d
00000040: 5380 ee3c 0c2d afbd 83ea 98bc 722b fa3b
00000050: cbd8 c4bc b9da abbd 1e1a 773d 040b 8a3d
00000060: 7900 693d 9c37 a53d 07fa 66bd d4f1 d53c
00000070: 0d34 0ebd b15c 7d3d 8043 a2bd 8d86 b43d
00000080: d125 41bb 7a41 b4bd def3 783c 501f ae3d
00000090: 8b72 7cbd 6f4e 933d 223a a9bd 7265 cbbc
000000a0: 810e aabd 5cef babc 7c1b adbc 1cd2 73bd
000000b0: 8c6f 843b 6070 a03d 5b35 bdbd f036 8a3d
000000c0: cd1f 923d b9b6 893d 576f 82bb cc8a 39bb
000000d0: f60d 54bd 2827 173d 51e6 4a3d edcb ae3d
000000e0: 8301 a0bd f66a 493c 391f 3b3d 9fb4 5abc
000000f0: 090f 6abd 56d8 14bd 3b63 4f3d f3d2 783d
00000100: 721c 4f3d 3baf b8bd d0cd 873d 9553 e63c
00000110: 833b dd3c fda7 433d a828 81bb 9aca 25bd
00000120: b137 c2bd 50c0 a8bd e9ba 8dbd be42 81bd
00000130: 0f68 9ebd 4042 543b 1355 82bd f4e4 943b
00000140: 080c 893d 9b0e 9f3d 1016 73bd c833 b3bd
00000150: 1a4d 96bc a0af bdbd 2efe 1fbd 3b09 9dbd
00000160: 19ba b23c e0e6 49bd 76cc 20bd 2695 9c3d
00000170: dac2 22bd 997e c23d 334d 803d 57ac d9bd
00000180: 4fc4 e6bc 41a9 00bd 7b0a 353d abb4 bebd
00000190: 294a 4bbb fabd 7e3d e73e 503d 8e27 e93c
000001a0: 2bb4 abbd 8189 c8bb f73d 743d d681 5dbd
000001b0: 16a4 2dbd 3c2f 3fbd 7e94 57bd 75d9 2d3c
000001c0: b8cb debd c51c 953d 75a5 24bb 6dfd 8b3d
000001d0: f14b 92bb a56d 173d e5a4 98bb c404 b03d
000001e0: e7a9 30bd 6055 e8bc 5788 8fbd 1baf a3bd
000001f0: 84f0 123d d136 73bd 8db1 2e3b 8540 7a3c
00000200: 53d2 43bd b307 7abd 45c8 48bd 5057 87bd
00000210: 658b 8ebd 9af2 7d3d d825 883d eadb 113d
00000220: 9237 96bb 3f8f ea3c 545e 8a3d 89de 83bd
00000230: 4044 533d 4373 933d 7be8 3a3b 22da 9a3d
00000240: c93e 84bc e58b 763d b4e5 5ebd 475a 25bc
00000250: 59d6 3cb9 bd05 c63c eebc ce3a 08af af3c
00000260: d433 9f3d b56b 2fba 7318 69bd 7c1d 84bd
00000270: bb1b b5bb a832 6bbc d521 0b3d 07ba 98bd
00000280: d230 b13c a1c8 d8bd 3d7e 70bd eccf 77bd
00000290: c403 91bc 5635 353d d35c 953d 93af 9ebd
000002a0: b187 313d cb60 babd 2dd7 03bc 614e 82bd
000002b0: 7e3a 16bd 8af0 49bd 24b5 00bd 8075 663a
000002c0: 9d9b bf3d 8270 e8bc 6804 c4bd 1495 cc3c
000002d0: 7fa2 523d dbfd 2abd ec30 55bd 257e acbd
000002e0: 9c6b 09bd 1b67 2fbd 4ebf 093c 1e8f 85bc
000002f0: d239 7a3d 68a0 7c3d bbb8 9ebb 7c2d 88bd
00000300: 2c00 23bd b329 853d f7a1 a03c d0ab 503b
00000310: 2696 b13c 302e 283d 3b6c 6ebd 2840 93bd
00000320: fd90 6a3d 0dc2 a6b8 d13a 2f3d eaa1 773c
00000330: 306f 9d3c 90aa 8cbc 4882 a33b 6c90 b13d
00000340: bd3c 87bd e722 35bc 043d 42bc 5ab4 013d
00000350: ec28 133d 019b f13c 938d 923d 17d9 edbc
00000360: 752d 823d dfc0 983c c4d2 99bd c13d 0abd
00000370: d409 62bc bd5e 1ebd b129 8f3d e30a aabd
00000380: c1d7 bf3d 50da 953d fb0a 8c3c a107 9b3d
00000390: e342 6a3d 5969 053d e364 15bd dd03 6a3d
000003a0: 4d79 903d d33f 0e3d aca2 57bc 528d 99bd
000003b0: e246 75bd 9e8c 443d 1ce3 b23d 2e3a 573d
000003c0: 0b58 bd3d 4524 15bd a205 503d b836 253d
000003d0: 54ff 323c 6e13 d1bd 3a73 923d a209 51bb
000003e0: ce79 7bbd c621 5fbd 1b41 bdbd f35e a5bd
000003f0: 56ce 8b3d fbcf 8a3c c05c 923d 8384 30bd
-0.00042612173 -0.01984344 0.07989095 0.07567153 -0.049929228 0.051901095 0.022610558 -0.036613613
0.07365626 0.020990754 -0.058987945 0.05563956 -0.040421683 -0.08867647 0.022289947 0.066642486
0.029113924 -0.08553514 -0.018666511 0.0076345736 -0.024029156 -0.083913274 0.06032764 0.06740382
0.056885216 0.08067247 -0.05639079 0.02611629 -0.03471761 0.061855976 -0.07923031 0.08814726
-0.0029472003 -0.08801551 0.015194861 0.08502066 -0.061632674 0.071926944 -0.08263041 -0.024828646
-0.08303548 -0.022819214 -0.02113127 -0.059526548 0.0040416177 0.07833934 -0.092386924 0.0674876
0.07134972 0.06724305 -0.003980558 -0.002831149 -0.051771127 0.036902577 0.049536053 0.085349895
-0.07812788 0.012293568 0.045684073 -0.0133487275 -0.057143245 -0.036339127 0.050631743 0.06074805
0.050564237 -0.090177976 0.066310525 0.028116027 0.027005916 0.047767628 -0.003941614 -0.04047642
-0.094832785 -0.08239806 -0.06920416 -0.06311558 -0.07734691 0.003238812 -0.06363883 0.004543895
0.06691748 0.07766458 -0.059347212 -0.08750111 -0.018347312 -0.092620134 -0.039060764 -0.07667776
0.021817254 -0.049292445 -0.03925749 0.07645635 -0.039736606 0.09496803 0.062647246 -0.10628574
-0.02816978 -0.031411413 0.044199448 -0.093118034 -0.0031019545 0.062192895 0.05084124 0.028461244
-0.08383974 -0.0061199074 0.059629407 -0.0540789 -0.042392813 -0.046675906 -0.052631848 0.010610928
-0.108787 0.07280878 -0.0025123034 0.068354465 -0.0044646193 0.0369698 -0.004658329 0.08594659
-0.04313078 -0.028361022 -0.07008427 -0.07992383 0.035873905 -0.05937845 0.0026656121 0.015274172
-0.047808003 -0.0610425 -0.049019117 -0.066084504 -0.06960181 0.06199894 0.06647843 0.035610117
-0.004584261 0.028632758 0.06756273 -0.064389296 0.05157876 0.07199719 0.0028519917 0.07561137
-0.01614322 0.060192008 -0.05441828 -0.010092325 -0.00018008928 0.024172658 0.0015772858 0.021445766
0.07773557 -0.000669177 -0.056908082 -0.06450936 -0.0055269874 -0.014355339 0.03396781 -0.07457357
0.021629725 -0.10585142 -0.05871414 -0.060501024 -0.01770199 0.04424032 0.072930954 -0.07748332
0.043342296 -0.09100493 -0.008046907 -0.06362606 -0.036676876 -0.04930166 -0.03142275 0.00087913126
0.09355853 -0.02837396 -0.09571153 0.02497343 0.0514245 -0.041746 -0.05204861 -0.08422498
-0.03354989 -0.04282294 0.008407427 -0.016303595 0.061090298 0.061676413 -0.004843799 -0.066493005
-0.039795086 0.06502094 0.01960848 0.003184069 0.021678042 0.041059673 -0.058208685 -0.07189971
0.057267178 -7.9516416e-05 0.0427807 0.015114287 0.019218057 -0.017171174 0.004989896 0.086701244
-0.06603382 -0.011055685 -0.011855368 0.031666137 0.035927698 0.029492857 0.071559094 -0.02903418
0.063563265 0.018646656 -0.075109035 -0.0337503 -0.0137962885 -0.03866457 0.06990374 -0.08302858
0.09367324 0.073170304 0.01709508 0.075698145 0.057192694 0.03257117 -0.036473166 0.05713259
0.07054386 0.034728836 -0.013161343 -0.07497658 -0.059882052 0.047985666 0.08734724 0.05254572
0.092453085 -0.036411542 0.050786622 0.040335387 0.010925133 -0.10208784 0.07150884 -0.003189661
-0.06139546 -0.05447557 -0.092409335 -0.08074751 0.06826465 0.016944876 0.07146597 -0.043095123

fc1.bias f4 [256]
00000000: 79b3 dabd 4406 f2bb 66e2 60bb f538 76bd
00000010: e385 b93e 02a8 7f3d 2694 38bd 62f3 103d
00000020: 000d 18bd 48c1 2f3f 7109 3e3f e683 533f
00000030: 2b02 44bc acc1 483d e66c 363f a3af 653f
00000040: 215e 3b3f 90c8 963d 481e 6c3f ee41 cbba
00000050: 15db 4a3f 383e 72bd d085 483f 353f 333f
00000060: 277d 613e f762 593f d708 383f 4ccb 3fbc
00000070: 2e27 fd3e 0820 3c3f a552 563c 7a00 6a3f
00000080: 7f44 08bc acb8 4c3f 79c8 adbd 9ffc f03c
00000090: 6335 4a3f d199 39bb 1647 24bc 89c2 343f
000000a0: 008c 2fba 30d6 3e3f e83d bdbd c895 3a3f
000000b0: 06b6 223f e1c0 463f 2324 7e3e 7703 643f
000000c0: 348f efbd b089 2f3f 36da 93bd 8cdd 86b9
000000d0: 9a0c 3a3f ea0d c8bd 1ddd 4a3f 85f9 3c3f
000000e0: 181b d63e 11f8 523f 36a0 4e3f 6934 28ba
000000f0: 120f 533f f01f 4e3f 01f0 673f b1c5 3d3f
00000100: 5680 993c c303 4f3f 595b 82bc bd4d 4c3f
00000110: b93a 493f 6a77 66bd 4a0f c8bd e7aa 6e3d
00000120: 7730 4c3f e639 453f ed29 6cbc 43fe 4e3f
00000130: 540c 463f f88d 2a3f 490d a5bb 7f8a 4d3f
00000140: e481 4e3f 81d3 b3bd 905b 633f 07a0 333f
00000150: 116c 3c3f 4cb2 583f 9e61 433f 6059 153f
00000160: 928e 4a3f c26c 533f 715f 063d 7663 253f
00000170: 1830 65bd 291c 463f d561 413f 6c66 173c
00000180: 0ea3 423f eb37 4d3f 8898 343f a332 bbbd
00000190: 5840 683f ef8d 41bb a5a6 523f 661a 103c
000001a0: dbe4 75bd c7a9 1bba 571c 6c3c 805d 503c
000001b0: 22e7 4d3f 7284 6f3e 0c48 ffbc 1b1c 07bd
000001c0: 02a2 4b3f 1502 553f 9273 4f3f 8362 243f
000001d0: a14a acbd d1e0 383f df54 553f a218 343f
000001e0: 71fb 583f db4b 6bbd 34ca 683f 4579 3a3f
000001f0: e91e 4a3f c552 e6bc cf01 5d3f 3dbb 3c3f
00000200: 2ad7 5e3f eed6 c0bd 04ad 3d3f e7d2 533f
00000210: 2f26 513f a7e4 d2bb 61c0 97bd 6392 673c
00000220: 554e b3bd 8795 6b3f 2b1e 563f 845d bdbd
00000230: 95fc 293f 97f0 cabd c2c4 433f 9760 943d
00000240: 1e0b 483f e4f1 683e 7045 ea3c 3498 d33e
00000250: 63b8 323d f498 423f 9e6d 22bc 4845 4a3f
00000260: 1484 623f 41eb bbbd c126 193f 6a7f 4e3f
00000270: f688 453f 6f67 4e3f 132e cdbc fae5 76bd
00000280: f0b7 403f ff4c a83e 382c 3d3f 6793 a93c
00000290: 4cf3 533f f538 e6b9 c8a1 66b8 2a39 ab3a
000002a0: d254 443f dcaf 653f 7211 543f 1020 3a3f
000002b0: 689a 653f 1561 513f 777e 4d3f d2bb 343f
000002c0: 7f2e 57bd e8ab bebd 9d70 91bd 44f2 8ebd
000002d0: dd6e 403f 4a87 453f 2c7a 98bb 4307 bdbd
000002e0: ab4b 3e3f 2c4b 80bd 6d49 3a3f 8816 5c3f
000002f0: 9a11 483f cd8f bfbd 0b44 abbd daa6 8cbd
00000300: d321 98bd 62dc 3c3f 051a abbd 6558 d23e
00000310: 76a3 543f b5e9 973c e354 503f ed58 353f
00000320: 9c2f acbc 238f 473f 3aa3 533f 0693 b7bd
00000330: 6f4e a8bd f83c 563d 6aed 3a3f b7a7 303f
00000340: 5945 3f3f 9eab 453f 0957 88b9 4323 07b9
00000350: c7ae 2a3f 88af 373f 8954 683f 5c2b 553f
00000360: 53e8 373f 70e7 aebd 4629 433f 999c 473f
00000370: e13d 373f e7fa 423f 1771 9abd a1b2 2c3f
00000380: 6a6b 423f 888e 2f3f f1c6 5c3f 911b 08bc
00000390: e435 0b3f 668f 7bbc b66a 633f 4f7b a5bc
000003a0: 533b 63bd a203 623d 03a0 593f 6265 063f
000003b0: 314e 5fbd 2ee6 65bd e232 693b 8bfe 3d3f
000003c0: 7276 463f 56f4 753d 8594 3c3f 1970 303d
000003d0: 2a6f 473f 1c9b 6a3f d1b9 553f 73a1 5f3f
000003e0: 44a1 4b3f 384f 473f e716 383e ee21 abbd
000003f0: 6527 c6bc 6f21 803d 141b 913d d69d 503f
-0.10678763 -0.007386001 -0.0034314631 -0.060112912 0.3623496 0.062416084 -0.04506316 0.035388358
-0.037121773 0.686543 0.74233156 0.82623136 -0.0119634075 0.049012825 0.71259916 0.89721125
0.73190504 0.07362473 0.92233706 -0.001550732 0.7924054 -0.059141368 0.7832918 0.7001832
0.22020398 0.84916633 0.7188849 -0.011706185 0.49443954 0.73486376 0.013081227 0.9140698
-0.008317112 0.79969287 -0.08485503 0.029417334 0.7898771 -0.0028320441 -0.010026714 0.7060934
-0.0006696582 0.74545574 -0.09240323 0.728848 0.63558996 0.7763806 0.24818473 0.89067787
-0.11697236 0.6856947 -0.07219355 -0.00025723537 0.7267548 -0.09768279 0.7924364 0.73818237
0.41817546 0.8240977 0.8071321 -0.0006416501 0.8244487 0.8051748 0.9060059 0.7412978
0.018737953 0.80865115 -0.015912699 0.7980612 0.7860523 -0.056266226 -0.09768541 0.058268454
0.7976145 0.7704147 -0.014414293 0.8085672 0.7736256 0.6662288 -0.005036984 0.80289453
0.8066695 -0.087805755 0.8881159 0.7016606 0.73602396 0.8464706 0.76320827 0.583395
0.79123795 0.82587826 0.032805864 0.6460489 -0.05595407 0.7738672 0.75539905 0.009240728
0.7603005 0.8016345 0.70545244 -0.091405176 0.9072318 -0.0029534062 0.8228553 0.008795356
-0.060032707 -0.00059380796 0.014411054 0.012717605 0.80430806 0.23390368 -0.031162284 -0.032985788
0.7954408 0.832063 0.8103572 0.64212817 -0.08412672 0.7221804 0.8333263 0.70350087
0.8475867 -0.05744539 0.9093354 0.7284129 0.78953415 -0.02811564 0.86330885 0.737232
0.87047064 -0.094159946 0.74092126 0.82743686 0.8169889 -0.006435949 -0.0740974 0.014134022
-0.08755175 0.92025036 0.8363978 -0.09246352 0.66401035 -0.0990917 0.76472104 0.072449856
0.78141963 0.22748524 0.028597564 0.4132706 0.043632876 0.7601464 -0.00991383 0.79011965
0.88482785 -0.091757305 0.5982476 0.8066317 0.7716211 0.8062658 -0.025046384 -0.060277916
0.75280666 0.32871243 0.738956 0.02070017 0.82793117 -0.00043911455 -5.4986944e-05 0.0013063301
0.76691926 0.89721465 0.8283912 0.72705173 0.8968873 0.8178876 0.80271095 0.7059909
-0.052534577 -0.09310132 -0.071015574 -0.06979802 0.75169164 0.7715956 -0.004653236 -0.09229901
0.7433421 -0.06264338 0.7276829 0.8597188 0.7815186 -0.093536 -0.083625875 -0.06867762
-0.074283265 0.7377378 -0.08354572 0.41083065 0.8306192 0.018544057 0.81379527 0.70838815
-0.021018796 0.77952784 0.8267094 -0.08963589 -0.08218085 0.052304238 0.73018515 0.6900591
0.7471519 0.7721499 -0.00026004788 -0.0001288774 0.6667294 0.71752214 0.9075399 0.83269286
0.71838874 -0.08540237 0.76234853 0.77973324 0.71578795 0.76164097 -0.075411014 0.67460066
0.7594515 0.6857686 0.8624106 -0.008307354 0.54379106 -0.015354013 0.888347 -0.0202004
-0.055476498 0.055179246 0.85009784 0.5249845 -0.05451793 -0.05612772 0.0035583307 0.74216527
0.77524483 0.06004747 0.7366412 0.043075655 0.77904 0.9164293 0.8348666 0.87355727
0.79542947 0.77855253 0.17977487 -0.08356081 -0.024188707 0.06256377 0.07085243 0.8149084

fc2.weight f4 [1, 256]
00000000: d784 71bb 2622 2ebd 1f68 4cbd 25ee 96bc
00000010: 2900 0e3f d28d c1bc d510 303a e949 17bd
00000020: fdf4 2fbd 88aa 5e3f 5187 5a3f 65c0 493f
00000030: 9411 40bd f343 04bd 1499 5a3f 2a6a 4b3f
00000040: 0f48 633f ed9d 68bc e746 4d3f df9a 11bd
00000050: 4d5a 623f de54 29bd afa0 4a3f 8420 663f
00000060: d6c0 163e 8f24 663f cd8f 643f 962f c8bb
00000070: 548b ef3e 25ef 4e3f a034 45bc 51f5 4e3f
00000080: 355d 10bd 2349 613f 2e7b 5abd 69f5 eebc
00000090: f186 643f fc1e 3fbd ae30 41bd 8959 5e3f
000000a0: 6fcc 82bc 6063 543f 8f2f 46bb 67ed 433f
000000b0: fdec 5c3f ab35 563f 2288 b73e 9998 4c3f
000000c0: d7cc 3dbd 2fd9 543f b74d 0ebd 10c0 d03b
000000d0: c240 4f3f 4da6 13bd 731b 683f 201d 573f
000000e0: d1fc de3e a6f0 5f3f 7d0a 4f3f 8af6 27bd
000000f0: 91a1 5c3f 2de9 503f 8857 563f d444 513f
00000100: dc12 d8bb 9d5c 5a3f c2e0 94bc b7c7 5a3f
00000110: c7d7 513f 94d0 63bd ea51 06bd 9e50 64bc
00000120: c8e9 5c3f 0750 6b3f 5f67 41bd f2ff 5e3f
00000130: 81b2 5e3f 0256 5c3f 00e2 fe3b 9476 613f
00000140: 20dd 5a3f de21 183d 3eab 4f3f 8ab0 523f
00000150: 584d 373f e93d 533f b0e7 593f 1811 123f
00000160: 21d5 5e3f e776 663f 5eae 29bc f186 593f
00000170: d5f3 0cbd a3a0 643f 2623 5a3f bed5 42bd
00000180: 7762 4e3f 3050 643f 4220 5d3f 47ef a1bc
00000190: 9d99 5b3f a0b9 343d 5751 5e3f 004a 54bd
000001a0: cf73 56bd a9cc 5cbb d064 3cbd fedf f5bc
000001b0: d984 5c3f 46a6 693e bc35 5abc c094 eb3a
000001c0: cd94 573f 6efc 4f3f f216 543f 774a 613f
000001d0: 7a83 8cbc c55c 563f 7f1f 523f 7e5a 543f
000001e0: f3ff 603f a0f7 483d ace0 583f c4fe 573f
000001f0: 6610 533f 08fd 7abc 3321 5f3f b3df 553f
00000200: b534 4b3f 448d 3bbd 29a4 6b3f 2434 513f
00000210: 289e 613f 5a29 b7bc 5a36 473d 24e9 0a3b
00000220: 867f 41bd df92 4b3f 7ef9 683f b95b 67bd
00000230: 6e95 603f a030 48bd 1770 4d3f 89a4 44bd
00000240: aa2d 593f cd5a 6d3e e021 ccbc 00e4 e53e
00000250: d3e8 00bd 0943 603f 104e b0bc 06dd 543f
00000260: 5b9c 4f3f 9e80 2d3d cf0e 113f 5dd4 5c3f
00000270: c695 633f 9c3c 513f c4f1 c2bc c4c6 f5bc
00000280: 4461 5b3f 9813 a83e f072 4e3f 5658 07bc
00000290: 8b6c 503f 7f29 0cbc bdde e8bc aadb 9ebc
000002a0: 8df1 503f 83d2 523f 4311 503f 7ea1 553f
000002b0: fd87 4e3f 5d6d 4c3f 5f60 573f 5174 5d3f
000002c0: b19c 45bc 3193 21bd e115 05bc d491 0f3d
000002d0: aaa9 5a3f 469a 673f 492f 17bd fc14 1cbd
000002e0: 7c5b 553f f461 b43c 53db 673f a54c 563f
000002f0: d219 493f b048 f83b 6c41 98bb f399 72bc
00000300: b8f1 80bc 3eec 603f 4c2f 65bd bde0 dc3e
00000310: 0d5d 623f 94c1 45bc c0bb 583f 9f16 513f
00000320: ac63 00bd 39f1 603f e71c 5e3f 35e1 89ba
00000330: 235e 18bd 197a 5dbc 214d 3b3f 9283 643f
00000340: 9e67 533f ef1a 4f3f 71aa a9bc 7028 86bc
00000350: 277b 563f 9d7f 5b3f d772 513f 344c 573f
00000360: 537c 3b3f 7b69 26bc 1c43 573f b702 4e3f
00000370: cc70 603f db38 503f 87f7 f5bc 3517 583f
00000380: 8b64 5b3f be24 563f 7179 5a3f 9309 bcbc
00000390: 9bb4 033f 5362 6fbd 519b 593f a3db 3fbd
000003a0: 7af2 453d 90ab 37bd 447e 533f 2c0b 2c3f
000003b0: 067f 1fbd c969 96bc 4fe8 04bd 5aaf 5c3f
000003c0: 9e31 5d3f 5c8d 983c c7e6 5d3f a361 81bb
000003d0: d9d7 5d3f 7d3d 4b3f fa1a 4a3f 5588 5d3f
000003e0: 357d 633f 3d64 5d3f 2391 e03d 6e06 8fbc
000003f0: 5ef1 0dbd b5ff 40bd e342 2ebd 27e3 613f
-0.003685286 -0.042513035 -0.049903985 -0.018424103 0.55468994 -0.023627196 0.00067163754 -0.03693572
-0.04295825 0.8697896 0.85362726 0.78809196 -0.046891764 -0.032291364 0.8538983 0.7945887
0.8878183 -0.014197809 0.80186313 -0.035548087 0.8841904 -0.0413407 0.79151434 0.89893365
0.14721999 0.89899534 0.8928192 -0.0061091883 0.46785986 0.80833656 -0.012036473 0.80843073
-0.03524514 0.8800222 -0.05334013 -0.029169755 0.89268404 -0.04666041 -0.047165565 0.8685537
-0.015966622 0.82964134 -0.003024075 0.7653412 0.86299115 0.8367564 0.3584605 0.79920346
-0.04633793 0.83143896 -0.034742083 0.006370552 0.8095819 -0.03604727 0.90666884 0.84028816
0.4355226 0.87476575 0.8087538 -0.041006602 0.8618403 0.816058 0.8372731 0.8174565
-0.006594045 0.85297567 -0.01817358 0.8546099 0.81969875 -0.055618837 -0.032792963 -0.013935236
0.8629422 0.9191899 -0.047217723 0.8710929 0.86991125 0.8606874 0.007778406 0.8807156
0.8549366 0.037141673 0.8112067 0.8230063 0.7160239 0.8251634 0.8511915 0.57057333
0.8704396 0.9002518 -0.010356514 0.8497153 -0.034412224 0.8930761 0.8520988 -0.04756712
0.80618995 0.89184856 0.86377347 -0.019767417 0.8578127 0.04412234 0.86842865 -0.051828384
-0.052356537 -0.0033691323 -0.04599458 -0.030014034 0.8614021 0.22817335 -0.013318475 0.0017973408
0.84211427 0.8124455 0.8284751 0.8800425 -0.017152537 0.83735305 0.8207931 0.8295058
0.8789055 0.04906428 0.8471782 0.84373116 0.824469 -0.015319116 0.87160033 0.8354446
0.793773 -0.04578902 0.92047364 0.81720185 0.8813195 -0.022358585 0.048635818 0.0021196092
-0.047240756 0.7952098 0.91005695 -0.056483958 0.8772801 -0.048874497 0.8024916 -0.048008475
0.848353 0.23179169 -0.024918497 0.44900513 -0.03147204 0.8760229 -0.021521598 0.83149755
0.81097955 0.042358987 0.5666322 0.8626154 0.8890041 0.8173311 -0.023796923 -0.030002005
0.8569529 0.3282745 0.8064413 -0.008260807 0.81415623 -0.008554815 -0.028426522 -0.019391853
0.8161858 0.82352465 0.8127634 0.8344954 0.8067625 0.79854375 0.84131426 0.8650561
-0.012061284 -0.039447013 -0.008122892 0.035051182 0.85415137 0.9046978 -0.03691033 -0.03810595
0.8334272 0.022019364 0.9056904 0.837107 0.78555024 0.0075770244 -0.004646471 -0.014807212
-0.01574026 0.87860477 -0.05595331 0.43140212 0.88423234 -0.012070078 0.84661484 0.8167514
-0.031345055 0.87868077 0.8676285 -0.0010519387 -0.03719915 -0.01351788 0.73164564 0.8926326
0.8257998 0.8090047 -0.020711156 -0.016376704 0.83781666 0.857416 0.81815857 0.8410065
0.7323658 -0.010156984 0.84086776 0.8047289 0.87672114 0.81336755 -0.030025257 0.8441041
0.8570029 0.83649814 0.85341555 -0.022953784 0.5144746 -0.05844338 0.8500262 -0.04684032
0.048326947 -0.04484135 0.8261454 0.67204547 -0.0389395 -0.01836099 -0.03244811 0.86205065
0.86403835 0.018622093 0.86680263 -0.003948407 0.8665748 0.793907 0.7894741 0.8653615
0.88862926 0.86481076 0.10965183 -0.01745912 -0.034654014 -0.04711886 -0.042544257 0.8823723
