model_epoch_400.pth (torch, 141254 bytes, 15 tensors)

target_net.fc1.weight f4 [64, 36]
00000000: 80ed cc3d f01b 663d d651 3b3c 57b8 313c
00000010: cae5 5c3d 1397 9d3c 8b27 e7bc 2bff e53d
00000020: dbd5 563d d903 b53d 1be2 83bd d6db e0bd
00000030: 0b2b f1bd 9b9e b33d 0095 4ebd db6c f33d
00000040: f808 ae3d 787f a7bd e0d0 16bd cecc 8bbd
00000050: 9825 27be 9027 193d 8e69 ca3d 3080 80bd
00000060: 0037 fe3c a0be ecbc 86b0 a3bd 6b0f 1a3c
00000070: f02f fb3d a949 21be 234b 193e 665b 77bd
00000080: b6f9 0b3d 0003 243c 0bfc 56bd c229 8a3d
00000090: 8888 143e d6cb c03d 36f6 3cbd 1c40 75bc
000000a0: ee73 74bd 8b39 2d3c afd8 063e 578c 1f3e
000000b0: 0b07 263d ff64 123d a735 d1bc df01 da3c
000000c0: eec0 d53d d405 02be 86a9 013e b7bc df3d
000000d0: 8e85 c33c 257a ef3d f097 5cbd 166d 2a3d
000000e0: fc51 243e 5769 27be fe97 8d3d b719 e0bc
000000f0: 1072 74bd 10f4 08bd ecdf 0f3e 180f c73d
00000100: 2012 903c 07f7 88bc 003b 9cbc 8b19 663d
00000110: d629 47bc 23da 1f3e fe4e fbbd 641d 0ebe
00000120: 1662 0b3e 902b 373d 8049 153d 3b56 cf3d
00000130: ecc8 93bd 31dd 073d 60eb ee3c aafa 233e
00000140: ab89 3dbd ff4d bf3d f2d2 9a3d f10c a6bd
00000150: ab74 eb3b 980d b2bd f3dc debd ffaf 9e3d
00000160: 5a9f d63d b89a 0c3e 6bfa 163d d6da a8bd
00000170: 5ad6 1f3e 2b99 453c a045 ba3c d025 56bc
00000180: abce f93d 3351 9cbd 48d6 a13d 46f0 64bd
00000190: a8cd 00be 0631 c03c 630a 17be a8d9 b2bd
000001a0: 00e3 5e3c a04a 283d 93f7 0abe 40c9 b2bd
000001b0: 2815 943d 130a c4bd 24c8 1dbe 66bc 85bd
000001c0: 20ce 4b3d 845c 13be ca2f 103e 207d 39bd
000001d0: 5b8c 113d 2771 e03d 31a8 cabd 3fa3 093e
000001e0: 8bf2 b0bc 304f 28be acf5 093e b7af 653d
000001f0: d821 ee3d 06d7 313d 6635 e83d 5670 283c
00000200: 2b8f 8dbb 00ae 323b 447a 013e d4f4 49bd
00000210: 9619 2f3d 467a bd3d afe8 1c3e a31a 163e
00000220: c6a4 b5bd 01ca 40bd f672 fabc 3a28 18be
00000230: a69f 83bd 3632 8ebc 16bb a8bd 3437 6dbd
00000240: 86c3 56bd c004 c1bc 46f2 51bd 66ad abbd
00000250: 88e5 de3d 77f9 ea3d 56c8 a6bc 9695 4ebc
00000260: a090 1dbd ec54 88bd b8a9 0c3e d922 9abd
00000270: 36dd 07be 0695 4ebd ff8b 163e 8424 24be
00000280: 9fd1 643d 4a9f 14be 1796 193e 2086 823d
00000290: ae7a 9bbd e057 48bd 1046 2abd c9f2 203e
000002a0: 40ce 8b3c 0037 9a3c 735d 97bd 8efb d53d
000002b0: 00e0 5ab9 1e5d 013e 904c 1e3e 0f0c 073e
000002c0: 70c0 0a3d b052 28bd f060 fd3d 68a5 04be
000002d0: f6ad c1bc 43cb d5bd 96ba 5c3c 4f02 03bd
000002e0: 666d 2abd af2c a3bc ab96 6cbb c0a8 013e
000002f0: 7e49 eabd bd11 ad3d 585e bb3d f045 fc3c
00000300: 8e73 113e 440b 1b3e 534d e4bd 7f9b 81bd
00000310: 1bf8 2a3e 7e47 a0bd eba5 1bbe 6e8a f3bd
00000320: e618 5f3d 00e8 1e3b 66b4 25bd d532 c43c
00000330: 8bff b2bd e097 d73d 0b77 d4bc 8e60 863d
00000340: 0210 16be 3226 e7bd 0b57 173d c072 2c3c
00000350: d6d0 96bd e8f2 d53d 60f3 863c 3b93 21be
00000360: 56b1 3ebc 07d6 023e 9be3 b6bd 9800 70bd
00000370: e486 23be abe6 5d3e 0889 fcbd f3d3 d43d
00000380: 8b6c dcbd ae45 b13d 57d8 983d 4d22 f63d
00000390: 528f 20be c8d9 c3bd 2650 343d 5bb3 9a3d
000003a0: 923a 25be 62bd bb3d f6a8 d7bc ab6d a7bb
000003b0: 60a7 223d fbea 943d 2b99 a0bd f926 acba
000003c0: 63b4 e9bd 9ed4 bdbd 00ca e2bb ee27 17be
000003d0: 30f6 64bd c1a5 52bd a34a ca3d 70bf 48bd
000003e0: c25d 0d3e f6a9 6f3d 0021 33bc 5a3c edbd
000003f0: d8d1 f13d 0b19 df3d 5c46 10be 9018 d33d
0.10006237 0.056178987 0.011433085 0.010847173 0.05393008 0.019237077 -0.028217098 0.1123031
0.052450042 0.088386245 -0.064396106 -0.109794304 -0.11775788 0.08770486 -0.050435066 0.11885997
0.084978044 -0.081786096 -0.036820292 -0.06826173 -0.16322935 0.037391245 0.09883414 -0.0627445
0.031032085 -0.02889949 -0.079926535 0.00940309 0.12265003 -0.15750755 0.14970069 -0.0603899
0.03417369 0.010010481 -0.05248646 0.06746246 0.14505208 0.094138786 -0.046133243 -0.014968898
-0.05968087 0.010572801 0.13168596 0.15580879 0.04053406 0.03574085 -0.025538279 0.02661222
0.10437189 -0.12697536 0.12662324 0.109246664 0.023867395 0.11693219 -0.053855836 0.04160794
0.160469 -0.16348778 0.06913756 -0.027356012 -0.05967909 -0.03343588 0.14050263 0.09719676
0.017586768 -0.016719354 -0.019071102 0.056176703 -0.012155971 0.15610556 -0.12270926 -0.13878399
0.13611636 0.04471928 0.03644705 0.10123869 -0.07216057 0.03316993 0.02916497 0.1601359
-0.04627387 0.093410484 0.07559766 -0.08107937 0.0071855388 -0.08693999 -0.108819865 0.07748412
0.10479613 0.13730896 0.03685991 -0.08244865 0.15609112 0.012060444 0.022738278 -0.013070539
0.12197622 -0.07632675 0.07902199 -0.055893205 -0.12578452 0.023460876 -0.14750056 -0.08732921
0.013603926 0.041086793 -0.13571005 -0.08729792 0.07230598 -0.09572234 -0.15408379 -0.06530075
0.049757123 -0.1439076 0.1408073 -0.045285344 0.035534244 0.10959082 -0.09895361 0.1344118
-0.021600028 -0.16436458 0.13472623 0.056075778 0.11627549 0.043417953 0.1133831 0.010280689
-0.0043200455 0.0027264357 0.12644297 -0.049305752 0.04274901 0.092518374 0.15323137 0.14658599
-0.08869319 -0.047067646 -0.030572396 -0.14859095 -0.06426935 -0.017357927 -0.08238809 -0.057913974
-0.05243256 -0.023561835 -0.05125644 -0.083826825 0.10883623 0.11473363 -0.0203592 -0.012608906
-0.038468003 -0.066568226 0.13736618 -0.07526178 -0.13267979 -0.05043509 0.14701842 -0.16029555
0.055863973 -0.14513889 0.14998661 0.063732386 -0.07591759 -0.04891193 -0.041570723 0.15717615
0.017066121 0.018825054 -0.07390871 0.10448371 -0.00020873547 0.12633178 0.15458894 0.13188194
0.03387493 -0.041094482 0.12372005 -0.12953722 -0.023642521 -0.1043916 0.01347222 -0.031984624
-0.041608237 -0.019918768 -0.0036100547 0.1266203 -0.11439799 0.08450649 0.09148854 0.030795068
0.14204237 0.15141016 -0.11147561 -0.06328487 0.16696207 -0.07826136 -0.15200011 -0.11891638
0.054467104 0.002424717 -0.040455244 0.02395002 -0.08740147 0.10527015 -0.02593567 0.06561385
-0.14654544 -0.11286582 0.036948245 0.010525405 -0.07364051 0.10446721 0.016473472 -0.1577882
-0.01163896 0.12776957 -0.08930131 -0.058594316 -0.15969425 0.21670024 -0.12330824 0.103919886
-0.107628904 0.086558685 0.074631386 0.12018261 -0.15679672 -0.09563023 0.044021748 0.075537406
-0.16135624 0.09166981 -0.026325684 -0.005109509 0.039710402 0.072713815 -0.078417145 -0.0013134173
-0.11411359 -0.09269069 -0.006921053 -0.14761326 -0.055898845 -0.051427606 0.09877517 -0.049010694
0.13805297 0.058511697 -0.010933161 -0.11583777 0.11807603 0.108934484 -0.1408934 0.10307419

target_net.fc1.bias f4 [64]
00000000: 4e69 8e3d 7713 da3d ddd5 ccbd 6361 02bd
00000010: 81dc c53b 673d 21be b281 50bd f0ef f43c
00000020: d8f4 12be 4879 213e e87f 413d b3a1 163e
00000030: 62c9 df3d bc21 b5bc b365 203e 9c4c 70bd
00000040: 9c86 2ebe 9f61 1abe 63d6 d83d 2084 70bd
00000050: 2dbc febd 14e0 29be dc50 9a3d 023a d9bd
00000060: 51fa 01bd 8ab8 65bd 8ac5 263e 4b7f 5ebc
00000070: 9469 debd 5f7d 533e c0aa a23d 0476 b8bd
00000080: 1996 81bd 9aa7 883d c80c b73c 19aa cfbb
00000090: 267c 173e 9f1a 6a3d fa5a 25be 3539 993c
000000a0: cad2 f7bd 9928 0abb 20f4 dabd 9318 23be
000000b0: 9a9e 053e 9fa4 7c3d 6ab8 bfbc cea0 d3bd
000000c0: 71df 943d 2016 01be 3f5c fabd 0c1b 04bd
000000d0: ff50 35bc a50d 4a3a 0e96 b13d 5339 ab3d
000000e0: 901e 21be b5bb 143d dfd9 303d 5226 1bbc
000000f0: c5ce 05be 0f68 72bd 9e54 0b3e 4e07 aebd
0.06953679 0.10648244 -0.10001729 -0.031831156 0.006038249 -0.1574608 -0.050904937 0.029899567
-0.14351213 0.15768921 0.04724112 0.14710121 0.109270826 -0.022110812 0.15663795 -0.05866681
-0.17043537 -0.15076302 0.10587766 -0.058719754 -0.124382354 -0.16589385 0.07534954 -0.10606767
-0.03173286 -0.056084193 0.16286293 -0.013580154 -0.10859981 0.20653294 0.07942724 -0.09006885
-0.06327457 0.066725925 0.022344962 -0.006337416 0.14793453 0.057154294 -0.16147986 0.018704036
-0.12100752 -0.0021081327 -0.106910944 -0.15927343 0.13048783 0.061680432 -0.023403365 -0.103334054
0.072691806 -0.12606096 -0.12224626 -0.032252356 -0.011066674 0.00077077217 0.08671199 0.08360543
-0.15734315 0.036311824 0.043176528 -0.0094695855 -0.13067158 -0.05918127 0.13606498 -0.08497487

target_net.fc2.weight f4 [3, 64]
00000000: e6ad 8cbd 82d4 5b3b 62a6 33bd 1478 c0bd
00000010: 6ea3 33bd 1d9a a3bd 8ad4 2b3d 3902 913d
00000020: d0cc c5bd 9d66 ef3d 722b 823a d230 833d
00000030: 7e7b fdbc 1e2e b83d 6f80 d7bd 968d c33d
00000040: d3db a63d 20ac 58bc 63ac 41bd f8fb 363d
00000050: 764f 7dbd a3e1 d43d 7ef1 dbbd 8639 70bd
00000060: 3ddc aebd 55dc 2ebd 0b4b ab3d 8808 e23c
00000070: 9379 c63d 336f 03bc 30c9 c2bd ad64 843d
00000080: 84b6 f3bc 0c66 113e 7035 8e3d 6020 aabb
00000090: cfb8 6bbd efe7 0fbd 26ab c63d 5aa4 48bd
000000a0: 26d5 a53d 28bf 9abd 42b9 c33c b3c1 963d
000000b0: b232 87bb 8eda a53d 0daa 323d d16d 223d
000000c0: 6491 b13d 597a 9fbd 3a86 1fbd f794 cabd
000000d0: 3f57 bdbd 5bf7 d9bd d611 863c b31b aa3d
000000e0: ca3a 023d 3272 4b3d 3385 c13d 4bd8 d7bd
000000f0: e0c0 2ebd 2efd e93c 0326 f8bd 40eb 443d
00000100: bc4e 29bd d684 d4bd 88c8 dc3d f7e8 cabc
00000110: 7d76 bb3d f0d9 98bd 3013 7a3d f818 e53c
00000120: 5040 41bc d72c cfbd d34e 763d 1ca7 a53d
00000130: 81fd 23bc cd09 0f3d 2319 7f3d eead 09bd
00000140: 12be 81bc 9950 0e3e 1455 3c3d ceb8 413c
00000150: d6a7 ae3d 911d d63c 9fed cebd 835a 5c3d
00000160: a553 853c 03f9 ecbd 6189 0e3d 1821 c33d
00000170: 6bd5 36bd e707 70bc 757a d3bb e802 7abc
00000180: da90 f13d 295d 0cbd c67c 44bd aad4 1f3c
00000190: 6feb 9cbc a180 7bbc 3836 d4bd 6965 82bb
000001a0: 4b77 9e3c 20f5 ab3d 9afd 9cbd f47f a63d
000001b0: 376a 8f3d 3657 cb3d 5d82 d33d 1351 d2bc
000001c0: 424a 843c cdcd c53d c750 eebd e172 03bc
000001d0: df59 b1bd fcf2 97bd 04d8 b2bd 76b7 febc
000001e0: dac3 8cbd 51b0 93bd 5c7c 43bd e2c2 0abc
000001f0: b22f 34bc 5f4e a7bd 5300 81bd 102d 833c
00000200: e3bd 96bd c9ac 95bd c825 93bd d7c9 0c3d
00000210: 7a72 abbc 35bb 8a3d f042 8dbd 9f35 153c
00000220: baa9 823d ce8f ef3d c977 fe3d 1416 00bd
00000230: 9670 b6bc 13ba 863d 5a9d 44bd b3bc 81bd
00000240: ff86 06bd ef9c 61bc acf9 703d 43fd a4bc
00000250: 137f ffbd d201 7cbd 1aad 003e b33e 79bd
00000260: 9323 e03c 868b 9d3d 6519 d53d 7c39 003d
00000270: 55b0 98bd 09bb 313e 4ca1 c73d 9c82 0e3e
00000280: b68b b7bd 18c4 25bc c5b1 f13d e01f 3cbd
00000290: 0d04 ebbb 4206 093d a73b ba3d de45 45bd
000002a0: 53a9 14bd 3e2e c7bd f1a3 99bc f88e cf3d
000002b0: 8c4e 1d3e 2d80 b3bd 54dd 88bd 23d5 a83d
000002c0: 5078 0fbc a11d 1c3d 25b7 cd3d dd9f 0a3c
000002d0: 771c b9bd 69a4 b1bc f09f 7b3d fccd e53d
000002e0: 1c6b 06be 99de dabd 54b3 e53d 080d 9d3d
000002f0: 464e dabd c693 aabd ea90 c73d 501e 063c
-0.06869106 0.0033543413 -0.043859847 -0.09397903 -0.04385703 -0.07988379 0.04195074 0.07080502
-0.096582055 0.11689494 0.0009931161 0.06405796 -0.030942675 0.08993171 -0.10522544 0.0954849
0.08147397 -0.013224632 -0.04728354 0.04467389 -0.061843358 0.10394599 -0.1073942 -0.05864861
-0.08538101 -0.042690594 0.08363923 0.027591959 0.09691157 -0.008022117 -0.0951103 0.06464515
-0.029750116 0.14199084 0.06943786 -0.0051918477 -0.057549294 -0.0351333 0.09700613 -0.048984863
0.080972955 -0.075559914 0.023892049 0.07361164 -0.0041259164 0.080983266 0.043619204 0.03965551
0.08670309 -0.07787008 -0.038946368 -0.09891694 -0.092451565 -0.106428824 0.016365927 0.083060645
0.031794347 0.049669452 0.09449234 -0.105393015 -0.04266441 0.028563108 -0.12116625 0.048075914
-0.041334853 -0.10376899 0.10780436 -0.02476929 0.09153459 -0.07463443 0.061053455 0.027966008
-0.011795118 -0.101159744 0.060133766 0.08088514 -0.0100091705 0.034921456 0.06227983 -0.033613138
-0.015837703 0.13897933 0.045979574 0.011823846 0.08528106 0.026137145 -0.101039164 0.053797256
0.016275236 -0.11570933 0.034798983 0.095277965 -0.044637125 -0.014650322 -0.006453807 -0.015259482
0.11795206 -0.034268532 -0.047970556 0.009755293 -0.019155232 -0.015350492 -0.10361904 -0.003979374
0.019343993 0.08396363 -0.07665558 0.08129874 0.07002681 0.099287435 0.10327599 -0.025673425
0.01614869 0.09658394 -0.11636501 -0.008022995 -0.0865972 -0.074193925 -0.08732608 -0.03109334
-0.06873293 -0.07211364 -0.04772602 -0.008469315 -0.0109977 -0.08169245 -0.0629889 0.016012698
-0.07360437 -0.07308347 -0.071849406 0.034372177 -0.02092861 0.06773988 -0.06897533 0.009107023
0.06380029 0.116973504 0.12425191 -0.031271055 -0.022270482 0.065784596 -0.048001625 -0.0633482
-0.032843586 -0.013770326 0.058831856 -0.020140296 -0.12475409 -0.061525173 0.12566033 -0.06085081
0.027360713 0.076926276 0.10405234 0.03130482 -0.07455508 0.17356504 0.09747562 0.13917011
-0.089621946 -0.010117553 0.11801485 -0.045928836 -0.0071721138 0.033453234 0.09093409 -0.048162334
-0.036294293 -0.09725617 -0.018754931 0.10134691 0.15361995 -0.08764682 -0.0668284 0.082437776
-0.008756712 0.038114194 0.10044698 0.008460966 -0.09038632 -0.021684842 0.061431825 0.11220929
-0.13126796 -0.106869884 0.11215845 0.07668501 -0.10659461 -0.08328967 0.09744437 0.008185938

target_net.fc2.bias f4 [3]
00000000: 6c44 383c d5d8 803b a57d 113d
0.011246782 0.0039320984 0.035520215

tatic_net.fc1.weight f4 [64, 42]
00000000: 7b30 123e bfca 1dbd 8dc3 f03b c534 04be
00000010: 54da cc3c e949 dcbd 13bc 32bd 368c d7bd
00000020: c55e bc3d b5a7 0e3e 8571 7abd f8d8 bd3b
00000030: 6906 00be e0cb ff3d d6df b93d ba5c e6bd
00000040: 4080 f5bd faa6 003e 9eaa 633c 56ac debd
00000050: f63d 1d3e 89c0 c0bd 0365 44bd 0f5e 0f3e
00000060: 9177 16be 206c bc3d cf18 92bd be9e cabd
00000070: 4dc2 9c3d d14c 97bd 9a53 063d a0a9 fb3d
00000080: 6106 5abc 1686 19be 1558 d23d 14cf c63d
00000090: a556 e4bd 7ceb ea3c 740c 313d 18a4 8b3d
000000a0: 9686 ae3d 37a0 28bd a1ce fcbd 1ace 153e
000000b0: b21f 62bd 3046 fa3d ffeb e039 cda8 783d
000000c0: 431b 0e3e 7d4a 19bd 54c6 21bc bca0 d3bc
000000d0: b8de 673d ee1a d63d 385c adbd bf05 90bc
000000e0: c4c7 a9bd 2b68 f2bd 4a96 423d 62af b83d
000000f0: 0679 b03d 60ad 923d f34c 18bd a3cd 083d
00000100: 7a4c 1d3e caf3 58bc 4336 b5bd 287c f13d
00000110: 624c af3d 36dc 153c 34f6 04be ebed 7a3c
00000120: 1fde c1bd 94e3 273d a429 17be b699 f4bd
00000130: 1ed5 1cbd 15a0 1f3e 7895 08be 19f8 6abd
00000140: 7fb9 abbd 0d0f cf3d 00d0 a9bc c479 853d
00000150: 3605 833d 2c40 b23d beda f9bd ff7b 08be
00000160: 348d e4bd d7a6 2d3e 00d0 443d a394 ad3d
00000170: 082f 863d 6b06 2d3d a89d 64bd bc69 b13d
00000180: 6782 19be bf84 09be e8da 983d 8d9d b3bd
00000190: e4f4 f73d 4043 d1bd b5a3 963d d86f f6bd
000001a0: 84fd b6bd ed8a 36bd 7d93 ffbd b745 5abd
000001b0: d515 563d a8b8 ca3c 6ed2 7abd 56d0 cd3d
000001c0: 242d 8fbc 87b6 fe3d 6e23 0fbe 0eca a63b
000001d0: cb3f 233d 0e88 463d b822 0abe 49d2 0e3d
000001e0: b50b 233d f016 12be a85b d8bd 32aa c53d
000001f0: 6350 14be 41f1 5fbb 810c 11be 32e0 ddbd
00000200: 6f3b 903d 3245 263e a753 8a3d 8450 253e
00000210: 96f5 0fbe ebba fabd 7776 fbbd 85c9 103e
00000220: f237 6fbd 5320 863d 846c 973d 44ec 13be
00000230: bae7 ba3d 9fb9 26be 1dcc ffbc 2fa1 f73d
00000240: 2fa1 9b3d 5ed5 1c3e c345 563c 09be 963d
00000250: 375b c0bd a31c 273e e210 87bd 7014 e4bd
00000260: 72d6 d23d 176d 98bd bff5 103e 38e9 a9bd
00000270: 1c9f c03c 1585 0bbd e82b a13d 3781 b5bc
00000280: 91ce f83d 9bdd e03c f892 11be 78ae a9bd
00000290: fb8a eebd b59a cc3d 7a0d 95bd 2dee 1d3e
000002a0: 4b34 523d 25fd 02be 18ba 0abe a299 eabd
000002b0: f15a f03c 17a2 6ebd 19c8 d1bd f821 18be
000002c0: aef0 13bd 8c03 a2bd be0f 92bd d5ee 083e
000002d0: 88c8 f3bc 4285 a2bd dac0 14bd 9e08 02be
000002e0: 127b e23c 17d3 1d3e 1602 96bd 216f ca3c
000002f0: 2fc0 d6bd b7b6 393d f99b d5bd 5eaf 21be
00000300: e5a1 de3d e238 da3d ddf2 bb3d 221c 4a3d
00000310: 3740 11be 9d9b ad3b 3f1f 443d d367 cf3d
00000320: 9b85 3dbc ce44 edbd a35b 20bc d8df a23d
00000330: a391 41bd e041 32bc 6a6a 00bb 4f25 e9bb
00000340: 1dad 013d 3734 1c3e 7e23 9d3d da9f f7bd
00000350: d79c 153e 38c0 103c cfae 8abc 5596 e53c
00000360: ba1a ad3c 4df6 123d 4f85 1fbb 58ad cf3d
00000370: cc1e 59bd 6d04 c73d 3862 7d3d af32 b63d
00000380: 23fb 333d f3a6 ff3c 23dc 7fbd 0699 efbd
00000390: 35bf d13d c25a b2bd ec84 703d 4d79 563c
000003a0: b030 febd 9f78 77bc 16d5 dc3c 86ba 673d
000003b0: fcfa debb ca20 193d f743 febd 0f19 75bd
000003c0: 90bf 1d3e e2e8 053e 8ddf 9cbd 60f7 0b3e
000003d0: a2cf 0c3e 253e a63b 0af8 d0bd 4f11 ee3d
000003e0: 65df 0fbe c463 ef3d 321c a23c d726 05be
000003f0: 7300 c63d d4ff fd3d 3639 b03d 89bd babb
0.14276306 -0.038523432 0.00734753 -0.12910755 0.02500645 -0.10756285 -0.043636393 -0.1052479
0.09197763 0.13931163 -0.061143417 0.005793687 -0.12502445 0.12490058 0.090758964 -0.11248155
-0.11987352 0.12563697 0.013895659 -0.10872714 0.15355667 -0.09411723 -0.047947895 0.14000724
-0.14694048 0.09200311 -0.07133638 -0.09893559 0.076542474 -0.073876984 0.032794572 0.12288213
-0.013307185 -0.14992556 0.102707066 0.09707466 -0.11149339 0.02867674 0.043224767 0.06818408
0.08521764 -0.041168418 -0.12344099 0.14629403 -0.05520601 0.122204185 0.0004290044 0.060707856
0.13877587 -0.037424553 -0.009873945 -0.02583348 0.056608886 0.10454355 -0.08464855 -0.017580865
-0.082900554 -0.11836275 0.047506608 0.090178266 0.086168334 0.07161975 -0.03718276 0.033399235
0.15361205 -0.013241718 -0.0884824 0.11791259 0.08559491 0.009146741 -0.12984544 0.015315513
-0.09466194 0.04098852 -0.14761978 -0.119433805 -0.038289182 0.1558841 -0.13338268 -0.05736551
-0.0838499 0.101102926 -0.020729065 0.065173656 0.06397478 0.08703646 -0.12199925 -0.13328551
-0.11159745 0.16958176 0.048049927 0.08475616 0.06551939 0.04224245 -0.055814415 0.08662745
-0.14991151 -0.13429545 0.07463628 -0.08770285 0.12107256 -0.10217905 0.073554434 -0.12033051
-0.08935073 -0.044566084 -0.12479303 -0.05328914 0.052266914 0.024746254 -0.061235838 0.100495026
-0.01747758 0.12437158 -0.13978359 0.0050900048 0.03985576 0.048469596 -0.13489807 0.034868512
0.039806087 -0.14266562 -0.10564357 0.09651603 -0.1448379 -0.0034170898 -0.14164926 -0.108337775
0.07042586 0.16237333 0.06754237 0.16143996 -0.14058527 -0.12242683 -0.12278455 0.14139374
-0.058402963 0.06549134 0.073937446 -0.14445597 0.091262296 -0.16281746 -0.031225258 0.1209129
0.07599103 0.15315768 0.013078156 0.07360465 -0.09392398 0.16319518 -0.06595017 -0.11136711
0.102948084 -0.07442682 0.14156245 -0.08296436 0.02351337 -0.034062464 0.078697026 -0.022156341
0.121487744 0.02744942 -0.1421622 -0.082852304 -0.11647602 0.099904455 -0.07277961 0.15422888
0.0513194 -0.1279188 -0.13547552 -0.114550844 0.02934024 -0.05826005 -0.10243244 -0.14856708
-0.036118202 -0.07910833 -0.07131909 0.13372357 -0.029758707 -0.07935573 -0.03631673 -0.126986
0.027646575 0.15412556 -0.073246166 0.024711194 -0.10485875 0.045340266 -0.1043014 -0.15789554
0.10870723 0.10655381 0.09177182 0.049343236 -0.14184652 0.0052980916 0.04788136 0.10127225
-0.011567499 -0.11585389 -0.009787473 0.07952851 -0.04725803 -0.010879964 -0.0019594678 -0.0071150432
0.031659234 0.15254293 0.07672785 -0.12091036 0.14610611 0.008834891 -0.016929058 0.028025785
0.021130908 0.035879422 -0.0024340933 0.101404846 -0.053007886 0.09717641 0.061861247 0.08896386
0.043940675 0.031207537 -0.062465798 -0.11699109 0.10241548 -0.08708717 0.058720514 0.013090444
-0.1241163 -0.015104442 0.026957076 0.056574367 -0.006804822 0.037384786 -0.12415307 -0.05983835
0.15405107 0.13077119 -0.076598264 0.13668585 0.1375108 0.005073326 -0.1020356 0.11624395
-0.14050062 0.11688951 0.019788835 -0.13003097 0.096680544 0.12402311 0.08604662 -0.005698864

tatic_net.fc1.bias f4 [64]
00000000: f546 c43d 9473 5bbd 423b 7f3d 2e78 e33d
00000010: 965a 503c 8ca3 a13d e883 5dbd abf4 bfbd
00000020: 8564 b9bd bdb8 1b3c 9ff0 9b3d 50db c13d
00000030: 4acf b1bd ea95 f13c 5593 0d3d 96a0 d63d
00000040: 9607 b3bd 2322 bb3d 75a1 073e 82c7 c13d
00000050: 7656 683d eae9 fd3d 1973 d2bd 1c37 0b3e
00000060: 60d2 acbd b152 2fbd 67fc 13bd 87eb 943c
00000070: 97d0 17be eec2 df3d 0178 bcbd 0967 84bd
00000080: f6dc f03d 59aa 97bd eddb d43d 7c7f 83bc
00000090: 118c b23c 2633 e3bc 96d9 123d 8f50 a63d
000000a0: 466f a1bd e29c cebd c43a 513d 2a2d fa3d
000000b0: 671f 633d 4ae3 323e eb86 0dbe 6dff c93d
000000c0: 9c01 1b3d 84f3 10be 87ed 08be 39d6 f2bc
000000d0: 7e90 21bc f944 e8bb 3ef0 d8bc b2c0 4e3c
000000e0: faf1 103e b644 1b3d 2fa7 943d 471e e43d
000000f0: ce39 a43b e533 cebd c847 1bbe 2272 a6bd
0.095838465 -0.05357702 0.062312372 0.11106907 0.01271691 0.07892522 -0.054080874 -0.093728386
-0.09052376 0.009504494 0.07614254 0.09465659 -0.086821154 0.02949043 0.034564335 0.10479848
-0.08741681 0.091373704 0.13245185 0.09461881 0.05672308 0.12398131 -0.102758594 0.13595241
-0.08438563 -0.04280347 -0.03612938 0.018178714 -0.14825664 0.10925852 -0.092025764 -0.06464965
0.11760895 -0.07405538 0.1039351 -0.016052 0.021795304 -0.02773435 0.035852037 0.08120834
-0.07882552 -0.10088517 0.051081434 0.122156456 0.05544987 0.17469516 -0.13820998 0.09863172
0.03784333 -0.14155394 -0.1337186 -0.029643165 -0.00986111 -0.0070883003 -0.026481744 0.012619184
0.14154807 0.037907325 0.0725845 0.111385874 0.0050117737 -0.10068492 -0.15164101 -0.08127238

tatic_net.fc2.weight f4 [6, 64]
00000000: c847 083d 66a6 823d 681e 77bd 947f 903d
00000010: b044 17bd 6057 6d3c 0067 413a fc31 c53d
00000020: ec34 a53d 9801 bcbd 3a06 d93d 2243 c13d
00000030: ae4b a6bd 40e2 da3c 341e 2fbd 726e 9c3d
00000040: 1a9d f2bd daa4 cbbd c014 0fbc 0474 043d
00000050: c2d7 eb3d 5a93 ddbd 9a3e 9e3d 6069 fabb
00000060: c00d 49bc 72af f7bd 8081 e53d 3c61 b23d
00000070: dc98 5e3d b86b a13c ac36 08bd 6e6f c2bd
00000080: 0c9f cfbd 8c24 333d b053 9bbc 3867 ac3c
00000090: f4f3 f03d 0000 013c 6038 0c3c 8c33 e1bd
000000a0: 0a8d b4bd 089b cdbd f0e2 26bc 50ec e6bd
000000b0: 10a9 f8bd 70e9 4ebd 70fa 4c3c 4cf7 723d
000000c0: 6022 2e3d f01f 7e3d 86a9 a6bd 2c57 cabd
000000d0: c6f2 b3bd a25b aabd c0a0 0d3c 9a10 c7bd
000000e0: a0da 77bc e45b 8ebd 786e da3d 3056 993c
000000f0: c0f0 d73b a8b3 c73d 8006 84bd b278 bf3d
00000100: a103 4cbd a8b5 e43d 5e61 7abd 4ab4 3a3d
00000110: adb3 03be 2537 42bb 05b2 aebd a6ee 09be
00000120: f7bb 77bd 5b99 c93d 6073 04be 951f c03d
00000130: 2fd1 223d 6f4f b2bd 567b bd3d aaea 2ebd
00000140: 958b 203d bb36 a6bc 7562 f1bc 848a bcbd
00000150: 66bc 293d 20e5 cc3c 4ad4 debd f459 e3bc
00000160: 3d07 4b3d 1948 16bd 84fc 7bbd 9ddc 69bd
00000170: 249f 43bb 5ffc 163d 0ee5 45bd 3162 a4bd
00000180: 4040 183d 1dcc 9abc b168 ce3d abb3 513d
00000190: 9cbb 7a3d 8b93 683d 897d b0bc 7e2b 383d
000001a0: e178 71bd 4ec7 1c3d 470d a83d e889 b23b
000001b0: caf6 ffbc d926 c9bd 3fa9 f93b 52b0 edbc
000001c0: 79f3 cdbd b988 8d3a fcac ba3d d094 e2bd
000001d0: 6fb5 6f3d 32cd 6c3d fcf4 00bd f18f 01be
000001e0: a5cf b8bc 7012 8bbd 4115 053e ab68 76bc
000001f0: 39c8 d03d b6b2 2fbd 561b f73c 7b44 85bc
00000200: c048 63bd 6015 5dbd 5965 c3bb 7292 8a3d
00000210: 55ee a33d 745b 47bd 2a2d 343d da90 123d
00000220: d293 98bc 61b6 f0bd d8a0 67bc edc5 17bc
00000230: 4479 9a3d fe59 2cbd 47dc 0fbd ef86 0fbd
00000240: 56d9 f0bd 8ff7 95bd 3d5f 32bd 0953 a7bd
00000250: 70ce a93d 9593 f43d 71fc 353d af1e d2bb
00000260: e968 0fba 6792 c83c 8b5e 3ebd 0f4b 2d3c
00000270: f9a4 d73d 57a7 1c3c 1936 04bd c183 163d
00000280: c00e 463b 0d59 633d cd22 e0bc a853 a03d
00000290: bfae 69bc 82af b93d ba47 94bd 76c4 04be
000002a0: f5cf af3d 9dfb f43d 66ac 93bd d13f e13d
000002b0: 6d1e c3bc 83aa 923c 0e7c a93d bdbb dc3d
000002c0: b8d8 7ebd 3480 bebd f29e 8e3c f16d bd3d
000002d0: a5a9 8fbd 5584 e83d d48b a0bd e1a4 26bc
000002e0: 042d 05be f65d c9bc e434 fb3d ca2e 133e
000002f0: cc85 5bbd c6de 743d cab6 0a3d c515 c03d
00000300: 0482 b8bc ec8d b83d b27e 083c 90f4 c73d
00000310: 00de 6c3c 77c1 08bb c795 ac3c 3221 aebc
00000320: 012c 09bd b0d3 acbc b04c c9bd 8a04 b5bd
00000330: 586e 753c ab31 bbbd cbe8 5cbd 2e5e 6dbb
00000340: 6717 ab3d 5cd8 e9bd e37f f83c 03df 55bd
00000350: ee65 39bd 66f3 9cbd a12a e43c 2e0d 82bc
00000360: 19be 343c f212 87bd b1a2 15bd 34a2 e83c
00000370: 3c4c 00be 32fc ee3d a747 41bd e039 c4bc
00000380: 91dc 14be 7163 393d 78d8 a93d 61c2 fdbc
00000390: d273 5a3d df95 44bd 455b 45bc 4251 333d
000003a0: db80 ac3d f12e 1fbb 2810 73bd 02a5 83bd
000003b0: abe6 41bd 6bab c63d 4d13 b23d ff42 31bd
000003c0: 80f2 aabd 8960 0d3e 574a 4a3d 69ea a7bd
000003d0: 735f b6bc 32b1 0b3d 54e6 aabd 08d2 49bd
000003e0: da46 f3bd 4b1d cf3d e464 ef3d 79dd 9dbc
000003f0: ad59 b4bd 17cd 87bd 45e5 1f3c 1e47 31bd
0.03327158 0.06379394 -0.060331732 0.070555836 -0.03693074 0.014486164 0.0007377714 0.096286744
0.08066735 -0.091799915 0.10596891 0.09436633 -0.081199035 0.026719213 -0.042753413 0.07638253
-0.11846371 -0.09943552 -0.0087329745 0.032337204 0.11515762 -0.10819121 0.07726784 -0.007641956
-0.012271345 -0.120940104 0.11206341 0.08709952 0.054344997 0.019704685 -0.033255264 -0.0949391
-0.10137758 0.043736026 -0.018960804 0.021045312 0.1176528 0.007873535 0.008558363 -0.1099616
-0.088159636 -0.100393355 -0.010185942 -0.11275542 -0.12141621 -0.050515592 0.012510881 0.059317872
0.04251325 0.062042177 -0.08137803 -0.09879908 -0.0878654 -0.08318259 0.008644283 -0.09719963
-0.015127808 -0.069511205 0.106656015 0.018717855 0.006589979 0.097510636 -0.06446552 0.09349193
-0.04980815 0.11167461 -0.061128013 0.045582093 -0.1286151 -0.002963492 -0.08530048 -0.13469943
-0.06048199 0.09843703 -0.12934637 0.09381024 0.039750274 -0.08706557 0.0925204 -0.04270426
0.039195616 -0.02028977 -0.029465893 -0.09206107 0.041439436 0.025011599 -0.10880335 -0.027752854
0.04956745 -0.03668985 -0.061520115 -0.05709516 -0.0029849494 0.036861774 -0.048314147 -0.08026541
0.03717065 -0.018896157 0.10078562 0.051196735 0.061214074 0.056781333 -0.021544235 0.044963352
-0.05895317 0.03827601 0.082056575 0.0054485686 -0.031245608 -0.09821863 0.0076190527 -0.02901474
-0.10056204 0.0010798193 0.091150254 -0.1106354 0.058522638 0.057812877 -0.031483635 -0.12652566
-0.02255995 -0.06790626 0.12996389 -0.015039603 0.101944394 -0.04289504 0.030164402 -0.016268006
-0.0554893 -0.053975463 -0.0059630093 0.067662135 0.080044426 -0.0486712 0.043988384 0.035782672
-0.018625174 -0.11753536 -0.014137469 -0.009263498 0.07542661 -0.04207801 -0.035122182 -0.035040792
-0.117602035 -0.07322609 -0.043547858 -0.081701346 0.08291328 0.119422115 0.0444302 -0.006412349
-0.000547065 0.024483873 -0.046476882 0.010576977 0.10529513 0.009561381 -0.032278154 0.036746744
0.0030221194 0.055504847 -0.027360344 0.07828456 -0.014262854 0.090666786 -0.07240243 -0.12965569
0.085845865 0.11962054 -0.07210617 0.109985 -0.02381822 0.017903572 0.08275615 0.10777996
-0.062218398 -0.093017966 0.017409775 0.09249485 -0.07014779 0.11353365 -0.0783917 -0.010171146
-0.13005453 -0.024580937 0.122659475 0.14373317 -0.053594396 0.059782766 0.033865727 0.09379152
-0.022522934 0.090114444 0.008330988 0.097634435 0.014457226 -0.0020867267 0.021067513 -0.021256063
-0.03348923 -0.021097034 -0.0982908 -0.088387564 0.014979921 -0.09140333 -0.053932946 -0.0036219466
0.08354073 -0.114182204 0.030334419 -0.052214634 -0.045263223 -0.07663612 0.027852358 -0.015875425
0.011031651 -0.065954104 -0.036532108 0.028397657 -0.12529081 0.11669196 -0.047187474 -0.023953378
-0.14537264 0.04526085 0.08293241 -0.030976476 0.05333311 -0.04799449 -0.012045686 0.043778665
0.08423015 -0.0024289454 -0.05934158 -0.06427957 -0.047339123 0.09700664 0.086950876 -0.043276783
-0.083470345 0.13806356 0.049387302 -0.08199007 -0.02226231 0.034104533 -0.08344713 -0.049272567
-0.11878748 0.10113009 0.11689165 -0.019270645 -0.08806167 -0.06630915 0.009759252 -0.043280713

tatic_net.fc2.bias f4 [6]
00000000: c4b9 653d dcda c1bd 0f65 113d 127a e83c
00000010: 20b2 0a3d b3d1 92bd
0.056085363 -0.09465572 0.035496768 0.02837852 0.03386128 -0.07168903

tatic_net.fc3.weight f4 [6, 3]
00000000: 5821 b5be e6b8 be3e ff26 d6be 6618 fe3d
00000010: 9b21 c63e c04a 1dbd 431c 853e fb9d 1bbe
00000020: f1e1 81be 2beb b33e df7f 42be 37a1 10bf
00000030: 61bc 7dbe b318 05bf 2b21 103f cdd4 163f
00000040: e672 ef3e 5990 15bd
-0.35377002 0.3725044 -0.41826627 0.124069974 0.38697514 -0.038401365 0.25998124 -0.15196984
-0.25367692 0.35140356 -0.18994091 -0.56495994 -0.24778892 -0.51990813 0.5630061 0.5891846
0.46767348 -0.036514614

tatic_net.fc3.bias f4 [6]
00000000: 4ea4 b73e ed42 e93e ab6e c03d f7dd a93e
00000010: 61f3 babd 4b67 58bd
0.35867542 0.45558873 0.09396108 0.33177158 -0.09128452 -0.052832883

tatic_net.fc4.weight f4 [3, 9]
00000000: bfc8 843e 1e80 ad3e efb4 2d3d 2bc0 663e
00000010: 1db2 ce3e 749f a93e 25dd 1dbe c5a7 a63e
00000020: 94bf 2bbe b773 c1bc 8503 3dbd 26d5 36be
00000030: 1bb0 3b3e b71d 86be 1256 4a3e 1284 4a3e
00000040: 5508 0c3e 15c6 c33e 3a50 b03d 421b 23bd
00000050: bb7f 973e f7eb 66be 8ab2 f73c 0655 db3d
00000060: b4fa a7bd 0f05 e23d eb00 903d
0.25934407 0.33886808 0.04240888 0.22534244 0.40370265 0.33129466 -0.15416391 0.32549873
-0.167723 -0.023614747 -0.046145935 -0.17854747 0.18328898 -0.26194546 0.19759396 0.19776943
0.13675053 0.38237062 0.08609052 -0.039820917 0.29589638 -0.22550951 0.030236501 0.10709576
-0.08202115 0.11036121 0.07031425

tatic_net.fc4.bias f4 [3]
00000000: 0eda 5ebe 37c2 79be 088c 66bd
-0.21762869 -0.24390493 -0.056285888

fc1.weight f4 [256, 108]
00000000: 1769 dfb9 b68e a2bc de9d a33d e8a2 9a3d
00000010: bcd9 4dbd 3e96 543d c739 b93c 28f8 15bd
00000020: 18d9 963d b088 a83c 42d4 72bd 4fe6 633d
00000030: 3591 25bd 029c b5bd 6899 b63c 0424 883d
00000040: da2d ea3c 0c2d afbd 83ea 98bc 722b fa3b
00000050: cbd8 c4bc b9da abbd 1e1a 773d 040b 8a3d
00000060: 7900 693d 9c37 a53d 07fa 66bd d4f1 d53c
00000070: 0d34 0ebd de77 743d 8043 a2bd 8d86 b43d
00000080: d125 41bb 7a41 b4bd def3 783c 501f ae3d
00000090: 8b72 7cbd 6f4e 933d 223a a9bd 91c0 ccbc
000000a0: 11ba aabd 5cef babc 7c1b adbc 1cd2 73bd
000000b0: 8c6f 843b 6395 9f3d cfd0 bdbd f036 8a3d
000000c0: cd1f 923d b9b6 893d 576f 82bb e485 44bb
000000d0: 3537 56bd 2827 173d 51e6 4a3d edcb ae3d
000000e0: 8301 a0bd f66a 493c 391f 3b3d 9fb4 5abc
000000f0: 090f 6abd 56d8 14bd 3b63 4f3d f3d2 783d
00000100: 721c 4f3d 9e21 bdbd d0cd 873d 9553 e63c
00000110: 833b dd3c fda7 433d a828 81bb 9aca 25bd
00000120: b137 c2bd 50c0 a8bd e9ba 8dbd 8399 81bd
00000130: 9f13 9fbd 4042 543b 1355 82bd f4e4 943b
00000140: 080c 893d 9e33 9e3d fa4c 74bd c833 b3bd
00000150: 1a4d 96bc a0af bdbd 2efe 1fbd 1261 9dbd
00000160: a067 ae3c e0e6 49bd 76cc 20bd 2695 9c3d
00000170: dac2 22bd 997e c23d 334d 803d 57ac d9bd
00000180: 4fc4 e6bc 41a9 00bd 7b0a 353d abb4 bebd
00000190: 294a 4bbb 27d9 753d e73e 503d 8e27 e93c
000001a0: 2bb4 abbd 8189 c8bb f73d 743d d681 5dbd
000001b0: 16a4 2dbd 3c2f 3fbd 7e94 57bd 4dd0 353e
000001c0: 7b0d 5f3d 6f61 353e 75a5 24bb 6dfd 8b3d
000001d0: f14b 92bb 436c 523e 4175 203e 979a 6e3e
000001e0: e7a9 30bd 6055 e8bc 5788 8fbd 980d b23d
000001f0: e895 4b3e fbfb af3d 8db1 2e3b 8540 7a3c
00000200: 53d2 43bd b307 7abd 45c8 48bd d1f3 413d
00000210: 658b 8ebd 9af2 7d3d d825 883d eadb 113d
00000220: 9237 96bb 9cac 3b3e 545e 8a3d 89de 83bd
00000230: 4044 533d 4373 933d 7be8 3a3b 1daa 5c3e
00000240: c93e 84bc e58b 763d b4e5 5ebd 0b9d 203e
00000250: e7f9 263e cc93 033e eebc ce3a 08af af3c
00000260: d433 9f3d 62e1 2b3e 9be8 d53d f412 a93d
00000270: bb1b b5bb a832 6bbc d521 0b3d ae02 bd3d
00000280: d6ff 3c3e 899d 213d 3d7e 70bd eccf 77bd
00000290: c403 91bc 5635 353d d35c 953d 5043 133d
000002a0: b187 313d cb60 babd 2dd7 03bc 614e 82bd
000002b0: 7e3a 16bd 20bd d73d 24b5 00bd 8075 663a
000002c0: 9d9b bf3d 8270 e8bc 6804 c4bd b2cf 283e
000002d0: 7fa2 523d dbfd 2abd ec30 55bd 4367 a93d
000002e0: 4ace 043e 44e5 7b3d 4ebf 093c 1e8f 85bc
000002f0: d239 7a3d eeb8 6b3e a244 203e f802 a53d
00000300: 2c00 23bd b329 853d f7a1 a03c f620 2e3e
00000310: 800c 3d3e 38d7 3e3e 3b6c 6ebd 2840 93bd
00000320: fd90 6a3d 0dc2 a6b8 d13a 2f3d b2a2 033e
00000330: 306f 9d3c 90aa 8cbc 4882 a33b 6c90 b13d
00000340: bd3c 87bd 8508 133e 043d 42bc 5ab4 013d
00000350: ec28 133d 019b f13c 938d 923d cf03 e33d
00000360: 752d 823d dfc0 983c c4d2 99bd c63d 13bd
00000370: 74dd 83bc bd5e 1ebd b129 8f3d e30a aabd
00000380: c1d7 bf3d 27dc 8e3d 682e 583c d5f3 913d
00000390: e342 6a3d 5969 053d e364 15bd d1a2 5c3d
000003a0: 6ba8 8d3d a74e f83c aca2 57bc 528d 99bd
000003b0: e246 75bd 9e8c 443d 1ce3 b23d 2e3a 573d
000003c0: 0b58 bd3d 4524 15bd a205 503d b836 253d
000003d0: 54ff 323c 8da3 d8bd 3a73 923d a209 51bb
000003e0: ce79 7bbd c621 5fbd 1b41 bdbd f35e a5bd
000003f0: 56ce 8b3d fbcf 8a3c c05c 923d 8884 39bd
-0.00042612173 -0.01984344 0.07989095 0.07550603 -0.050256476 0.051901095 0.022610558 -0.036613613
0.07365626 0.02057299 -0.059284456 0.05563956 -0.040421683 -0.08867647 0.022289947 0.066474944
0.028586317 -0.08553514 -0.018666511 0.0076345736 -0.024029156 -0.083913274 0.06032764 0.06740382
0.056885216 0.08067247 -0.05639079 0.02611629 -0.03471761 0.059684627 -0.07923031 0.08814726
-0.0029472003 -0.08801551 0.015194861 0.08502066 -0.061632674 0.071926944 -0.08263041 -0.024994167
-0.083362706 -0.022819214 -0.02113127 -0.059526548 0.0040416177 0.07792165 -0.09268343 0.0674876
0.07134972 0.06724305 -0.003980558 -0.0029987032 -0.052298743 0.036902577 0.049536053 0.085349895
-0.07812788 0.012293568 0.045684073 -0.0133487275 -0.057143245 -0.036339127 0.050631743 0.06074805
0.050564237 -0.092349276 0.066310525 0.028116027 0.027005916 0.047767628 -0.003941614 -0.04047642
-0.094832785 -0.08239806 -0.06920416 -0.06328108 -0.07767414 0.003238812 -0.06363883 0.004543895
0.06691748 0.07724689 -0.059643723 -0.08750111 -0.018347312 -0.092620134 -0.039060764 -0.0768453
0.021289647 -0.049292445 -0.03925749 0.07645635 -0.039736606 0.09496803 0.062647246 -0.10628574
-0.02816978 -0.031411413 0.044199448 -0.093118034 -0.0031019545 0.060021546 0.05084124 0.028461244
-0.08383974 -0.0061199074 0.059629407 -0.0540789 -0.042392813 -0.046675906 -0.052631848 0.17755242
0.054456215 0.17712949 -0.0025123034 0.068354465 -0.0044646193 0.20549111 0.15669729 0.23301159
-0.04313078 -0.028361022 -0.07008427 0.08693999 0.19881403 0.08592983 0.0026656121 0.015274172
-0.047808003 -0.0610425 -0.049019117 0.047351662 -0.06960181 0.06199894 0.06647843 0.035610117
-0.004584261 0.18327564 0.06756273 -0.064389296 0.05157876 0.07199719 0.0028519917 0.21549268
-0.01614322 0.060192008 -0.05441828 0.15684907 0.16306268 0.12849349 0.0015772858 0.021445766
0.07773557 0.16785195 0.104447566 0.08255568 -0.0055269874 -0.014355339 0.03396781 0.09229027
0.18456969 0.039456878 -0.05871414 -0.060501024 -0.01770199 0.04424032 0.072930954 0.035952866
0.043342296 -0.09100493 -0.008046907 -0.06362606 -0.036676876 0.105341196 -0.03142275 0.00087913126
0.09355853 -0.02837396 -0.09571153 0.1648548 0.0514245 -0.041746 -0.05204861 0.08271649
0.12969318 0.06149794 0.008407427 -0.016303595 0.061090298 0.23019764 0.15651181 0.08057207
-0.039795086 0.06502094 0.01960848 0.17004761 0.184618 0.18636787 -0.058208685 -0.07189971
0.057267178 -7.9516416e-05 0.0427807 0.12855032 0.019218057 -0.017171174 0.004989896 0.086701244
-0.06603382 0.14358719 -0.011855368 0.031666137 0.035927698 0.029492857 0.071559094 0.11084711
0.063563265 0.018646656 -0.075109035 -0.035947584 -0.016096808 -0.03866457 0.06990374 -0.08302858
0.09367324 0.069755845 0.013194658 0.071265854 0.057192694 0.03257117 -0.036473166 0.05386621
0.06916889 0.030310942 -0.013161343 -0.07497658 -0.059882052 0.047985666 0.08734724 0.05254572
0.092453085 -0.036411542 0.050786622 0.040335387 0.010925133 -0.1057807 0.07150884 -0.003189661
-0.06139546 -0.05447557 -0.092409335 -0.08074751 0.06826465 0.016944876 0.07146597 -0.045292407

fc1.bias f4 [256]
00000000: 2162 dbbd 8260 253e 30d0 dcbb f1ff 76bd
00000010: 1104 143f 2c9c 193e 2694 38bd 42c3 1b3e
00000020: 35a0 13bd 1341 603f d39d 6e3f 1860 823f
00000030: d4bc 7abc 887c 5f3e 14fb 663f 0168 8b3f
00000040: 89b2 6b3f 314c 623e ed90 8e3f a2ee d0bb
00000050: fe36 7b3f 383e 72bd d7bb 793f 4f66 633f
00000060: 6a85 d63e 9bc2 843f b93b 683f 876b 46bc
00000070: 7d3c 3b3f bf41 6d3f a533 d8b9 417e 8d3f
00000080: c235 11bc 6e13 7d3f 79c8 adbd f523 093e
00000090: 8f71 7a3f afec ae3d 2714 54bc b92e 653f
000000a0: 6c60 b53d 04b5 6f3f e83d bdbd 7c1f 6c3f
000000b0: 8c48 533f 4285 773f df42 ff3e 5a8f 8a3f
000000c0: 7543 f0bd 2b67 603f fea4 90bd 8cdd 86b9
000000d0: 4b2b 6b3f c1b1 d53d a3e1 7a3f 0da2 6d3f
000000e0: fc45 273f 42a3 813f 8db7 7f3f d1bb 51bb
000000f0: 77ca 813f 6307 7f3f b169 8c3f 72b9 6e3f
00000100: 0c50 bf3c 4c99 7f3f fdc4 8fbc 0ade 7c3f
00000110: be3b 7a3f 3a49 6abd 4a7f c8bd ea62 8b3d
00000120: 99b9 7c3f 6727 753f ed29 6cbc 1569 7f3f
00000130: ec86 763f cc20 5b3f 9b9c 353b d6f0 7d3f
00000140: b220 7f3f 81d3 b3bd f228 8a3f 3488 643f
00000150: e156 6f3f 37be 843f 58fc 733f 0df2 4c3f
00000160: b1f9 7a3f cecc 813f 03d9 413d 7714 563f
00000170: 50ee 5dbd 713e 763f dbe8 713f f455 29ba
00000180: 03ba 733f 5783 7d3f 0c21 653f a332 bbbd
00000190: 8e60 8c3f ef8d 41bb 3c86 813f 3ad6 ccba
000001a0: 50df 80bd c7a9 1bba 9844 02ba a7c2 9dba
000001b0: c176 7e3f e1b1 8d3e 0c48 ffbc 1b1c 07bd
000001c0: 4658 7c3f c300 833f 8518 803f 9bcd 543f
000001d0: 02d7 aebd 2c96 693f 6828 833f 7503 653f
000001e0: 63aa 843f db4b 6bbd 3cab 8c3f 1f3d 6b3f
000001f0: 1bf9 7a3f c552 e6bc b3b6 863f a977 6d3f
00000200: 8efd 873f 0a52 c6bd dd95 6d3f 575e 823f
00000210: 1abe 803f 078d 1abc 61c0 97bd a2b0 da3c
00000220: 5d1e b5bd bb5a 8e3f da16 833f e2e0 c2bd
00000230: 6561 5a3f 048c d0bd 3ce5 743f 7c78 a83d
00000240: b6ae 783f ea92 cd3e 2e1d 293d ee16 293f
00000250: b70d 373d f5f3 723f 9e6d 22bc b921 7b3f
00000260: 6cbf 893f 41eb bbbd 0062 4f3f 1a03 7f3f
00000270: 84db 753f 0151 7f3f 7ce5 cdbc 6e75 c23d
00000280: 444e 713f 27eb 153f b634 6e3f 2ace b33d
00000290: f170 823f f538 e6b9 ab91 303e 58b6 eb3d
000002a0: 9436 753f f441 8b3f 3592 823f b6e3 6a3f
000002b0: 0651 8b3f 993a 813f b935 7e3f 623d 653f
000002c0: 1d64 5fbd dafe c0bd 2672 fa3d 44f2 8ebd
000002d0: 9603 713f 41a8 753f 2c7a 98bb 4307 bdbd
000002e0: 9725 6f3f 2c4b 80bd 4b60 6a3f a367 863f
000002f0: 164e 793f cd8f bfbd c296 1e3d eb7f 8fbd
00000300: d07e a0bd 9b41 6d3f e56c b6bd d2ac 293f
00000310: 5e75 823f e88c f03c 4e83 803f 705a 663f
00000320: 9c2f acbc d1e4 773f eb07 823f 0693 b7bd
00000330: 6f4e a8bd c96a 673d 7e77 6d3f 33dc 603f
00000340: 7f26 703f 0ab2 763f 0957 88b9 fbe2 fe3c
00000350: 2d77 5b3f 4839 683f cc97 8c3f 48e8 823f
00000360: 3a6f 6a3f f103 db3b dfd8 733f c3a6 783f
00000370: 28a2 673f bdef 733f 1771 9abd c16b 5d3f
00000380: 7a0d 733f 175f 603f 34a1 863f a0f0 1abc
00000390: 5629 433f 558e 343e d9f9 893f 4f7b a5bc
000003a0: d7b8 7bbd 4538 073e 6d4a 853f c86c 3a3f
000003b0: 314e 5fbd 2ee6 65bd 2b86 23b9 5789 6e3f
000003c0: 63d8 763f 4a78 b93e bb21 6d3f b32c 313e
000003d0: 80eb 773f bce2 8d3f ba7d 833f de01 883f
000003e0: 66f8 7b3f 7dc5 773f e7ea 043f cc44 aebd
000003f0: 6527 c6bc 554f 7d3e 7753 a33d e77b 803f
-0.10712076 0.16150096 -0.006738685 -0.06030268 0.57818705 0.15000981 -0.04506316 0.15211204
-0.036041457 0.87599295 0.9320957 1.0185575 -0.015303809 0.21824849 0.90226865 1.0891114
0.920693 0.22099377 1.1137978 -0.0063761035 0.98130786 -0.059141368 0.97552246 0.88827986
0.41898662 1.0371889 0.9071613 -0.012110597 0.7313917 0.92678446 -0.0004123721 1.1054155
-0.0088629145 0.9885777 -0.08485503 0.13392623 0.97829527 0.085412376 -0.012944258 0.8952442
0.08856282 0.9363558 -0.09240323 0.9223554 0.8253257 0.9668771 0.49855706 1.0824997
-0.117316164 0.8765742 -0.0706272 -0.00025723537 0.91862935 0.104342945 0.98000544 0.92825395
0.6534116 1.0127947 0.9988945 -0.0032002816 1.0139912 0.99620646 1.0969754 0.9325172
0.023353599 0.9984329 -0.017549986 0.98776305 0.9774741 -0.05719874 -0.097899035 0.06805976
0.987207 0.9576325 -0.014414293 0.9976972 0.96299624 0.8559692 0.0027711752 0.9919561
0.99659264 -0.087805755 1.0793746 0.8927033 0.9349194 1.0370549 0.9530692 0.8005684
0.9803725 1.0140626 0.0473261 0.83624977 -0.05418235 0.9618903 0.94495934 -0.00064596464
0.95205706 0.99028534 0.8950355 -0.091405176 1.0966966 -0.0029534062 1.011909 -0.0015627809
-0.062925935 -0.00059380796 -0.0004969328 -0.001203616 0.99399954 0.27674773 -0.031162284 -0.032985788
0.98572195 1.0234607 1.0007483 0.8312623 -0.08537103 0.9124477 1.0246706 0.894584
1.0364498 -0.05744539 1.0989757 0.9189014 0.98036355 -0.02811564 1.0524505 0.9276071
1.0624254 -0.096836165 0.928068 1.018504 1.0058014 -0.009433038 -0.0740974 0.026695553
-0.08843682 1.1121439 1.0241349 -0.09515549 0.8530486 -0.10182956 0.95662284 0.082261056
0.9714159 0.4015115 0.041287594 0.6605061 0.044690814 0.949035 -0.00991383 0.9809833
1.0761542 -0.091757305 0.8100891 0.9961411 0.9603808 0.9973298 -0.02513384 0.09495054
0.9426005 0.5856194 0.9304918 0.08779557 1.0190717 -0.00043911455 0.17243068 0.11509389
0.95786405 1.0879502 1.0200869 0.9175371 1.0884101 1.0096008 0.99300724 0.8954679
-0.054538835 -0.09423609 0.12228803 -0.06979802 0.94146097 0.9595986 -0.004653236 -0.09229901
0.9341673 -0.06264338 0.9155318 1.0500377 0.97384775 -0.093536 0.038717993 -0.0700682
-0.078366876 0.9267823 -0.08907489 0.6627933 1.0192068 0.029364064 1.0040071 0.89981747
-0.021018796 0.9683352 1.0158666 -0.08963589 -0.08218085 0.056498323 0.92760456 0.87836
0.9380874 0.96365416 -0.00026004788 0.031114092 0.8572872 0.90712404 1.0983825 1.0227137
0.9157597 0.0066838195 0.95252794 0.9712946 0.90481806 0.95287687 -0.075411014 0.86492544
0.9494244 0.87645096 1.0517945 -0.0094567835 0.7623495 0.1763242 1.0779372 -0.0202004
-0.061455574 0.13205059 1.0413338 0.72822237 -0.05451793 -0.05612772 -0.00015594873 0.93178314
0.9642393 0.36224586 0.92629594 0.17302208 0.9684372 1.1084819 1.0272744 1.062557
0.984259 0.9678572 0.5192093 -0.08509216 -0.024188707 0.24737294 0.07974904 1.0037812

fc2.weight f4 [1, 256]
00000000: 1c13 6fbb 34b9 5dbe 40ba 47bd 2eea 96bc
00000010: c766 473f 88f6 eebd d510 303a 8b11 2abe
00000020: 7baf 30bd 8037 883f 01dd 853f 9b85 7a3f
00000030: 9e91 3cbd 5fcd 62be 43d4 853f 50ff 7b3f
00000040: c98e 8a3f 5660 2abe 30a2 7d3f c374 03bd
00000050: 5415 8a3f de54 29bd 6f78 7b3f 53c6 8b3f
00000060: d220 cb3e 2fb9 8b3f 55f2 8a3f 90cd a9bb
00000070: bbd9 3a3f 8855 803f 7bf0 34bc aea6 7f3f
00000080: 9054 10bd 7a6a 893f 2e7b 5abd 5119 11be
00000090: b50d 8b3f d5c1 0ebe fd8a 3fbd d1c9 873f
000000a0: 05d4 dbbd 2be9 823f 8f2f 46bb 64f2 743f
000000b0: a75b 873f 10b9 833f 1e7c 1e3f 805d 7d3f
000000c0: 1cc8 3dbd 5a33 833f 01ff 0bbd 10c0 d03b
000000d0: 587f 803f 8f6d 80be 687b 8c3f b5fa 833f
000000e0: 7dde 2e3f 0a3a 883f 193d 803f 9cea 1fbd
000000f0: a808 873f 6cce 803f cdc9 833f a527 813f
00000100: 9605 eebb a4c7 853f 4dc6 93bc 74f8 853f
00000110: ecbe 813f 807d 63bd 5b48 06bd 2fca c4bc
00000120: ad38 873f ae34 8e3f 5f67 41bd 032a 883f
00000130: 892a 883f b304 873f 9d97 433d e4a7 893f
00000140: d333 863f de21 183d a034 803f d4ef 813f
00000150: 26f8 6a3f adee 813f 4290 853f 6bb0 4d3f
00000160: 0a16 883f d015 8c3f 9388 b7bc 599b 853f
00000170: 2cc6 0ebd 54a8 8a3f bb4d 853f c3c8 3fbd
00000180: 8290 7f3f fd20 8b3f 5059 873f 47ef a1bc
00000190: 9353 863f a0b9 343d 9171 873f b73a 4fbd
000001a0: d430 52bd a9cc 5cbb f7fb 37bd 5c48 eabc
000001b0: 4c0e 873f 1bae 8a3e bc35 5abc c094 eb3a
000001c0: 0d23 843f 897b 803f b845 823f b29b 893f
000001d0: 480d 8bbc 62aa 833f c6da 813f b115 833f
000001e0: c537 893f a0f7 483d 12b2 843f 3286 843f
000001f0: 2f00 823f 08fd 7abc 7547 883f 8d6c 833f
00000200: b4d6 7b3f 1610 3bbd e654 8e3f f502 813f
00000210: c292 893f 9a95 aebc 5a36 473d 8a7a de3c
00000220: e1f3 40bd 972d 7c3f e33f 8d3f 5ae7 63bd
00000230: 5f17 893f 18dc 46bd aa90 7e3f 3baa 67bd
00000240: 4530 853f bf36 ed3e 501c 0dbd 123e 3b3f
00000250: 9f7b 31bd a9c2 883f 104e b0bc 9c32 833f
00000260: 7417 803f 9e80 2d3d 82de 473f 211a 873f
00000270: 8cbd 8a3f 6d0c 813f b9f0 c2bc 1ea9 45be
00000280: a967 863f 9cea 173f 4449 7f3f 77bc 88bd
00000290: 5595 803f 7f29 0cbc 5701 4dbe 12a1 03be
000002a0: f7c1 803f e1c8 813f 46dc 803f c65a 833f
000002b0: 4d54 7f3f 4afa 7c3f f650 843f 8a76 873f
000002c0: 0dbf 31bc d8b9 1ebd f552 48be d491 0f3d
000002d0: 9cf4 853f 7aa4 8c3f 492f 17bd fc14 1cbd
000002e0: 7b7a 833f f461 b43c 59a3 8c3f 56a5 833f
000002f0: 7eb7 793f b048 f83b 4b22 fcbd 4d7a 6fbc
00000300: e4b7 3dbc 964a 893f 9894 5bbd f05f 383f
00000310: 42db 893f 6ff1 8abc f41c 853f fa3d 813f
00000320: ac63 00bd 1f20 893f 84a7 873f 35e1 89ba
00000330: 235e 18bd 42a6 a8bc 063d 6e3f f3f1 8a3f
00000340: 274e 823f bfb0 7f3f 71aa a9bc 20be e3bc
00000350: 91f3 833f 3759 863f 98f9 803f 9409 843f
00000360: 486c 6e3f d3fb d0bd 1923 843f f1cc 7e3f
00000370: 03fc 883f bc8a 803f 87f7 f5bc e6c9 843f
00000380: eea1 863f 4ddd 833f 097c 853f ab65 bbbc
00000390: 5557 3c3f a5bc 8bbe 8a1d 853f a3db 3fbd
000003a0: 8643 303d 321b 0bbe e945 823f cd94 613f
000003b0: 067f 1fbd c969 96bc 12a6 04bd a319 873f
000003c0: 08dc 863f f67d b13e eaf2 873f 7176 03be
000003d0: 0ea4 873f 0dc6 7b3f 0122 7b3f 1dfa 863f
000003e0: 20c0 8a3f 204c 873f f227 023f 31a2 8cbc
000003f0: 5ef1 0dbd 2b40 7cbe 7d4b 62bd 2bc6 893f
-0.0036479896 -0.2165268 -0.048761606 -0.018422212 0.778912 -0.11668116 0.00067163754 -0.16608255
-0.0431361 1.0641937 1.045807 0.97860116 -0.04603731 -0.22148655 1.0455402 0.9843645
1.0824825 -0.16638312 0.99075603 -0.032093775 1.0787759 -0.0413407 0.9823064 1.0919899
0.39673477 1.0915889 1.0855204 -0.0051819757 0.7298848 1.0026102 -0.011043663 0.9986371
-0.035236895 1.0735619 -0.05334013 -0.14169814 1.0863558 -0.13941129 -0.04676341 1.0608464
-0.10733799 1.0227407 -0.003024075 0.9568236 1.0574845 1.0290852 0.6190814 0.98970795
-0.046333417 1.0250046 -0.034178738 0.006370552 1.0038862 -0.25083587 1.0975161 1.0310885
0.6830824 1.0642712 1.0018646 -0.0390421 1.0549517 1.0062995 1.029596 1.0090224
-0.0072638495 1.045155 -0.018038893 1.0466447 1.013639 -0.055539608 -0.032783847 -0.02402219
1.0564171 1.1109827 -0.047217723 1.0637821 1.0637981 1.0548309 0.04775201 1.0754361
1.0484565 0.037141673 1.001606 1.0151315 0.91784894 1.0150963 1.0434649 0.8034732
1.0631726 1.0944157 -0.02240399 1.0438033 -0.03485696 1.083262 1.0414346 -0.04682232
0.99829876 1.0869442 1.0574131 -0.019767417 1.0494255 0.04412234 1.0581533 -0.050593104
-0.051316097 -0.0033691323 -0.044918027 -0.028598957 1.0551238 0.27085957 -0.013318475 0.0017973408
1.0323197 1.00377 1.0177526 1.075064 -0.016974106 1.0286372 1.0144889 1.0240995
1.0720145 0.04906428 1.0366843 1.0353453 1.0156306 -0.015319116 1.0646807 1.0267502
0.98374486 -0.045669638 1.1119659 1.0079027 1.0747912 -0.02131157 0.048635818 0.02715804
-0.04710758 0.98507065 1.1035122 -0.055640556 1.0710257 -0.04854974 0.9943949 -0.05655883
1.0405356 0.4633083 -0.03445083 0.73141587 -0.043330785 1.0684406 -0.021521598 1.024982
1.0007157 0.042358987 0.78073895 1.0554849 1.0839095 1.0081917 -0.023796426 -0.19302794
1.0500385 0.5934236 0.9972117 -0.06676572 1.0045573 -0.008554815 -0.20020042 -0.12854412
1.0059193 1.0139428 1.0067222 1.0262077 0.9973801 0.9881941 1.0337207 1.058305
-0.010848773 -0.038751453 -0.19562896 0.035051182 1.0465274 1.0987694 -0.03691033 -0.03810595
1.0271753 0.022019364 1.098735 1.0284832 0.9754561 0.0075770244 -0.12311228 -0.014616561
-0.0115794875 1.0725887 -0.053608507 0.7202139 1.0770037 -0.016960828 1.0399461 1.0097039
-0.031345055 1.0712928 1.0597997 -0.0010519387 -0.03719915 -0.02058709 0.93061864 1.0855087
1.01801 0.9987907 -0.020711156 -0.02780062 1.0308706 1.0495976 1.007617 1.0315423
0.93133974 -0.10204282 1.0323211 0.99531466 1.0701908 1.0042338 -0.030025257 1.0374115
1.0518167 1.0301911 1.0428478 -0.022875628 0.7357076 -0.27292362 1.039964 -0.04684032
0.043033145 -0.13584593 1.0177585 0.88117677 -0.0389395 -0.01836099 -0.03238494 1.0554699
1.0535898 0.34666413 1.0621006 -0.1283815 1.059694 0.98349077 0.9809876 1.0545079
1.0839882 1.0570107 0.508422 -0.017167183 -0.034654014 -0.24633853 -0.055247772 1.0763601
